…
I0314 23:41:44.766803  1616 net.cpp:296] The NetState phase (0) differed from the phase (1) specified by a rule in layer accuracy
I0314 23:41:44.767232  1616 net.cpp:53] Initializing net from parameters: 
name: "CaffeNet"
state {
  phase: TRAIN
  level: 0
  stage: ""
}
layer {
  name: "data"
  type: "Data"
  top: "data"
  top: "label"
  include {
    phase: TRAIN
  }
  transform_param {
    mirror: true
    crop_size: 227
    mean_file: "data/ilsvrc12/imagenet_mean.binaryproto"
  }
  data_param {
    source: "examples/imagenet/ilsvrc12_train_lmdb"
    batch_size: 256
    backend: LMDB
  }
}
layer {
  name: "conv1"
  type: "Convolution"
  bottom: "data"
  top: "conv1"
  param {
    lr_mult: 1
    decay_mult: 1
  }
  param {
    lr_mult: 2
    decay_mult: 0
  }
  convolution_param {
    num_output: 96
    kernel_size: 11
    stride: 4
    weight_filler {
      type: "gaussian"
      std: 0.01
    }
    bias_filler {
      type: "constant"
      value: 0
    }
  }
}
layer {
  name: "relu1"
  type: "ReLU"
  bottom: "conv1"
  top: "conv1"
}
layer {
  name: "pool1"
  type: "Pooling"
  bottom: "conv1"
  top: "pool1"
  pooling_param {
    pool: MAX
    kernel_size: 3
    stride: 2
  }
}
layer {
  name: "norm1"
  type: "LRN"
  bottom: "pool1"
  top: "norm1"
  lrn_param {
    local_size: 5
    alpha: 0.0001
    beta: 0.75
  }
}
layer {
  name: "conv2"
  type: "Convolution"
  bottom: "norm1"
  top: "conv2"
  param {
    lr_mult: 1
    decay_mult: 1
  }
  param {
    lr_mult: 2
    decay_mult: 0
  }
  convolution_param {
    num_output: 256
    pad: 2
    kernel_size: 5
    group: 2
    weight_filler {
      type: "gaussian"
      std: 0.01
    }
    bias_filler {
      type: "constant"
      value: 1
    }
  }
}
layer {
  name: "relu2"
  type: "ReLU"
  bottom: "conv2"
  top: "conv2"
}
layer {
  name: "pool2"
  type: "Pooling"
  bottom: "conv2"
  top: "pool2"
  pooling_param {
    pool: MAX
    kernel_size: 3
    stride: 2
  }
}
layer {
  name: "norm2"
  type: "LRN"
  bottom: "pool2"
  top: "norm2"
  lrn_param {
    local_size: 5
    alpha: 0.0001
    beta: 0.75
  }
}
layer {
  name: "conv3"
  type: "Convolution"
  bottom: "norm2"
  top: "conv3"
  param {
    lr_mult: 1
    decay_mult: 1
  }
  param {
    lr_mult: 2
    decay_mult: 0
  }
  convolution_param {
    num_output: 384
    pad: 1
    kernel_size: 3
    weight_filler {
      type: "gaussian"
      std: 0.01
    }
    bias_filler {
      type: "constant"
      value: 0
    }
  }
}
layer {
  name: "relu3"
  type: "ReLU"
  bottom: "conv3"
  top: "conv3"
}
layer {
  name: "conv4"
  type: "Convolution"
  bottom: "conv3"
  top: "conv4"
  param {
    lr_mult: 1
    decay_mult: 1
  }
  param {
    lr_mult: 2
    decay_mult: 0
  }
  convolution_param {
    num_output: 384
    pad: 1
    kernel_size: 3
    group: 2
    weight_filler {
      type: "gaussian"
      std: 0.01
    }
    bias_filler {
      type: "constant"
      value: 1
    }
  }
}
layer {
  name: "relu4"
  type: "ReLU"
  bottom: "conv4"
  top: "conv4"
}
layer {
  name: "conv5"
  type: "Convolution"
  bottom: "conv4"
  top: "conv5"
  param {
    lr_mult: 1
    decay_mult: 1
  }
  param {
    lr_mult: 2
    decay_mult: 0
  }
  convolution_param {
    num_output: 256
    pad: 1
    kernel_size: 3
    group: 2
    weight_filler {
      type: "gaussian"
      std: 0.01
    }
    bias_filler {
      type: "constant"
      value: 1
    }
  }
}
layer {
  name: "relu5"
  type: "ReLU"
  bottom: "conv5"
  top: "conv5"
}
layer {
  name: "pool5"
  type: "Pooling"
  bottom: "conv5"
  top: "pool5"
  pooling_param {
    pool: MAX
    kernel_size: 3
    stride: 2
  }
}
layer {
  name: "fc6"
  type: "InnerProduct"
  bottom: "pool5"
  top: "fc6"
  param {
    lr_mult: 1
    decay_mult: 1
  }
  param {
    lr_mult: 2
    decay_mult: 0
  }
  inner_product_param {
    num_output: 4096
    weight_filler {
      type: "gaussian"
      std: 0.005
    }
    bias_filler {
      type: "constant"
      value: 1
    }
  }
}
layer {
  name: "relu6"
  type: "ReLU"
  bottom: "fc6"
  top: "fc6"
}
layer {
  name: "drop6"
  type: "Dropout"
  bottom: "fc6"
  top: "fc6"
  dropout_param {
    dropout_ratio: 0.5
  }
}
layer {
  name: "fc7"
  type: "InnerProduct"
  bottom: "fc6"
  top: "fc7"
  param {
    lr_mult: 1
    decay_mult: 1
  }
  param {
    lr_mult: 2
    decay_mult: 0
  }
  inner_product_param {
    num_output: 4096
    weight_filler {
      type: "gaussian"
      std: 0.005
    }
    bias_filler {
      type: "constant"
      value: 1
    }
  }
}
layer {
  name: "relu7"
  type: "ReLU"
  bottom: "fc7"
  top: "fc7"
}
layer {
  name: "drop7"
  type: "Dropout"
  bottom: "fc7"
  top: "fc7"
  dropout_param {
    dropout_ratio: 0.5
  }
}
layer {
  name: "fc8"
  type: "InnerProduct"
  bottom: "fc7"
  top: "fc8"
  param {
    lr_mult: 1
    decay_mult: 1
  }
  param {
    lr_mult: 2
    decay_mult: 0
  }
  inner_product_param {
    num_output: 1000
    weight_filler {
      type: "gaussian"
      std: 0.01
    }
    bias_filler {
      type: "constant"
      value: 0
    }
  }
}
layer {
  name: "loss"
  type: "SoftmaxWithLoss"
  bottom: "fc8"
  bottom: "label"
  top: "loss"
}
I0314 23:41:44.767454  1616 layer_factory.hpp:77] Creating layer data
I0314 23:41:44.767670  1616 db_lmdb.cpp:35] Opened lmdb examples/imagenet/ilsvrc12_train_lmdb
I0314 23:41:44.794862  1616 net.cpp:86] Creating Layer data
I0314 23:41:44.794914  1616 net.cpp:382] data -> data
I0314 23:41:44.794971  1616 net.cpp:382] data -> label
I0314 23:41:44.795007  1616 data_transformer.cpp:25] Loading mean file from: data/ilsvrc12/imagenet_mean.binaryproto
I0314 23:41:44.856019  1616 data_layer.cpp:45] output data size: 256,3,227,227
I0314 23:41:45.488045  1616 net.cpp:124] Setting up data
I0314 23:41:45.488095  1616 net.cpp:131] Top shape: 256 3 227 227 (39574272)
I0314 23:41:45.488104  1616 net.cpp:131] Top shape: 256 (256)
I0314 23:41:45.488111  1616 net.cpp:139] Memory required for data: 158298112
I0314 23:41:45.488126  1616 layer_factory.hpp:77] Creating layer conv1
I0314 23:41:45.488157  1616 net.cpp:86] Creating Layer conv1
I0314 23:41:45.488168  1616 net.cpp:408] conv1 <- data
I0314 23:41:45.488188  1616 net.cpp:382] conv1 -> conv1
I0314 23:41:46.384858  1616 net.cpp:124] Setting up conv1
I0314 23:41:46.384917  1616 net.cpp:131] Top shape: 256 96 55 55 (74342400)
I0314 23:41:46.384925  1616 net.cpp:139] Memory required for data: 455667712
I0314 23:41:46.384963  1616 layer_factory.hpp:77] Creating layer relu1
I0314 23:41:46.384985  1616 net.cpp:86] Creating Layer relu1
I0314 23:41:46.384994  1616 net.cpp:408] relu1 <- conv1
I0314 23:41:46.385007  1616 net.cpp:369] relu1 -> conv1 (in-place)
I0314 23:41:46.385483  1616 net.cpp:124] Setting up relu1
I0314 23:41:46.385504  1616 net.cpp:131] Top shape: 256 96 55 55 (74342400)
I0314 23:41:46.385511  1616 net.cpp:139] Memory required for data: 753037312
I0314 23:41:46.385519  1616 layer_factory.hpp:77] Creating layer pool1
I0314 23:41:46.385532  1616 net.cpp:86] Creating Layer pool1
I0314 23:41:46.385540  1616 net.cpp:408] pool1 <- conv1
I0314 23:41:46.385550  1616 net.cpp:382] pool1 -> pool1
I0314 23:41:46.385627  1616 net.cpp:124] Setting up pool1
I0314 23:41:46.385642  1616 net.cpp:131] Top shape: 256 96 27 27 (17915904)
I0314 23:41:46.385648  1616 net.cpp:139] Memory required for data: 824700928
I0314 23:41:46.385655  1616 layer_factory.hpp:77] Creating layer norm1
I0314 23:41:46.385676  1616 net.cpp:86] Creating Layer norm1
I0314 23:41:46.385695  1616 net.cpp:408] norm1 <- pool1
I0314 23:41:46.385727  1616 net.cpp:382] norm1 -> norm1
I0314 23:41:46.386034  1616 net.cpp:124] Setting up norm1
I0314 23:41:46.386054  1616 net.cpp:131] Top shape: 256 96 27 27 (17915904)
I0314 23:41:46.386062  1616 net.cpp:139] Memory required for data: 896364544
I0314 23:41:46.386070  1616 layer_factory.hpp:77] Creating layer conv2
I0314 23:41:46.386092  1616 net.cpp:86] Creating Layer conv2
I0314 23:41:46.386101  1616 net.cpp:408] conv2 <- norm1
I0314 23:41:46.386112  1616 net.cpp:382] conv2 -> conv2
I0314 23:41:46.395450  1616 net.cpp:124] Setting up conv2
I0314 23:41:46.395473  1616 net.cpp:131] Top shape: 256 256 27 27 (47775744)
I0314 23:41:46.395481  1616 net.cpp:139] Memory required for data: 1087467520
I0314 23:41:46.395496  1616 layer_factory.hpp:77] Creating layer relu2
I0314 23:41:46.395508  1616 net.cpp:86] Creating Layer relu2
I0314 23:41:46.395515  1616 net.cpp:408] relu2 <- conv2
I0314 23:41:46.395527  1616 net.cpp:369] relu2 -> conv2 (in-place)
I0314 23:41:46.395774  1616 net.cpp:124] Setting up relu2
I0314 23:41:46.395790  1616 net.cpp:131] Top shape: 256 256 27 27 (47775744)
I0314 23:41:46.395797  1616 net.cpp:139] Memory required for data: 1278570496
I0314 23:41:46.395804  1616 layer_factory.hpp:77] Creating layer pool2
I0314 23:41:46.395822  1616 net.cpp:86] Creating Layer pool2
I0314 23:41:46.395829  1616 net.cpp:408] pool2 <- conv2
I0314 23:41:46.395839  1616 net.cpp:382] pool2 -> pool2
I0314 23:41:46.395901  1616 net.cpp:124] Setting up pool2
I0314 23:41:46.395915  1616 net.cpp:131] Top shape: 256 256 13 13 (11075584)
I0314 23:41:46.395921  1616 net.cpp:139] Memory required for data: 1322872832
I0314 23:41:46.395928  1616 layer_factory.hpp:77] Creating layer norm2
I0314 23:41:46.395943  1616 net.cpp:86] Creating Layer norm2
I0314 23:41:46.395951  1616 net.cpp:408] norm2 <- pool2
I0314 23:41:46.395961  1616 net.cpp:382] norm2 -> norm2
I0314 23:41:46.396431  1616 net.cpp:124] Setting up norm2
I0314 23:41:46.396450  1616 net.cpp:131] Top shape: 256 256 13 13 (11075584)
I0314 23:41:46.396456  1616 net.cpp:139] Memory required for data: 1367175168
I0314 23:41:46.396462  1616 layer_factory.hpp:77] Creating layer conv3
I0314 23:41:46.396481  1616 net.cpp:86] Creating Layer conv3
I0314 23:41:46.396488  1616 net.cpp:408] conv3 <- norm2
I0314 23:41:46.396503  1616 net.cpp:382] conv3 -> conv3
I0314 23:41:46.413902  1616 net.cpp:124] Setting up conv3
I0314 23:41:46.413950  1616 net.cpp:131] Top shape: 256 384 13 13 (16613376)
I0314 23:41:46.413957  1616 net.cpp:139] Memory required for data: 1433628672
I0314 23:41:46.413980  1616 layer_factory.hpp:77] Creating layer relu3
I0314 23:41:46.413996  1616 net.cpp:86] Creating Layer relu3
I0314 23:41:46.414005  1616 net.cpp:408] relu3 <- conv3
I0314 23:41:46.414016  1616 net.cpp:369] relu3 -> conv3 (in-place)
I0314 23:41:46.414249  1616 net.cpp:124] Setting up relu3
I0314 23:41:46.414265  1616 net.cpp:131] Top shape: 256 384 13 13 (16613376)
I0314 23:41:46.414271  1616 net.cpp:139] Memory required for data: 1500082176
I0314 23:41:46.414278  1616 layer_factory.hpp:77] Creating layer conv4
I0314 23:41:46.414299  1616 net.cpp:86] Creating Layer conv4
I0314 23:41:46.414307  1616 net.cpp:408] conv4 <- conv3
I0314 23:41:46.414319  1616 net.cpp:382] conv4 -> conv4
I0314 23:41:46.428761  1616 net.cpp:124] Setting up conv4
I0314 23:41:46.428808  1616 net.cpp:131] Top shape: 256 384 13 13 (16613376)
I0314 23:41:46.428817  1616 net.cpp:139] Memory required for data: 1566535680
I0314 23:41:46.428831  1616 layer_factory.hpp:77] Creating layer relu4
I0314 23:41:46.428844  1616 net.cpp:86] Creating Layer relu4
I0314 23:41:46.428853  1616 net.cpp:408] relu4 <- conv4
I0314 23:41:46.428866  1616 net.cpp:369] relu4 -> conv4 (in-place)
I0314 23:41:46.429097  1616 net.cpp:124] Setting up relu4
I0314 23:41:46.429112  1616 net.cpp:131] Top shape: 256 384 13 13 (16613376)
I0314 23:41:46.429118  1616 net.cpp:139] Memory required for data: 1632989184
I0314 23:41:46.429126  1616 layer_factory.hpp:77] Creating layer conv5
I0314 23:41:46.429144  1616 net.cpp:86] Creating Layer conv5
I0314 23:41:46.429193  1616 net.cpp:408] conv5 <- conv4
I0314 23:41:46.429210  1616 net.cpp:382] conv5 -> conv5
I0314 23:41:46.439867  1616 net.cpp:124] Setting up conv5
I0314 23:41:46.439908  1616 net.cpp:131] Top shape: 256 256 13 13 (11075584)
I0314 23:41:46.439914  1616 net.cpp:139] Memory required for data: 1677291520
I0314 23:41:46.439937  1616 layer_factory.hpp:77] Creating layer relu5
I0314 23:41:46.439951  1616 net.cpp:86] Creating Layer relu5
I0314 23:41:46.439960  1616 net.cpp:408] relu5 <- conv5
I0314 23:41:46.439971  1616 net.cpp:369] relu5 -> conv5 (in-place)
I0314 23:41:46.440203  1616 net.cpp:124] Setting up relu5
I0314 23:41:46.440222  1616 net.cpp:131] Top shape: 256 256 13 13 (11075584)
I0314 23:41:46.440228  1616 net.cpp:139] Memory required for data: 1721593856
I0314 23:41:46.440234  1616 layer_factory.hpp:77] Creating layer pool5
I0314 23:41:46.440246  1616 net.cpp:86] Creating Layer pool5
I0314 23:41:46.440253  1616 net.cpp:408] pool5 <- conv5
I0314 23:41:46.440261  1616 net.cpp:382] pool5 -> pool5
I0314 23:41:46.440325  1616 net.cpp:124] Setting up pool5
I0314 23:41:46.440336  1616 net.cpp:131] Top shape: 256 256 6 6 (2359296)
I0314 23:41:46.440342  1616 net.cpp:139] Memory required for data: 1731031040
I0314 23:41:46.440348  1616 layer_factory.hpp:77] Creating layer fc6
I0314 23:41:46.440366  1616 net.cpp:86] Creating Layer fc6
I0314 23:41:46.440373  1616 net.cpp:408] fc6 <- pool5
I0314 23:41:46.440382  1616 net.cpp:382] fc6 -> fc6
I0314 23:41:47.225890  1616 net.cpp:124] Setting up fc6
I0314 23:41:47.225944  1616 net.cpp:131] Top shape: 256 4096 (1048576)
I0314 23:41:47.225951  1616 net.cpp:139] Memory required for data: 1735225344
I0314 23:41:47.225968  1616 layer_factory.hpp:77] Creating layer relu6
I0314 23:41:47.225986  1616 net.cpp:86] Creating Layer relu6
I0314 23:41:47.225993  1616 net.cpp:408] relu6 <- fc6
I0314 23:41:47.226006  1616 net.cpp:369] relu6 -> fc6 (in-place)
I0314 23:41:47.226591  1616 net.cpp:124] Setting up relu6
I0314 23:41:47.226609  1616 net.cpp:131] Top shape: 256 4096 (1048576)
I0314 23:41:47.226615  1616 net.cpp:139] Memory required for data: 1739419648
I0314 23:41:47.226622  1616 layer_factory.hpp:77] Creating layer drop6
I0314 23:41:47.226636  1616 net.cpp:86] Creating Layer drop6
I0314 23:41:47.226642  1616 net.cpp:408] drop6 <- fc6
I0314 23:41:47.226651  1616 net.cpp:369] drop6 -> fc6 (in-place)
I0314 23:41:47.226689  1616 net.cpp:124] Setting up drop6
I0314 23:41:47.226701  1616 net.cpp:131] Top shape: 256 4096 (1048576)
I0314 23:41:47.226706  1616 net.cpp:139] Memory required for data: 1743613952
I0314 23:41:47.226712  1616 layer_factory.hpp:77] Creating layer fc7
I0314 23:41:47.226727  1616 net.cpp:86] Creating Layer fc7
I0314 23:41:47.226734  1616 net.cpp:408] fc7 <- fc6
I0314 23:41:47.226745  1616 net.cpp:382] fc7 -> fc7
I0314 23:41:47.489032  1616 net.cpp:124] Setting up fc7
I0314 23:41:47.489079  1616 net.cpp:131] Top shape: 256 4096 (1048576)
I0314 23:41:47.489085  1616 net.cpp:139] Memory required for data: 1747808256
I0314 23:41:47.489101  1616 layer_factory.hpp:77] Creating layer relu7
I0314 23:41:47.489115  1616 net.cpp:86] Creating Layer relu7
I0314 23:41:47.489123  1616 net.cpp:408] relu7 <- fc7
I0314 23:41:47.489135  1616 net.cpp:369] relu7 -> fc7 (in-place)
I0314 23:41:47.489439  1616 net.cpp:124] Setting up relu7
I0314 23:41:47.489454  1616 net.cpp:131] Top shape: 256 4096 (1048576)
I0314 23:41:47.489459  1616 net.cpp:139] Memory required for data: 1752002560
I0314 23:41:47.489466  1616 layer_factory.hpp:77] Creating layer drop7
I0314 23:41:47.489477  1616 net.cpp:86] Creating Layer drop7
I0314 23:41:47.489483  1616 net.cpp:408] drop7 <- fc7
I0314 23:41:47.489495  1616 net.cpp:369] drop7 -> fc7 (in-place)
I0314 23:41:47.489526  1616 net.cpp:124] Setting up drop7
I0314 23:41:47.489537  1616 net.cpp:131] Top shape: 256 4096 (1048576)
I0314 23:41:47.489543  1616 net.cpp:139] Memory required for data: 1756196864
I0314 23:41:47.489549  1616 layer_factory.hpp:77] Creating layer fc8
I0314 23:41:47.489563  1616 net.cpp:86] Creating Layer fc8
I0314 23:41:47.489580  1616 net.cpp:408] fc8 <- fc7
I0314 23:41:47.489609  1616 net.cpp:382] fc8 -> fc8
I0314 23:41:47.553993  1616 net.cpp:124] Setting up fc8
I0314 23:41:47.554039  1616 net.cpp:131] Top shape: 256 1000 (256000)
I0314 23:41:47.554044  1616 net.cpp:139] Memory required for data: 1757220864
I0314 23:41:47.554060  1616 layer_factory.hpp:77] Creating layer loss
I0314 23:41:47.554076  1616 net.cpp:86] Creating Layer loss
I0314 23:41:47.554085  1616 net.cpp:408] loss <- fc8
I0314 23:41:47.554095  1616 net.cpp:408] loss <- label
I0314 23:41:47.554107  1616 net.cpp:382] loss -> loss
I0314 23:41:47.554131  1616 layer_factory.hpp:77] Creating layer loss
…
I0314 23:41:47.556123  1616 net.cpp:296] The NetState phase (1) differed from the phase (0) specified by a rule in layer data
I0314 23:41:47.556363  1616 net.cpp:53] Initializing net from parameters: 
name: "CaffeNet"
state {
  phase: TEST
}
layer {
  name: "data"
  type: "Data"
  top: "data"
  top: "label"
  include {
    phase: TEST
  }
  transform_param {
    mirror: false
    crop_size: 227
    mean_file: "data/ilsvrc12/imagenet_mean.binaryproto"
  }
  data_param {
    source: "examples/imagenet/ilsvrc12_val_lmdb"
    batch_size: 50
    backend: LMDB
  }
}
layer {
  name: "conv1"
  type: "Convolution"
  bottom: "data"
  top: "conv1"
  param {
    lr_mult: 1
    decay_mult: 1
  }
  param {
    lr_mult: 2
    decay_mult: 0
  }
  convolution_param {
    num_output: 96
    kernel_size: 11
    stride: 4
    weight_filler {
      type: "gaussian"
      std: 0.01
    }
    bias_filler {
      type: "constant"
      value: 0
    }
  }
}
layer {
  name: "relu1"
  type: "ReLU"
  bottom: "conv1"
  top: "conv1"
}
layer {
  name: "pool1"
  type: "Pooling"
  bottom: "conv1"
  top: "pool1"
  pooling_param {
    pool: MAX
    kernel_size: 3
    stride: 2
  }
}
layer {
  name: "norm1"
  type: "LRN"
  bottom: "pool1"
  top: "norm1"
  lrn_param {
    local_size: 5
    alpha: 0.0001
    beta: 0.75
  }
}
layer {
  name: "conv2"
  type: "Convolution"
  bottom: "norm1"
  top: "conv2"
  param {
    lr_mult: 1
    decay_mult: 1
  }
  param {
    lr_mult: 2
    decay_mult: 0
  }
  convolution_param {
    num_output: 256
    pad: 2
    kernel_size: 5
    group: 2
    weight_filler {
      type: "gaussian"
      std: 0.01
    }
    bias_filler {
      type: "constant"
      value: 1
    }
  }
}
layer {
  name: "relu2"
  type: "ReLU"
  bottom: "conv2"
  top: "conv2"
}
layer {
  name: "pool2"
  type: "Pooling"
  bottom: "conv2"
  top: "pool2"
  pooling_param {
    pool: MAX
    kernel_size: 3
    stride: 2
  }
}
layer {
  name: "norm2"
  type: "LRN"
  bottom: "pool2"
  top: "norm2"
  lrn_param {
    local_size: 5
    alpha: 0.0001
    beta: 0.75
  }
}
layer {
  name: "conv3"
  type: "Convolution"
  bottom: "norm2"
  top: "conv3"
  param {
    lr_mult: 1
    decay_mult: 1
  }
  param {
    lr_mult: 2
    decay_mult: 0
  }
  convolution_param {
    num_output: 384
    pad: 1
    kernel_size: 3
    weight_filler {
      type: "gaussian"
      std: 0.01
    }
    bias_filler {
      type: "constant"
      value: 0
    }
  }
}
layer {
  name: "relu3"
  type: "ReLU"
  bottom: "conv3"
  top: "conv3"
}
layer {
  name: "conv4"
  type: "Convolution"
  bottom: "conv3"
  top: "conv4"
  param {
    lr_mult: 1
    decay_mult: 1
  }
  param {
    lr_mult: 2
    decay_mult: 0
  }
  convolution_param {
    num_output: 384
    pad: 1
    kernel_size: 3
    group: 2
    weight_filler {
      type: "gaussian"
      std: 0.01
    }
    bias_filler {
      type: "constant"
      value: 1
    }
  }
}
layer {
  name: "relu4"
  type: "ReLU"
  bottom: "conv4"
  top: "conv4"
}
layer {
  name: "conv5"
  type: "Convolution"
  bottom: "conv4"
  top: "conv5"
  param {
    lr_mult: 1
    decay_mult: 1
  }
  param {
    lr_mult: 2
    decay_mult: 0
  }
  convolution_param {
    num_output: 256
    pad: 1
    kernel_size: 3
    group: 2
    weight_filler {
      type: "gaussian"
      std: 0.01
    }
    bias_filler {
      type: "constant"
      value: 1
    }
  }
}
layer {
  name: "relu5"
  type: "ReLU"
  bottom: "conv5"
  top: "conv5"
}
layer {
  name: "pool5"
  type: "Pooling"
  bottom: "conv5"
  top: "pool5"
  pooling_param {
    pool: MAX
    kernel_size: 3
    stride: 2
  }
}
layer {
  name: "fc6"
  type: "InnerProduct"
  bottom: "pool5"
  top: "fc6"
  param {
    lr_mult: 1
    decay_mult: 1
  }
  param {
    lr_mult: 2
    decay_mult: 0
  }
  inner_product_param {
    num_output: 4096
    weight_filler {
      type: "gaussian"
      std: 0.005
    }
    bias_filler {
      type: "constant"
      value: 1
    }
  }
}
layer {
  name: "relu6"
  type: "ReLU"
  bottom: "fc6"
  top: "fc6"
}
layer {
  name: "drop6"
  type: "Dropout"
  bottom: "fc6"
  top: "fc6"
  dropout_param {
    dropout_ratio: 0.5
  }
}
layer {
  name: "fc7"
  type: "InnerProduct"
  bottom: "fc6"
  top: "fc7"
  param {
    lr_mult: 1
    decay_mult: 1
  }
  param {
    lr_mult: 2
    decay_mult: 0
  }
  inner_product_param {
    num_output: 4096
    weight_filler {
      type: "gaussian"
      std: 0.005
    }
    bias_filler {
      type: "constant"
      value: 1
    }
  }
}
layer {
  name: "relu7"
  type: "ReLU"
  bottom: "fc7"
  top: "fc7"
}
layer {
  name: "drop7"
  type: "Dropout"
  bottom: "fc7"
  top: "fc7"
  dropout_param {
    dropout_ratio: 0.5
  }
}
layer {
  name: "fc8"
  type: "InnerProduct"
  bottom: "fc7"
  top: "fc8"
  param {
    lr_mult: 1
    decay_mult: 1
  }
  param {
    lr_mult: 2
    decay_mult: 0
  }
  inner_product_param {
    num_output: 1000
    weight_filler {
      type: "gaussian"
      std: 0.01
    }
    bias_filler {
      type: "constant"
      value: 0
    }
  }
}
layer {
  name: "accuracy"
  type: "Accuracy"
  bottom: "fc8"
  bottom: "label"
  top: "accuracy"
  include {
    phase: TEST
  }
}
layer {
  name: "loss"
  type: "SoftmaxWithLoss"
  bottom: "fc8"
  bottom: "label"
  top: "loss"
}
I0314 23:41:47.556522  1616 layer_factory.hpp:77] Creating layer data
I0314 23:41:47.556605  1616 db_lmdb.cpp:35] Opened lmdb examples/imagenet/ilsvrc12_val_lmdb
I0314 23:41:47.556635  1616 net.cpp:86] Creating Layer data
I0314 23:41:47.556646  1616 net.cpp:382] data -> data
I0314 23:41:47.556663  1616 net.cpp:382] data -> label
I0314 23:41:47.556674  1616 data_transformer.cpp:25] Loading mean file from: data/ilsvrc12/imagenet_mean.binaryproto
I0314 23:41:47.559180  1616 data_layer.cpp:45] output data size: 50,3,227,227
I0314 23:41:47.640187  1616 net.cpp:124] Setting up data
I0314 23:41:47.640235  1616 net.cpp:131] Top shape: 50 3 227 227 (7729350)
I0314 23:41:47.640244  1616 net.cpp:131] Top shape: 50 (50)
I0314 23:41:47.640249  1616 net.cpp:139] Memory required for data: 30917600
I0314 23:41:47.640260  1616 layer_factory.hpp:77] Creating layer label_data_1_split
I0314 23:41:47.640277  1616 net.cpp:86] Creating Layer label_data_1_split
I0314 23:41:47.640285  1616 net.cpp:408] label_data_1_split <- label
I0314 23:41:47.640297  1616 net.cpp:382] label_data_1_split -> label_data_1_split_0
I0314 23:41:47.640313  1616 net.cpp:382] label_data_1_split -> label_data_1_split_1
I0314 23:41:47.640393  1616 net.cpp:124] Setting up label_data_1_split
I0314 23:41:47.640405  1616 net.cpp:131] Top shape: 50 (50)
I0314 23:41:47.640413  1616 net.cpp:131] Top shape: 50 (50)
I0314 23:41:47.640417  1616 net.cpp:139] Memory required for data: 30918000
I0314 23:41:47.640424  1616 layer_factory.hpp:77] Creating layer conv1
I0314 23:41:47.640442  1616 net.cpp:86] Creating Layer conv1
I0314 23:41:47.640449  1616 net.cpp:408] conv1 <- data
I0314 23:41:47.640458  1616 net.cpp:382] conv1 -> conv1
I0314 23:41:47.647640  1616 net.cpp:124] Setting up conv1
I0314 23:41:47.647685  1616 net.cpp:131] Top shape: 50 96 55 55 (14520000)
I0314 23:41:47.647691  1616 net.cpp:139] Memory required for data: 88998000
I0314 23:41:47.647712  1616 layer_factory.hpp:77] Creating layer relu1
I0314 23:41:47.647727  1616 net.cpp:86] Creating Layer relu1
I0314 23:41:47.647735  1616 net.cpp:408] relu1 <- conv1
I0314 23:41:47.647745  1616 net.cpp:369] relu1 -> conv1 (in-place)
I0314 23:41:47.647959  1616 net.cpp:124] Setting up relu1
I0314 23:41:47.647974  1616 net.cpp:131] Top shape: 50 96 55 55 (14520000)
I0314 23:41:47.647979  1616 net.cpp:139] Memory required for data: 147078000
I0314 23:41:47.647985  1616 layer_factory.hpp:77] Creating layer pool1
I0314 23:41:47.648000  1616 net.cpp:86] Creating Layer pool1
I0314 23:41:47.648006  1616 net.cpp:408] pool1 <- conv1
I0314 23:41:47.648015  1616 net.cpp:382] pool1 -> pool1
I0314 23:41:47.648075  1616 net.cpp:124] Setting up pool1
I0314 23:41:47.648087  1616 net.cpp:131] Top shape: 50 96 27 27 (3499200)
I0314 23:41:47.648092  1616 net.cpp:139] Memory required for data: 161074800
I0314 23:41:47.648098  1616 layer_factory.hpp:77] Creating layer norm1
I0314 23:41:47.648110  1616 net.cpp:86] Creating Layer norm1
I0314 23:41:47.648116  1616 net.cpp:408] norm1 <- pool1
I0314 23:41:47.648124  1616 net.cpp:382] norm1 -> norm1
I0314 23:41:47.648586  1616 net.cpp:124] Setting up norm1
I0314 23:41:47.648603  1616 net.cpp:131] Top shape: 50 96 27 27 (3499200)
I0314 23:41:47.648609  1616 net.cpp:139] Memory required for data: 175071600
I0314 23:41:47.648615  1616 layer_factory.hpp:77] Creating layer conv2
I0314 23:41:47.648633  1616 net.cpp:86] Creating Layer conv2
I0314 23:41:47.648640  1616 net.cpp:408] conv2 <- norm1
I0314 23:41:47.648651  1616 net.cpp:382] conv2 -> conv2
I0314 23:41:47.656210  1616 net.cpp:124] Setting up conv2
I0314 23:41:47.656261  1616 net.cpp:131] Top shape: 50 256 27 27 (9331200)
I0314 23:41:47.656268  1616 net.cpp:139] Memory required for data: 212396400
I0314 23:41:47.656291  1616 layer_factory.hpp:77] Creating layer relu2
I0314 23:41:47.656307  1616 net.cpp:86] Creating Layer relu2
I0314 23:41:47.656316  1616 net.cpp:408] relu2 <- conv2
I0314 23:41:47.656327  1616 net.cpp:369] relu2 -> conv2 (in-place)
I0314 23:41:47.656553  1616 net.cpp:124] Setting up relu2
I0314 23:41:47.656579  1616 net.cpp:131] Top shape: 50 256 27 27 (9331200)
I0314 23:41:47.656597  1616 net.cpp:139] Memory required for data: 249721200
I0314 23:41:47.656604  1616 layer_factory.hpp:77] Creating layer pool2
I0314 23:41:47.656617  1616 net.cpp:86] Creating Layer pool2
I0314 23:41:47.656623  1616 net.cpp:408] pool2 <- conv2
I0314 23:41:47.656632  1616 net.cpp:382] pool2 -> pool2
I0314 23:41:47.656697  1616 net.cpp:124] Setting up pool2
I0314 23:41:47.656708  1616 net.cpp:131] Top shape: 50 256 13 13 (2163200)
I0314 23:41:47.656714  1616 net.cpp:139] Memory required for data: 258374000
I0314 23:41:47.656720  1616 layer_factory.hpp:77] Creating layer norm2
I0314 23:41:47.656733  1616 net.cpp:86] Creating Layer norm2
I0314 23:41:47.656738  1616 net.cpp:408] norm2 <- pool2
I0314 23:41:47.656746  1616 net.cpp:382] norm2 -> norm2
I0314 23:41:47.657198  1616 net.cpp:124] Setting up norm2
I0314 23:41:47.657215  1616 net.cpp:131] Top shape: 50 256 13 13 (2163200)
I0314 23:41:47.657222  1616 net.cpp:139] Memory required for data: 267026800
I0314 23:41:47.657227  1616 layer_factory.hpp:77] Creating layer conv3
I0314 23:41:47.657244  1616 net.cpp:86] Creating Layer conv3
I0314 23:41:47.657251  1616 net.cpp:408] conv3 <- norm2
I0314 23:41:47.657263  1616 net.cpp:382] conv3 -> conv3
I0314 23:41:47.672839  1616 net.cpp:124] Setting up conv3
I0314 23:41:47.672886  1616 net.cpp:131] Top shape: 50 384 13 13 (3244800)
I0314 23:41:47.672894  1616 net.cpp:139] Memory required for data: 280006000
I0314 23:41:47.672914  1616 layer_factory.hpp:77] Creating layer relu3
I0314 23:41:47.672930  1616 net.cpp:86] Creating Layer relu3
I0314 23:41:47.672937  1616 net.cpp:408] relu3 <- conv3
I0314 23:41:47.672948  1616 net.cpp:369] relu3 -> conv3 (in-place)
I0314 23:41:47.673530  1616 net.cpp:124] Setting up relu3
I0314 23:41:47.673547  1616 net.cpp:131] Top shape: 50 384 13 13 (3244800)
I0314 23:41:47.673552  1616 net.cpp:139] Memory required for data: 292985200
I0314 23:41:47.673559  1616 layer_factory.hpp:77] Creating layer conv4
I0314 23:41:47.673576  1616 net.cpp:86] Creating Layer conv4
I0314 23:41:47.673583  1616 net.cpp:408] conv4 <- conv3
I0314 23:41:47.673593  1616 net.cpp:382] conv4 -> conv4
I0314 23:41:47.912518  1616 net.cpp:124] Setting up conv4
I0314 23:41:47.912570  1616 net.cpp:131] Top shape: 50 384 13 13 (3244800)
I0314 23:41:47.912577  1616 net.cpp:139] Memory required for data: 305964400
I0314 23:41:47.912593  1616 layer_factory.hpp:77] Creating layer relu4
I0314 23:41:47.912608  1616 net.cpp:86] Creating Layer relu4
I0314 23:41:47.912616  1616 net.cpp:408] relu4 <- conv4
I0314 23:41:47.912628  1616 net.cpp:369] relu4 -> conv4 (in-place)
I0314 23:41:47.912861  1616 net.cpp:124] Setting up relu4
I0314 23:41:47.912876  1616 net.cpp:131] Top shape: 50 384 13 13 (3244800)
I0314 23:41:47.912883  1616 net.cpp:139] Memory required for data: 318943600
I0314 23:41:47.912889  1616 layer_factory.hpp:77] Creating layer conv5
I0314 23:41:47.912906  1616 net.cpp:86] Creating Layer conv5
I0314 23:41:47.912914  1616 net.cpp:408] conv5 <- conv4
I0314 23:41:47.912925  1616 net.cpp:382] conv5 -> conv5
I0314 23:41:47.922595  1616 net.cpp:124] Setting up conv5
I0314 23:41:47.922646  1616 net.cpp:131] Top shape: 50 256 13 13 (2163200)
I0314 23:41:47.922653  1616 net.cpp:139] Memory required for data: 327596400
I0314 23:41:47.922677  1616 layer_factory.hpp:77] Creating layer relu5
I0314 23:41:47.922691  1616 net.cpp:86] Creating Layer relu5
I0314 23:41:47.922699  1616 net.cpp:408] relu5 <- conv5
I0314 23:41:47.922710  1616 net.cpp:369] relu5 -> conv5 (in-place)
I0314 23:41:47.922924  1616 net.cpp:124] Setting up relu5
I0314 23:41:47.922940  1616 net.cpp:131] Top shape: 50 256 13 13 (2163200)
I0314 23:41:47.922945  1616 net.cpp:139] Memory required for data: 336249200
I0314 23:41:47.922951  1616 layer_factory.hpp:77] Creating layer pool5
I0314 23:41:47.922966  1616 net.cpp:86] Creating Layer pool5
I0314 23:41:47.922971  1616 net.cpp:408] pool5 <- conv5
I0314 23:41:47.922981  1616 net.cpp:382] pool5 -> pool5
I0314 23:41:47.923058  1616 net.cpp:124] Setting up pool5
I0314 23:41:47.923089  1616 net.cpp:131] Top shape: 50 256 6 6 (460800)
I0314 23:41:47.923096  1616 net.cpp:139] Memory required for data: 338092400
I0314 23:41:47.923102  1616 layer_factory.hpp:77] Creating layer fc6
I0314 23:41:47.923115  1616 net.cpp:86] Creating Layer fc6
I0314 23:41:47.923122  1616 net.cpp:408] fc6 <- pool5
I0314 23:41:47.923131  1616 net.cpp:382] fc6 -> fc6
I0314 23:41:48.512475  1616 net.cpp:124] Setting up fc6
I0314 23:41:48.512529  1616 net.cpp:131] Top shape: 50 4096 (204800)
I0314 23:41:48.512536  1616 net.cpp:139] Memory required for data: 338911600
I0314 23:41:48.512552  1616 layer_factory.hpp:77] Creating layer relu6
I0314 23:41:48.512567  1616 net.cpp:86] Creating Layer relu6
I0314 23:41:48.512574  1616 net.cpp:408] relu6 <- fc6
I0314 23:41:48.512585  1616 net.cpp:369] relu6 -> fc6 (in-place)
I0314 23:41:48.513166  1616 net.cpp:124] Setting up relu6
I0314 23:41:48.513182  1616 net.cpp:131] Top shape: 50 4096 (204800)
I0314 23:41:48.513188  1616 net.cpp:139] Memory required for data: 339730800
I0314 23:41:48.513195  1616 layer_factory.hpp:77] Creating layer drop6
I0314 23:41:48.513206  1616 net.cpp:86] Creating Layer drop6
I0314 23:41:48.513212  1616 net.cpp:408] drop6 <- fc6
I0314 23:41:48.513221  1616 net.cpp:369] drop6 -> fc6 (in-place)
I0314 23:41:48.513264  1616 net.cpp:124] Setting up drop6
I0314 23:41:48.513275  1616 net.cpp:131] Top shape: 50 4096 (204800)
I0314 23:41:48.513281  1616 net.cpp:139] Memory required for data: 340550000
I0314 23:41:48.513288  1616 layer_factory.hpp:77] Creating layer fc7
I0314 23:41:48.513299  1616 net.cpp:86] Creating Layer fc7
I0314 23:41:48.513305  1616 net.cpp:408] fc7 <- fc6
I0314 23:41:48.513314  1616 net.cpp:382] fc7 -> fc7
I0314 23:41:48.774696  1616 net.cpp:124] Setting up fc7
I0314 23:41:48.774756  1616 net.cpp:131] Top shape: 50 4096 (204800)
I0314 23:41:48.774762  1616 net.cpp:139] Memory required for data: 341369200
I0314 23:41:48.774785  1616 layer_factory.hpp:77] Creating layer relu7
I0314 23:41:48.774806  1616 net.cpp:86] Creating Layer relu7
I0314 23:41:48.774814  1616 net.cpp:408] relu7 <- fc7
I0314 23:41:48.774827  1616 net.cpp:369] relu7 -> fc7 (in-place)
I0314 23:41:48.775115  1616 net.cpp:124] Setting up relu7
I0314 23:41:48.775128  1616 net.cpp:131] Top shape: 50 4096 (204800)
I0314 23:41:48.775133  1616 net.cpp:139] Memory required for data: 342188400
I0314 23:41:48.775141  1616 layer_factory.hpp:77] Creating layer drop7
I0314 23:41:48.775151  1616 net.cpp:86] Creating Layer drop7
I0314 23:41:48.775157  1616 net.cpp:408] drop7 <- fc7
I0314 23:41:48.775166  1616 net.cpp:369] drop7 -> fc7 (in-place)
I0314 23:41:48.775208  1616 net.cpp:124] Setting up drop7
I0314 23:41:48.775219  1616 net.cpp:131] Top shape: 50 4096 (204800)
I0314 23:41:48.775225  1616 net.cpp:139] Memory required for data: 343007600
I0314 23:41:48.775230  1616 layer_factory.hpp:77] Creating layer fc8
I0314 23:41:48.775243  1616 net.cpp:86] Creating Layer fc8
I0314 23:41:48.775249  1616 net.cpp:408] fc8 <- fc7
I0314 23:41:48.775257  1616 net.cpp:382] fc8 -> fc8
I0314 23:41:48.839471  1616 net.cpp:124] Setting up fc8
I0314 23:41:48.839520  1616 net.cpp:131] Top shape: 50 1000 (50000)
I0314 23:41:48.839526  1616 net.cpp:139] Memory required for data: 343207600
I0314 23:41:48.839543  1616 layer_factory.hpp:77] Creating layer fc8_fc8_0_split
I0314 23:41:48.839557  1616 net.cpp:86] Creating Layer fc8_fc8_0_split
I0314 23:41:48.839565  1616 net.cpp:408] fc8_fc8_0_split <- fc8
I0314 23:41:48.839577  1616 net.cpp:382] fc8_fc8_0_split -> fc8_fc8_0_split_0
I0314 23:41:48.839592  1616 net.cpp:382] fc8_fc8_0_split -> fc8_fc8_0_split_1
I0314 23:41:48.839650  1616 net.cpp:124] Setting up fc8_fc8_0_split
I0314 23:41:48.839661  1616 net.cpp:131] Top shape: 50 1000 (50000)
I0314 23:41:48.839668  1616 net.cpp:131] Top shape: 50 1000 (50000)
I0314 23:41:48.839673  1616 net.cpp:139] Memory required for data: 343607600
I0314 23:41:48.839679  1616 layer_factory.hpp:77] Creating layer accuracy
I0314 23:41:48.839690  1616 net.cpp:86] Creating Layer accuracy
I0314 23:41:48.839714  1616 net.cpp:408] accuracy <- fc8_fc8_0_split_0
I0314 23:41:48.839738  1616 net.cpp:408] accuracy <- label_data_1_split_0
I0314 23:41:48.839748  1616 net.cpp:382] accuracy -> accuracy
…
