…
I0312 13:48:21.115530 27432 net.cpp:296] The NetState phase (0) differed from the phase (1) specified by a rule in layer accuracy
I0312 13:48:21.115762 27432 net.cpp:53] Initializing net from parameters: 
name: "CaffeNet"
state {
  phase: TRAIN
  level: 0
  stage: ""
}
layer {
  name: "data"
  type: "Data"
  top: "data"
  top: "label"
  include {
    phase: TRAIN
  }
  transform_param {
    mirror: true
    crop_size: 227
    mean_file: "data/ilsvrc12/imagenet_mean.binaryproto"
  }
  data_param {
    source: "examples/imagenet/ilsvrc12_train_lmdb"
    batch_size: 256
    backend: LMDB
  }
}
layer {
  name: "conv1"
  type: "Convolution"
  bottom: "data"
  top: "conv1"
  param {
    lr_mult: 1
    decay_mult: 1
  }
  param {
    lr_mult: 2
    decay_mult: 0
  }
  convolution_param {
    num_output: 96
    kernel_size: 11
    stride: 4
    weight_filler {
      type: "gaussian"
      std: 0.01
    }
    bias_filler {
      type: "constant"
      value: 0
    }
  }
}
layer {
  name: "relu1"
  type: "ReLU"
  bottom: "conv1"
  top: "conv1"
}
layer {
  name: "pool1"
  type: "Pooling"
  bottom: "conv1"
  top: "pool1"
  pooling_param {
    pool: MAX
    kernel_size: 3
    stride: 2
  }
}
layer {
  name: "norm1"
  type: "LRN"
  bottom: "pool1"
  top: "norm1"
  lrn_param {
    local_size: 5
    alpha: 0.0001
    beta: 0.75
  }
}
layer {
  name: "conv2"
  type: "Convolution"
  bottom: "norm1"
  top: "conv2"
  param {
    lr_mult: 1
    decay_mult: 1
  }
  param {
    lr_mult: 2
    decay_mult: 0
  }
  convolution_param {
    num_output: 256
    pad: 2
    kernel_size: 5
    group: 2
    weight_filler {
      type: "gaussian"
      std: 0.01
    }
    bias_filler {
      type: "constant"
      value: 1
    }
  }
}
layer {
  name: "relu2"
  type: "ReLU"
  bottom: "conv2"
  top: "conv2"
}
layer {
  name: "pool2"
  type: "Pooling"
  bottom: "conv2"
  top: "pool2"
  pooling_param {
    pool: MAX
    kernel_size: 3
    stride: 2
  }
}
layer {
  name: "norm2"
  type: "LRN"
  bottom: "pool2"
  top: "norm2"
  lrn_param {
    local_size: 5
    alpha: 0.0001
    beta: 0.75
  }
}
layer {
  name: "conv3"
  type: "Convolution"
  bottom: "norm2"
  top: "conv3"
  param {
    lr_mult: 1
    decay_mult: 1
  }
  param {
    lr_mult: 2
    decay_mult: 0
  }
  convolution_param {
    num_output: 384
    pad: 1
    kernel_size: 3
    weight_filler {
      type: "gaussian"
      std: 0.01
    }
    bias_filler {
      type: "constant"
      value: 0
    }
  }
}
layer {
  name: "relu3"
  type: "ReLU"
  bottom: "conv3"
  top: "conv3"
}
layer {
  name: "conv4"
  type: "Convolution"
  bottom: "conv3"
  top: "conv4"
  param {
    lr_mult: 1
    decay_mult: 1
  }
  param {
    lr_mult: 2
    decay_mult: 0
  }
  convolution_param {
    num_output: 384
    pad: 1
    kernel_size: 3
    group: 2
    weight_filler {
      type: "gaussian"
      std: 0.01
    }
    bias_filler {
      type: "constant"
      value: 1
    }
  }
}
layer {
  name: "relu4"
  type: "ReLU"
  bottom: "conv4"
  top: "conv4"
}
layer {
  name: "conv5"
  type: "Convolution"
  bottom: "conv4"
  top: "conv5"
  param {
    lr_mult: 1
    decay_mult: 1
  }
  param {
    lr_mult: 2
    decay_mult: 0
  }
  convolution_param {
    num_output: 256
    pad: 1
    kernel_size: 3
    group: 2
    weight_filler {
      type: "gaussian"
      std: 0.01
    }
    bias_filler {
      type: "constant"
      value: 1
    }
  }
}
layer {
  name: "relu5"
  type: "ReLU"
  bottom: "conv5"
  top: "conv5"
}
layer {
  name: "pool5"
  type: "Pooling"
  bottom: "conv5"
  top: "pool5"
  pooling_param {
    pool: MAX
    kernel_size: 3
    stride: 2
  }
}
layer {
  name: "fc6"
  type: "InnerProduct"
  bottom: "pool5"
  top: "fc6"
  param {
    lr_mult: 1
    decay_mult: 1
  }
  param {
    lr_mult: 2
    decay_mult: 0
  }
  inner_product_param {
    num_output: 4096
    weight_filler {
      type: "gaussian"
      std: 0.005
    }
    bias_filler {
      type: "constant"
      value: 1
    }
  }
}
layer {
  name: "relu6"
  type: "ReLU"
  bottom: "fc6"
  top: "fc6"
}
layer {
  name: "drop6"
  type: "Dropout"
  bottom: "fc6"
  top: "fc6"
  dropout_param {
    dropout_ratio: 0.5
  }
}
layer {
  name: "fc7"
  type: "InnerProduct"
  bottom: "fc6"
  top: "fc7"
  param {
    lr_mult: 1
    decay_mult: 1
  }
  param {
    lr_mult: 2
    decay_mult: 0
  }
  inner_product_param {
    num_output: 4096
    weight_filler {
      type: "gaussian"
      std: 0.005
    }
    bias_filler {
      type: "constant"
      value: 1
    }
  }
}
layer {
  name: "relu7"
  type: "ReLU"
  bottom: "fc7"
  top: "fc7"
}
layer {
  name: "drop7"
  type: "Dropout"
  bottom: "fc7"
  top: "fc7"
  dropout_param {
    dropout_ratio: 0.5
  }
}
layer {
  name: "fc8"
  type: "InnerProduct"
  bottom: "fc7"
  top: "fc8"
  param {
    lr_mult: 1
    decay_mult: 1
  }
  param {
    lr_mult: 2
    decay_mult: 0
  }
  inner_product_param {
    num_output: 1000
    weight_filler {
      type: "gaussian"
      std: 0.01
    }
    bias_filler {
      type: "constant"
      value: 0
    }
  }
}
layer {
  name: "loss"
  type: "SoftmaxWithLoss"
  bottom: "fc8"
  bottom: "label"
  top: "loss"
}
I0312 13:48:21.115890 27432 layer_factory.hpp:77] Creating layer data
I0312 13:48:21.116019 27432 db_lmdb.cpp:35] Opened lmdb examples/imagenet/ilsvrc12_train_lmdb
I0312 13:48:21.180745 27432 net.cpp:86] Creating Layer data
I0312 13:48:21.180801 27432 net.cpp:382] data -> data
I0312 13:48:21.180863 27432 net.cpp:382] data -> label
I0312 13:48:21.180909 27432 data_transformer.cpp:25] Loading mean file from: data/ilsvrc12/imagenet_mean.binaryproto
I0312 13:48:21.186003 27432 data_layer.cpp:45] output data size: 256,3,227,227
I0312 13:48:21.752938 27432 net.cpp:124] Setting up data
I0312 13:48:21.752991 27432 net.cpp:131] Top shape: 256 3 227 227 (39574272)
I0312 13:48:21.753000 27432 net.cpp:131] Top shape: 256 (256)
I0312 13:48:21.753005 27432 net.cpp:139] Memory required for data: 158298112
I0312 13:48:21.753021 27432 layer_factory.hpp:77] Creating layer conv1
I0312 13:48:21.753051 27432 net.cpp:86] Creating Layer conv1
I0312 13:48:21.753062 27432 net.cpp:408] conv1 <- data
I0312 13:48:21.753082 27432 net.cpp:382] conv1 -> conv1
I0312 13:48:23.289507 27432 net.cpp:124] Setting up conv1
I0312 13:48:23.289573 27432 net.cpp:131] Top shape: 256 96 55 55 (74342400)
I0312 13:48:23.289587 27432 net.cpp:139] Memory required for data: 455667712
I0312 13:48:23.289640 27432 layer_factory.hpp:77] Creating layer relu1
I0312 13:48:23.289669 27432 net.cpp:86] Creating Layer relu1
I0312 13:48:23.289685 27432 net.cpp:408] relu1 <- conv1
I0312 13:48:23.289702 27432 net.cpp:369] relu1 -> conv1 (in-place)
I0312 13:48:23.290390 27432 net.cpp:124] Setting up relu1
I0312 13:48:23.290446 27432 net.cpp:131] Top shape: 256 96 55 55 (74342400)
I0312 13:48:23.290457 27432 net.cpp:139] Memory required for data: 753037312
I0312 13:48:23.290467 27432 layer_factory.hpp:77] Creating layer pool1
I0312 13:48:23.290500 27432 net.cpp:86] Creating Layer pool1
I0312 13:48:23.290513 27432 net.cpp:408] pool1 <- conv1
I0312 13:48:23.290532 27432 net.cpp:382] pool1 -> pool1
I0312 13:48:23.290573 27432 net.cpp:124] Setting up pool1
I0312 13:48:23.290596 27432 net.cpp:131] Top shape: 256 96 27 27 (17915904)
I0312 13:48:23.290607 27432 net.cpp:139] Memory required for data: 824700928
I0312 13:48:23.290618 27432 layer_factory.hpp:77] Creating layer norm1
I0312 13:48:23.290643 27432 net.cpp:86] Creating Layer norm1
I0312 13:48:23.290657 27432 net.cpp:408] norm1 <- pool1
I0312 13:48:23.290676 27432 net.cpp:382] norm1 -> norm1
I0312 13:48:23.291124 27432 net.cpp:124] Setting up norm1
I0312 13:48:23.291183 27432 net.cpp:131] Top shape: 256 96 27 27 (17915904)
I0312 13:48:23.291195 27432 net.cpp:139] Memory required for data: 896364544
I0312 13:48:23.291208 27432 layer_factory.hpp:77] Creating layer conv2
I0312 13:48:23.291240 27432 net.cpp:86] Creating Layer conv2
I0312 13:48:23.291254 27432 net.cpp:408] conv2 <- norm1
I0312 13:48:23.291273 27432 net.cpp:382] conv2 -> conv2
I0312 13:48:23.303689 27432 net.cpp:124] Setting up conv2
I0312 13:48:23.303730 27432 net.cpp:131] Top shape: 256 256 27 27 (47775744)
I0312 13:48:23.303741 27432 net.cpp:139] Memory required for data: 1087467520
I0312 13:48:23.303766 27432 layer_factory.hpp:77] Creating layer relu2
I0312 13:48:23.303784 27432 net.cpp:86] Creating Layer relu2
I0312 13:48:23.303797 27432 net.cpp:408] relu2 <- conv2
I0312 13:48:23.303815 27432 net.cpp:369] relu2 -> conv2 (in-place)
I0312 13:48:23.304214 27432 net.cpp:124] Setting up relu2
I0312 13:48:23.304240 27432 net.cpp:131] Top shape: 256 256 27 27 (47775744)
I0312 13:48:23.304251 27432 net.cpp:139] Memory required for data: 1278570496
I0312 13:48:23.304262 27432 layer_factory.hpp:77] Creating layer pool2
I0312 13:48:23.304282 27432 net.cpp:86] Creating Layer pool2
I0312 13:48:23.304294 27432 net.cpp:408] pool2 <- conv2
I0312 13:48:23.304311 27432 net.cpp:382] pool2 -> pool2
I0312 13:48:23.304334 27432 net.cpp:124] Setting up pool2
I0312 13:48:23.304349 27432 net.cpp:131] Top shape: 256 256 13 13 (11075584)
I0312 13:48:23.304359 27432 net.cpp:139] Memory required for data: 1322872832
I0312 13:48:23.304369 27432 layer_factory.hpp:77] Creating layer norm2
I0312 13:48:23.304394 27432 net.cpp:86] Creating Layer norm2
I0312 13:48:23.304405 27432 net.cpp:408] norm2 <- pool2
I0312 13:48:23.304424 27432 net.cpp:382] norm2 -> norm2
I0312 13:48:23.305074 27432 net.cpp:124] Setting up norm2
I0312 13:48:23.305104 27432 net.cpp:131] Top shape: 256 256 13 13 (11075584)
I0312 13:48:23.305114 27432 net.cpp:139] Memory required for data: 1367175168
I0312 13:48:23.305125 27432 layer_factory.hpp:77] Creating layer conv3
I0312 13:48:23.305152 27432 net.cpp:86] Creating Layer conv3
I0312 13:48:23.305166 27432 net.cpp:408] conv3 <- norm2
I0312 13:48:23.305186 27432 net.cpp:382] conv3 -> conv3
I0312 13:48:23.334779 27432 net.cpp:124] Setting up conv3
I0312 13:48:23.334839 27432 net.cpp:131] Top shape: 256 384 13 13 (16613376)
I0312 13:48:23.334849 27432 net.cpp:139] Memory required for data: 1433628672
I0312 13:48:23.334877 27432 layer_factory.hpp:77] Creating layer relu3
I0312 13:48:23.334897 27432 net.cpp:86] Creating Layer relu3
I0312 13:48:23.334908 27432 net.cpp:408] relu3 <- conv3
I0312 13:48:23.334925 27432 net.cpp:369] relu3 -> conv3 (in-place)
I0312 13:48:23.335263 27432 net.cpp:124] Setting up relu3
I0312 13:48:23.335283 27432 net.cpp:131] Top shape: 256 384 13 13 (16613376)
I0312 13:48:23.335306 27432 net.cpp:139] Memory required for data: 1500082176
I0312 13:48:23.335316 27432 layer_factory.hpp:77] Creating layer conv4
I0312 13:48:23.335342 27432 net.cpp:86] Creating Layer conv4
I0312 13:48:23.335353 27432 net.cpp:408] conv4 <- conv3
I0312 13:48:23.335371 27432 net.cpp:382] conv4 -> conv4
I0312 13:48:23.353196 27432 net.cpp:124] Setting up conv4
I0312 13:48:23.353248 27432 net.cpp:131] Top shape: 256 384 13 13 (16613376)
I0312 13:48:23.353257 27432 net.cpp:139] Memory required for data: 1566535680
I0312 13:48:23.353276 27432 layer_factory.hpp:77] Creating layer relu4
I0312 13:48:23.353296 27432 net.cpp:86] Creating Layer relu4
I0312 13:48:23.353307 27432 net.cpp:408] relu4 <- conv4
I0312 13:48:23.353322 27432 net.cpp:369] relu4 -> conv4 (in-place)
I0312 13:48:23.353615 27432 net.cpp:124] Setting up relu4
I0312 13:48:23.353637 27432 net.cpp:131] Top shape: 256 384 13 13 (16613376)
I0312 13:48:23.353646 27432 net.cpp:139] Memory required for data: 1632989184
I0312 13:48:23.353653 27432 layer_factory.hpp:77] Creating layer conv5
I0312 13:48:23.353677 27432 net.cpp:86] Creating Layer conv5
I0312 13:48:23.353688 27432 net.cpp:408] conv5 <- conv4
I0312 13:48:23.353713 27432 net.cpp:382] conv5 -> conv5
I0312 13:48:23.365890 27432 net.cpp:124] Setting up conv5
I0312 13:48:23.365927 27432 net.cpp:131] Top shape: 256 256 13 13 (11075584)
I0312 13:48:23.365936 27432 net.cpp:139] Memory required for data: 1677291520
I0312 13:48:23.365959 27432 layer_factory.hpp:77] Creating layer relu5
I0312 13:48:23.365974 27432 net.cpp:86] Creating Layer relu5
I0312 13:48:23.365983 27432 net.cpp:408] relu5 <- conv5
I0312 13:48:23.365998 27432 net.cpp:369] relu5 -> conv5 (in-place)
I0312 13:48:23.366309 27432 net.cpp:124] Setting up relu5
I0312 13:48:23.366329 27432 net.cpp:131] Top shape: 256 256 13 13 (11075584)
I0312 13:48:23.366338 27432 net.cpp:139] Memory required for data: 1721593856
I0312 13:48:23.366345 27432 layer_factory.hpp:77] Creating layer pool5
I0312 13:48:23.366361 27432 net.cpp:86] Creating Layer pool5
I0312 13:48:23.366370 27432 net.cpp:408] pool5 <- conv5
I0312 13:48:23.366381 27432 net.cpp:382] pool5 -> pool5
I0312 13:48:23.366410 27432 net.cpp:124] Setting up pool5
I0312 13:48:23.366426 27432 net.cpp:131] Top shape: 256 256 6 6 (2359296)
I0312 13:48:23.366435 27432 net.cpp:139] Memory required for data: 1731031040
I0312 13:48:23.366442 27432 layer_factory.hpp:77] Creating layer fc6
I0312 13:48:23.366462 27432 net.cpp:86] Creating Layer fc6
I0312 13:48:23.366472 27432 net.cpp:408] fc6 <- pool5
I0312 13:48:23.366483 27432 net.cpp:382] fc6 -> fc6
I0312 13:48:24.226348 27432 net.cpp:124] Setting up fc6
I0312 13:48:24.226411 27432 net.cpp:131] Top shape: 256 4096 (1048576)
I0312 13:48:24.226419 27432 net.cpp:139] Memory required for data: 1735225344
I0312 13:48:24.226436 27432 layer_factory.hpp:77] Creating layer relu6
I0312 13:48:24.226450 27432 net.cpp:86] Creating Layer relu6
I0312 13:48:24.226459 27432 net.cpp:408] relu6 <- fc6
I0312 13:48:24.226471 27432 net.cpp:369] relu6 -> fc6 (in-place)
I0312 13:48:24.227053 27432 net.cpp:124] Setting up relu6
I0312 13:48:24.227069 27432 net.cpp:131] Top shape: 256 4096 (1048576)
I0312 13:48:24.227075 27432 net.cpp:139] Memory required for data: 1739419648
I0312 13:48:24.227082 27432 layer_factory.hpp:77] Creating layer drop6
I0312 13:48:24.227092 27432 net.cpp:86] Creating Layer drop6
I0312 13:48:24.227098 27432 net.cpp:408] drop6 <- fc6
I0312 13:48:24.227109 27432 net.cpp:369] drop6 -> fc6 (in-place)
I0312 13:48:24.227128 27432 net.cpp:124] Setting up drop6
I0312 13:48:24.227135 27432 net.cpp:131] Top shape: 256 4096 (1048576)
I0312 13:48:24.227141 27432 net.cpp:139] Memory required for data: 1743613952
I0312 13:48:24.227146 27432 layer_factory.hpp:77] Creating layer fc7
I0312 13:48:24.227157 27432 net.cpp:86] Creating Layer fc7
I0312 13:48:24.227164 27432 net.cpp:408] fc7 <- fc6
I0312 13:48:24.227174 27432 net.cpp:382] fc7 -> fc7
I0312 13:48:24.590862 27432 net.cpp:124] Setting up fc7
I0312 13:48:24.590914 27432 net.cpp:131] Top shape: 256 4096 (1048576)
I0312 13:48:24.590919 27432 net.cpp:139] Memory required for data: 1747808256
I0312 13:48:24.590935 27432 layer_factory.hpp:77] Creating layer relu7
I0312 13:48:24.590950 27432 net.cpp:86] Creating Layer relu7
I0312 13:48:24.590957 27432 net.cpp:408] relu7 <- fc7
I0312 13:48:24.590970 27432 net.cpp:369] relu7 -> fc7 (in-place)
I0312 13:48:24.591294 27432 net.cpp:124] Setting up relu7
I0312 13:48:24.591307 27432 net.cpp:131] Top shape: 256 4096 (1048576)
I0312 13:48:24.591313 27432 net.cpp:139] Memory required for data: 1752002560
I0312 13:48:24.591320 27432 layer_factory.hpp:77] Creating layer drop7
I0312 13:48:24.591330 27432 net.cpp:86] Creating Layer drop7
I0312 13:48:24.591336 27432 net.cpp:408] drop7 <- fc7
I0312 13:48:24.591346 27432 net.cpp:369] drop7 -> fc7 (in-place)
I0312 13:48:24.591357 27432 net.cpp:124] Setting up drop7
I0312 13:48:24.591365 27432 net.cpp:131] Top shape: 256 4096 (1048576)
I0312 13:48:24.591370 27432 net.cpp:139] Memory required for data: 1756196864
I0312 13:48:24.591375 27432 layer_factory.hpp:77] Creating layer fc8
I0312 13:48:24.591388 27432 net.cpp:86] Creating Layer fc8
I0312 13:48:24.591394 27432 net.cpp:408] fc8 <- fc7
I0312 13:48:24.591415 27432 net.cpp:382] fc8 -> fc8
I0312 13:48:24.679209 27432 net.cpp:124] Setting up fc8
I0312 13:48:24.679260 27432 net.cpp:131] Top shape: 256 1000 (256000)
I0312 13:48:24.679265 27432 net.cpp:139] Memory required for data: 1757220864
I0312 13:48:24.679281 27432 layer_factory.hpp:77] Creating layer loss
I0312 13:48:24.679299 27432 net.cpp:86] Creating Layer loss
I0312 13:48:24.679307 27432 net.cpp:408] loss <- fc8
I0312 13:48:24.679317 27432 net.cpp:408] loss <- label
I0312 13:48:24.679329 27432 net.cpp:382] loss -> loss
I0312 13:48:24.679352 27432 layer_factory.hpp:77] Creating layer loss
…
I0312 13:48:24.681010 27432 net.cpp:296] The NetState phase (1) differed from the phase (0) specified by a rule in layer data
I0312 13:48:24.681252 27432 net.cpp:53] Initializing net from parameters: 
name: "CaffeNet"
state {
  phase: TEST
}
layer {
  name: "data"
  type: "Data"
  top: "data"
  top: "label"
  include {
    phase: TEST
  }
  transform_param {
    mirror: false
    crop_size: 227
    mean_file: "data/ilsvrc12/imagenet_mean.binaryproto"
  }
  data_param {
    source: "examples/imagenet/ilsvrc12_val_lmdb"
    batch_size: 50
    backend: LMDB
  }
}
layer {
  name: "conv1"
  type: "Convolution"
  bottom: "data"
  top: "conv1"
  param {
    lr_mult: 1
    decay_mult: 1
  }
  param {
    lr_mult: 2
    decay_mult: 0
  }
  convolution_param {
    num_output: 96
    kernel_size: 11
    stride: 4
    weight_filler {
      type: "gaussian"
      std: 0.01
    }
    bias_filler {
      type: "constant"
      value: 0
    }
  }
}
layer {
  name: "relu1"
  type: "ReLU"
  bottom: "conv1"
  top: "conv1"
}
layer {
  name: "pool1"
  type: "Pooling"
  bottom: "conv1"
  top: "pool1"
  pooling_param {
    pool: MAX
    kernel_size: 3
    stride: 2
  }
}
layer {
  name: "norm1"
  type: "LRN"
  bottom: "pool1"
  top: "norm1"
  lrn_param {
    local_size: 5
    alpha: 0.0001
    beta: 0.75
  }
}
layer {
  name: "conv2"
  type: "Convolution"
  bottom: "norm1"
  top: "conv2"
  param {
    lr_mult: 1
    decay_mult: 1
  }
  param {
    lr_mult: 2
    decay_mult: 0
  }
  convolution_param {
    num_output: 256
    pad: 2
    kernel_size: 5
    group: 2
    weight_filler {
      type: "gaussian"
      std: 0.01
    }
    bias_filler {
      type: "constant"
      value: 1
    }
  }
}
layer {
  name: "relu2"
  type: "ReLU"
  bottom: "conv2"
  top: "conv2"
}
layer {
  name: "pool2"
  type: "Pooling"
  bottom: "conv2"
  top: "pool2"
  pooling_param {
    pool: MAX
    kernel_size: 3
    stride: 2
  }
}
layer {
  name: "norm2"
  type: "LRN"
  bottom: "pool2"
  top: "norm2"
  lrn_param {
    local_size: 5
    alpha: 0.0001
    beta: 0.75
  }
}
layer {
  name: "conv3"
  type: "Convolution"
  bottom: "norm2"
  top: "conv3"
  param {
    lr_mult: 1
    decay_mult: 1
  }
  param {
    lr_mult: 2
    decay_mult: 0
  }
  convolution_param {
    num_output: 384
    pad: 1
    kernel_size: 3
    weight_filler {
      type: "gaussian"
      std: 0.01
    }
    bias_filler {
      type: "constant"
      value: 0
    }
  }
}
layer {
  name: "relu3"
  type: "ReLU"
  bottom: "conv3"
  top: "conv3"
}
layer {
  name: "conv4"
  type: "Convolution"
  bottom: "conv3"
  top: "conv4"
  param {
    lr_mult: 1
    decay_mult: 1
  }
  param {
    lr_mult: 2
    decay_mult: 0
  }
  convolution_param {
    num_output: 384
    pad: 1
    kernel_size: 3
    group: 2
    weight_filler {
      type: "gaussian"
      std: 0.01
    }
    bias_filler {
      type: "constant"
      value: 1
    }
  }
}
layer {
  name: "relu4"
  type: "ReLU"
  bottom: "conv4"
  top: "conv4"
}
layer {
  name: "conv5"
  type: "Convolution"
  bottom: "conv4"
  top: "conv5"
  param {
    lr_mult: 1
    decay_mult: 1
  }
  param {
    lr_mult: 2
    decay_mult: 0
  }
  convolution_param {
    num_output: 256
    pad: 1
    kernel_size: 3
    group: 2
    weight_filler {
      type: "gaussian"
      std: 0.01
    }
    bias_filler {
      type: "constant"
      value: 1
    }
  }
}
layer {
  name: "relu5"
  type: "ReLU"
  bottom: "conv5"
  top: "conv5"
}
layer {
  name: "pool5"
  type: "Pooling"
  bottom: "conv5"
  top: "pool5"
  pooling_param {
    pool: MAX
    kernel_size: 3
    stride: 2
  }
}
layer {
  name: "fc6"
  type: "InnerProduct"
  bottom: "pool5"
  top: "fc6"
  param {
    lr_mult: 1
    decay_mult: 1
  }
  param {
    lr_mult: 2
    decay_mult: 0
  }
  inner_product_param {
    num_output: 4096
    weight_filler {
      type: "gaussian"
      std: 0.005
    }
    bias_filler {
      type: "constant"
      value: 1
    }
  }
}
layer {
  name: "relu6"
  type: "ReLU"
  bottom: "fc6"
  top: "fc6"
}
layer {
  name: "drop6"
  type: "Dropout"
  bottom: "fc6"
  top: "fc6"
  dropout_param {
    dropout_ratio: 0.5
  }
}
layer {
  name: "fc7"
  type: "InnerProduct"
  bottom: "fc6"
  top: "fc7"
  param {
    lr_mult: 1
    decay_mult: 1
  }
  param {
    lr_mult: 2
    decay_mult: 0
  }
  inner_product_param {
    num_output: 4096
    weight_filler {
      type: "gaussian"
      std: 0.005
    }
    bias_filler {
      type: "constant"
      value: 1
    }
  }
}
layer {
  name: "relu7"
  type: "ReLU"
  bottom: "fc7"
  top: "fc7"
}
layer {
  name: "drop7"
  type: "Dropout"
  bottom: "fc7"
  top: "fc7"
  dropout_param {
    dropout_ratio: 0.5
  }
}
layer {
  name: "fc8"
  type: "InnerProduct"
  bottom: "fc7"
  top: "fc8"
  param {
    lr_mult: 1
    decay_mult: 1
  }
  param {
    lr_mult: 2
    decay_mult: 0
  }
  inner_product_param {
    num_output: 1000
    weight_filler {
      type: "gaussian"
      std: 0.01
    }
    bias_filler {
      type: "constant"
      value: 0
    }
  }
}
layer {
  name: "accuracy"
  type: "Accuracy"
  bottom: "fc8"
  bottom: "label"
  top: "accuracy"
  include {
    phase: TEST
  }
}
layer {
  name: "loss"
  type: "SoftmaxWithLoss"
  bottom: "fc8"
  bottom: "label"
  top: "loss"
}
I0312 13:48:24.681407 27432 layer_factory.hpp:77] Creating layer data
I0312 13:48:24.681496 27432 db_lmdb.cpp:35] Opened lmdb examples/imagenet/ilsvrc12_val_lmdb
I0312 13:48:24.681531 27432 net.cpp:86] Creating Layer data
I0312 13:48:24.681542 27432 net.cpp:382] data -> data
I0312 13:48:24.681558 27432 net.cpp:382] data -> label
I0312 13:48:24.681571 27432 data_transformer.cpp:25] Loading mean file from: data/ilsvrc12/imagenet_mean.binaryproto
I0312 13:48:24.683289 27432 data_layer.cpp:45] output data size: 50,3,227,227
I0312 13:48:24.926964 27432 net.cpp:124] Setting up data
I0312 13:48:24.927017 27432 net.cpp:131] Top shape: 50 3 227 227 (7729350)
I0312 13:48:24.927026 27432 net.cpp:131] Top shape: 50 (50)
I0312 13:48:24.927031 27432 net.cpp:139] Memory required for data: 30917600
I0312 13:48:24.927042 27432 layer_factory.hpp:77] Creating layer label_data_1_split
I0312 13:48:24.927059 27432 net.cpp:86] Creating Layer label_data_1_split
I0312 13:48:24.927067 27432 net.cpp:408] label_data_1_split <- label
I0312 13:48:24.927078 27432 net.cpp:382] label_data_1_split -> label_data_1_split_0
I0312 13:48:24.927095 27432 net.cpp:382] label_data_1_split -> label_data_1_split_1
I0312 13:48:24.927109 27432 net.cpp:124] Setting up label_data_1_split
I0312 13:48:24.927117 27432 net.cpp:131] Top shape: 50 (50)
I0312 13:48:24.927124 27432 net.cpp:131] Top shape: 50 (50)
I0312 13:48:24.927129 27432 net.cpp:139] Memory required for data: 30918000
I0312 13:48:24.927134 27432 layer_factory.hpp:77] Creating layer conv1
I0312 13:48:24.927152 27432 net.cpp:86] Creating Layer conv1
I0312 13:48:24.927158 27432 net.cpp:408] conv1 <- data
I0312 13:48:24.927168 27432 net.cpp:382] conv1 -> conv1
I0312 13:48:24.928949 27432 net.cpp:124] Setting up conv1
I0312 13:48:24.928968 27432 net.cpp:131] Top shape: 50 96 55 55 (14520000)
I0312 13:48:24.928973 27432 net.cpp:139] Memory required for data: 88998000
I0312 13:48:24.928990 27432 layer_factory.hpp:77] Creating layer relu1
I0312 13:48:24.929000 27432 net.cpp:86] Creating Layer relu1
I0312 13:48:24.929006 27432 net.cpp:408] relu1 <- conv1
I0312 13:48:24.929014 27432 net.cpp:369] relu1 -> conv1 (in-place)
I0312 13:48:24.929214 27432 net.cpp:124] Setting up relu1
I0312 13:48:24.929227 27432 net.cpp:131] Top shape: 50 96 55 55 (14520000)
I0312 13:48:24.929234 27432 net.cpp:139] Memory required for data: 147078000
I0312 13:48:24.929239 27432 layer_factory.hpp:77] Creating layer pool1
I0312 13:48:24.929251 27432 net.cpp:86] Creating Layer pool1
I0312 13:48:24.929257 27432 net.cpp:408] pool1 <- conv1
I0312 13:48:24.929265 27432 net.cpp:382] pool1 -> pool1
I0312 13:48:24.929280 27432 net.cpp:124] Setting up pool1
I0312 13:48:24.929288 27432 net.cpp:131] Top shape: 50 96 27 27 (3499200)
I0312 13:48:24.929294 27432 net.cpp:139] Memory required for data: 161074800
I0312 13:48:24.929299 27432 layer_factory.hpp:77] Creating layer norm1
I0312 13:48:24.929309 27432 net.cpp:86] Creating Layer norm1
I0312 13:48:24.929314 27432 net.cpp:408] norm1 <- pool1
I0312 13:48:24.929322 27432 net.cpp:382] norm1 -> norm1
I0312 13:48:24.929677 27432 net.cpp:124] Setting up norm1
I0312 13:48:24.929692 27432 net.cpp:131] Top shape: 50 96 27 27 (3499200)
I0312 13:48:24.929697 27432 net.cpp:139] Memory required for data: 175071600
I0312 13:48:24.929703 27432 layer_factory.hpp:77] Creating layer conv2
I0312 13:48:24.929718 27432 net.cpp:86] Creating Layer conv2
I0312 13:48:24.929723 27432 net.cpp:408] conv2 <- norm1
I0312 13:48:24.929733 27432 net.cpp:382] conv2 -> conv2
I0312 13:48:24.936447 27432 net.cpp:124] Setting up conv2
I0312 13:48:24.936496 27432 net.cpp:131] Top shape: 50 256 27 27 (9331200)
I0312 13:48:24.936501 27432 net.cpp:139] Memory required for data: 212396400
I0312 13:48:24.936524 27432 layer_factory.hpp:77] Creating layer relu2
I0312 13:48:24.936540 27432 net.cpp:86] Creating Layer relu2
I0312 13:48:24.936547 27432 net.cpp:408] relu2 <- conv2
I0312 13:48:24.936558 27432 net.cpp:369] relu2 -> conv2 (in-place)
I0312 13:48:24.936947 27432 net.cpp:124] Setting up relu2
I0312 13:48:24.936964 27432 net.cpp:131] Top shape: 50 256 27 27 (9331200)
I0312 13:48:24.936981 27432 net.cpp:139] Memory required for data: 249721200
I0312 13:48:24.937002 27432 layer_factory.hpp:77] Creating layer pool2
I0312 13:48:24.937018 27432 net.cpp:86] Creating Layer pool2
I0312 13:48:24.937026 27432 net.cpp:408] pool2 <- conv2
I0312 13:48:24.937034 27432 net.cpp:382] pool2 -> pool2
I0312 13:48:24.937054 27432 net.cpp:124] Setting up pool2
I0312 13:48:24.937063 27432 net.cpp:131] Top shape: 50 256 13 13 (2163200)
I0312 13:48:24.937068 27432 net.cpp:139] Memory required for data: 258374000
I0312 13:48:24.937074 27432 layer_factory.hpp:77] Creating layer norm2
I0312 13:48:24.937085 27432 net.cpp:86] Creating Layer norm2
I0312 13:48:24.937093 27432 net.cpp:408] norm2 <- pool2
I0312 13:48:24.937100 27432 net.cpp:382] norm2 -> norm2
I0312 13:48:24.937312 27432 net.cpp:124] Setting up norm2
I0312 13:48:24.937327 27432 net.cpp:131] Top shape: 50 256 13 13 (2163200)
I0312 13:48:24.937333 27432 net.cpp:139] Memory required for data: 267026800
I0312 13:48:24.937340 27432 layer_factory.hpp:77] Creating layer conv3
I0312 13:48:24.937356 27432 net.cpp:86] Creating Layer conv3
I0312 13:48:24.937363 27432 net.cpp:408] conv3 <- norm2
I0312 13:48:24.937373 27432 net.cpp:382] conv3 -> conv3
I0312 13:48:24.954531 27432 net.cpp:124] Setting up conv3
I0312 13:48:24.954581 27432 net.cpp:131] Top shape: 50 384 13 13 (3244800)
I0312 13:48:24.954586 27432 net.cpp:139] Memory required for data: 280006000
I0312 13:48:24.954610 27432 layer_factory.hpp:77] Creating layer relu3
I0312 13:48:24.954625 27432 net.cpp:86] Creating Layer relu3
I0312 13:48:24.954633 27432 net.cpp:408] relu3 <- conv3
I0312 13:48:24.954644 27432 net.cpp:369] relu3 -> conv3 (in-place)
I0312 13:48:24.955021 27432 net.cpp:124] Setting up relu3
I0312 13:48:24.955037 27432 net.cpp:131] Top shape: 50 384 13 13 (3244800)
I0312 13:48:24.955044 27432 net.cpp:139] Memory required for data: 292985200
I0312 13:48:24.955049 27432 layer_factory.hpp:77] Creating layer conv4
I0312 13:48:24.955066 27432 net.cpp:86] Creating Layer conv4
I0312 13:48:24.955073 27432 net.cpp:408] conv4 <- conv3
I0312 13:48:24.955086 27432 net.cpp:382] conv4 -> conv4
I0312 13:48:24.967653 27432 net.cpp:124] Setting up conv4
I0312 13:48:24.967700 27432 net.cpp:131] Top shape: 50 384 13 13 (3244800)
I0312 13:48:24.967707 27432 net.cpp:139] Memory required for data: 305964400
I0312 13:48:24.967722 27432 layer_factory.hpp:77] Creating layer relu4
I0312 13:48:24.967738 27432 net.cpp:86] Creating Layer relu4
I0312 13:48:24.967747 27432 net.cpp:408] relu4 <- conv4
I0312 13:48:24.967758 27432 net.cpp:369] relu4 -> conv4 (in-place)
I0312 13:48:24.968150 27432 net.cpp:124] Setting up relu4
I0312 13:48:24.968169 27432 net.cpp:131] Top shape: 50 384 13 13 (3244800)
I0312 13:48:24.968175 27432 net.cpp:139] Memory required for data: 318943600
I0312 13:48:24.968181 27432 layer_factory.hpp:77] Creating layer conv5
I0312 13:48:24.968199 27432 net.cpp:86] Creating Layer conv5
I0312 13:48:24.968205 27432 net.cpp:408] conv5 <- conv4
I0312 13:48:24.968226 27432 net.cpp:382] conv5 -> conv5
I0312 13:48:24.977510 27432 net.cpp:124] Setting up conv5
I0312 13:48:24.977560 27432 net.cpp:131] Top shape: 50 256 13 13 (2163200)
I0312 13:48:24.977566 27432 net.cpp:139] Memory required for data: 327596400
I0312 13:48:24.977588 27432 layer_factory.hpp:77] Creating layer relu5
I0312 13:48:24.977604 27432 net.cpp:86] Creating Layer relu5
I0312 13:48:24.977612 27432 net.cpp:408] relu5 <- conv5
I0312 13:48:24.977622 27432 net.cpp:369] relu5 -> conv5 (in-place)
I0312 13:48:24.977850 27432 net.cpp:124] Setting up relu5
I0312 13:48:24.977866 27432 net.cpp:131] Top shape: 50 256 13 13 (2163200)
I0312 13:48:24.977872 27432 net.cpp:139] Memory required for data: 336249200
I0312 13:48:24.977879 27432 layer_factory.hpp:77] Creating layer pool5
I0312 13:48:24.977895 27432 net.cpp:86] Creating Layer pool5
I0312 13:48:24.977900 27432 net.cpp:408] pool5 <- conv5
I0312 13:48:24.977910 27432 net.cpp:382] pool5 -> pool5
I0312 13:48:24.977926 27432 net.cpp:124] Setting up pool5
I0312 13:48:24.977933 27432 net.cpp:131] Top shape: 50 256 6 6 (460800)
I0312 13:48:24.977963 27432 net.cpp:139] Memory required for data: 338092400
I0312 13:48:24.977969 27432 layer_factory.hpp:77] Creating layer fc6
I0312 13:48:24.977983 27432 net.cpp:86] Creating Layer fc6
I0312 13:48:24.977989 27432 net.cpp:408] fc6 <- pool5
I0312 13:48:24.977998 27432 net.cpp:382] fc6 -> fc6
I0312 13:48:25.825764 27432 net.cpp:124] Setting up fc6
I0312 13:48:25.825820 27432 net.cpp:131] Top shape: 50 4096 (204800)
I0312 13:48:25.825826 27432 net.cpp:139] Memory required for data: 338911600
I0312 13:48:25.825845 27432 layer_factory.hpp:77] Creating layer relu6
I0312 13:48:25.825866 27432 net.cpp:86] Creating Layer relu6
I0312 13:48:25.825875 27432 net.cpp:408] relu6 <- fc6
I0312 13:48:25.825888 27432 net.cpp:369] relu6 -> fc6 (in-place)
I0312 13:48:25.826494 27432 net.cpp:124] Setting up relu6
I0312 13:48:25.826511 27432 net.cpp:131] Top shape: 50 4096 (204800)
I0312 13:48:25.826517 27432 net.cpp:139] Memory required for data: 339730800
I0312 13:48:25.826524 27432 layer_factory.hpp:77] Creating layer drop6
I0312 13:48:25.826534 27432 net.cpp:86] Creating Layer drop6
I0312 13:48:25.826540 27432 net.cpp:408] drop6 <- fc6
I0312 13:48:25.826550 27432 net.cpp:369] drop6 -> fc6 (in-place)
I0312 13:48:25.826563 27432 net.cpp:124] Setting up drop6
I0312 13:48:25.826571 27432 net.cpp:131] Top shape: 50 4096 (204800)
I0312 13:48:25.826576 27432 net.cpp:139] Memory required for data: 340550000
I0312 13:48:25.826582 27432 layer_factory.hpp:77] Creating layer fc7
I0312 13:48:25.826592 27432 net.cpp:86] Creating Layer fc7
I0312 13:48:25.826598 27432 net.cpp:408] fc7 <- fc6
I0312 13:48:25.826609 27432 net.cpp:382] fc7 -> fc7
I0312 13:48:26.196995 27432 net.cpp:124] Setting up fc7
I0312 13:48:26.197046 27432 net.cpp:131] Top shape: 50 4096 (204800)
I0312 13:48:26.197052 27432 net.cpp:139] Memory required for data: 341369200
I0312 13:48:26.197067 27432 layer_factory.hpp:77] Creating layer relu7
I0312 13:48:26.197083 27432 net.cpp:86] Creating Layer relu7
I0312 13:48:26.197090 27432 net.cpp:408] relu7 <- fc7
I0312 13:48:26.197103 27432 net.cpp:369] relu7 -> fc7 (in-place)
I0312 13:48:26.197438 27432 net.cpp:124] Setting up relu7
I0312 13:48:26.197453 27432 net.cpp:131] Top shape: 50 4096 (204800)
I0312 13:48:26.197458 27432 net.cpp:139] Memory required for data: 342188400
I0312 13:48:26.197464 27432 layer_factory.hpp:77] Creating layer drop7
I0312 13:48:26.197477 27432 net.cpp:86] Creating Layer drop7
I0312 13:48:26.197484 27432 net.cpp:408] drop7 <- fc7
I0312 13:48:26.197491 27432 net.cpp:369] drop7 -> fc7 (in-place)
I0312 13:48:26.197505 27432 net.cpp:124] Setting up drop7
I0312 13:48:26.197512 27432 net.cpp:131] Top shape: 50 4096 (204800)
I0312 13:48:26.197518 27432 net.cpp:139] Memory required for data: 343007600
I0312 13:48:26.197523 27432 layer_factory.hpp:77] Creating layer fc8
I0312 13:48:26.197535 27432 net.cpp:86] Creating Layer fc8
I0312 13:48:26.197540 27432 net.cpp:408] fc8 <- fc7
I0312 13:48:26.197551 27432 net.cpp:382] fc8 -> fc8
I0312 13:48:26.286689 27432 net.cpp:124] Setting up fc8
I0312 13:48:26.286737 27432 net.cpp:131] Top shape: 50 1000 (50000)
I0312 13:48:26.286742 27432 net.cpp:139] Memory required for data: 343207600
I0312 13:48:26.286758 27432 layer_factory.hpp:77] Creating layer fc8_fc8_0_split
I0312 13:48:26.286772 27432 net.cpp:86] Creating Layer fc8_fc8_0_split
I0312 13:48:26.286779 27432 net.cpp:408] fc8_fc8_0_split <- fc8
I0312 13:48:26.286790 27432 net.cpp:382] fc8_fc8_0_split -> fc8_fc8_0_split_0
I0312 13:48:26.286815 27432 net.cpp:382] fc8_fc8_0_split -> fc8_fc8_0_split_1
I0312 13:48:26.286828 27432 net.cpp:124] Setting up fc8_fc8_0_split
I0312 13:48:26.286835 27432 net.cpp:131] Top shape: 50 1000 (50000)
I0312 13:48:26.286841 27432 net.cpp:131] Top shape: 50 1000 (50000)
I0312 13:48:26.286847 27432 net.cpp:139] Memory required for data: 343607600
I0312 13:48:26.286852 27432 layer_factory.hpp:77] Creating layer accuracy
I0312 13:48:26.286862 27432 net.cpp:86] Creating Layer accuracy
I0312 13:48:26.286869 27432 net.cpp:408] accuracy <- fc8_fc8_0_split_0
I0312 13:48:26.286888 27432 net.cpp:408] accuracy <- label_data_1_split_0
I0312 13:48:26.286918 27432 net.cpp:382] accuracy -> accuracy
…
