…
I0403 23:14:58.516381  7029 net.cpp:296] The NetState phase (0) differed from the phase (1) specified by a rule in layer accuracy
I0403 23:14:58.516613  7029 net.cpp:53] Initializing net from parameters: 
name: "CaffeNet"
state {
  phase: TRAIN
  level: 0
  stage: ""
}
layer {
  name: "data"
  type: "Data"
  top: "data"
  top: "label"
  include {
    phase: TRAIN
  }
  transform_param {
    mirror: true
    crop_size: 227
    mean_file: "data/ilsvrc12/imagenet_mean.binaryproto"
  }
  data_param {
    source: "examples/imagenet/ilsvrc12_train_lmdb"
    batch_size: 256
    backend: LMDB
  }
}
layer {
  name: "conv1"
  type: "Convolution"
  bottom: "data"
  top: "conv1"
  param {
    lr_mult: 1
    decay_mult: 1
  }
  param {
    lr_mult: 2
    decay_mult: 0
  }
  convolution_param {
    num_output: 96
    kernel_size: 11
    stride: 4
    weight_filler {
      type: "gaussian"
      std: 0.01
    }
    bias_filler {
      type: "constant"
      value: 0
    }
  }
}
layer {
  name: "relu1"
  type: "ReLU"
  bottom: "conv1"
  top: "conv1"
}
layer {
  name: "pool1"
  type: "Pooling"
  bottom: "conv1"
  top: "pool1"
  pooling_param {
    pool: MAX
    kernel_size: 3
    stride: 2
  }
}
layer {
  name: "norm1"
  type: "LRN"
  bottom: "pool1"
  top: "norm1"
  lrn_param {
    local_size: 5
    alpha: 0.0001
    beta: 0.75
  }
}
layer {
  name: "conv2"
  type: "Convolution"
  bottom: "norm1"
  top: "conv2"
  param {
    lr_mult: 1
    decay_mult: 1
  }
  param {
    lr_mult: 2
    decay_mult: 0
  }
  convolution_param {
    num_output: 256
    pad: 2
    kernel_size: 5
    group: 2
    weight_filler {
      type: "gaussian"
      std: 0.01
    }
    bias_filler {
      type: "constant"
      value: 1
    }
  }
}
layer {
  name: "relu2"
  type: "ReLU"
  bottom: "conv2"
  top: "conv2"
}
layer {
  name: "pool2"
  type: "Pooling"
  bottom: "conv2"
  top: "pool2"
  pooling_param {
    pool: MAX
    kernel_size: 3
    stride: 2
  }
}
layer {
  name: "norm2"
  type: "LRN"
  bottom: "pool2"
  top: "norm2"
  lrn_param {
    local_size: 5
    alpha: 0.0001
    beta: 0.75
  }
}
layer {
  name: "conv3"
  type: "Convolution"
  bottom: "norm2"
  top: "conv3"
  param {
    lr_mult: 1
    decay_mult: 1
  }
  param {
    lr_mult: 2
    decay_mult: 0
  }
  convolution_param {
    num_output: 384
    pad: 1
    kernel_size: 3
    weight_filler {
      type: "gaussian"
      std: 0.01
    }
    bias_filler {
      type: "constant"
      value: 0
    }
  }
}
layer {
  name: "relu3"
  type: "ReLU"
  bottom: "conv3"
  top: "conv3"
}
layer {
  name: "conv4"
  type: "Convolution"
  bottom: "conv3"
  top: "conv4"
  param {
    lr_mult: 1
    decay_mult: 1
  }
  param {
    lr_mult: 2
    decay_mult: 0
  }
  convolution_param {
    num_output: 384
    pad: 1
    kernel_size: 3
    group: 2
    weight_filler {
      type: "gaussian"
      std: 0.01
    }
    bias_filler {
      type: "constant"
      value: 1
    }
  }
}
layer {
  name: "relu4"
  type: "ReLU"
  bottom: "conv4"
  top: "conv4"
}
layer {
  name: "conv5"
  type: "Convolution"
  bottom: "conv4"
  top: "conv5"
  param {
    lr_mult: 1
    decay_mult: 1
  }
  param {
    lr_mult: 2
    decay_mult: 0
  }
  convolution_param {
    num_output: 256
    pad: 1
    kernel_size: 3
    group: 2
    weight_filler {
      type: "gaussian"
      std: 0.01
    }
    bias_filler {
      type: "constant"
      value: 1
    }
  }
}
layer {
  name: "relu5"
  type: "ReLU"
  bottom: "conv5"
  top: "conv5"
}
layer {
  name: "pool5"
  type: "Pooling"
  bottom: "conv5"
  top: "pool5"
  pooling_param {
    pool: MAX
    kernel_size: 3
    stride: 2
  }
}
layer {
  name: "fc6"
  type: "InnerProduct"
  bottom: "pool5"
  top: "fc6"
  param {
    lr_mult: 1
    decay_mult: 1
  }
  param {
    lr_mult: 2
    decay_mult: 0
  }
  inner_product_param {
    num_output: 4096
    weight_filler {
      type: "gaussian"
      std: 0.005
    }
    bias_filler {
      type: "constant"
      value: 1
    }
  }
}
layer {
  name: "relu6"
  type: "ReLU"
  bottom: "fc6"
  top: "fc6"
}
layer {
  name: "drop6"
  type: "Dropout"
  bottom: "fc6"
  top: "fc6"
  dropout_param {
    dropout_ratio: 0.5
  }
}
layer {
  name: "fc7"
  type: "InnerProduct"
  bottom: "fc6"
  top: "fc7"
  param {
    lr_mult: 1
    decay_mult: 1
  }
  param {
    lr_mult: 2
    decay_mult: 0
  }
  inner_product_param {
    num_output: 4096
    weight_filler {
      type: "gaussian"
      std: 0.005
    }
    bias_filler {
      type: "constant"
      value: 1
    }
  }
}
layer {
  name: "relu7"
  type: "ReLU"
  bottom: "fc7"
  top: "fc7"
}
layer {
  name: "drop7"
  type: "Dropout"
  bottom: "fc7"
  top: "fc7"
  dropout_param {
    dropout_ratio: 0.5
  }
}
layer {
  name: "fc8"
  type: "InnerProduct"
  bottom: "fc7"
  top: "fc8"
  param {
    lr_mult: 1
    decay_mult: 1
  }
  param {
    lr_mult: 2
    decay_mult: 0
  }
  inner_product_param {
    num_output: 1000
    weight_filler {
      type: "gaussian"
      std: 0.01
    }
    bias_filler {
      type: "constant"
      value: 0
    }
  }
}
layer {
  name: "loss"
  type: "SoftmaxWithLoss"
  bottom: "fc8"
  bottom: "label"
  top: "loss"
}
I0403 23:14:58.516742  7029 layer_factory.hpp:77] Creating layer data
I0403 23:14:58.566304  7029 db_lmdb.cpp:35] Opened lmdb examples/imagenet/ilsvrc12_train_lmdb
I0403 23:14:58.566365  7029 net.cpp:86] Creating Layer data
I0403 23:14:58.566385  7029 net.cpp:382] data -> data
I0403 23:14:58.566452  7029 net.cpp:382] data -> label
I0403 23:14:58.566493  7029 data_transformer.cpp:25] Loading mean file from: data/ilsvrc12/imagenet_mean.binaryproto
I0403 23:14:58.572563  7029 data_layer.cpp:45] output data size: 256,3,227,227
I0403 23:14:58.998381  7029 net.cpp:124] Setting up data
I0403 23:14:58.998520  7029 net.cpp:131] Top shape: 256 3 227 227 (39574272)
I0403 23:14:58.998531  7029 net.cpp:131] Top shape: 256 (256)
I0403 23:14:58.998538  7029 net.cpp:139] Memory required for data: 158298112
I0403 23:14:58.998551  7029 layer_factory.hpp:77] Creating layer conv1
I0403 23:14:58.998582  7029 net.cpp:86] Creating Layer conv1
I0403 23:14:58.998592  7029 net.cpp:408] conv1 <- data
I0403 23:14:58.998612  7029 net.cpp:382] conv1 -> conv1
I0403 23:14:59.297658  7029 net.cpp:124] Setting up conv1
I0403 23:14:59.297711  7029 net.cpp:131] Top shape: 256 96 55 55 (74342400)
I0403 23:14:59.297719  7029 net.cpp:139] Memory required for data: 455667712
I0403 23:14:59.297752  7029 layer_factory.hpp:77] Creating layer relu1
I0403 23:14:59.297771  7029 net.cpp:86] Creating Layer relu1
I0403 23:14:59.297780  7029 net.cpp:408] relu1 <- conv1
I0403 23:14:59.297790  7029 net.cpp:369] relu1 -> conv1 (in-place)
I0403 23:14:59.298188  7029 net.cpp:124] Setting up relu1
I0403 23:14:59.298204  7029 net.cpp:131] Top shape: 256 96 55 55 (74342400)
I0403 23:14:59.298210  7029 net.cpp:139] Memory required for data: 753037312
I0403 23:14:59.298216  7029 layer_factory.hpp:77] Creating layer pool1
I0403 23:14:59.298228  7029 net.cpp:86] Creating Layer pool1
I0403 23:14:59.298233  7029 net.cpp:408] pool1 <- conv1
I0403 23:14:59.298243  7029 net.cpp:382] pool1 -> pool1
I0403 23:14:59.298308  7029 net.cpp:124] Setting up pool1
I0403 23:14:59.298321  7029 net.cpp:131] Top shape: 256 96 27 27 (17915904)
I0403 23:14:59.298326  7029 net.cpp:139] Memory required for data: 824700928
I0403 23:14:59.298331  7029 layer_factory.hpp:77] Creating layer norm1
I0403 23:14:59.298346  7029 net.cpp:86] Creating Layer norm1
I0403 23:14:59.298365  7029 net.cpp:408] norm1 <- pool1
I0403 23:14:59.298385  7029 net.cpp:382] norm1 -> norm1
I0403 23:14:59.298638  7029 net.cpp:124] Setting up norm1
I0403 23:14:59.298655  7029 net.cpp:131] Top shape: 256 96 27 27 (17915904)
I0403 23:14:59.298661  7029 net.cpp:139] Memory required for data: 896364544
I0403 23:14:59.298667  7029 layer_factory.hpp:77] Creating layer conv2
I0403 23:14:59.298686  7029 net.cpp:86] Creating Layer conv2
I0403 23:14:59.298692  7029 net.cpp:408] conv2 <- norm1
I0403 23:14:59.298702  7029 net.cpp:382] conv2 -> conv2
I0403 23:14:59.306828  7029 net.cpp:124] Setting up conv2
I0403 23:14:59.306876  7029 net.cpp:131] Top shape: 256 256 27 27 (47775744)
I0403 23:14:59.306882  7029 net.cpp:139] Memory required for data: 1087467520
I0403 23:14:59.306902  7029 layer_factory.hpp:77] Creating layer relu2
I0403 23:14:59.306917  7029 net.cpp:86] Creating Layer relu2
I0403 23:14:59.306926  7029 net.cpp:408] relu2 <- conv2
I0403 23:14:59.306938  7029 net.cpp:369] relu2 -> conv2 (in-place)
I0403 23:14:59.307183  7029 net.cpp:124] Setting up relu2
I0403 23:14:59.307199  7029 net.cpp:131] Top shape: 256 256 27 27 (47775744)
I0403 23:14:59.307204  7029 net.cpp:139] Memory required for data: 1278570496
I0403 23:14:59.307209  7029 layer_factory.hpp:77] Creating layer pool2
I0403 23:14:59.307222  7029 net.cpp:86] Creating Layer pool2
I0403 23:14:59.307229  7029 net.cpp:408] pool2 <- conv2
I0403 23:14:59.307237  7029 net.cpp:382] pool2 -> pool2
I0403 23:14:59.307299  7029 net.cpp:124] Setting up pool2
I0403 23:14:59.307310  7029 net.cpp:131] Top shape: 256 256 13 13 (11075584)
I0403 23:14:59.307317  7029 net.cpp:139] Memory required for data: 1322872832
I0403 23:14:59.307322  7029 layer_factory.hpp:77] Creating layer norm2
I0403 23:14:59.307337  7029 net.cpp:86] Creating Layer norm2
I0403 23:14:59.307343  7029 net.cpp:408] norm2 <- pool2
I0403 23:14:59.307351  7029 net.cpp:382] norm2 -> norm2
I0403 23:14:59.307804  7029 net.cpp:124] Setting up norm2
I0403 23:14:59.307821  7029 net.cpp:131] Top shape: 256 256 13 13 (11075584)
I0403 23:14:59.307826  7029 net.cpp:139] Memory required for data: 1367175168
I0403 23:14:59.307832  7029 layer_factory.hpp:77] Creating layer conv3
I0403 23:14:59.307850  7029 net.cpp:86] Creating Layer conv3
I0403 23:14:59.307859  7029 net.cpp:408] conv3 <- norm2
I0403 23:14:59.307869  7029 net.cpp:382] conv3 -> conv3
I0403 23:14:59.323473  7029 net.cpp:124] Setting up conv3
I0403 23:14:59.323519  7029 net.cpp:131] Top shape: 256 384 13 13 (16613376)
I0403 23:14:59.323526  7029 net.cpp:139] Memory required for data: 1433628672
I0403 23:14:59.323546  7029 layer_factory.hpp:77] Creating layer relu3
I0403 23:14:59.323562  7029 net.cpp:86] Creating Layer relu3
I0403 23:14:59.323570  7029 net.cpp:408] relu3 <- conv3
I0403 23:14:59.323581  7029 net.cpp:369] relu3 -> conv3 (in-place)
I0403 23:14:59.323801  7029 net.cpp:124] Setting up relu3
I0403 23:14:59.323815  7029 net.cpp:131] Top shape: 256 384 13 13 (16613376)
I0403 23:14:59.323820  7029 net.cpp:139] Memory required for data: 1500082176
I0403 23:14:59.323827  7029 layer_factory.hpp:77] Creating layer conv4
I0403 23:14:59.323844  7029 net.cpp:86] Creating Layer conv4
I0403 23:14:59.323851  7029 net.cpp:408] conv4 <- conv3
I0403 23:14:59.323861  7029 net.cpp:382] conv4 -> conv4
I0403 23:14:59.336937  7029 net.cpp:124] Setting up conv4
I0403 23:14:59.336983  7029 net.cpp:131] Top shape: 256 384 13 13 (16613376)
I0403 23:14:59.336989  7029 net.cpp:139] Memory required for data: 1566535680
I0403 23:14:59.337003  7029 layer_factory.hpp:77] Creating layer relu4
I0403 23:14:59.337018  7029 net.cpp:86] Creating Layer relu4
I0403 23:14:59.337026  7029 net.cpp:408] relu4 <- conv4
I0403 23:14:59.337039  7029 net.cpp:369] relu4 -> conv4 (in-place)
I0403 23:14:59.337270  7029 net.cpp:124] Setting up relu4
I0403 23:14:59.337285  7029 net.cpp:131] Top shape: 256 384 13 13 (16613376)
I0403 23:14:59.337291  7029 net.cpp:139] Memory required for data: 1632989184
I0403 23:14:59.337297  7029 layer_factory.hpp:77] Creating layer conv5
I0403 23:14:59.337326  7029 net.cpp:86] Creating Layer conv5
I0403 23:14:59.337344  7029 net.cpp:408] conv5 <- conv4
I0403 23:14:59.337357  7029 net.cpp:382] conv5 -> conv5
I0403 23:14:59.347591  7029 net.cpp:124] Setting up conv5
I0403 23:14:59.347640  7029 net.cpp:131] Top shape: 256 256 13 13 (11075584)
I0403 23:14:59.347646  7029 net.cpp:139] Memory required for data: 1677291520
I0403 23:14:59.347669  7029 layer_factory.hpp:77] Creating layer relu5
I0403 23:14:59.347683  7029 net.cpp:86] Creating Layer relu5
I0403 23:14:59.347692  7029 net.cpp:408] relu5 <- conv5
I0403 23:14:59.347702  7029 net.cpp:369] relu5 -> conv5 (in-place)
I0403 23:14:59.347926  7029 net.cpp:124] Setting up relu5
I0403 23:14:59.347944  7029 net.cpp:131] Top shape: 256 256 13 13 (11075584)
I0403 23:14:59.347949  7029 net.cpp:139] Memory required for data: 1721593856
I0403 23:14:59.347955  7029 layer_factory.hpp:77] Creating layer pool5
I0403 23:14:59.347966  7029 net.cpp:86] Creating Layer pool5
I0403 23:14:59.347972  7029 net.cpp:408] pool5 <- conv5
I0403 23:14:59.347981  7029 net.cpp:382] pool5 -> pool5
I0403 23:14:59.348043  7029 net.cpp:124] Setting up pool5
I0403 23:14:59.348055  7029 net.cpp:131] Top shape: 256 256 6 6 (2359296)
I0403 23:14:59.348060  7029 net.cpp:139] Memory required for data: 1731031040
I0403 23:14:59.348067  7029 layer_factory.hpp:77] Creating layer fc6
I0403 23:14:59.348083  7029 net.cpp:86] Creating Layer fc6
I0403 23:14:59.348090  7029 net.cpp:408] fc6 <- pool5
I0403 23:14:59.348099  7029 net.cpp:382] fc6 -> fc6
I0403 23:15:00.123780  7029 net.cpp:124] Setting up fc6
I0403 23:15:00.123834  7029 net.cpp:131] Top shape: 256 4096 (1048576)
I0403 23:15:00.123842  7029 net.cpp:139] Memory required for data: 1735225344
I0403 23:15:00.123857  7029 layer_factory.hpp:77] Creating layer relu6
I0403 23:15:00.123874  7029 net.cpp:86] Creating Layer relu6
I0403 23:15:00.123883  7029 net.cpp:408] relu6 <- fc6
I0403 23:15:00.123894  7029 net.cpp:369] relu6 -> fc6 (in-place)
I0403 23:15:00.124495  7029 net.cpp:124] Setting up relu6
I0403 23:15:00.124512  7029 net.cpp:131] Top shape: 256 4096 (1048576)
I0403 23:15:00.124517  7029 net.cpp:139] Memory required for data: 1739419648
I0403 23:15:00.124524  7029 layer_factory.hpp:77] Creating layer drop6
I0403 23:15:00.124537  7029 net.cpp:86] Creating Layer drop6
I0403 23:15:00.124544  7029 net.cpp:408] drop6 <- fc6
I0403 23:15:00.124553  7029 net.cpp:369] drop6 -> fc6 (in-place)
I0403 23:15:00.124593  7029 net.cpp:124] Setting up drop6
I0403 23:15:00.124603  7029 net.cpp:131] Top shape: 256 4096 (1048576)
I0403 23:15:00.124608  7029 net.cpp:139] Memory required for data: 1743613952
I0403 23:15:00.124614  7029 layer_factory.hpp:77] Creating layer fc7
I0403 23:15:00.124629  7029 net.cpp:86] Creating Layer fc7
I0403 23:15:00.124647  7029 net.cpp:408] fc7 <- fc6
I0403 23:15:00.124660  7029 net.cpp:382] fc7 -> fc7
I0403 23:15:00.387809  7029 net.cpp:124] Setting up fc7
I0403 23:15:00.387859  7029 net.cpp:131] Top shape: 256 4096 (1048576)
I0403 23:15:00.387866  7029 net.cpp:139] Memory required for data: 1747808256
I0403 23:15:00.387881  7029 layer_factory.hpp:77] Creating layer relu7
I0403 23:15:00.387897  7029 net.cpp:86] Creating Layer relu7
I0403 23:15:00.387903  7029 net.cpp:408] relu7 <- fc7
I0403 23:15:00.387918  7029 net.cpp:369] relu7 -> fc7 (in-place)
I0403 23:15:00.388234  7029 net.cpp:124] Setting up relu7
I0403 23:15:00.388248  7029 net.cpp:131] Top shape: 256 4096 (1048576)
I0403 23:15:00.388254  7029 net.cpp:139] Memory required for data: 1752002560
I0403 23:15:00.388260  7029 layer_factory.hpp:77] Creating layer drop7
I0403 23:15:00.388272  7029 net.cpp:86] Creating Layer drop7
I0403 23:15:00.388278  7029 net.cpp:408] drop7 <- fc7
I0403 23:15:00.388288  7029 net.cpp:369] drop7 -> fc7 (in-place)
I0403 23:15:00.388319  7029 net.cpp:124] Setting up drop7
I0403 23:15:00.388329  7029 net.cpp:131] Top shape: 256 4096 (1048576)
I0403 23:15:00.388335  7029 net.cpp:139] Memory required for data: 1756196864
I0403 23:15:00.388340  7029 layer_factory.hpp:77] Creating layer fc8
I0403 23:15:00.388355  7029 net.cpp:86] Creating Layer fc8
I0403 23:15:00.388373  7029 net.cpp:408] fc8 <- fc7
I0403 23:15:00.388396  7029 net.cpp:382] fc8 -> fc8
I0403 23:15:00.452489  7029 net.cpp:124] Setting up fc8
I0403 23:15:00.452540  7029 net.cpp:131] Top shape: 256 1000 (256000)
I0403 23:15:00.452546  7029 net.cpp:139] Memory required for data: 1757220864
I0403 23:15:00.452561  7029 layer_factory.hpp:77] Creating layer loss
I0403 23:15:00.452579  7029 net.cpp:86] Creating Layer loss
I0403 23:15:00.452586  7029 net.cpp:408] loss <- fc8
I0403 23:15:00.452596  7029 net.cpp:408] loss <- label
I0403 23:15:00.452610  7029 net.cpp:382] loss -> loss
I0403 23:15:00.452631  7029 layer_factory.hpp:77] Creating layer loss
…
I0403 23:15:00.454638  7029 net.cpp:296] The NetState phase (1) differed from the phase (0) specified by a rule in layer data
I0403 23:15:00.454881  7029 net.cpp:53] Initializing net from parameters: 
name: "CaffeNet"
state {
  phase: TEST
}
layer {
  name: "data"
  type: "Data"
  top: "data"
  top: "label"
  include {
    phase: TEST
  }
  transform_param {
    mirror: false
    crop_size: 227
    mean_file: "data/ilsvrc12/imagenet_mean.binaryproto"
  }
  data_param {
    source: "examples/imagenet/ilsvrc12_val_lmdb"
    batch_size: 50
    backend: LMDB
  }
}
layer {
  name: "conv1"
  type: "Convolution"
  bottom: "data"
  top: "conv1"
  param {
    lr_mult: 1
    decay_mult: 1
  }
  param {
    lr_mult: 2
    decay_mult: 0
  }
  convolution_param {
    num_output: 96
    kernel_size: 11
    stride: 4
    weight_filler {
      type: "gaussian"
      std: 0.01
    }
    bias_filler {
      type: "constant"
      value: 0
    }
  }
}
layer {
  name: "relu1"
  type: "ReLU"
  bottom: "conv1"
  top: "conv1"
}
layer {
  name: "pool1"
  type: "Pooling"
  bottom: "conv1"
  top: "pool1"
  pooling_param {
    pool: MAX
    kernel_size: 3
    stride: 2
  }
}
layer {
  name: "norm1"
  type: "LRN"
  bottom: "pool1"
  top: "norm1"
  lrn_param {
    local_size: 5
    alpha: 0.0001
    beta: 0.75
  }
}
layer {
  name: "conv2"
  type: "Convolution"
  bottom: "norm1"
  top: "conv2"
  param {
    lr_mult: 1
    decay_mult: 1
  }
  param {
    lr_mult: 2
    decay_mult: 0
  }
  convolution_param {
    num_output: 256
    pad: 2
    kernel_size: 5
    group: 2
    weight_filler {
      type: "gaussian"
      std: 0.01
    }
    bias_filler {
      type: "constant"
      value: 1
    }
  }
}
layer {
  name: "relu2"
  type: "ReLU"
  bottom: "conv2"
  top: "conv2"
}
layer {
  name: "pool2"
  type: "Pooling"
  bottom: "conv2"
  top: "pool2"
  pooling_param {
    pool: MAX
    kernel_size: 3
    stride: 2
  }
}
layer {
  name: "norm2"
  type: "LRN"
  bottom: "pool2"
  top: "norm2"
  lrn_param {
    local_size: 5
    alpha: 0.0001
    beta: 0.75
  }
}
layer {
  name: "conv3"
  type: "Convolution"
  bottom: "norm2"
  top: "conv3"
  param {
    lr_mult: 1
    decay_mult: 1
  }
  param {
    lr_mult: 2
    decay_mult: 0
  }
  convolution_param {
    num_output: 384
    pad: 1
    kernel_size: 3
    weight_filler {
      type: "gaussian"
      std: 0.01
    }
    bias_filler {
      type: "constant"
      value: 0
    }
  }
}
layer {
  name: "relu3"
  type: "ReLU"
  bottom: "conv3"
  top: "conv3"
}
layer {
  name: "conv4"
  type: "Convolution"
  bottom: "conv3"
  top: "conv4"
  param {
    lr_mult: 1
    decay_mult: 1
  }
  param {
    lr_mult: 2
    decay_mult: 0
  }
  convolution_param {
    num_output: 384
    pad: 1
    kernel_size: 3
    group: 2
    weight_filler {
      type: "gaussian"
      std: 0.01
    }
    bias_filler {
      type: "constant"
      value: 1
    }
  }
}
layer {
  name: "relu4"
  type: "ReLU"
  bottom: "conv4"
  top: "conv4"
}
layer {
  name: "conv5"
  type: "Convolution"
  bottom: "conv4"
  top: "conv5"
  param {
    lr_mult: 1
    decay_mult: 1
  }
  param {
    lr_mult: 2
    decay_mult: 0
  }
  convolution_param {
    num_output: 256
    pad: 1
    kernel_size: 3
    group: 2
    weight_filler {
      type: "gaussian"
      std: 0.01
    }
    bias_filler {
      type: "constant"
      value: 1
    }
  }
}
layer {
  name: "relu5"
  type: "ReLU"
  bottom: "conv5"
  top: "conv5"
}
layer {
  name: "pool5"
  type: "Pooling"
  bottom: "conv5"
  top: "pool5"
  pooling_param {
    pool: MAX
    kernel_size: 3
    stride: 2
  }
}
layer {
  name: "fc6"
  type: "InnerProduct"
  bottom: "pool5"
  top: "fc6"
  param {
    lr_mult: 1
    decay_mult: 1
  }
  param {
    lr_mult: 2
    decay_mult: 0
  }
  inner_product_param {
    num_output: 4096
    weight_filler {
      type: "gaussian"
      std: 0.005
    }
    bias_filler {
      type: "constant"
      value: 1
    }
  }
}
layer {
  name: "relu6"
  type: "ReLU"
  bottom: "fc6"
  top: "fc6"
}
layer {
  name: "drop6"
  type: "Dropout"
  bottom: "fc6"
  top: "fc6"
  dropout_param {
    dropout_ratio: 0.5
  }
}
layer {
  name: "fc7"
  type: "InnerProduct"
  bottom: "fc6"
  top: "fc7"
  param {
    lr_mult: 1
    decay_mult: 1
  }
  param {
    lr_mult: 2
    decay_mult: 0
  }
  inner_product_param {
    num_output: 4096
    weight_filler {
      type: "gaussian"
      std: 0.005
    }
    bias_filler {
      type: "constant"
      value: 1
    }
  }
}
layer {
  name: "relu7"
  type: "ReLU"
  bottom: "fc7"
  top: "fc7"
}
layer {
  name: "drop7"
  type: "Dropout"
  bottom: "fc7"
  top: "fc7"
  dropout_param {
    dropout_ratio: 0.5
  }
}
layer {
  name: "fc8"
  type: "InnerProduct"
  bottom: "fc7"
  top: "fc8"
  param {
    lr_mult: 1
    decay_mult: 1
  }
  param {
    lr_mult: 2
    decay_mult: 0
  }
  inner_product_param {
    num_output: 1000
    weight_filler {
      type: "gaussian"
      std: 0.01
    }
    bias_filler {
      type: "constant"
      value: 0
    }
  }
}
layer {
  name: "accuracy"
  type: "Accuracy"
  bottom: "fc8"
  bottom: "label"
  top: "accuracy"
  include {
    phase: TEST
  }
}
layer {
  name: "loss"
  type: "SoftmaxWithLoss"
  bottom: "fc8"
  bottom: "label"
  top: "loss"
}
I0403 23:15:00.455039  7029 layer_factory.hpp:77] Creating layer data
I0403 23:15:00.473374  7029 db_lmdb.cpp:35] Opened lmdb examples/imagenet/ilsvrc12_val_lmdb
I0403 23:15:00.473412  7029 net.cpp:86] Creating Layer data
I0403 23:15:00.473424  7029 net.cpp:382] data -> data
I0403 23:15:00.473440  7029 net.cpp:382] data -> label
I0403 23:15:00.473453  7029 data_transformer.cpp:25] Loading mean file from: data/ilsvrc12/imagenet_mean.binaryproto
I0403 23:15:00.478410  7029 data_layer.cpp:45] output data size: 50,3,227,227
I0403 23:15:00.556345  7029 net.cpp:124] Setting up data
I0403 23:15:00.556397  7029 net.cpp:131] Top shape: 50 3 227 227 (7729350)
I0403 23:15:00.556406  7029 net.cpp:131] Top shape: 50 (50)
I0403 23:15:00.556412  7029 net.cpp:139] Memory required for data: 30917600
I0403 23:15:00.556422  7029 layer_factory.hpp:77] Creating layer label_data_1_split
I0403 23:15:00.556440  7029 net.cpp:86] Creating Layer label_data_1_split
I0403 23:15:00.556447  7029 net.cpp:408] label_data_1_split <- label
I0403 23:15:00.556459  7029 net.cpp:382] label_data_1_split -> label_data_1_split_0
I0403 23:15:00.556475  7029 net.cpp:382] label_data_1_split -> label_data_1_split_1
I0403 23:15:00.556545  7029 net.cpp:124] Setting up label_data_1_split
I0403 23:15:00.556557  7029 net.cpp:131] Top shape: 50 (50)
I0403 23:15:00.556565  7029 net.cpp:131] Top shape: 50 (50)
I0403 23:15:00.556569  7029 net.cpp:139] Memory required for data: 30918000
I0403 23:15:00.556576  7029 layer_factory.hpp:77] Creating layer conv1
I0403 23:15:00.556594  7029 net.cpp:86] Creating Layer conv1
I0403 23:15:00.556602  7029 net.cpp:408] conv1 <- data
I0403 23:15:00.556610  7029 net.cpp:382] conv1 -> conv1
I0403 23:15:00.563534  7029 net.cpp:124] Setting up conv1
I0403 23:15:00.563561  7029 net.cpp:131] Top shape: 50 96 55 55 (14520000)
I0403 23:15:00.563567  7029 net.cpp:139] Memory required for data: 88998000
I0403 23:15:00.563585  7029 layer_factory.hpp:77] Creating layer relu1
I0403 23:15:00.563596  7029 net.cpp:86] Creating Layer relu1
I0403 23:15:00.563603  7029 net.cpp:408] relu1 <- conv1
I0403 23:15:00.563611  7029 net.cpp:369] relu1 -> conv1 (in-place)
I0403 23:15:00.563855  7029 net.cpp:124] Setting up relu1
I0403 23:15:00.563871  7029 net.cpp:131] Top shape: 50 96 55 55 (14520000)
I0403 23:15:00.563876  7029 net.cpp:139] Memory required for data: 147078000
I0403 23:15:00.563882  7029 layer_factory.hpp:77] Creating layer pool1
I0403 23:15:00.563895  7029 net.cpp:86] Creating Layer pool1
I0403 23:15:00.563901  7029 net.cpp:408] pool1 <- conv1
I0403 23:15:00.563910  7029 net.cpp:382] pool1 -> pool1
I0403 23:15:00.563969  7029 net.cpp:124] Setting up pool1
I0403 23:15:00.563995  7029 net.cpp:131] Top shape: 50 96 27 27 (3499200)
I0403 23:15:00.564002  7029 net.cpp:139] Memory required for data: 161074800
I0403 23:15:00.564007  7029 layer_factory.hpp:77] Creating layer norm1
I0403 23:15:00.564018  7029 net.cpp:86] Creating Layer norm1
I0403 23:15:00.564023  7029 net.cpp:408] norm1 <- pool1
I0403 23:15:00.564033  7029 net.cpp:382] norm1 -> norm1
I0403 23:15:00.564484  7029 net.cpp:124] Setting up norm1
I0403 23:15:00.564499  7029 net.cpp:131] Top shape: 50 96 27 27 (3499200)
I0403 23:15:00.564505  7029 net.cpp:139] Memory required for data: 175071600
I0403 23:15:00.564512  7029 layer_factory.hpp:77] Creating layer conv2
I0403 23:15:00.564525  7029 net.cpp:86] Creating Layer conv2
I0403 23:15:00.564532  7029 net.cpp:408] conv2 <- norm1
I0403 23:15:00.564541  7029 net.cpp:382] conv2 -> conv2
I0403 23:15:00.571992  7029 net.cpp:124] Setting up conv2
I0403 23:15:00.572021  7029 net.cpp:131] Top shape: 50 256 27 27 (9331200)
I0403 23:15:00.572026  7029 net.cpp:139] Memory required for data: 212396400
I0403 23:15:00.572042  7029 layer_factory.hpp:77] Creating layer relu2
I0403 23:15:00.572053  7029 net.cpp:86] Creating Layer relu2
I0403 23:15:00.572060  7029 net.cpp:408] relu2 <- conv2
I0403 23:15:00.572069  7029 net.cpp:369] relu2 -> conv2 (in-place)
I0403 23:15:00.572283  7029 net.cpp:124] Setting up relu2
I0403 23:15:00.572306  7029 net.cpp:131] Top shape: 50 256 27 27 (9331200)
I0403 23:15:00.572324  7029 net.cpp:139] Memory required for data: 249721200
I0403 23:15:00.572330  7029 layer_factory.hpp:77] Creating layer pool2
I0403 23:15:00.572342  7029 net.cpp:86] Creating Layer pool2
I0403 23:15:00.572348  7029 net.cpp:408] pool2 <- conv2
I0403 23:15:00.572356  7029 net.cpp:382] pool2 -> pool2
I0403 23:15:00.572415  7029 net.cpp:124] Setting up pool2
I0403 23:15:00.572427  7029 net.cpp:131] Top shape: 50 256 13 13 (2163200)
I0403 23:15:00.572433  7029 net.cpp:139] Memory required for data: 258374000
I0403 23:15:00.572438  7029 layer_factory.hpp:77] Creating layer norm2
I0403 23:15:00.572448  7029 net.cpp:86] Creating Layer norm2
I0403 23:15:00.572454  7029 net.cpp:408] norm2 <- pool2
I0403 23:15:00.572463  7029 net.cpp:382] norm2 -> norm2
I0403 23:15:00.572887  7029 net.cpp:124] Setting up norm2
I0403 23:15:00.572903  7029 net.cpp:131] Top shape: 50 256 13 13 (2163200)
I0403 23:15:00.572909  7029 net.cpp:139] Memory required for data: 267026800
I0403 23:15:00.572916  7029 layer_factory.hpp:77] Creating layer conv3
I0403 23:15:00.572928  7029 net.cpp:86] Creating Layer conv3
I0403 23:15:00.572935  7029 net.cpp:408] conv3 <- norm2
I0403 23:15:00.572944  7029 net.cpp:382] conv3 -> conv3
I0403 23:15:00.588382  7029 net.cpp:124] Setting up conv3
I0403 23:15:00.588429  7029 net.cpp:131] Top shape: 50 384 13 13 (3244800)
I0403 23:15:00.588436  7029 net.cpp:139] Memory required for data: 280006000
I0403 23:15:00.588457  7029 layer_factory.hpp:77] Creating layer relu3
I0403 23:15:00.588471  7029 net.cpp:86] Creating Layer relu3
I0403 23:15:00.588479  7029 net.cpp:408] relu3 <- conv3
I0403 23:15:00.588490  7029 net.cpp:369] relu3 -> conv3 (in-place)
I0403 23:15:00.590948  7029 net.cpp:124] Setting up relu3
I0403 23:15:00.590972  7029 net.cpp:131] Top shape: 50 384 13 13 (3244800)
I0403 23:15:00.590979  7029 net.cpp:139] Memory required for data: 292985200
I0403 23:15:00.590986  7029 layer_factory.hpp:77] Creating layer conv4
I0403 23:15:00.591003  7029 net.cpp:86] Creating Layer conv4
I0403 23:15:00.591011  7029 net.cpp:408] conv4 <- conv3
I0403 23:15:00.591022  7029 net.cpp:382] conv4 -> conv4
I0403 23:15:00.808395  7029 net.cpp:124] Setting up conv4
I0403 23:15:00.808445  7029 net.cpp:131] Top shape: 50 384 13 13 (3244800)
I0403 23:15:00.808452  7029 net.cpp:139] Memory required for data: 305964400
I0403 23:15:00.808467  7029 layer_factory.hpp:77] Creating layer relu4
I0403 23:15:00.808483  7029 net.cpp:86] Creating Layer relu4
I0403 23:15:00.808491  7029 net.cpp:408] relu4 <- conv4
I0403 23:15:00.808503  7029 net.cpp:369] relu4 -> conv4 (in-place)
I0403 23:15:00.808749  7029 net.cpp:124] Setting up relu4
I0403 23:15:00.808764  7029 net.cpp:131] Top shape: 50 384 13 13 (3244800)
I0403 23:15:00.808769  7029 net.cpp:139] Memory required for data: 318943600
I0403 23:15:00.808776  7029 layer_factory.hpp:77] Creating layer conv5
I0403 23:15:00.808794  7029 net.cpp:86] Creating Layer conv5
I0403 23:15:00.808800  7029 net.cpp:408] conv5 <- conv4
I0403 23:15:00.808811  7029 net.cpp:382] conv5 -> conv5
I0403 23:15:00.823135  7029 net.cpp:124] Setting up conv5
I0403 23:15:00.823174  7029 net.cpp:131] Top shape: 50 256 13 13 (2163200)
I0403 23:15:00.823180  7029 net.cpp:139] Memory required for data: 327596400
I0403 23:15:00.823200  7029 layer_factory.hpp:77] Creating layer relu5
I0403 23:15:00.823212  7029 net.cpp:86] Creating Layer relu5
I0403 23:15:00.823232  7029 net.cpp:408] relu5 <- conv5
I0403 23:15:00.823245  7029 net.cpp:369] relu5 -> conv5 (in-place)
I0403 23:15:00.823513  7029 net.cpp:124] Setting up relu5
I0403 23:15:00.823529  7029 net.cpp:131] Top shape: 50 256 13 13 (2163200)
I0403 23:15:00.823537  7029 net.cpp:139] Memory required for data: 336249200
I0403 23:15:00.823544  7029 layer_factory.hpp:77] Creating layer pool5
I0403 23:15:00.823561  7029 net.cpp:86] Creating Layer pool5
I0403 23:15:00.823570  7029 net.cpp:408] pool5 <- conv5
I0403 23:15:00.823581  7029 net.cpp:382] pool5 -> pool5
I0403 23:15:00.823671  7029 net.cpp:124] Setting up pool5
I0403 23:15:00.823701  7029 net.cpp:131] Top shape: 50 256 6 6 (460800)
I0403 23:15:00.823709  7029 net.cpp:139] Memory required for data: 338092400
I0403 23:15:00.823715  7029 layer_factory.hpp:77] Creating layer fc6
I0403 23:15:00.823729  7029 net.cpp:86] Creating Layer fc6
I0403 23:15:00.823737  7029 net.cpp:408] fc6 <- pool5
I0403 23:15:00.823748  7029 net.cpp:382] fc6 -> fc6
I0403 23:15:01.416246  7029 net.cpp:124] Setting up fc6
I0403 23:15:01.416301  7029 net.cpp:131] Top shape: 50 4096 (204800)
I0403 23:15:01.416307  7029 net.cpp:139] Memory required for data: 338911600
I0403 23:15:01.416322  7029 layer_factory.hpp:77] Creating layer relu6
I0403 23:15:01.416337  7029 net.cpp:86] Creating Layer relu6
I0403 23:15:01.416344  7029 net.cpp:408] relu6 <- fc6
I0403 23:15:01.416357  7029 net.cpp:369] relu6 -> fc6 (in-place)
I0403 23:15:01.416921  7029 net.cpp:124] Setting up relu6
I0403 23:15:01.416937  7029 net.cpp:131] Top shape: 50 4096 (204800)
I0403 23:15:01.416944  7029 net.cpp:139] Memory required for data: 339730800
I0403 23:15:01.416949  7029 layer_factory.hpp:77] Creating layer drop6
I0403 23:15:01.416960  7029 net.cpp:86] Creating Layer drop6
I0403 23:15:01.416966  7029 net.cpp:408] drop6 <- fc6
I0403 23:15:01.416975  7029 net.cpp:369] drop6 -> fc6 (in-place)
I0403 23:15:01.417017  7029 net.cpp:124] Setting up drop6
I0403 23:15:01.417027  7029 net.cpp:131] Top shape: 50 4096 (204800)
I0403 23:15:01.417033  7029 net.cpp:139] Memory required for data: 340550000
I0403 23:15:01.417038  7029 layer_factory.hpp:77] Creating layer fc7
I0403 23:15:01.417050  7029 net.cpp:86] Creating Layer fc7
I0403 23:15:01.417057  7029 net.cpp:408] fc7 <- fc6
I0403 23:15:01.417065  7029 net.cpp:382] fc7 -> fc7
I0403 23:15:01.676291  7029 net.cpp:124] Setting up fc7
I0403 23:15:01.676344  7029 net.cpp:131] Top shape: 50 4096 (204800)
I0403 23:15:01.676350  7029 net.cpp:139] Memory required for data: 341369200
I0403 23:15:01.676365  7029 layer_factory.hpp:77] Creating layer relu7
I0403 23:15:01.676379  7029 net.cpp:86] Creating Layer relu7
I0403 23:15:01.676388  7029 net.cpp:408] relu7 <- fc7
I0403 23:15:01.676398  7029 net.cpp:369] relu7 -> fc7 (in-place)
I0403 23:15:01.676687  7029 net.cpp:124] Setting up relu7
I0403 23:15:01.676702  7029 net.cpp:131] Top shape: 50 4096 (204800)
I0403 23:15:01.676707  7029 net.cpp:139] Memory required for data: 342188400
I0403 23:15:01.676712  7029 layer_factory.hpp:77] Creating layer drop7
I0403 23:15:01.676723  7029 net.cpp:86] Creating Layer drop7
I0403 23:15:01.676730  7029 net.cpp:408] drop7 <- fc7
I0403 23:15:01.676738  7029 net.cpp:369] drop7 -> fc7 (in-place)
I0403 23:15:01.676780  7029 net.cpp:124] Setting up drop7
I0403 23:15:01.676791  7029 net.cpp:131] Top shape: 50 4096 (204800)
I0403 23:15:01.676796  7029 net.cpp:139] Memory required for data: 343007600
I0403 23:15:01.676802  7029 layer_factory.hpp:77] Creating layer fc8
I0403 23:15:01.676813  7029 net.cpp:86] Creating Layer fc8
I0403 23:15:01.676820  7029 net.cpp:408] fc8 <- fc7
I0403 23:15:01.676828  7029 net.cpp:382] fc8 -> fc8
I0403 23:15:01.740433  7029 net.cpp:124] Setting up fc8
I0403 23:15:01.740484  7029 net.cpp:131] Top shape: 50 1000 (50000)
I0403 23:15:01.740490  7029 net.cpp:139] Memory required for data: 343207600
I0403 23:15:01.740506  7029 layer_factory.hpp:77] Creating layer fc8_fc8_0_split
I0403 23:15:01.740520  7029 net.cpp:86] Creating Layer fc8_fc8_0_split
I0403 23:15:01.740528  7029 net.cpp:408] fc8_fc8_0_split <- fc8
I0403 23:15:01.740540  7029 net.cpp:382] fc8_fc8_0_split -> fc8_fc8_0_split_0
I0403 23:15:01.740556  7029 net.cpp:382] fc8_fc8_0_split -> fc8_fc8_0_split_1
I0403 23:15:01.740613  7029 net.cpp:124] Setting up fc8_fc8_0_split
I0403 23:15:01.740624  7029 net.cpp:131] Top shape: 50 1000 (50000)
I0403 23:15:01.740630  7029 net.cpp:131] Top shape: 50 1000 (50000)
I0403 23:15:01.740635  7029 net.cpp:139] Memory required for data: 343607600
I0403 23:15:01.740641  7029 layer_factory.hpp:77] Creating layer accuracy
I0403 23:15:01.740651  7029 net.cpp:86] Creating Layer accuracy
I0403 23:15:01.740674  7029 net.cpp:408] accuracy <- fc8_fc8_0_split_0
I0403 23:15:01.740694  7029 net.cpp:408] accuracy <- label_data_1_split_0
I0403 23:15:01.740702  7029 net.cpp:382] accuracy -> accuracy
…
