…
I0403 22:02:16.488426 15561 net.cpp:296] The NetState phase (0) differed from the phase (1) specified by a rule in layer accuracy
I0403 22:02:16.488658 15561 net.cpp:53] Initializing net from parameters: 
name: "CaffeNet"
state {
  phase: TRAIN
  level: 0
  stage: ""
}
layer {
  name: "data"
  type: "Data"
  top: "data"
  top: "label"
  include {
    phase: TRAIN
  }
  transform_param {
    mirror: true
    crop_size: 227
    mean_file: "data/ilsvrc12/imagenet_mean.binaryproto"
  }
  data_param {
    source: "examples/imagenet/ilsvrc12_train_lmdb"
    batch_size: 256
    backend: LMDB
  }
}
layer {
  name: "conv1"
  type: "Convolution"
  bottom: "data"
  top: "conv1"
  param {
    lr_mult: 1
    decay_mult: 1
  }
  param {
    lr_mult: 2
    decay_mult: 0
  }
  convolution_param {
    num_output: 96
    kernel_size: 11
    stride: 4
    weight_filler {
      type: "gaussian"
      std: 0.01
    }
    bias_filler {
      type: "constant"
      value: 0
    }
  }
}
layer {
  name: "relu1"
  type: "ReLU"
  bottom: "conv1"
  top: "conv1"
}
layer {
  name: "pool1"
  type: "Pooling"
  bottom: "conv1"
  top: "pool1"
  pooling_param {
    pool: MAX
    kernel_size: 3
    stride: 2
  }
}
layer {
  name: "norm1"
  type: "LRN"
  bottom: "pool1"
  top: "norm1"
  lrn_param {
    local_size: 5
    alpha: 0.0001
    beta: 0.75
  }
}
layer {
  name: "conv2"
  type: "Convolution"
  bottom: "norm1"
  top: "conv2"
  param {
    lr_mult: 1
    decay_mult: 1
  }
  param {
    lr_mult: 2
    decay_mult: 0
  }
  convolution_param {
    num_output: 256
    pad: 2
    kernel_size: 5
    group: 2
    weight_filler {
      type: "gaussian"
      std: 0.01
    }
    bias_filler {
      type: "constant"
      value: 1
    }
  }
}
layer {
  name: "relu2"
  type: "ReLU"
  bottom: "conv2"
  top: "conv2"
}
layer {
  name: "pool2"
  type: "Pooling"
  bottom: "conv2"
  top: "pool2"
  pooling_param {
    pool: MAX
    kernel_size: 3
    stride: 2
  }
}
layer {
  name: "norm2"
  type: "LRN"
  bottom: "pool2"
  top: "norm2"
  lrn_param {
    local_size: 5
    alpha: 0.0001
    beta: 0.75
  }
}
layer {
  name: "conv3"
  type: "Convolution"
  bottom: "norm2"
  top: "conv3"
  param {
    lr_mult: 1
    decay_mult: 1
  }
  param {
    lr_mult: 2
    decay_mult: 0
  }
  convolution_param {
    num_output: 384
    pad: 1
    kernel_size: 3
    weight_filler {
      type: "gaussian"
      std: 0.01
    }
    bias_filler {
      type: "constant"
      value: 0
    }
  }
}
layer {
  name: "relu3"
  type: "ReLU"
  bottom: "conv3"
  top: "conv3"
}
layer {
  name: "conv4"
  type: "Convolution"
  bottom: "conv3"
  top: "conv4"
  param {
    lr_mult: 1
    decay_mult: 1
  }
  param {
    lr_mult: 2
    decay_mult: 0
  }
  convolution_param {
    num_output: 384
    pad: 1
    kernel_size: 3
    group: 2
    weight_filler {
      type: "gaussian"
      std: 0.01
    }
    bias_filler {
      type: "constant"
      value: 1
    }
  }
}
layer {
  name: "relu4"
  type: "ReLU"
  bottom: "conv4"
  top: "conv4"
}
layer {
  name: "conv5"
  type: "Convolution"
  bottom: "conv4"
  top: "conv5"
  param {
    lr_mult: 1
    decay_mult: 1
  }
  param {
    lr_mult: 2
    decay_mult: 0
  }
  convolution_param {
    num_output: 256
    pad: 1
    kernel_size: 3
    group: 2
    weight_filler {
      type: "gaussian"
      std: 0.01
    }
    bias_filler {
      type: "constant"
      value: 1
    }
  }
}
layer {
  name: "relu5"
  type: "ReLU"
  bottom: "conv5"
  top: "conv5"
}
layer {
  name: "pool5"
  type: "Pooling"
  bottom: "conv5"
  top: "pool5"
  pooling_param {
    pool: MAX
    kernel_size: 3
    stride: 2
  }
}
layer {
  name: "fc6"
  type: "InnerProduct"
  bottom: "pool5"
  top: "fc6"
  param {
    lr_mult: 1
    decay_mult: 1
  }
  param {
    lr_mult: 2
    decay_mult: 0
  }
  inner_product_param {
    num_output: 4096
    weight_filler {
      type: "gaussian"
      std: 0.005
    }
    bias_filler {
      type: "constant"
      value: 1
    }
  }
}
layer {
  name: "relu6"
  type: "ReLU"
  bottom: "fc6"
  top: "fc6"
}
layer {
  name: "drop6"
  type: "Dropout"
  bottom: "fc6"
  top: "fc6"
  dropout_param {
    dropout_ratio: 0.5
  }
}
layer {
  name: "fc7"
  type: "InnerProduct"
  bottom: "fc6"
  top: "fc7"
  param {
    lr_mult: 1
    decay_mult: 1
  }
  param {
    lr_mult: 2
    decay_mult: 0
  }
  inner_product_param {
    num_output: 4096
    weight_filler {
      type: "gaussian"
      std: 0.005
    }
    bias_filler {
      type: "constant"
      value: 1
    }
  }
}
layer {
  name: "relu7"
  type: "ReLU"
  bottom: "fc7"
  top: "fc7"
}
layer {
  name: "drop7"
  type: "Dropout"
  bottom: "fc7"
  top: "fc7"
  dropout_param {
    dropout_ratio: 0.5
  }
}
layer {
  name: "fc8"
  type: "InnerProduct"
  bottom: "fc7"
  top: "fc8"
  param {
    lr_mult: 1
    decay_mult: 1
  }
  param {
    lr_mult: 2
    decay_mult: 0
  }
  inner_product_param {
    num_output: 1000
    weight_filler {
      type: "gaussian"
      std: 0.01
    }
    bias_filler {
      type: "constant"
      value: 0
    }
  }
}
layer {
  name: "loss"
  type: "SoftmaxWithLoss"
  bottom: "fc8"
  bottom: "label"
  top: "loss"
}
I0403 22:02:16.488795 15561 layer_factory.hpp:77] Creating layer data
I0403 22:02:16.488929 15561 db_lmdb.cpp:35] Opened lmdb examples/imagenet/ilsvrc12_train_lmdb
I0403 22:02:16.488978 15561 net.cpp:86] Creating Layer data
I0403 22:02:16.488993 15561 net.cpp:382] data -> data
I0403 22:02:16.489029 15561 net.cpp:382] data -> label
I0403 22:02:16.489050 15561 data_transformer.cpp:25] Loading mean file from: data/ilsvrc12/imagenet_mean.binaryproto
I0403 22:02:16.492343 15561 data_layer.cpp:45] output data size: 256,3,227,227
I0403 22:02:17.111521 15561 net.cpp:124] Setting up data
I0403 22:02:17.111578 15561 net.cpp:131] Top shape: 256 3 227 227 (39574272)
I0403 22:02:17.111588 15561 net.cpp:131] Top shape: 256 (256)
I0403 22:02:17.111593 15561 net.cpp:139] Memory required for data: 158298112
I0403 22:02:17.111608 15561 layer_factory.hpp:77] Creating layer conv1
I0403 22:02:17.111639 15561 net.cpp:86] Creating Layer conv1
I0403 22:02:17.111650 15561 net.cpp:408] conv1 <- data
I0403 22:02:17.111670 15561 net.cpp:382] conv1 -> conv1
I0403 22:02:17.455751 15561 net.cpp:124] Setting up conv1
I0403 22:02:17.455804 15561 net.cpp:131] Top shape: 256 96 55 55 (74342400)
I0403 22:02:17.455812 15561 net.cpp:139] Memory required for data: 455667712
I0403 22:02:17.455845 15561 layer_factory.hpp:77] Creating layer relu1
I0403 22:02:17.455863 15561 net.cpp:86] Creating Layer relu1
I0403 22:02:17.455871 15561 net.cpp:408] relu1 <- conv1
I0403 22:02:17.455883 15561 net.cpp:369] relu1 -> conv1 (in-place)
I0403 22:02:17.456301 15561 net.cpp:124] Setting up relu1
I0403 22:02:17.456320 15561 net.cpp:131] Top shape: 256 96 55 55 (74342400)
I0403 22:02:17.456326 15561 net.cpp:139] Memory required for data: 753037312
I0403 22:02:17.456331 15561 layer_factory.hpp:77] Creating layer pool1
I0403 22:02:17.456342 15561 net.cpp:86] Creating Layer pool1
I0403 22:02:17.456349 15561 net.cpp:408] pool1 <- conv1
I0403 22:02:17.456358 15561 net.cpp:382] pool1 -> pool1
I0403 22:02:17.456424 15561 net.cpp:124] Setting up pool1
I0403 22:02:17.456436 15561 net.cpp:131] Top shape: 256 96 27 27 (17915904)
I0403 22:02:17.456442 15561 net.cpp:139] Memory required for data: 824700928
I0403 22:02:17.456449 15561 layer_factory.hpp:77] Creating layer norm1
I0403 22:02:17.456463 15561 net.cpp:86] Creating Layer norm1
I0403 22:02:17.456480 15561 net.cpp:408] norm1 <- pool1
I0403 22:02:17.456502 15561 net.cpp:382] norm1 -> norm1
I0403 22:02:17.456771 15561 net.cpp:124] Setting up norm1
I0403 22:02:17.456786 15561 net.cpp:131] Top shape: 256 96 27 27 (17915904)
I0403 22:02:17.456792 15561 net.cpp:139] Memory required for data: 896364544
I0403 22:02:17.456799 15561 layer_factory.hpp:77] Creating layer conv2
I0403 22:02:17.456816 15561 net.cpp:86] Creating Layer conv2
I0403 22:02:17.456822 15561 net.cpp:408] conv2 <- norm1
I0403 22:02:17.456836 15561 net.cpp:382] conv2 -> conv2
I0403 22:02:17.464921 15561 net.cpp:124] Setting up conv2
I0403 22:02:17.464969 15561 net.cpp:131] Top shape: 256 256 27 27 (47775744)
I0403 22:02:17.464977 15561 net.cpp:139] Memory required for data: 1087467520
I0403 22:02:17.464998 15561 layer_factory.hpp:77] Creating layer relu2
I0403 22:02:17.465019 15561 net.cpp:86] Creating Layer relu2
I0403 22:02:17.465028 15561 net.cpp:408] relu2 <- conv2
I0403 22:02:17.465039 15561 net.cpp:369] relu2 -> conv2 (in-place)
I0403 22:02:17.465286 15561 net.cpp:124] Setting up relu2
I0403 22:02:17.465301 15561 net.cpp:131] Top shape: 256 256 27 27 (47775744)
I0403 22:02:17.465306 15561 net.cpp:139] Memory required for data: 1278570496
I0403 22:02:17.465312 15561 layer_factory.hpp:77] Creating layer pool2
I0403 22:02:17.465322 15561 net.cpp:86] Creating Layer pool2
I0403 22:02:17.465328 15561 net.cpp:408] pool2 <- conv2
I0403 22:02:17.465340 15561 net.cpp:382] pool2 -> pool2
I0403 22:02:17.465399 15561 net.cpp:124] Setting up pool2
I0403 22:02:17.465411 15561 net.cpp:131] Top shape: 256 256 13 13 (11075584)
I0403 22:02:17.465418 15561 net.cpp:139] Memory required for data: 1322872832
I0403 22:02:17.465425 15561 layer_factory.hpp:77] Creating layer norm2
I0403 22:02:17.465438 15561 net.cpp:86] Creating Layer norm2
I0403 22:02:17.465445 15561 net.cpp:408] norm2 <- pool2
I0403 22:02:17.465456 15561 net.cpp:382] norm2 -> norm2
I0403 22:02:17.465900 15561 net.cpp:124] Setting up norm2
I0403 22:02:17.465919 15561 net.cpp:131] Top shape: 256 256 13 13 (11075584)
I0403 22:02:17.465925 15561 net.cpp:139] Memory required for data: 1367175168
I0403 22:02:17.465931 15561 layer_factory.hpp:77] Creating layer conv3
I0403 22:02:17.465952 15561 net.cpp:86] Creating Layer conv3
I0403 22:02:17.465960 15561 net.cpp:408] conv3 <- norm2
I0403 22:02:17.465970 15561 net.cpp:382] conv3 -> conv3
I0403 22:02:17.527925 15561 net.cpp:124] Setting up conv3
I0403 22:02:17.527976 15561 net.cpp:131] Top shape: 256 384 13 13 (16613376)
I0403 22:02:17.527984 15561 net.cpp:139] Memory required for data: 1433628672
I0403 22:02:17.528007 15561 layer_factory.hpp:77] Creating layer relu3
I0403 22:02:17.528022 15561 net.cpp:86] Creating Layer relu3
I0403 22:02:17.528029 15561 net.cpp:408] relu3 <- conv3
I0403 22:02:17.528043 15561 net.cpp:369] relu3 -> conv3 (in-place)
I0403 22:02:17.528280 15561 net.cpp:124] Setting up relu3
I0403 22:02:17.528295 15561 net.cpp:131] Top shape: 256 384 13 13 (16613376)
I0403 22:02:17.528301 15561 net.cpp:139] Memory required for data: 1500082176
I0403 22:02:17.528306 15561 layer_factory.hpp:77] Creating layer conv4
I0403 22:02:17.528326 15561 net.cpp:86] Creating Layer conv4
I0403 22:02:17.528332 15561 net.cpp:408] conv4 <- conv3
I0403 22:02:17.528343 15561 net.cpp:382] conv4 -> conv4
I0403 22:02:17.541687 15561 net.cpp:124] Setting up conv4
I0403 22:02:17.541738 15561 net.cpp:131] Top shape: 256 384 13 13 (16613376)
I0403 22:02:17.541744 15561 net.cpp:139] Memory required for data: 1566535680
I0403 22:02:17.541759 15561 layer_factory.hpp:77] Creating layer relu4
I0403 22:02:17.541774 15561 net.cpp:86] Creating Layer relu4
I0403 22:02:17.541781 15561 net.cpp:408] relu4 <- conv4
I0403 22:02:17.541792 15561 net.cpp:369] relu4 -> conv4 (in-place)
I0403 22:02:17.542021 15561 net.cpp:124] Setting up relu4
I0403 22:02:17.542037 15561 net.cpp:131] Top shape: 256 384 13 13 (16613376)
I0403 22:02:17.542043 15561 net.cpp:139] Memory required for data: 1632989184
I0403 22:02:17.542049 15561 layer_factory.hpp:77] Creating layer conv5
I0403 22:02:17.542080 15561 net.cpp:86] Creating Layer conv5
I0403 22:02:17.542099 15561 net.cpp:408] conv5 <- conv4
I0403 22:02:17.542110 15561 net.cpp:382] conv5 -> conv5
I0403 22:02:17.552055 15561 net.cpp:124] Setting up conv5
I0403 22:02:17.552106 15561 net.cpp:131] Top shape: 256 256 13 13 (11075584)
I0403 22:02:17.552114 15561 net.cpp:139] Memory required for data: 1677291520
I0403 22:02:17.552135 15561 layer_factory.hpp:77] Creating layer relu5
I0403 22:02:17.552150 15561 net.cpp:86] Creating Layer relu5
I0403 22:02:17.552157 15561 net.cpp:408] relu5 <- conv5
I0403 22:02:17.552171 15561 net.cpp:369] relu5 -> conv5 (in-place)
I0403 22:02:17.552402 15561 net.cpp:124] Setting up relu5
I0403 22:02:17.552417 15561 net.cpp:131] Top shape: 256 256 13 13 (11075584)
I0403 22:02:17.552423 15561 net.cpp:139] Memory required for data: 1721593856
I0403 22:02:17.552429 15561 layer_factory.hpp:77] Creating layer pool5
I0403 22:02:17.552440 15561 net.cpp:86] Creating Layer pool5
I0403 22:02:17.552446 15561 net.cpp:408] pool5 <- conv5
I0403 22:02:17.552458 15561 net.cpp:382] pool5 -> pool5
I0403 22:02:17.552518 15561 net.cpp:124] Setting up pool5
I0403 22:02:17.552531 15561 net.cpp:131] Top shape: 256 256 6 6 (2359296)
I0403 22:02:17.552536 15561 net.cpp:139] Memory required for data: 1731031040
I0403 22:02:17.552542 15561 layer_factory.hpp:77] Creating layer fc6
I0403 22:02:17.552561 15561 net.cpp:86] Creating Layer fc6
I0403 22:02:17.552567 15561 net.cpp:408] fc6 <- pool5
I0403 22:02:17.552577 15561 net.cpp:382] fc6 -> fc6
I0403 22:02:18.144719 15561 net.cpp:124] Setting up fc6
I0403 22:02:18.144774 15561 net.cpp:131] Top shape: 256 4096 (1048576)
I0403 22:02:18.144781 15561 net.cpp:139] Memory required for data: 1735225344
I0403 22:02:18.144798 15561 layer_factory.hpp:77] Creating layer relu6
I0403 22:02:18.144812 15561 net.cpp:86] Creating Layer relu6
I0403 22:02:18.144820 15561 net.cpp:408] relu6 <- fc6
I0403 22:02:18.144834 15561 net.cpp:369] relu6 -> fc6 (in-place)
I0403 22:02:18.145423 15561 net.cpp:124] Setting up relu6
I0403 22:02:18.145440 15561 net.cpp:131] Top shape: 256 4096 (1048576)
I0403 22:02:18.145445 15561 net.cpp:139] Memory required for data: 1739419648
I0403 22:02:18.145452 15561 layer_factory.hpp:77] Creating layer drop6
I0403 22:02:18.145463 15561 net.cpp:86] Creating Layer drop6
I0403 22:02:18.145469 15561 net.cpp:408] drop6 <- fc6
I0403 22:02:18.145480 15561 net.cpp:369] drop6 -> fc6 (in-place)
I0403 22:02:18.145527 15561 net.cpp:124] Setting up drop6
I0403 22:02:18.145539 15561 net.cpp:131] Top shape: 256 4096 (1048576)
I0403 22:02:18.145545 15561 net.cpp:139] Memory required for data: 1743613952
I0403 22:02:18.145550 15561 layer_factory.hpp:77] Creating layer fc7
I0403 22:02:18.145565 15561 net.cpp:86] Creating Layer fc7
I0403 22:02:18.145571 15561 net.cpp:408] fc7 <- fc6
I0403 22:02:18.145581 15561 net.cpp:382] fc7 -> fc7
I0403 22:02:18.407984 15561 net.cpp:124] Setting up fc7
I0403 22:02:18.408036 15561 net.cpp:131] Top shape: 256 4096 (1048576)
I0403 22:02:18.408042 15561 net.cpp:139] Memory required for data: 1747808256
I0403 22:02:18.408058 15561 layer_factory.hpp:77] Creating layer relu7
I0403 22:02:18.408076 15561 net.cpp:86] Creating Layer relu7
I0403 22:02:18.408083 15561 net.cpp:408] relu7 <- fc7
I0403 22:02:18.408094 15561 net.cpp:369] relu7 -> fc7 (in-place)
I0403 22:02:18.408394 15561 net.cpp:124] Setting up relu7
I0403 22:02:18.408409 15561 net.cpp:131] Top shape: 256 4096 (1048576)
I0403 22:02:18.408414 15561 net.cpp:139] Memory required for data: 1752002560
I0403 22:02:18.408421 15561 layer_factory.hpp:77] Creating layer drop7
I0403 22:02:18.408435 15561 net.cpp:86] Creating Layer drop7
I0403 22:02:18.408442 15561 net.cpp:408] drop7 <- fc7
I0403 22:02:18.408450 15561 net.cpp:369] drop7 -> fc7 (in-place)
I0403 22:02:18.408485 15561 net.cpp:124] Setting up drop7
I0403 22:02:18.408495 15561 net.cpp:131] Top shape: 256 4096 (1048576)
I0403 22:02:18.408501 15561 net.cpp:139] Memory required for data: 1756196864
I0403 22:02:18.408507 15561 layer_factory.hpp:77] Creating layer fc8
I0403 22:02:18.408519 15561 net.cpp:86] Creating Layer fc8
I0403 22:02:18.408536 15561 net.cpp:408] fc8 <- fc7
I0403 22:02:18.408565 15561 net.cpp:382] fc8 -> fc8
I0403 22:02:18.472677 15561 net.cpp:124] Setting up fc8
I0403 22:02:18.472728 15561 net.cpp:131] Top shape: 256 1000 (256000)
I0403 22:02:18.472734 15561 net.cpp:139] Memory required for data: 1757220864
I0403 22:02:18.472750 15561 layer_factory.hpp:77] Creating layer loss
I0403 22:02:18.472765 15561 net.cpp:86] Creating Layer loss
I0403 22:02:18.472772 15561 net.cpp:408] loss <- fc8
I0403 22:02:18.472782 15561 net.cpp:408] loss <- label
I0403 22:02:18.472798 15561 net.cpp:382] loss -> loss
I0403 22:02:18.472822 15561 layer_factory.hpp:77] Creating layer loss
…
I0403 22:02:18.474823 15561 net.cpp:296] The NetState phase (1) differed from the phase (0) specified by a rule in layer data
I0403 22:02:18.475067 15561 net.cpp:53] Initializing net from parameters: 
name: "CaffeNet"
state {
  phase: TEST
}
layer {
  name: "data"
  type: "Data"
  top: "data"
  top: "label"
  include {
    phase: TEST
  }
  transform_param {
    mirror: false
    crop_size: 227
    mean_file: "data/ilsvrc12/imagenet_mean.binaryproto"
  }
  data_param {
    source: "examples/imagenet/ilsvrc12_val_lmdb"
    batch_size: 50
    backend: LMDB
  }
}
layer {
  name: "conv1"
  type: "Convolution"
  bottom: "data"
  top: "conv1"
  param {
    lr_mult: 1
    decay_mult: 1
  }
  param {
    lr_mult: 2
    decay_mult: 0
  }
  convolution_param {
    num_output: 96
    kernel_size: 11
    stride: 4
    weight_filler {
      type: "gaussian"
      std: 0.01
    }
    bias_filler {
      type: "constant"
      value: 0
    }
  }
}
layer {
  name: "relu1"
  type: "ReLU"
  bottom: "conv1"
  top: "conv1"
}
layer {
  name: "pool1"
  type: "Pooling"
  bottom: "conv1"
  top: "pool1"
  pooling_param {
    pool: MAX
    kernel_size: 3
    stride: 2
  }
}
layer {
  name: "norm1"
  type: "LRN"
  bottom: "pool1"
  top: "norm1"
  lrn_param {
    local_size: 5
    alpha: 0.0001
    beta: 0.75
  }
}
layer {
  name: "conv2"
  type: "Convolution"
  bottom: "norm1"
  top: "conv2"
  param {
    lr_mult: 1
    decay_mult: 1
  }
  param {
    lr_mult: 2
    decay_mult: 0
  }
  convolution_param {
    num_output: 256
    pad: 2
    kernel_size: 5
    group: 2
    weight_filler {
      type: "gaussian"
      std: 0.01
    }
    bias_filler {
      type: "constant"
      value: 1
    }
  }
}
layer {
  name: "relu2"
  type: "ReLU"
  bottom: "conv2"
  top: "conv2"
}
layer {
  name: "pool2"
  type: "Pooling"
  bottom: "conv2"
  top: "pool2"
  pooling_param {
    pool: MAX
    kernel_size: 3
    stride: 2
  }
}
layer {
  name: "norm2"
  type: "LRN"
  bottom: "pool2"
  top: "norm2"
  lrn_param {
    local_size: 5
    alpha: 0.0001
    beta: 0.75
  }
}
layer {
  name: "conv3"
  type: "Convolution"
  bottom: "norm2"
  top: "conv3"
  param {
    lr_mult: 1
    decay_mult: 1
  }
  param {
    lr_mult: 2
    decay_mult: 0
  }
  convolution_param {
    num_output: 384
    pad: 1
    kernel_size: 3
    weight_filler {
      type: "gaussian"
      std: 0.01
    }
    bias_filler {
      type: "constant"
      value: 0
    }
  }
}
layer {
  name: "relu3"
  type: "ReLU"
  bottom: "conv3"
  top: "conv3"
}
layer {
  name: "conv4"
  type: "Convolution"
  bottom: "conv3"
  top: "conv4"
  param {
    lr_mult: 1
    decay_mult: 1
  }
  param {
    lr_mult: 2
    decay_mult: 0
  }
  convolution_param {
    num_output: 384
    pad: 1
    kernel_size: 3
    group: 2
    weight_filler {
      type: "gaussian"
      std: 0.01
    }
    bias_filler {
      type: "constant"
      value: 1
    }
  }
}
layer {
  name: "relu4"
  type: "ReLU"
  bottom: "conv4"
  top: "conv4"
}
layer {
  name: "conv5"
  type: "Convolution"
  bottom: "conv4"
  top: "conv5"
  param {
    lr_mult: 1
    decay_mult: 1
  }
  param {
    lr_mult: 2
    decay_mult: 0
  }
  convolution_param {
    num_output: 256
    pad: 1
    kernel_size: 3
    group: 2
    weight_filler {
      type: "gaussian"
      std: 0.01
    }
    bias_filler {
      type: "constant"
      value: 1
    }
  }
}
layer {
  name: "relu5"
  type: "ReLU"
  bottom: "conv5"
  top: "conv5"
}
layer {
  name: "pool5"
  type: "Pooling"
  bottom: "conv5"
  top: "pool5"
  pooling_param {
    pool: MAX
    kernel_size: 3
    stride: 2
  }
}
layer {
  name: "fc6"
  type: "InnerProduct"
  bottom: "pool5"
  top: "fc6"
  param {
    lr_mult: 1
    decay_mult: 1
  }
  param {
    lr_mult: 2
    decay_mult: 0
  }
  inner_product_param {
    num_output: 4096
    weight_filler {
      type: "gaussian"
      std: 0.005
    }
    bias_filler {
      type: "constant"
      value: 1
    }
  }
}
layer {
  name: "relu6"
  type: "ReLU"
  bottom: "fc6"
  top: "fc6"
}
layer {
  name: "drop6"
  type: "Dropout"
  bottom: "fc6"
  top: "fc6"
  dropout_param {
    dropout_ratio: 0.5
  }
}
layer {
  name: "fc7"
  type: "InnerProduct"
  bottom: "fc6"
  top: "fc7"
  param {
    lr_mult: 1
    decay_mult: 1
  }
  param {
    lr_mult: 2
    decay_mult: 0
  }
  inner_product_param {
    num_output: 4096
    weight_filler {
      type: "gaussian"
      std: 0.005
    }
    bias_filler {
      type: "constant"
      value: 1
    }
  }
}
layer {
  name: "relu7"
  type: "ReLU"
  bottom: "fc7"
  top: "fc7"
}
layer {
  name: "drop7"
  type: "Dropout"
  bottom: "fc7"
  top: "fc7"
  dropout_param {
    dropout_ratio: 0.5
  }
}
layer {
  name: "fc8"
  type: "InnerProduct"
  bottom: "fc7"
  top: "fc8"
  param {
    lr_mult: 1
    decay_mult: 1
  }
  param {
    lr_mult: 2
    decay_mult: 0
  }
  inner_product_param {
    num_output: 1000
    weight_filler {
      type: "gaussian"
      std: 0.01
    }
    bias_filler {
      type: "constant"
      value: 0
    }
  }
}
layer {
  name: "accuracy"
  type: "Accuracy"
  bottom: "fc8"
  bottom: "label"
  top: "accuracy"
  include {
    phase: TEST
  }
}
layer {
  name: "loss"
  type: "SoftmaxWithLoss"
  bottom: "fc8"
  bottom: "label"
  top: "loss"
}
I0403 22:02:18.475229 15561 layer_factory.hpp:77] Creating layer data
I0403 22:02:18.475312 15561 db_lmdb.cpp:35] Opened lmdb examples/imagenet/ilsvrc12_val_lmdb
I0403 22:02:18.475342 15561 net.cpp:86] Creating Layer data
I0403 22:02:18.475355 15561 net.cpp:382] data -> data
I0403 22:02:18.475369 15561 net.cpp:382] data -> label
I0403 22:02:18.475383 15561 data_transformer.cpp:25] Loading mean file from: data/ilsvrc12/imagenet_mean.binaryproto
I0403 22:02:18.477753 15561 data_layer.cpp:45] output data size: 50,3,227,227
I0403 22:02:18.557006 15561 net.cpp:124] Setting up data
I0403 22:02:18.557060 15561 net.cpp:131] Top shape: 50 3 227 227 (7729350)
I0403 22:02:18.557067 15561 net.cpp:131] Top shape: 50 (50)
I0403 22:02:18.557073 15561 net.cpp:139] Memory required for data: 30917600
I0403 22:02:18.557083 15561 layer_factory.hpp:77] Creating layer label_data_1_split
I0403 22:02:18.557101 15561 net.cpp:86] Creating Layer label_data_1_split
I0403 22:02:18.557108 15561 net.cpp:408] label_data_1_split <- label
I0403 22:02:18.557119 15561 net.cpp:382] label_data_1_split -> label_data_1_split_0
I0403 22:02:18.557137 15561 net.cpp:382] label_data_1_split -> label_data_1_split_1
I0403 22:02:18.557209 15561 net.cpp:124] Setting up label_data_1_split
I0403 22:02:18.557220 15561 net.cpp:131] Top shape: 50 (50)
I0403 22:02:18.557227 15561 net.cpp:131] Top shape: 50 (50)
I0403 22:02:18.557232 15561 net.cpp:139] Memory required for data: 30918000
I0403 22:02:18.557238 15561 layer_factory.hpp:77] Creating layer conv1
I0403 22:02:18.557256 15561 net.cpp:86] Creating Layer conv1
I0403 22:02:18.557263 15561 net.cpp:408] conv1 <- data
I0403 22:02:18.557272 15561 net.cpp:382] conv1 -> conv1
I0403 22:02:18.564036 15561 net.cpp:124] Setting up conv1
I0403 22:02:18.564065 15561 net.cpp:131] Top shape: 50 96 55 55 (14520000)
I0403 22:02:18.564071 15561 net.cpp:139] Memory required for data: 88998000
I0403 22:02:18.564090 15561 layer_factory.hpp:77] Creating layer relu1
I0403 22:02:18.564101 15561 net.cpp:86] Creating Layer relu1
I0403 22:02:18.564108 15561 net.cpp:408] relu1 <- conv1
I0403 22:02:18.564116 15561 net.cpp:369] relu1 -> conv1 (in-place)
I0403 22:02:18.564332 15561 net.cpp:124] Setting up relu1
I0403 22:02:18.564357 15561 net.cpp:131] Top shape: 50 96 55 55 (14520000)
I0403 22:02:18.564363 15561 net.cpp:139] Memory required for data: 147078000
I0403 22:02:18.564368 15561 layer_factory.hpp:77] Creating layer pool1
I0403 22:02:18.564383 15561 net.cpp:86] Creating Layer pool1
I0403 22:02:18.564388 15561 net.cpp:408] pool1 <- conv1
I0403 22:02:18.564398 15561 net.cpp:382] pool1 -> pool1
I0403 22:02:18.564456 15561 net.cpp:124] Setting up pool1
I0403 22:02:18.564468 15561 net.cpp:131] Top shape: 50 96 27 27 (3499200)
I0403 22:02:18.564473 15561 net.cpp:139] Memory required for data: 161074800
I0403 22:02:18.564479 15561 layer_factory.hpp:77] Creating layer norm1
I0403 22:02:18.564491 15561 net.cpp:86] Creating Layer norm1
I0403 22:02:18.564496 15561 net.cpp:408] norm1 <- pool1
I0403 22:02:18.564504 15561 net.cpp:382] norm1 -> norm1
I0403 22:02:18.564954 15561 net.cpp:124] Setting up norm1
I0403 22:02:18.564971 15561 net.cpp:131] Top shape: 50 96 27 27 (3499200)
I0403 22:02:18.564976 15561 net.cpp:139] Memory required for data: 175071600
I0403 22:02:18.564982 15561 layer_factory.hpp:77] Creating layer conv2
I0403 22:02:18.564998 15561 net.cpp:86] Creating Layer conv2
I0403 22:02:18.565004 15561 net.cpp:408] conv2 <- norm1
I0403 22:02:18.565016 15561 net.cpp:382] conv2 -> conv2
I0403 22:02:18.572630 15561 net.cpp:124] Setting up conv2
I0403 22:02:18.572681 15561 net.cpp:131] Top shape: 50 256 27 27 (9331200)
I0403 22:02:18.572687 15561 net.cpp:139] Memory required for data: 212396400
I0403 22:02:18.572707 15561 layer_factory.hpp:77] Creating layer relu2
I0403 22:02:18.572722 15561 net.cpp:86] Creating Layer relu2
I0403 22:02:18.572731 15561 net.cpp:408] relu2 <- conv2
I0403 22:02:18.572741 15561 net.cpp:369] relu2 -> conv2 (in-place)
I0403 22:02:18.572965 15561 net.cpp:124] Setting up relu2
I0403 22:02:18.572993 15561 net.cpp:131] Top shape: 50 256 27 27 (9331200)
I0403 22:02:18.573011 15561 net.cpp:139] Memory required for data: 249721200
I0403 22:02:18.573017 15561 layer_factory.hpp:77] Creating layer pool2
I0403 22:02:18.573031 15561 net.cpp:86] Creating Layer pool2
I0403 22:02:18.573037 15561 net.cpp:408] pool2 <- conv2
I0403 22:02:18.573046 15561 net.cpp:382] pool2 -> pool2
I0403 22:02:18.573110 15561 net.cpp:124] Setting up pool2
I0403 22:02:18.573123 15561 net.cpp:131] Top shape: 50 256 13 13 (2163200)
I0403 22:02:18.573128 15561 net.cpp:139] Memory required for data: 258374000
I0403 22:02:18.573134 15561 layer_factory.hpp:77] Creating layer norm2
I0403 22:02:18.573145 15561 net.cpp:86] Creating Layer norm2
I0403 22:02:18.573151 15561 net.cpp:408] norm2 <- pool2
I0403 22:02:18.573159 15561 net.cpp:382] norm2 -> norm2
I0403 22:02:18.573607 15561 net.cpp:124] Setting up norm2
I0403 22:02:18.573623 15561 net.cpp:131] Top shape: 50 256 13 13 (2163200)
I0403 22:02:18.573629 15561 net.cpp:139] Memory required for data: 267026800
I0403 22:02:18.573635 15561 layer_factory.hpp:77] Creating layer conv3
I0403 22:02:18.573652 15561 net.cpp:86] Creating Layer conv3
I0403 22:02:18.573659 15561 net.cpp:408] conv3 <- norm2
I0403 22:02:18.573669 15561 net.cpp:382] conv3 -> conv3
I0403 22:02:18.588968 15561 net.cpp:124] Setting up conv3
I0403 22:02:18.589017 15561 net.cpp:131] Top shape: 50 384 13 13 (3244800)
I0403 22:02:18.589023 15561 net.cpp:139] Memory required for data: 280006000
I0403 22:02:18.589043 15561 layer_factory.hpp:77] Creating layer relu3
I0403 22:02:18.589058 15561 net.cpp:86] Creating Layer relu3
I0403 22:02:18.589066 15561 net.cpp:408] relu3 <- conv3
I0403 22:02:18.589077 15561 net.cpp:369] relu3 -> conv3 (in-place)
I0403 22:02:18.589474 15561 net.cpp:124] Setting up relu3
I0403 22:02:18.589490 15561 net.cpp:131] Top shape: 50 384 13 13 (3244800)
I0403 22:02:18.589496 15561 net.cpp:139] Memory required for data: 292985200
I0403 22:02:18.589503 15561 layer_factory.hpp:77] Creating layer conv4
I0403 22:02:18.589519 15561 net.cpp:86] Creating Layer conv4
I0403 22:02:18.589525 15561 net.cpp:408] conv4 <- conv3
I0403 22:02:18.589535 15561 net.cpp:382] conv4 -> conv4
I0403 22:02:18.612766 15561 net.cpp:124] Setting up conv4
I0403 22:02:18.612823 15561 net.cpp:131] Top shape: 50 384 13 13 (3244800)
I0403 22:02:18.612829 15561 net.cpp:139] Memory required for data: 305964400
I0403 22:02:18.612845 15561 layer_factory.hpp:77] Creating layer relu4
I0403 22:02:18.612860 15561 net.cpp:86] Creating Layer relu4
I0403 22:02:18.612869 15561 net.cpp:408] relu4 <- conv4
I0403 22:02:18.612880 15561 net.cpp:369] relu4 -> conv4 (in-place)
I0403 22:02:18.613112 15561 net.cpp:124] Setting up relu4
I0403 22:02:18.613126 15561 net.cpp:131] Top shape: 50 384 13 13 (3244800)
I0403 22:02:18.613132 15561 net.cpp:139] Memory required for data: 318943600
I0403 22:02:18.613138 15561 layer_factory.hpp:77] Creating layer conv5
I0403 22:02:18.613157 15561 net.cpp:86] Creating Layer conv5
I0403 22:02:18.613162 15561 net.cpp:408] conv5 <- conv4
I0403 22:02:18.613173 15561 net.cpp:382] conv5 -> conv5
I0403 22:02:18.622792 15561 net.cpp:124] Setting up conv5
I0403 22:02:18.622841 15561 net.cpp:131] Top shape: 50 256 13 13 (2163200)
I0403 22:02:18.622848 15561 net.cpp:139] Memory required for data: 327596400
I0403 22:02:18.622870 15561 layer_factory.hpp:77] Creating layer relu5
I0403 22:02:18.622885 15561 net.cpp:86] Creating Layer relu5
I0403 22:02:18.622894 15561 net.cpp:408] relu5 <- conv5
I0403 22:02:18.622905 15561 net.cpp:369] relu5 -> conv5 (in-place)
I0403 22:02:18.623117 15561 net.cpp:124] Setting up relu5
I0403 22:02:18.623131 15561 net.cpp:131] Top shape: 50 256 13 13 (2163200)
I0403 22:02:18.623136 15561 net.cpp:139] Memory required for data: 336249200
I0403 22:02:18.623143 15561 layer_factory.hpp:77] Creating layer pool5
I0403 22:02:18.623157 15561 net.cpp:86] Creating Layer pool5
I0403 22:02:18.623164 15561 net.cpp:408] pool5 <- conv5
I0403 22:02:18.623172 15561 net.cpp:382] pool5 -> pool5
I0403 22:02:18.623252 15561 net.cpp:124] Setting up pool5
I0403 22:02:18.623277 15561 net.cpp:131] Top shape: 50 256 6 6 (460800)
I0403 22:02:18.623283 15561 net.cpp:139] Memory required for data: 338092400
I0403 22:02:18.623289 15561 layer_factory.hpp:77] Creating layer fc6
I0403 22:02:18.623302 15561 net.cpp:86] Creating Layer fc6
I0403 22:02:18.623308 15561 net.cpp:408] fc6 <- pool5
I0403 22:02:18.623317 15561 net.cpp:382] fc6 -> fc6
I0403 22:02:19.212491 15561 net.cpp:124] Setting up fc6
I0403 22:02:19.212540 15561 net.cpp:131] Top shape: 50 4096 (204800)
I0403 22:02:19.212546 15561 net.cpp:139] Memory required for data: 338911600
I0403 22:02:19.212563 15561 layer_factory.hpp:77] Creating layer relu6
I0403 22:02:19.212577 15561 net.cpp:86] Creating Layer relu6
I0403 22:02:19.212585 15561 net.cpp:408] relu6 <- fc6
I0403 22:02:19.212596 15561 net.cpp:369] relu6 -> fc6 (in-place)
I0403 22:02:19.213163 15561 net.cpp:124] Setting up relu6
I0403 22:02:19.213179 15561 net.cpp:131] Top shape: 50 4096 (204800)
I0403 22:02:19.213186 15561 net.cpp:139] Memory required for data: 339730800
I0403 22:02:19.213192 15561 layer_factory.hpp:77] Creating layer drop6
I0403 22:02:19.213203 15561 net.cpp:86] Creating Layer drop6
I0403 22:02:19.213209 15561 net.cpp:408] drop6 <- fc6
I0403 22:02:19.213217 15561 net.cpp:369] drop6 -> fc6 (in-place)
I0403 22:02:19.213260 15561 net.cpp:124] Setting up drop6
I0403 22:02:19.213271 15561 net.cpp:131] Top shape: 50 4096 (204800)
I0403 22:02:19.213276 15561 net.cpp:139] Memory required for data: 340550000
I0403 22:02:19.213282 15561 layer_factory.hpp:77] Creating layer fc7
I0403 22:02:19.213294 15561 net.cpp:86] Creating Layer fc7
I0403 22:02:19.213299 15561 net.cpp:408] fc7 <- fc6
I0403 22:02:19.213310 15561 net.cpp:382] fc7 -> fc7
I0403 22:02:19.474443 15561 net.cpp:124] Setting up fc7
I0403 22:02:19.474498 15561 net.cpp:131] Top shape: 50 4096 (204800)
I0403 22:02:19.474503 15561 net.cpp:139] Memory required for data: 341369200
I0403 22:02:19.474519 15561 layer_factory.hpp:77] Creating layer relu7
I0403 22:02:19.474534 15561 net.cpp:86] Creating Layer relu7
I0403 22:02:19.474542 15561 net.cpp:408] relu7 <- fc7
I0403 22:02:19.474553 15561 net.cpp:369] relu7 -> fc7 (in-place)
I0403 22:02:19.474843 15561 net.cpp:124] Setting up relu7
I0403 22:02:19.474858 15561 net.cpp:131] Top shape: 50 4096 (204800)
I0403 22:02:19.474862 15561 net.cpp:139] Memory required for data: 342188400
I0403 22:02:19.474869 15561 layer_factory.hpp:77] Creating layer drop7
I0403 22:02:19.474880 15561 net.cpp:86] Creating Layer drop7
I0403 22:02:19.474886 15561 net.cpp:408] drop7 <- fc7
I0403 22:02:19.474895 15561 net.cpp:369] drop7 -> fc7 (in-place)
I0403 22:02:19.474936 15561 net.cpp:124] Setting up drop7
I0403 22:02:19.474947 15561 net.cpp:131] Top shape: 50 4096 (204800)
I0403 22:02:19.474952 15561 net.cpp:139] Memory required for data: 343007600
I0403 22:02:19.474958 15561 layer_factory.hpp:77] Creating layer fc8
I0403 22:02:19.474969 15561 net.cpp:86] Creating Layer fc8
I0403 22:02:19.474975 15561 net.cpp:408] fc8 <- fc7
I0403 22:02:19.474984 15561 net.cpp:382] fc8 -> fc8
I0403 22:02:19.539041 15561 net.cpp:124] Setting up fc8
I0403 22:02:19.539093 15561 net.cpp:131] Top shape: 50 1000 (50000)
I0403 22:02:19.539098 15561 net.cpp:139] Memory required for data: 343207600
I0403 22:02:19.539114 15561 layer_factory.hpp:77] Creating layer fc8_fc8_0_split
I0403 22:02:19.539129 15561 net.cpp:86] Creating Layer fc8_fc8_0_split
I0403 22:02:19.539136 15561 net.cpp:408] fc8_fc8_0_split <- fc8
I0403 22:02:19.539149 15561 net.cpp:382] fc8_fc8_0_split -> fc8_fc8_0_split_0
I0403 22:02:19.539165 15561 net.cpp:382] fc8_fc8_0_split -> fc8_fc8_0_split_1
I0403 22:02:19.539222 15561 net.cpp:124] Setting up fc8_fc8_0_split
I0403 22:02:19.539233 15561 net.cpp:131] Top shape: 50 1000 (50000)
I0403 22:02:19.539239 15561 net.cpp:131] Top shape: 50 1000 (50000)
I0403 22:02:19.539244 15561 net.cpp:139] Memory required for data: 343607600
I0403 22:02:19.539250 15561 layer_factory.hpp:77] Creating layer accuracy
I0403 22:02:19.539261 15561 net.cpp:86] Creating Layer accuracy
I0403 22:02:19.539283 15561 net.cpp:408] accuracy <- fc8_fc8_0_split_0
I0403 22:02:19.539302 15561 net.cpp:408] accuracy <- label_data_1_split_0
I0403 22:02:19.539311 15561 net.cpp:382] accuracy -> accuracy
…
