…
I0404 21:17:26.207139 28536 net.cpp:296] The NetState phase (0) differed from the phase (1) specified by a rule in layer accuracy
I0404 21:17:26.207373 28536 net.cpp:53] Initializing net from parameters: 
name: "CaffeNet"
state {
  phase: TRAIN
  level: 0
  stage: ""
}
layer {
  name: "data"
  type: "Data"
  top: "data"
  top: "label"
  include {
    phase: TRAIN
  }
  transform_param {
    mirror: true
    crop_size: 227
    mean_file: "data/ilsvrc12/imagenet_mean.binaryproto"
  }
  data_param {
    source: "examples/imagenet/ilsvrc12_train_lmdb"
    batch_size: 256
    backend: LMDB
  }
}
layer {
  name: "conv1"
  type: "Convolution"
  bottom: "data"
  top: "conv1"
  param {
    lr_mult: 1
    decay_mult: 1
  }
  param {
    lr_mult: 2
    decay_mult: 0
  }
  convolution_param {
    num_output: 96
    kernel_size: 11
    stride: 4
    weight_filler {
      type: "gaussian"
      std: 0.01
    }
    bias_filler {
      type: "constant"
      value: 0
    }
  }
}
layer {
  name: "relu1"
  type: "ReLU"
  bottom: "conv1"
  top: "conv1"
}
layer {
  name: "pool1"
  type: "Pooling"
  bottom: "conv1"
  top: "pool1"
  pooling_param {
    pool: MAX
    kernel_size: 3
    stride: 2
  }
}
layer {
  name: "norm1"
  type: "LRN"
  bottom: "pool1"
  top: "norm1"
  lrn_param {
    local_size: 5
    alpha: 0.0001
    beta: 0.75
  }
}
layer {
  name: "conv2"
  type: "Convolution"
  bottom: "norm1"
  top: "conv2"
  param {
    lr_mult: 1
    decay_mult: 1
  }
  param {
    lr_mult: 2
    decay_mult: 0
  }
  convolution_param {
    num_output: 256
    pad: 2
    kernel_size: 5
    group: 2
    weight_filler {
      type: "gaussian"
      std: 0.01
    }
    bias_filler {
      type: "constant"
      value: 1
    }
  }
}
layer {
  name: "relu2"
  type: "ReLU"
  bottom: "conv2"
  top: "conv2"
}
layer {
  name: "pool2"
  type: "Pooling"
  bottom: "conv2"
  top: "pool2"
  pooling_param {
    pool: MAX
    kernel_size: 3
    stride: 2
  }
}
layer {
  name: "norm2"
  type: "LRN"
  bottom: "pool2"
  top: "norm2"
  lrn_param {
    local_size: 5
    alpha: 0.0001
    beta: 0.75
  }
}
layer {
  name: "conv3"
  type: "Convolution"
  bottom: "norm2"
  top: "conv3"
  param {
    lr_mult: 1
    decay_mult: 1
  }
  param {
    lr_mult: 2
    decay_mult: 0
  }
  convolution_param {
    num_output: 384
    pad: 1
    kernel_size: 3
    weight_filler {
      type: "gaussian"
      std: 0.01
    }
    bias_filler {
      type: "constant"
      value: 0
    }
  }
}
layer {
  name: "relu3"
  type: "ReLU"
  bottom: "conv3"
  top: "conv3"
}
layer {
  name: "conv4"
  type: "Convolution"
  bottom: "conv3"
  top: "conv4"
  param {
    lr_mult: 1
    decay_mult: 1
  }
  param {
    lr_mult: 2
    decay_mult: 0
  }
  convolution_param {
    num_output: 384
    pad: 1
    kernel_size: 3
    group: 2
    weight_filler {
      type: "gaussian"
      std: 0.01
    }
    bias_filler {
      type: "constant"
      value: 1
    }
  }
}
layer {
  name: "relu4"
  type: "ReLU"
  bottom: "conv4"
  top: "conv4"
}
layer {
  name: "conv5"
  type: "Convolution"
  bottom: "conv4"
  top: "conv5"
  param {
    lr_mult: 1
    decay_mult: 1
  }
  param {
    lr_mult: 2
    decay_mult: 0
  }
  convolution_param {
    num_output: 256
    pad: 1
    kernel_size: 3
    group: 2
    weight_filler {
      type: "gaussian"
      std: 0.01
    }
    bias_filler {
      type: "constant"
      value: 1
    }
  }
}
layer {
  name: "relu5"
  type: "ReLU"
  bottom: "conv5"
  top: "conv5"
}
layer {
  name: "pool5"
  type: "Pooling"
  bottom: "conv5"
  top: "pool5"
  pooling_param {
    pool: MAX
    kernel_size: 3
    stride: 2
  }
}
layer {
  name: "fc6"
  type: "InnerProduct"
  bottom: "pool5"
  top: "fc6"
  param {
    lr_mult: 1
    decay_mult: 1
  }
  param {
    lr_mult: 2
    decay_mult: 0
  }
  inner_product_param {
    num_output: 4096
    weight_filler {
      type: "gaussian"
      std: 0.005
    }
    bias_filler {
      type: "constant"
      value: 1
    }
  }
}
layer {
  name: "relu6"
  type: "ReLU"
  bottom: "fc6"
  top: "fc6"
}
layer {
  name: "drop6"
  type: "Dropout"
  bottom: "fc6"
  top: "fc6"
  dropout_param {
    dropout_ratio: 0.5
  }
}
layer {
  name: "fc7"
  type: "InnerProduct"
  bottom: "fc6"
  top: "fc7"
  param {
    lr_mult: 1
    decay_mult: 1
  }
  param {
    lr_mult: 2
    decay_mult: 0
  }
  inner_product_param {
    num_output: 4096
    weight_filler {
      type: "gaussian"
      std: 0.005
    }
    bias_filler {
      type: "constant"
      value: 1
    }
  }
}
layer {
  name: "relu7"
  type: "ReLU"
  bottom: "fc7"
  top: "fc7"
}
layer {
  name: "drop7"
  type: "Dropout"
  bottom: "fc7"
  top: "fc7"
  dropout_param {
    dropout_ratio: 0.5
  }
}
layer {
  name: "fc8"
  type: "InnerProduct"
  bottom: "fc7"
  top: "fc8"
  param {
    lr_mult: 1
    decay_mult: 1
  }
  param {
    lr_mult: 2
    decay_mult: 0
  }
  inner_product_param {
    num_output: 1000
    weight_filler {
      type: "gaussian"
      std: 0.01
    }
    bias_filler {
      type: "constant"
      value: 0
    }
  }
}
layer {
  name: "loss"
  type: "SoftmaxWithLoss"
  bottom: "fc8"
  bottom: "label"
  top: "loss"
}
I0404 21:17:26.207514 28536 layer_factory.hpp:77] Creating layer data
I0404 21:17:26.207650 28536 db_lmdb.cpp:35] Opened lmdb examples/imagenet/ilsvrc12_train_lmdb
I0404 21:17:26.274122 28536 net.cpp:86] Creating Layer data
I0404 21:17:26.274152 28536 net.cpp:382] data -> data
I0404 21:17:26.274188 28536 net.cpp:382] data -> label
I0404 21:17:26.274214 28536 data_transformer.cpp:25] Loading mean file from: data/ilsvrc12/imagenet_mean.binaryproto
I0404 21:17:26.281175 28536 data_layer.cpp:45] output data size: 256,3,227,227
I0404 21:17:26.701378 28536 net.cpp:124] Setting up data
I0404 21:17:26.701432 28536 net.cpp:131] Top shape: 256 3 227 227 (39574272)
I0404 21:17:26.701442 28536 net.cpp:131] Top shape: 256 (256)
I0404 21:17:26.701447 28536 net.cpp:139] Memory required for data: 158298112
I0404 21:17:26.701464 28536 layer_factory.hpp:77] Creating layer conv1
I0404 21:17:26.701495 28536 net.cpp:86] Creating Layer conv1
I0404 21:17:26.701506 28536 net.cpp:408] conv1 <- data
I0404 21:17:26.701526 28536 net.cpp:382] conv1 -> conv1
I0404 21:17:27.540699 28536 net.cpp:124] Setting up conv1
I0404 21:17:27.540750 28536 net.cpp:131] Top shape: 256 96 55 55 (74342400)
I0404 21:17:27.540758 28536 net.cpp:139] Memory required for data: 455667712
I0404 21:17:27.540803 28536 layer_factory.hpp:77] Creating layer relu1
I0404 21:17:27.540823 28536 net.cpp:86] Creating Layer relu1
I0404 21:17:27.540833 28536 net.cpp:408] relu1 <- conv1
I0404 21:17:27.540845 28536 net.cpp:369] relu1 -> conv1 (in-place)
I0404 21:17:27.541290 28536 net.cpp:124] Setting up relu1
I0404 21:17:27.541309 28536 net.cpp:131] Top shape: 256 96 55 55 (74342400)
I0404 21:17:27.541316 28536 net.cpp:139] Memory required for data: 753037312
I0404 21:17:27.541324 28536 layer_factory.hpp:77] Creating layer pool1
I0404 21:17:27.541337 28536 net.cpp:86] Creating Layer pool1
I0404 21:17:27.541345 28536 net.cpp:408] pool1 <- conv1
I0404 21:17:27.541355 28536 net.cpp:382] pool1 -> pool1
I0404 21:17:27.541426 28536 net.cpp:124] Setting up pool1
I0404 21:17:27.541440 28536 net.cpp:131] Top shape: 256 96 27 27 (17915904)
I0404 21:17:27.541447 28536 net.cpp:139] Memory required for data: 824700928
I0404 21:17:27.541455 28536 layer_factory.hpp:77] Creating layer norm1
I0404 21:17:27.541472 28536 net.cpp:86] Creating Layer norm1
I0404 21:17:27.541491 28536 net.cpp:408] norm1 <- pool1
I0404 21:17:27.541515 28536 net.cpp:382] norm1 -> norm1
I0404 21:17:27.541787 28536 net.cpp:124] Setting up norm1
I0404 21:17:27.541805 28536 net.cpp:131] Top shape: 256 96 27 27 (17915904)
I0404 21:17:27.541812 28536 net.cpp:139] Memory required for data: 896364544
I0404 21:17:27.541821 28536 layer_factory.hpp:77] Creating layer conv2
I0404 21:17:27.541841 28536 net.cpp:86] Creating Layer conv2
I0404 21:17:27.541848 28536 net.cpp:408] conv2 <- norm1
I0404 21:17:27.541859 28536 net.cpp:382] conv2 -> conv2
I0404 21:17:27.551560 28536 net.cpp:124] Setting up conv2
I0404 21:17:27.551599 28536 net.cpp:131] Top shape: 256 256 27 27 (47775744)
I0404 21:17:27.551607 28536 net.cpp:139] Memory required for data: 1087467520
I0404 21:17:27.551627 28536 layer_factory.hpp:77] Creating layer relu2
I0404 21:17:27.551640 28536 net.cpp:86] Creating Layer relu2
I0404 21:17:27.551650 28536 net.cpp:408] relu2 <- conv2
I0404 21:17:27.551663 28536 net.cpp:369] relu2 -> conv2 (in-place)
I0404 21:17:27.551908 28536 net.cpp:124] Setting up relu2
I0404 21:17:27.551924 28536 net.cpp:131] Top shape: 256 256 27 27 (47775744)
I0404 21:17:27.551930 28536 net.cpp:139] Memory required for data: 1278570496
I0404 21:17:27.551937 28536 layer_factory.hpp:77] Creating layer pool2
I0404 21:17:27.551951 28536 net.cpp:86] Creating Layer pool2
I0404 21:17:27.551959 28536 net.cpp:408] pool2 <- conv2
I0404 21:17:27.551969 28536 net.cpp:382] pool2 -> pool2
I0404 21:17:27.552044 28536 net.cpp:124] Setting up pool2
I0404 21:17:27.552058 28536 net.cpp:131] Top shape: 256 256 13 13 (11075584)
I0404 21:17:27.552065 28536 net.cpp:139] Memory required for data: 1322872832
I0404 21:17:27.552073 28536 layer_factory.hpp:77] Creating layer norm2
I0404 21:17:27.552088 28536 net.cpp:86] Creating Layer norm2
I0404 21:17:27.552096 28536 net.cpp:408] norm2 <- pool2
I0404 21:17:27.552106 28536 net.cpp:382] norm2 -> norm2
I0404 21:17:27.552557 28536 net.cpp:124] Setting up norm2
I0404 21:17:27.552575 28536 net.cpp:131] Top shape: 256 256 13 13 (11075584)
I0404 21:17:27.552582 28536 net.cpp:139] Memory required for data: 1367175168
I0404 21:17:27.552589 28536 layer_factory.hpp:77] Creating layer conv3
I0404 21:17:27.552608 28536 net.cpp:86] Creating Layer conv3
I0404 21:17:27.552616 28536 net.cpp:408] conv3 <- norm2
I0404 21:17:27.552634 28536 net.cpp:382] conv3 -> conv3
I0404 21:17:27.571506 28536 net.cpp:124] Setting up conv3
I0404 21:17:27.571552 28536 net.cpp:131] Top shape: 256 384 13 13 (16613376)
I0404 21:17:27.571558 28536 net.cpp:139] Memory required for data: 1433628672
I0404 21:17:27.571581 28536 layer_factory.hpp:77] Creating layer relu3
I0404 21:17:27.571596 28536 net.cpp:86] Creating Layer relu3
I0404 21:17:27.571605 28536 net.cpp:408] relu3 <- conv3
I0404 21:17:27.571617 28536 net.cpp:369] relu3 -> conv3 (in-place)
I0404 21:17:27.571831 28536 net.cpp:124] Setting up relu3
I0404 21:17:27.571846 28536 net.cpp:131] Top shape: 256 384 13 13 (16613376)
I0404 21:17:27.571851 28536 net.cpp:139] Memory required for data: 1500082176
I0404 21:17:27.571858 28536 layer_factory.hpp:77] Creating layer conv4
I0404 21:17:27.571877 28536 net.cpp:86] Creating Layer conv4
I0404 21:17:27.571884 28536 net.cpp:408] conv4 <- conv3
I0404 21:17:27.571897 28536 net.cpp:382] conv4 -> conv4
I0404 21:17:27.587007 28536 net.cpp:124] Setting up conv4
I0404 21:17:27.587051 28536 net.cpp:131] Top shape: 256 384 13 13 (16613376)
I0404 21:17:27.587057 28536 net.cpp:139] Memory required for data: 1566535680
I0404 21:17:27.587072 28536 layer_factory.hpp:77] Creating layer relu4
I0404 21:17:27.587085 28536 net.cpp:86] Creating Layer relu4
I0404 21:17:27.587095 28536 net.cpp:408] relu4 <- conv4
I0404 21:17:27.587107 28536 net.cpp:369] relu4 -> conv4 (in-place)
I0404 21:17:27.587327 28536 net.cpp:124] Setting up relu4
I0404 21:17:27.587340 28536 net.cpp:131] Top shape: 256 384 13 13 (16613376)
I0404 21:17:27.587347 28536 net.cpp:139] Memory required for data: 1632989184
I0404 21:17:27.587353 28536 layer_factory.hpp:77] Creating layer conv5
I0404 21:17:27.587380 28536 net.cpp:86] Creating Layer conv5
I0404 21:17:27.587400 28536 net.cpp:408] conv5 <- conv4
I0404 21:17:27.587414 28536 net.cpp:382] conv5 -> conv5
I0404 21:17:27.598513 28536 net.cpp:124] Setting up conv5
I0404 21:17:27.598547 28536 net.cpp:131] Top shape: 256 256 13 13 (11075584)
I0404 21:17:27.598554 28536 net.cpp:139] Memory required for data: 1677291520
I0404 21:17:27.598574 28536 layer_factory.hpp:77] Creating layer relu5
I0404 21:17:27.598589 28536 net.cpp:86] Creating Layer relu5
I0404 21:17:27.598598 28536 net.cpp:408] relu5 <- conv5
I0404 21:17:27.598609 28536 net.cpp:369] relu5 -> conv5 (in-place)
I0404 21:17:27.598822 28536 net.cpp:124] Setting up relu5
I0404 21:17:27.598836 28536 net.cpp:131] Top shape: 256 256 13 13 (11075584)
I0404 21:17:27.598844 28536 net.cpp:139] Memory required for data: 1721593856
I0404 21:17:27.598850 28536 layer_factory.hpp:77] Creating layer pool5
I0404 21:17:27.598863 28536 net.cpp:86] Creating Layer pool5
I0404 21:17:27.598870 28536 net.cpp:408] pool5 <- conv5
I0404 21:17:27.598881 28536 net.cpp:382] pool5 -> pool5
I0404 21:17:27.598944 28536 net.cpp:124] Setting up pool5
I0404 21:17:27.598958 28536 net.cpp:131] Top shape: 256 256 6 6 (2359296)
I0404 21:17:27.598963 28536 net.cpp:139] Memory required for data: 1731031040
I0404 21:17:27.598969 28536 layer_factory.hpp:77] Creating layer fc6
I0404 21:17:27.598985 28536 net.cpp:86] Creating Layer fc6
I0404 21:17:27.598994 28536 net.cpp:408] fc6 <- pool5
I0404 21:17:27.599005 28536 net.cpp:382] fc6 -> fc6
I0404 21:17:28.194744 28536 net.cpp:124] Setting up fc6
I0404 21:17:28.194792 28536 net.cpp:131] Top shape: 256 4096 (1048576)
I0404 21:17:28.194799 28536 net.cpp:139] Memory required for data: 1735225344
I0404 21:17:28.194816 28536 layer_factory.hpp:77] Creating layer relu6
I0404 21:17:28.194831 28536 net.cpp:86] Creating Layer relu6
I0404 21:17:28.194839 28536 net.cpp:408] relu6 <- fc6
I0404 21:17:28.194851 28536 net.cpp:369] relu6 -> fc6 (in-place)
I0404 21:17:28.195438 28536 net.cpp:124] Setting up relu6
I0404 21:17:28.195454 28536 net.cpp:131] Top shape: 256 4096 (1048576)
I0404 21:17:28.195461 28536 net.cpp:139] Memory required for data: 1739419648
I0404 21:17:28.195467 28536 layer_factory.hpp:77] Creating layer drop6
I0404 21:17:28.195489 28536 net.cpp:86] Creating Layer drop6
I0404 21:17:28.195497 28536 net.cpp:408] drop6 <- fc6
I0404 21:17:28.195507 28536 net.cpp:369] drop6 -> fc6 (in-place)
I0404 21:17:28.195559 28536 net.cpp:124] Setting up drop6
I0404 21:17:28.195574 28536 net.cpp:131] Top shape: 256 4096 (1048576)
I0404 21:17:28.195580 28536 net.cpp:139] Memory required for data: 1743613952
I0404 21:17:28.195587 28536 layer_factory.hpp:77] Creating layer fc7
I0404 21:17:28.195600 28536 net.cpp:86] Creating Layer fc7
I0404 21:17:28.195606 28536 net.cpp:408] fc7 <- fc6
I0404 21:17:28.195618 28536 net.cpp:382] fc7 -> fc7
I0404 21:17:28.459520 28536 net.cpp:124] Setting up fc7
I0404 21:17:28.459566 28536 net.cpp:131] Top shape: 256 4096 (1048576)
I0404 21:17:28.459573 28536 net.cpp:139] Memory required for data: 1747808256
I0404 21:17:28.459589 28536 layer_factory.hpp:77] Creating layer relu7
I0404 21:17:28.459604 28536 net.cpp:86] Creating Layer relu7
I0404 21:17:28.459612 28536 net.cpp:408] relu7 <- fc7
I0404 21:17:28.459626 28536 net.cpp:369] relu7 -> fc7 (in-place)
I0404 21:17:28.459921 28536 net.cpp:124] Setting up relu7
I0404 21:17:28.459936 28536 net.cpp:131] Top shape: 256 4096 (1048576)
I0404 21:17:28.459942 28536 net.cpp:139] Memory required for data: 1752002560
I0404 21:17:28.459949 28536 layer_factory.hpp:77] Creating layer drop7
I0404 21:17:28.459959 28536 net.cpp:86] Creating Layer drop7
I0404 21:17:28.459966 28536 net.cpp:408] drop7 <- fc7
I0404 21:17:28.459980 28536 net.cpp:369] drop7 -> fc7 (in-place)
I0404 21:17:28.460026 28536 net.cpp:124] Setting up drop7
I0404 21:17:28.460036 28536 net.cpp:131] Top shape: 256 4096 (1048576)
I0404 21:17:28.460042 28536 net.cpp:139] Memory required for data: 1756196864
I0404 21:17:28.460049 28536 layer_factory.hpp:77] Creating layer fc8
I0404 21:17:28.460063 28536 net.cpp:86] Creating Layer fc8
I0404 21:17:28.460079 28536 net.cpp:408] fc8 <- fc7
I0404 21:17:28.460103 28536 net.cpp:382] fc8 -> fc8
I0404 21:17:28.632603 28536 net.cpp:124] Setting up fc8
I0404 21:17:28.632658 28536 net.cpp:131] Top shape: 256 1000 (256000)
I0404 21:17:28.632665 28536 net.cpp:139] Memory required for data: 1757220864
I0404 21:17:28.632683 28536 layer_factory.hpp:77] Creating layer loss
I0404 21:17:28.632696 28536 net.cpp:86] Creating Layer loss
I0404 21:17:28.632704 28536 net.cpp:408] loss <- fc8
I0404 21:17:28.632715 28536 net.cpp:408] loss <- label
I0404 21:17:28.632730 28536 net.cpp:382] loss -> loss
I0404 21:17:28.632752 28536 layer_factory.hpp:77] Creating layer loss
…
I0404 21:17:28.634793 28536 net.cpp:296] The NetState phase (1) differed from the phase (0) specified by a rule in layer data
I0404 21:17:28.635037 28536 net.cpp:53] Initializing net from parameters: 
name: "CaffeNet"
state {
  phase: TEST
}
layer {
  name: "data"
  type: "Data"
  top: "data"
  top: "label"
  include {
    phase: TEST
  }
  transform_param {
    mirror: false
    crop_size: 227
    mean_file: "data/ilsvrc12/imagenet_mean.binaryproto"
  }
  data_param {
    source: "examples/imagenet/ilsvrc12_val_lmdb"
    batch_size: 50
    backend: LMDB
  }
}
layer {
  name: "conv1"
  type: "Convolution"
  bottom: "data"
  top: "conv1"
  param {
    lr_mult: 1
    decay_mult: 1
  }
  param {
    lr_mult: 2
    decay_mult: 0
  }
  convolution_param {
    num_output: 96
    kernel_size: 11
    stride: 4
    weight_filler {
      type: "gaussian"
      std: 0.01
    }
    bias_filler {
      type: "constant"
      value: 0
    }
  }
}
layer {
  name: "relu1"
  type: "ReLU"
  bottom: "conv1"
  top: "conv1"
}
layer {
  name: "pool1"
  type: "Pooling"
  bottom: "conv1"
  top: "pool1"
  pooling_param {
    pool: MAX
    kernel_size: 3
    stride: 2
  }
}
layer {
  name: "norm1"
  type: "LRN"
  bottom: "pool1"
  top: "norm1"
  lrn_param {
    local_size: 5
    alpha: 0.0001
    beta: 0.75
  }
}
layer {
  name: "conv2"
  type: "Convolution"
  bottom: "norm1"
  top: "conv2"
  param {
    lr_mult: 1
    decay_mult: 1
  }
  param {
    lr_mult: 2
    decay_mult: 0
  }
  convolution_param {
    num_output: 256
    pad: 2
    kernel_size: 5
    group: 2
    weight_filler {
      type: "gaussian"
      std: 0.01
    }
    bias_filler {
      type: "constant"
      value: 1
    }
  }
}
layer {
  name: "relu2"
  type: "ReLU"
  bottom: "conv2"
  top: "conv2"
}
layer {
  name: "pool2"
  type: "Pooling"
  bottom: "conv2"
  top: "pool2"
  pooling_param {
    pool: MAX
    kernel_size: 3
    stride: 2
  }
}
layer {
  name: "norm2"
  type: "LRN"
  bottom: "pool2"
  top: "norm2"
  lrn_param {
    local_size: 5
    alpha: 0.0001
    beta: 0.75
  }
}
layer {
  name: "conv3"
  type: "Convolution"
  bottom: "norm2"
  top: "conv3"
  param {
    lr_mult: 1
    decay_mult: 1
  }
  param {
    lr_mult: 2
    decay_mult: 0
  }
  convolution_param {
    num_output: 384
    pad: 1
    kernel_size: 3
    weight_filler {
      type: "gaussian"
      std: 0.01
    }
    bias_filler {
      type: "constant"
      value: 0
    }
  }
}
layer {
  name: "relu3"
  type: "ReLU"
  bottom: "conv3"
  top: "conv3"
}
layer {
  name: "conv4"
  type: "Convolution"
  bottom: "conv3"
  top: "conv4"
  param {
    lr_mult: 1
    decay_mult: 1
  }
  param {
    lr_mult: 2
    decay_mult: 0
  }
  convolution_param {
    num_output: 384
    pad: 1
    kernel_size: 3
    group: 2
    weight_filler {
      type: "gaussian"
      std: 0.01
    }
    bias_filler {
      type: "constant"
      value: 1
    }
  }
}
layer {
  name: "relu4"
  type: "ReLU"
  bottom: "conv4"
  top: "conv4"
}
layer {
  name: "conv5"
  type: "Convolution"
  bottom: "conv4"
  top: "conv5"
  param {
    lr_mult: 1
    decay_mult: 1
  }
  param {
    lr_mult: 2
    decay_mult: 0
  }
  convolution_param {
    num_output: 256
    pad: 1
    kernel_size: 3
    group: 2
    weight_filler {
      type: "gaussian"
      std: 0.01
    }
    bias_filler {
      type: "constant"
      value: 1
    }
  }
}
layer {
  name: "relu5"
  type: "ReLU"
  bottom: "conv5"
  top: "conv5"
}
layer {
  name: "pool5"
  type: "Pooling"
  bottom: "conv5"
  top: "pool5"
  pooling_param {
    pool: MAX
    kernel_size: 3
    stride: 2
  }
}
layer {
  name: "fc6"
  type: "InnerProduct"
  bottom: "pool5"
  top: "fc6"
  param {
    lr_mult: 1
    decay_mult: 1
  }
  param {
    lr_mult: 2
    decay_mult: 0
  }
  inner_product_param {
    num_output: 4096
    weight_filler {
      type: "gaussian"
      std: 0.005
    }
    bias_filler {
      type: "constant"
      value: 1
    }
  }
}
layer {
  name: "relu6"
  type: "ReLU"
  bottom: "fc6"
  top: "fc6"
}
layer {
  name: "drop6"
  type: "Dropout"
  bottom: "fc6"
  top: "fc6"
  dropout_param {
    dropout_ratio: 0.5
  }
}
layer {
  name: "fc7"
  type: "InnerProduct"
  bottom: "fc6"
  top: "fc7"
  param {
    lr_mult: 1
    decay_mult: 1
  }
  param {
    lr_mult: 2
    decay_mult: 0
  }
  inner_product_param {
    num_output: 4096
    weight_filler {
      type: "gaussian"
      std: 0.005
    }
    bias_filler {
      type: "constant"
      value: 1
    }
  }
}
layer {
  name: "relu7"
  type: "ReLU"
  bottom: "fc7"
  top: "fc7"
}
layer {
  name: "drop7"
  type: "Dropout"
  bottom: "fc7"
  top: "fc7"
  dropout_param {
    dropout_ratio: 0.5
  }
}
layer {
  name: "fc8"
  type: "InnerProduct"
  bottom: "fc7"
  top: "fc8"
  param {
    lr_mult: 1
    decay_mult: 1
  }
  param {
    lr_mult: 2
    decay_mult: 0
  }
  inner_product_param {
    num_output: 1000
    weight_filler {
      type: "gaussian"
      std: 0.01
    }
    bias_filler {
      type: "constant"
      value: 0
    }
  }
}
layer {
  name: "accuracy"
  type: "Accuracy"
  bottom: "fc8"
  bottom: "label"
  top: "accuracy"
  include {
    phase: TEST
  }
}
layer {
  name: "loss"
  type: "SoftmaxWithLoss"
  bottom: "fc8"
  bottom: "label"
  top: "loss"
}
I0404 21:17:28.635213 28536 layer_factory.hpp:77] Creating layer data
I0404 21:17:28.635296 28536 db_lmdb.cpp:35] Opened lmdb examples/imagenet/ilsvrc12_val_lmdb
I0404 21:17:28.635325 28536 net.cpp:86] Creating Layer data
I0404 21:17:28.635349 28536 net.cpp:382] data -> data
I0404 21:17:28.635366 28536 net.cpp:382] data -> label
I0404 21:17:28.635380 28536 data_transformer.cpp:25] Loading mean file from: data/ilsvrc12/imagenet_mean.binaryproto
I0404 21:17:28.637832 28536 data_layer.cpp:45] output data size: 50,3,227,227
I0404 21:17:28.717322 28536 net.cpp:124] Setting up data
I0404 21:17:28.717371 28536 net.cpp:131] Top shape: 50 3 227 227 (7729350)
I0404 21:17:28.717381 28536 net.cpp:131] Top shape: 50 (50)
I0404 21:17:28.717386 28536 net.cpp:139] Memory required for data: 30917600
I0404 21:17:28.717397 28536 layer_factory.hpp:77] Creating layer label_data_1_split
I0404 21:17:28.717416 28536 net.cpp:86] Creating Layer label_data_1_split
I0404 21:17:28.717424 28536 net.cpp:408] label_data_1_split <- label
I0404 21:17:28.717437 28536 net.cpp:382] label_data_1_split -> label_data_1_split_0
I0404 21:17:28.717453 28536 net.cpp:382] label_data_1_split -> label_data_1_split_1
I0404 21:17:28.717526 28536 net.cpp:124] Setting up label_data_1_split
I0404 21:17:28.717537 28536 net.cpp:131] Top shape: 50 (50)
I0404 21:17:28.717545 28536 net.cpp:131] Top shape: 50 (50)
I0404 21:17:28.717551 28536 net.cpp:139] Memory required for data: 30918000
I0404 21:17:28.717557 28536 layer_factory.hpp:77] Creating layer conv1
I0404 21:17:28.717576 28536 net.cpp:86] Creating Layer conv1
I0404 21:17:28.717583 28536 net.cpp:408] conv1 <- data
I0404 21:17:28.717593 28536 net.cpp:382] conv1 -> conv1
I0404 21:17:28.724493 28536 net.cpp:124] Setting up conv1
I0404 21:17:28.724537 28536 net.cpp:131] Top shape: 50 96 55 55 (14520000)
I0404 21:17:28.724545 28536 net.cpp:139] Memory required for data: 88998000
I0404 21:17:28.724567 28536 layer_factory.hpp:77] Creating layer relu1
I0404 21:17:28.724581 28536 net.cpp:86] Creating Layer relu1
I0404 21:17:28.724589 28536 net.cpp:408] relu1 <- conv1
I0404 21:17:28.724599 28536 net.cpp:369] relu1 -> conv1 (in-place)
I0404 21:17:28.724809 28536 net.cpp:124] Setting up relu1
I0404 21:17:28.724824 28536 net.cpp:131] Top shape: 50 96 55 55 (14520000)
I0404 21:17:28.724830 28536 net.cpp:139] Memory required for data: 147078000
I0404 21:17:28.724838 28536 layer_factory.hpp:77] Creating layer pool1
I0404 21:17:28.724867 28536 net.cpp:86] Creating Layer pool1
I0404 21:17:28.724875 28536 net.cpp:408] pool1 <- conv1
I0404 21:17:28.724885 28536 net.cpp:382] pool1 -> pool1
I0404 21:17:28.724946 28536 net.cpp:124] Setting up pool1
I0404 21:17:28.724959 28536 net.cpp:131] Top shape: 50 96 27 27 (3499200)
I0404 21:17:28.724967 28536 net.cpp:139] Memory required for data: 161074800
I0404 21:17:28.724972 28536 layer_factory.hpp:77] Creating layer norm1
I0404 21:17:28.724984 28536 net.cpp:86] Creating Layer norm1
I0404 21:17:28.724992 28536 net.cpp:408] norm1 <- pool1
I0404 21:17:28.725000 28536 net.cpp:382] norm1 -> norm1
I0404 21:17:28.725446 28536 net.cpp:124] Setting up norm1
I0404 21:17:28.725464 28536 net.cpp:131] Top shape: 50 96 27 27 (3499200)
I0404 21:17:28.725471 28536 net.cpp:139] Memory required for data: 175071600
I0404 21:17:28.725476 28536 layer_factory.hpp:77] Creating layer conv2
I0404 21:17:28.725495 28536 net.cpp:86] Creating Layer conv2
I0404 21:17:28.725502 28536 net.cpp:408] conv2 <- norm1
I0404 21:17:28.725513 28536 net.cpp:382] conv2 -> conv2
I0404 21:17:28.733202 28536 net.cpp:124] Setting up conv2
I0404 21:17:28.733253 28536 net.cpp:131] Top shape: 50 256 27 27 (9331200)
I0404 21:17:28.733260 28536 net.cpp:139] Memory required for data: 212396400
I0404 21:17:28.733283 28536 layer_factory.hpp:77] Creating layer relu2
I0404 21:17:28.733299 28536 net.cpp:86] Creating Layer relu2
I0404 21:17:28.733307 28536 net.cpp:408] relu2 <- conv2
I0404 21:17:28.733319 28536 net.cpp:369] relu2 -> conv2 (in-place)
I0404 21:17:28.733547 28536 net.cpp:124] Setting up relu2
I0404 21:17:28.733572 28536 net.cpp:131] Top shape: 50 256 27 27 (9331200)
I0404 21:17:28.733592 28536 net.cpp:139] Memory required for data: 249721200
I0404 21:17:28.733598 28536 layer_factory.hpp:77] Creating layer pool2
I0404 21:17:28.733613 28536 net.cpp:86] Creating Layer pool2
I0404 21:17:28.733619 28536 net.cpp:408] pool2 <- conv2
I0404 21:17:28.733629 28536 net.cpp:382] pool2 -> pool2
I0404 21:17:28.733691 28536 net.cpp:124] Setting up pool2
I0404 21:17:28.733705 28536 net.cpp:131] Top shape: 50 256 13 13 (2163200)
I0404 21:17:28.733711 28536 net.cpp:139] Memory required for data: 258374000
I0404 21:17:28.733716 28536 layer_factory.hpp:77] Creating layer norm2
I0404 21:17:28.733729 28536 net.cpp:86] Creating Layer norm2
I0404 21:17:28.733736 28536 net.cpp:408] norm2 <- pool2
I0404 21:17:28.733745 28536 net.cpp:382] norm2 -> norm2
I0404 21:17:28.734200 28536 net.cpp:124] Setting up norm2
I0404 21:17:28.734216 28536 net.cpp:131] Top shape: 50 256 13 13 (2163200)
I0404 21:17:28.734222 28536 net.cpp:139] Memory required for data: 267026800
I0404 21:17:28.734230 28536 layer_factory.hpp:77] Creating layer conv3
I0404 21:17:28.734247 28536 net.cpp:86] Creating Layer conv3
I0404 21:17:28.734254 28536 net.cpp:408] conv3 <- norm2
I0404 21:17:28.734264 28536 net.cpp:382] conv3 -> conv3
I0404 21:17:28.749780 28536 net.cpp:124] Setting up conv3
I0404 21:17:28.749827 28536 net.cpp:131] Top shape: 50 384 13 13 (3244800)
I0404 21:17:28.749833 28536 net.cpp:139] Memory required for data: 280006000
I0404 21:17:28.749855 28536 layer_factory.hpp:77] Creating layer relu3
I0404 21:17:28.749869 28536 net.cpp:86] Creating Layer relu3
I0404 21:17:28.749877 28536 net.cpp:408] relu3 <- conv3
I0404 21:17:28.749888 28536 net.cpp:369] relu3 -> conv3 (in-place)
I0404 21:17:28.750301 28536 net.cpp:124] Setting up relu3
I0404 21:17:28.750318 28536 net.cpp:131] Top shape: 50 384 13 13 (3244800)
I0404 21:17:28.750324 28536 net.cpp:139] Memory required for data: 292985200
I0404 21:17:28.750330 28536 layer_factory.hpp:77] Creating layer conv4
I0404 21:17:28.750349 28536 net.cpp:86] Creating Layer conv4
I0404 21:17:28.750355 28536 net.cpp:408] conv4 <- conv3
I0404 21:17:28.750366 28536 net.cpp:382] conv4 -> conv4
I0404 21:17:28.773792 28536 net.cpp:124] Setting up conv4
I0404 21:17:28.773849 28536 net.cpp:131] Top shape: 50 384 13 13 (3244800)
I0404 21:17:28.773855 28536 net.cpp:139] Memory required for data: 305964400
I0404 21:17:28.773872 28536 layer_factory.hpp:77] Creating layer relu4
I0404 21:17:28.773888 28536 net.cpp:86] Creating Layer relu4
I0404 21:17:28.773896 28536 net.cpp:408] relu4 <- conv4
I0404 21:17:28.773910 28536 net.cpp:369] relu4 -> conv4 (in-place)
I0404 21:17:28.774170 28536 net.cpp:124] Setting up relu4
I0404 21:17:28.774185 28536 net.cpp:131] Top shape: 50 384 13 13 (3244800)
I0404 21:17:28.774193 28536 net.cpp:139] Memory required for data: 318943600
I0404 21:17:28.774199 28536 layer_factory.hpp:77] Creating layer conv5
I0404 21:17:28.774217 28536 net.cpp:86] Creating Layer conv5
I0404 21:17:28.774224 28536 net.cpp:408] conv5 <- conv4
I0404 21:17:28.774236 28536 net.cpp:382] conv5 -> conv5
I0404 21:17:28.784101 28536 net.cpp:124] Setting up conv5
I0404 21:17:28.784148 28536 net.cpp:131] Top shape: 50 256 13 13 (2163200)
I0404 21:17:28.784155 28536 net.cpp:139] Memory required for data: 327596400
I0404 21:17:28.784178 28536 layer_factory.hpp:77] Creating layer relu5
I0404 21:17:28.784194 28536 net.cpp:86] Creating Layer relu5
I0404 21:17:28.784202 28536 net.cpp:408] relu5 <- conv5
I0404 21:17:28.784214 28536 net.cpp:369] relu5 -> conv5 (in-place)
I0404 21:17:28.784449 28536 net.cpp:124] Setting up relu5
I0404 21:17:28.784464 28536 net.cpp:131] Top shape: 50 256 13 13 (2163200)
I0404 21:17:28.784471 28536 net.cpp:139] Memory required for data: 336249200
I0404 21:17:28.784479 28536 layer_factory.hpp:77] Creating layer pool5
I0404 21:17:28.784495 28536 net.cpp:86] Creating Layer pool5
I0404 21:17:28.784502 28536 net.cpp:408] pool5 <- conv5
I0404 21:17:28.784512 28536 net.cpp:382] pool5 -> pool5
I0404 21:17:28.784590 28536 net.cpp:124] Setting up pool5
I0404 21:17:28.784616 28536 net.cpp:131] Top shape: 50 256 6 6 (460800)
I0404 21:17:28.784622 28536 net.cpp:139] Memory required for data: 338092400
I0404 21:17:28.784628 28536 layer_factory.hpp:77] Creating layer fc6
I0404 21:17:28.784643 28536 net.cpp:86] Creating Layer fc6
I0404 21:17:28.784651 28536 net.cpp:408] fc6 <- pool5
I0404 21:17:28.784659 28536 net.cpp:382] fc6 -> fc6
I0404 21:17:29.373639 28536 net.cpp:124] Setting up fc6
I0404 21:17:29.373692 28536 net.cpp:131] Top shape: 50 4096 (204800)
I0404 21:17:29.373699 28536 net.cpp:139] Memory required for data: 338911600
I0404 21:17:29.373716 28536 layer_factory.hpp:77] Creating layer relu6
I0404 21:17:29.373731 28536 net.cpp:86] Creating Layer relu6
I0404 21:17:29.373740 28536 net.cpp:408] relu6 <- fc6
I0404 21:17:29.373752 28536 net.cpp:369] relu6 -> fc6 (in-place)
I0404 21:17:29.374321 28536 net.cpp:124] Setting up relu6
I0404 21:17:29.374337 28536 net.cpp:131] Top shape: 50 4096 (204800)
I0404 21:17:29.374343 28536 net.cpp:139] Memory required for data: 339730800
I0404 21:17:29.374351 28536 layer_factory.hpp:77] Creating layer drop6
I0404 21:17:29.374361 28536 net.cpp:86] Creating Layer drop6
I0404 21:17:29.374368 28536 net.cpp:408] drop6 <- fc6
I0404 21:17:29.374377 28536 net.cpp:369] drop6 -> fc6 (in-place)
I0404 21:17:29.374429 28536 net.cpp:124] Setting up drop6
I0404 21:17:29.374442 28536 net.cpp:131] Top shape: 50 4096 (204800)
I0404 21:17:29.374449 28536 net.cpp:139] Memory required for data: 340550000
I0404 21:17:29.374454 28536 layer_factory.hpp:77] Creating layer fc7
I0404 21:17:29.374466 28536 net.cpp:86] Creating Layer fc7
I0404 21:17:29.374474 28536 net.cpp:408] fc7 <- fc6
I0404 21:17:29.374483 28536 net.cpp:382] fc7 -> fc7
I0404 21:17:29.634388 28536 net.cpp:124] Setting up fc7
I0404 21:17:29.634444 28536 net.cpp:131] Top shape: 50 4096 (204800)
I0404 21:17:29.634451 28536 net.cpp:139] Memory required for data: 341369200
I0404 21:17:29.634467 28536 layer_factory.hpp:77] Creating layer relu7
I0404 21:17:29.634481 28536 net.cpp:86] Creating Layer relu7
I0404 21:17:29.634490 28536 net.cpp:408] relu7 <- fc7
I0404 21:17:29.634502 28536 net.cpp:369] relu7 -> fc7 (in-place)
I0404 21:17:29.634799 28536 net.cpp:124] Setting up relu7
I0404 21:17:29.634814 28536 net.cpp:131] Top shape: 50 4096 (204800)
I0404 21:17:29.634819 28536 net.cpp:139] Memory required for data: 342188400
I0404 21:17:29.634826 28536 layer_factory.hpp:77] Creating layer drop7
I0404 21:17:29.634837 28536 net.cpp:86] Creating Layer drop7
I0404 21:17:29.634845 28536 net.cpp:408] drop7 <- fc7
I0404 21:17:29.634853 28536 net.cpp:369] drop7 -> fc7 (in-place)
I0404 21:17:29.634896 28536 net.cpp:124] Setting up drop7
I0404 21:17:29.634907 28536 net.cpp:131] Top shape: 50 4096 (204800)
I0404 21:17:29.634913 28536 net.cpp:139] Memory required for data: 343007600
I0404 21:17:29.634919 28536 layer_factory.hpp:77] Creating layer fc8
I0404 21:17:29.634932 28536 net.cpp:86] Creating Layer fc8
I0404 21:17:29.634938 28536 net.cpp:408] fc8 <- fc7
I0404 21:17:29.634948 28536 net.cpp:382] fc8 -> fc8
I0404 21:17:29.864545 28536 net.cpp:124] Setting up fc8
I0404 21:17:29.864599 28536 net.cpp:131] Top shape: 50 1000 (50000)
I0404 21:17:29.864606 28536 net.cpp:139] Memory required for data: 343207600
I0404 21:17:29.864624 28536 layer_factory.hpp:77] Creating layer fc8_fc8_0_split
I0404 21:17:29.864640 28536 net.cpp:86] Creating Layer fc8_fc8_0_split
I0404 21:17:29.864650 28536 net.cpp:408] fc8_fc8_0_split <- fc8
I0404 21:17:29.864662 28536 net.cpp:382] fc8_fc8_0_split -> fc8_fc8_0_split_0
I0404 21:17:29.864679 28536 net.cpp:382] fc8_fc8_0_split -> fc8_fc8_0_split_1
I0404 21:17:29.864742 28536 net.cpp:124] Setting up fc8_fc8_0_split
I0404 21:17:29.864753 28536 net.cpp:131] Top shape: 50 1000 (50000)
I0404 21:17:29.864761 28536 net.cpp:131] Top shape: 50 1000 (50000)
I0404 21:17:29.864768 28536 net.cpp:139] Memory required for data: 343607600
I0404 21:17:29.864773 28536 layer_factory.hpp:77] Creating layer accuracy
I0404 21:17:29.864786 28536 net.cpp:86] Creating Layer accuracy
I0404 21:17:29.864807 28536 net.cpp:408] accuracy <- fc8_fc8_0_split_0
I0404 21:17:29.864827 28536 net.cpp:408] accuracy <- label_data_1_split_0
I0404 21:17:29.864838 28536 net.cpp:382] accuracy -> accuracy
…
