…
I0410 17:55:40.375725 13180 net.cpp:296] The NetState phase (0) differed from the phase (1) specified by a rule in layer accuracy
I0410 17:55:40.376189 13180 net.cpp:53] Initializing net from parameters: 
name: "CaffeNet"
state {
  phase: TRAIN
  level: 0
  stage: ""
}
layer {
  name: "data"
  type: "Data"
  top: "data"
  top: "label"
  include {
    phase: TRAIN
  }
  transform_param {
    mirror: true
    crop_size: 227
    mean_file: "data/ilsvrc12/imagenet_mean.binaryproto"
  }
  data_param {
    source: "examples/imagenet/ilsvrc12_train_lmdb"
    batch_size: 256
    backend: LMDB
  }
}
layer {
  name: "conv1"
  type: "Convolution"
  bottom: "data"
  top: "conv1"
  param {
    lr_mult: 1
    decay_mult: 1
  }
  param {
    lr_mult: 2
    decay_mult: 0
  }
  convolution_param {
    num_output: 96
    kernel_size: 11
    stride: 4
    weight_filler {
      type: "gaussian"
      std: 0.01
    }
    bias_filler {
      type: "constant"
      value: 0
    }
  }
}
layer {
  name: "relu1"
  type: "ReLU"
  bottom: "conv1"
  top: "conv1"
}
layer {
  name: "pool1"
  type: "Pooling"
  bottom: "conv1"
  top: "pool1"
  pooling_param {
    pool: MAX
    kernel_size: 3
    stride: 2
  }
}
layer {
  name: "norm1"
  type: "LRN"
  bottom: "pool1"
  top: "norm1"
  lrn_param {
    local_size: 5
    alpha: 0.0001
    beta: 0.75
  }
}
layer {
  name: "conv2"
  type: "Convolution"
  bottom: "norm1"
  top: "conv2"
  param {
    lr_mult: 1
    decay_mult: 1
  }
  param {
    lr_mult: 2
    decay_mult: 0
  }
  convolution_param {
    num_output: 256
    pad: 2
    kernel_size: 5
    group: 2
    weight_filler {
      type: "gaussian"
      std: 0.01
    }
    bias_filler {
      type: "constant"
      value: 1
    }
  }
}
layer {
  name: "relu2"
  type: "ReLU"
  bottom: "conv2"
  top: "conv2"
}
layer {
  name: "pool2"
  type: "Pooling"
  bottom: "conv2"
  top: "pool2"
  pooling_param {
    pool: MAX
    kernel_size: 3
    stride: 2
  }
}
layer {
  name: "norm2"
  type: "LRN"
  bottom: "pool2"
  top: "norm2"
  lrn_param {
    local_size: 5
    alpha: 0.0001
    beta: 0.75
  }
}
layer {
  name: "conv3"
  type: "Convolution"
  bottom: "norm2"
  top: "conv3"
  param {
    lr_mult: 1
    decay_mult: 1
  }
  param {
    lr_mult: 2
    decay_mult: 0
  }
  convolution_param {
    num_output: 384
    pad: 1
    kernel_size: 3
    weight_filler {
      type: "gaussian"
      std: 0.01
    }
    bias_filler {
      type: "constant"
      value: 0
    }
  }
}
layer {
  name: "relu3"
  type: "ReLU"
  bottom: "conv3"
  top: "conv3"
}
layer {
  name: "conv4"
  type: "Convolution"
  bottom: "conv3"
  top: "conv4"
  param {
    lr_mult: 1
    decay_mult: 1
  }
  param {
    lr_mult: 2
    decay_mult: 0
  }
  convolution_param {
    num_output: 384
    pad: 1
    kernel_size: 3
    group: 2
    weight_filler {
      type: "gaussian"
      std: 0.01
    }
    bias_filler {
      type: "constant"
      value: 1
    }
  }
}
layer {
  name: "relu4"
  type: "ReLU"
  bottom: "conv4"
  top: "conv4"
}
layer {
  name: "conv5"
  type: "Convolution"
  bottom: "conv4"
  top: "conv5"
  param {
    lr_mult: 1
    decay_mult: 1
  }
  param {
    lr_mult: 2
    decay_mult: 0
  }
  convolution_param {
    num_output: 256
    pad: 1
    kernel_size: 3
    group: 2
    weight_filler {
      type: "gaussian"
      std: 0.01
    }
    bias_filler {
      type: "constant"
      value: 1
    }
  }
}
layer {
  name: "relu5"
  type: "ReLU"
  bottom: "conv5"
  top: "conv5"
}
layer {
  name: "pool5"
  type: "Pooling"
  bottom: "conv5"
  top: "pool5"
  pooling_param {
    pool: MAX
    kernel_size: 3
    stride: 2
  }
}
layer {
  name: "fc6"
  type: "InnerProduct"
  bottom: "pool5"
  top: "fc6"
  param {
    lr_mult: 1
    decay_mult: 1
  }
  param {
    lr_mult: 2
    decay_mult: 0
  }
  inner_product_param {
    num_output: 4096
    weight_filler {
      type: "gaussian"
      std: 0.005
    }
    bias_filler {
      type: "constant"
      value: 1
    }
  }
}
layer {
  name: "relu6"
  type: "ReLU"
  bottom: "fc6"
  top: "fc6"
}
layer {
  name: "drop6"
  type: "Dropout"
  bottom: "fc6"
  top: "fc6"
  dropout_param {
    dropout_ratio: 0.5
  }
}
layer {
  name: "fc7"
  type: "InnerProduct"
  bottom: "fc6"
  top: "fc7"
  param {
    lr_mult: 1
    decay_mult: 1
  }
  param {
    lr_mult: 2
    decay_mult: 0
  }
  inner_product_param {
    num_output: 4096
    weight_filler {
      type: "gaussian"
      std: 0.005
    }
    bias_filler {
      type: "constant"
      value: 1
    }
  }
}
layer {
  name: "relu7"
  type: "ReLU"
  bottom: "fc7"
  top: "fc7"
}
layer {
  name: "drop7"
  type: "Dropout"
  bottom: "fc7"
  top: "fc7"
  dropout_param {
    dropout_ratio: 0.5
  }
}
layer {
  name: "fc8"
  type: "InnerProduct"
  bottom: "fc7"
  top: "fc8"
  param {
    lr_mult: 1
    decay_mult: 1
  }
  param {
    lr_mult: 2
    decay_mult: 0
  }
  inner_product_param {
    num_output: 1000
    weight_filler {
      type: "gaussian"
      std: 0.01
    }
    bias_filler {
      type: "constant"
      value: 0
    }
  }
}
layer {
  name: "loss"
  type: "SoftmaxWithLoss"
  bottom: "fc8"
  bottom: "label"
  top: "loss"
}
I0410 17:55:40.376441 13180 layer_factory.hpp:77] Creating layer data
I0410 17:55:40.376672 13180 db_lmdb.cpp:35] Opened lmdb examples/imagenet/ilsvrc12_train_lmdb
I0410 17:55:40.428778 13180 net.cpp:86] Creating Layer data
I0410 17:55:40.428833 13180 net.cpp:382] data -> data
I0410 17:55:40.428886 13180 net.cpp:382] data -> label
I0410 17:55:40.428931 13180 data_transformer.cpp:25] Loading mean file from: data/ilsvrc12/imagenet_mean.binaryproto
I0410 17:55:40.489972 13180 data_layer.cpp:45] output data size: 256,3,227,227
I0410 17:55:41.092103 13180 net.cpp:124] Setting up data
I0410 17:55:41.092160 13180 net.cpp:131] Top shape: 256 3 227 227 (39574272)
I0410 17:55:41.092170 13180 net.cpp:131] Top shape: 256 (256)
I0410 17:55:41.092175 13180 net.cpp:139] Memory required for data: 158298112
I0410 17:55:41.092190 13180 layer_factory.hpp:77] Creating layer conv1
I0410 17:55:41.092221 13180 net.cpp:86] Creating Layer conv1
I0410 17:55:41.092231 13180 net.cpp:408] conv1 <- data
I0410 17:55:41.092250 13180 net.cpp:382] conv1 -> conv1
I0410 17:55:41.680131 13180 net.cpp:124] Setting up conv1
I0410 17:55:41.680181 13180 net.cpp:131] Top shape: 256 96 55 55 (74342400)
I0410 17:55:41.680188 13180 net.cpp:139] Memory required for data: 455667712
I0410 17:55:41.680234 13180 layer_factory.hpp:77] Creating layer relu1
I0410 17:55:41.680253 13180 net.cpp:86] Creating Layer relu1
I0410 17:55:41.680261 13180 net.cpp:408] relu1 <- conv1
I0410 17:55:41.680272 13180 net.cpp:369] relu1 -> conv1 (in-place)
I0410 17:55:41.680662 13180 net.cpp:124] Setting up relu1
I0410 17:55:41.680678 13180 net.cpp:131] Top shape: 256 96 55 55 (74342400)
I0410 17:55:41.680685 13180 net.cpp:139] Memory required for data: 753037312
I0410 17:55:41.680691 13180 layer_factory.hpp:77] Creating layer pool1
I0410 17:55:41.680701 13180 net.cpp:86] Creating Layer pool1
I0410 17:55:41.680708 13180 net.cpp:408] pool1 <- conv1
I0410 17:55:41.680717 13180 net.cpp:382] pool1 -> pool1
I0410 17:55:41.680776 13180 net.cpp:124] Setting up pool1
I0410 17:55:41.680788 13180 net.cpp:131] Top shape: 256 96 27 27 (17915904)
I0410 17:55:41.680794 13180 net.cpp:139] Memory required for data: 824700928
I0410 17:55:41.680799 13180 layer_factory.hpp:77] Creating layer norm1
I0410 17:55:41.680815 13180 net.cpp:86] Creating Layer norm1
I0410 17:55:41.680830 13180 net.cpp:408] norm1 <- pool1
I0410 17:55:41.680851 13180 net.cpp:382] norm1 -> norm1
I0410 17:55:41.681102 13180 net.cpp:124] Setting up norm1
I0410 17:55:41.681116 13180 net.cpp:131] Top shape: 256 96 27 27 (17915904)
I0410 17:55:41.681123 13180 net.cpp:139] Memory required for data: 896364544
I0410 17:55:41.681128 13180 layer_factory.hpp:77] Creating layer conv2
I0410 17:55:41.681145 13180 net.cpp:86] Creating Layer conv2
I0410 17:55:41.681151 13180 net.cpp:408] conv2 <- norm1
I0410 17:55:41.681161 13180 net.cpp:382] conv2 -> conv2
I0410 17:55:41.688828 13180 net.cpp:124] Setting up conv2
I0410 17:55:41.688860 13180 net.cpp:131] Top shape: 256 256 27 27 (47775744)
I0410 17:55:41.688866 13180 net.cpp:139] Memory required for data: 1087467520
I0410 17:55:41.688886 13180 layer_factory.hpp:77] Creating layer relu2
I0410 17:55:41.688899 13180 net.cpp:86] Creating Layer relu2
I0410 17:55:41.688905 13180 net.cpp:408] relu2 <- conv2
I0410 17:55:41.688915 13180 net.cpp:369] relu2 -> conv2 (in-place)
I0410 17:55:41.689155 13180 net.cpp:124] Setting up relu2
I0410 17:55:41.689169 13180 net.cpp:131] Top shape: 256 256 27 27 (47775744)
I0410 17:55:41.689175 13180 net.cpp:139] Memory required for data: 1278570496
I0410 17:55:41.689182 13180 layer_factory.hpp:77] Creating layer pool2
I0410 17:55:41.689193 13180 net.cpp:86] Creating Layer pool2
I0410 17:55:41.689198 13180 net.cpp:408] pool2 <- conv2
I0410 17:55:41.689208 13180 net.cpp:382] pool2 -> pool2
I0410 17:55:41.689262 13180 net.cpp:124] Setting up pool2
I0410 17:55:41.689273 13180 net.cpp:131] Top shape: 256 256 13 13 (11075584)
I0410 17:55:41.689278 13180 net.cpp:139] Memory required for data: 1322872832
I0410 17:55:41.689285 13180 layer_factory.hpp:77] Creating layer norm2
I0410 17:55:41.689298 13180 net.cpp:86] Creating Layer norm2
I0410 17:55:41.689306 13180 net.cpp:408] norm2 <- pool2
I0410 17:55:41.689316 13180 net.cpp:382] norm2 -> norm2
I0410 17:55:41.689743 13180 net.cpp:124] Setting up norm2
I0410 17:55:41.689759 13180 net.cpp:131] Top shape: 256 256 13 13 (11075584)
I0410 17:55:41.689764 13180 net.cpp:139] Memory required for data: 1367175168
I0410 17:55:41.689770 13180 layer_factory.hpp:77] Creating layer conv3
I0410 17:55:41.689787 13180 net.cpp:86] Creating Layer conv3
I0410 17:55:41.689795 13180 net.cpp:408] conv3 <- norm2
I0410 17:55:41.689806 13180 net.cpp:382] conv3 -> conv3
I0410 17:55:41.705210 13180 net.cpp:124] Setting up conv3
I0410 17:55:41.705260 13180 net.cpp:131] Top shape: 256 384 13 13 (16613376)
I0410 17:55:41.705266 13180 net.cpp:139] Memory required for data: 1433628672
I0410 17:55:41.705286 13180 layer_factory.hpp:77] Creating layer relu3
I0410 17:55:41.705301 13180 net.cpp:86] Creating Layer relu3
I0410 17:55:41.705307 13180 net.cpp:408] relu3 <- conv3
I0410 17:55:41.705318 13180 net.cpp:369] relu3 -> conv3 (in-place)
I0410 17:55:41.705554 13180 net.cpp:124] Setting up relu3
I0410 17:55:41.705569 13180 net.cpp:131] Top shape: 256 384 13 13 (16613376)
I0410 17:55:41.705575 13180 net.cpp:139] Memory required for data: 1500082176
I0410 17:55:41.705581 13180 layer_factory.hpp:77] Creating layer conv4
I0410 17:55:41.705598 13180 net.cpp:86] Creating Layer conv4
I0410 17:55:41.705605 13180 net.cpp:408] conv4 <- conv3
I0410 17:55:41.705617 13180 net.cpp:382] conv4 -> conv4
I0410 17:55:41.718749 13180 net.cpp:124] Setting up conv4
I0410 17:55:41.718788 13180 net.cpp:131] Top shape: 256 384 13 13 (16613376)
I0410 17:55:41.718794 13180 net.cpp:139] Memory required for data: 1566535680
I0410 17:55:41.718809 13180 layer_factory.hpp:77] Creating layer relu4
I0410 17:55:41.718824 13180 net.cpp:86] Creating Layer relu4
I0410 17:55:41.718832 13180 net.cpp:408] relu4 <- conv4
I0410 17:55:41.718843 13180 net.cpp:369] relu4 -> conv4 (in-place)
I0410 17:55:41.719074 13180 net.cpp:124] Setting up relu4
I0410 17:55:41.719089 13180 net.cpp:131] Top shape: 256 384 13 13 (16613376)
I0410 17:55:41.719094 13180 net.cpp:139] Memory required for data: 1632989184
I0410 17:55:41.719100 13180 layer_factory.hpp:77] Creating layer conv5
I0410 17:55:41.719127 13180 net.cpp:86] Creating Layer conv5
I0410 17:55:41.719151 13180 net.cpp:408] conv5 <- conv4
I0410 17:55:41.719162 13180 net.cpp:382] conv5 -> conv5
I0410 17:55:41.728875 13180 net.cpp:124] Setting up conv5
I0410 17:55:41.728911 13180 net.cpp:131] Top shape: 256 256 13 13 (11075584)
I0410 17:55:41.728917 13180 net.cpp:139] Memory required for data: 1677291520
I0410 17:55:41.728937 13180 layer_factory.hpp:77] Creating layer relu5
I0410 17:55:41.728950 13180 net.cpp:86] Creating Layer relu5
I0410 17:55:41.728957 13180 net.cpp:408] relu5 <- conv5
I0410 17:55:41.728970 13180 net.cpp:369] relu5 -> conv5 (in-place)
I0410 17:55:41.729199 13180 net.cpp:124] Setting up relu5
I0410 17:55:41.729214 13180 net.cpp:131] Top shape: 256 256 13 13 (11075584)
I0410 17:55:41.729220 13180 net.cpp:139] Memory required for data: 1721593856
I0410 17:55:41.729226 13180 layer_factory.hpp:77] Creating layer pool5
I0410 17:55:41.729236 13180 net.cpp:86] Creating Layer pool5
I0410 17:55:41.729243 13180 net.cpp:408] pool5 <- conv5
I0410 17:55:41.729255 13180 net.cpp:382] pool5 -> pool5
I0410 17:55:41.729313 13180 net.cpp:124] Setting up pool5
I0410 17:55:41.729326 13180 net.cpp:131] Top shape: 256 256 6 6 (2359296)
I0410 17:55:41.729332 13180 net.cpp:139] Memory required for data: 1731031040
I0410 17:55:41.729338 13180 layer_factory.hpp:77] Creating layer fc6
I0410 17:55:41.729353 13180 net.cpp:86] Creating Layer fc6
I0410 17:55:41.729360 13180 net.cpp:408] fc6 <- pool5
I0410 17:55:41.729370 13180 net.cpp:382] fc6 -> fc6
I0410 17:55:42.321421 13180 net.cpp:124] Setting up fc6
I0410 17:55:42.321470 13180 net.cpp:131] Top shape: 256 4096 (1048576)
I0410 17:55:42.321476 13180 net.cpp:139] Memory required for data: 1735225344
I0410 17:55:42.321491 13180 layer_factory.hpp:77] Creating layer relu6
I0410 17:55:42.321506 13180 net.cpp:86] Creating Layer relu6
I0410 17:55:42.321513 13180 net.cpp:408] relu6 <- fc6
I0410 17:55:42.321527 13180 net.cpp:369] relu6 -> fc6 (in-place)
I0410 17:55:42.322118 13180 net.cpp:124] Setting up relu6
I0410 17:55:42.322134 13180 net.cpp:131] Top shape: 256 4096 (1048576)
I0410 17:55:42.322139 13180 net.cpp:139] Memory required for data: 1739419648
I0410 17:55:42.322145 13180 layer_factory.hpp:77] Creating layer drop6
I0410 17:55:42.322156 13180 net.cpp:86] Creating Layer drop6
I0410 17:55:42.322163 13180 net.cpp:408] drop6 <- fc6
I0410 17:55:42.322173 13180 net.cpp:369] drop6 -> fc6 (in-place)
I0410 17:55:42.322211 13180 net.cpp:124] Setting up drop6
I0410 17:55:42.322221 13180 net.cpp:131] Top shape: 256 4096 (1048576)
I0410 17:55:42.322227 13180 net.cpp:139] Memory required for data: 1743613952
I0410 17:55:42.322232 13180 layer_factory.hpp:77] Creating layer fc7
I0410 17:55:42.322247 13180 net.cpp:86] Creating Layer fc7
I0410 17:55:42.322254 13180 net.cpp:408] fc7 <- fc6
I0410 17:55:42.322263 13180 net.cpp:382] fc7 -> fc7
I0410 17:55:42.585939 13180 net.cpp:124] Setting up fc7
I0410 17:55:42.585989 13180 net.cpp:131] Top shape: 256 4096 (1048576)
I0410 17:55:42.585995 13180 net.cpp:139] Memory required for data: 1747808256
I0410 17:55:42.586011 13180 layer_factory.hpp:77] Creating layer relu7
I0410 17:55:42.586025 13180 net.cpp:86] Creating Layer relu7
I0410 17:55:42.586032 13180 net.cpp:408] relu7 <- fc7
I0410 17:55:42.586045 13180 net.cpp:369] relu7 -> fc7 (in-place)
I0410 17:55:42.586333 13180 net.cpp:124] Setting up relu7
I0410 17:55:42.586349 13180 net.cpp:131] Top shape: 256 4096 (1048576)
I0410 17:55:42.586354 13180 net.cpp:139] Memory required for data: 1752002560
I0410 17:55:42.586360 13180 layer_factory.hpp:77] Creating layer drop7
I0410 17:55:42.586371 13180 net.cpp:86] Creating Layer drop7
I0410 17:55:42.586377 13180 net.cpp:408] drop7 <- fc7
I0410 17:55:42.586386 13180 net.cpp:369] drop7 -> fc7 (in-place)
I0410 17:55:42.586423 13180 net.cpp:124] Setting up drop7
I0410 17:55:42.586436 13180 net.cpp:131] Top shape: 256 4096 (1048576)
I0410 17:55:42.586441 13180 net.cpp:139] Memory required for data: 1756196864
I0410 17:55:42.586447 13180 layer_factory.hpp:77] Creating layer fc8
I0410 17:55:42.586462 13180 net.cpp:86] Creating Layer fc8
I0410 17:55:42.586477 13180 net.cpp:408] fc8 <- fc7
I0410 17:55:42.586520 13180 net.cpp:382] fc8 -> fc8
I0410 17:55:42.651196 13180 net.cpp:124] Setting up fc8
I0410 17:55:42.651239 13180 net.cpp:131] Top shape: 256 1000 (256000)
I0410 17:55:42.651245 13180 net.cpp:139] Memory required for data: 1757220864
I0410 17:55:42.651262 13180 layer_factory.hpp:77] Creating layer loss
I0410 17:55:42.651274 13180 net.cpp:86] Creating Layer loss
I0410 17:55:42.651291 13180 net.cpp:408] loss <- fc8
I0410 17:55:42.651302 13180 net.cpp:408] loss <- label
I0410 17:55:42.651320 13180 net.cpp:382] loss -> loss
I0410 17:55:42.651343 13180 layer_factory.hpp:77] Creating layer loss
…
I0410 17:55:42.653298 13180 net.cpp:296] The NetState phase (1) differed from the phase (0) specified by a rule in layer data
I0410 17:55:42.653540 13180 net.cpp:53] Initializing net from parameters: 
name: "CaffeNet"
state {
  phase: TEST
}
layer {
  name: "data"
  type: "Data"
  top: "data"
  top: "label"
  include {
    phase: TEST
  }
  transform_param {
    mirror: false
    crop_size: 227
    mean_file: "data/ilsvrc12/imagenet_mean.binaryproto"
  }
  data_param {
    source: "examples/imagenet/ilsvrc12_val_lmdb"
    batch_size: 50
    backend: LMDB
  }
}
layer {
  name: "conv1"
  type: "Convolution"
  bottom: "data"
  top: "conv1"
  param {
    lr_mult: 1
    decay_mult: 1
  }
  param {
    lr_mult: 2
    decay_mult: 0
  }
  convolution_param {
    num_output: 96
    kernel_size: 11
    stride: 4
    weight_filler {
      type: "gaussian"
      std: 0.01
    }
    bias_filler {
      type: "constant"
      value: 0
    }
  }
}
layer {
  name: "relu1"
  type: "ReLU"
  bottom: "conv1"
  top: "conv1"
}
layer {
  name: "pool1"
  type: "Pooling"
  bottom: "conv1"
  top: "pool1"
  pooling_param {
    pool: MAX
    kernel_size: 3
    stride: 2
  }
}
layer {
  name: "norm1"
  type: "LRN"
  bottom: "pool1"
  top: "norm1"
  lrn_param {
    local_size: 5
    alpha: 0.0001
    beta: 0.75
  }
}
layer {
  name: "conv2"
  type: "Convolution"
  bottom: "norm1"
  top: "conv2"
  param {
    lr_mult: 1
    decay_mult: 1
  }
  param {
    lr_mult: 2
    decay_mult: 0
  }
  convolution_param {
    num_output: 256
    pad: 2
    kernel_size: 5
    group: 2
    weight_filler {
      type: "gaussian"
      std: 0.01
    }
    bias_filler {
      type: "constant"
      value: 1
    }
  }
}
layer {
  name: "relu2"
  type: "ReLU"
  bottom: "conv2"
  top: "conv2"
}
layer {
  name: "pool2"
  type: "Pooling"
  bottom: "conv2"
  top: "pool2"
  pooling_param {
    pool: MAX
    kernel_size: 3
    stride: 2
  }
}
layer {
  name: "norm2"
  type: "LRN"
  bottom: "pool2"
  top: "norm2"
  lrn_param {
    local_size: 5
    alpha: 0.0001
    beta: 0.75
  }
}
layer {
  name: "conv3"
  type: "Convolution"
  bottom: "norm2"
  top: "conv3"
  param {
    lr_mult: 1
    decay_mult: 1
  }
  param {
    lr_mult: 2
    decay_mult: 0
  }
  convolution_param {
    num_output: 384
    pad: 1
    kernel_size: 3
    weight_filler {
      type: "gaussian"
      std: 0.01
    }
    bias_filler {
      type: "constant"
      value: 0
    }
  }
}
layer {
  name: "relu3"
  type: "ReLU"
  bottom: "conv3"
  top: "conv3"
}
layer {
  name: "conv4"
  type: "Convolution"
  bottom: "conv3"
  top: "conv4"
  param {
    lr_mult: 1
    decay_mult: 1
  }
  param {
    lr_mult: 2
    decay_mult: 0
  }
  convolution_param {
    num_output: 384
    pad: 1
    kernel_size: 3
    group: 2
    weight_filler {
      type: "gaussian"
      std: 0.01
    }
    bias_filler {
      type: "constant"
      value: 1
    }
  }
}
layer {
  name: "relu4"
  type: "ReLU"
  bottom: "conv4"
  top: "conv4"
}
layer {
  name: "conv5"
  type: "Convolution"
  bottom: "conv4"
  top: "conv5"
  param {
    lr_mult: 1
    decay_mult: 1
  }
  param {
    lr_mult: 2
    decay_mult: 0
  }
  convolution_param {
    num_output: 256
    pad: 1
    kernel_size: 3
    group: 2
    weight_filler {
      type: "gaussian"
      std: 0.01
    }
    bias_filler {
      type: "constant"
      value: 1
    }
  }
}
layer {
  name: "relu5"
  type: "ReLU"
  bottom: "conv5"
  top: "conv5"
}
layer {
  name: "pool5"
  type: "Pooling"
  bottom: "conv5"
  top: "pool5"
  pooling_param {
    pool: MAX
    kernel_size: 3
    stride: 2
  }
}
layer {
  name: "fc6"
  type: "InnerProduct"
  bottom: "pool5"
  top: "fc6"
  param {
    lr_mult: 1
    decay_mult: 1
  }
  param {
    lr_mult: 2
    decay_mult: 0
  }
  inner_product_param {
    num_output: 4096
    weight_filler {
      type: "gaussian"
      std: 0.005
    }
    bias_filler {
      type: "constant"
      value: 1
    }
  }
}
layer {
  name: "relu6"
  type: "ReLU"
  bottom: "fc6"
  top: "fc6"
}
layer {
  name: "drop6"
  type: "Dropout"
  bottom: "fc6"
  top: "fc6"
  dropout_param {
    dropout_ratio: 0.5
  }
}
layer {
  name: "fc7"
  type: "InnerProduct"
  bottom: "fc6"
  top: "fc7"
  param {
    lr_mult: 1
    decay_mult: 1
  }
  param {
    lr_mult: 2
    decay_mult: 0
  }
  inner_product_param {
    num_output: 4096
    weight_filler {
      type: "gaussian"
      std: 0.005
    }
    bias_filler {
      type: "constant"
      value: 1
    }
  }
}
layer {
  name: "relu7"
  type: "ReLU"
  bottom: "fc7"
  top: "fc7"
}
layer {
  name: "drop7"
  type: "Dropout"
  bottom: "fc7"
  top: "fc7"
  dropout_param {
    dropout_ratio: 0.5
  }
}
layer {
  name: "fc8"
  type: "InnerProduct"
  bottom: "fc7"
  top: "fc8"
  param {
    lr_mult: 1
    decay_mult: 1
  }
  param {
    lr_mult: 2
    decay_mult: 0
  }
  inner_product_param {
    num_output: 1000
    weight_filler {
      type: "gaussian"
      std: 0.01
    }
    bias_filler {
      type: "constant"
      value: 0
    }
  }
}
layer {
  name: "accuracy"
  type: "Accuracy"
  bottom: "fc8"
  bottom: "label"
  top: "accuracy"
  include {
    phase: TEST
  }
}
layer {
  name: "loss"
  type: "SoftmaxWithLoss"
  bottom: "fc8"
  bottom: "label"
  top: "loss"
}
I0410 17:55:42.653700 13180 layer_factory.hpp:77] Creating layer data
I0410 17:55:42.653782 13180 db_lmdb.cpp:35] Opened lmdb examples/imagenet/ilsvrc12_val_lmdb
I0410 17:55:42.653811 13180 net.cpp:86] Creating Layer data
I0410 17:55:42.653823 13180 net.cpp:382] data -> data
I0410 17:55:42.653837 13180 net.cpp:382] data -> label
I0410 17:55:42.653849 13180 data_transformer.cpp:25] Loading mean file from: data/ilsvrc12/imagenet_mean.binaryproto
I0410 17:55:42.656332 13180 data_layer.cpp:45] output data size: 50,3,227,227
I0410 17:55:42.734715 13180 net.cpp:124] Setting up data
I0410 17:55:42.734764 13180 net.cpp:131] Top shape: 50 3 227 227 (7729350)
I0410 17:55:42.734772 13180 net.cpp:131] Top shape: 50 (50)
I0410 17:55:42.734778 13180 net.cpp:139] Memory required for data: 30917600
I0410 17:55:42.734788 13180 layer_factory.hpp:77] Creating layer label_data_1_split
I0410 17:55:42.734807 13180 net.cpp:86] Creating Layer label_data_1_split
I0410 17:55:42.734813 13180 net.cpp:408] label_data_1_split <- label
I0410 17:55:42.734825 13180 net.cpp:382] label_data_1_split -> label_data_1_split_0
I0410 17:55:42.734841 13180 net.cpp:382] label_data_1_split -> label_data_1_split_1
I0410 17:55:42.734953 13180 net.cpp:124] Setting up label_data_1_split
I0410 17:55:42.734966 13180 net.cpp:131] Top shape: 50 (50)
I0410 17:55:42.734973 13180 net.cpp:131] Top shape: 50 (50)
I0410 17:55:42.734979 13180 net.cpp:139] Memory required for data: 30918000
I0410 17:55:42.734984 13180 layer_factory.hpp:77] Creating layer conv1
I0410 17:55:42.735003 13180 net.cpp:86] Creating Layer conv1
I0410 17:55:42.735009 13180 net.cpp:408] conv1 <- data
I0410 17:55:42.735020 13180 net.cpp:382] conv1 -> conv1
I0410 17:55:42.741979 13180 net.cpp:124] Setting up conv1
I0410 17:55:42.742019 13180 net.cpp:131] Top shape: 50 96 55 55 (14520000)
I0410 17:55:42.742027 13180 net.cpp:139] Memory required for data: 88998000
I0410 17:55:42.742048 13180 layer_factory.hpp:77] Creating layer relu1
I0410 17:55:42.742060 13180 net.cpp:86] Creating Layer relu1
I0410 17:55:42.742067 13180 net.cpp:408] relu1 <- conv1
I0410 17:55:42.742077 13180 net.cpp:369] relu1 -> conv1 (in-place)
I0410 17:55:42.742286 13180 net.cpp:124] Setting up relu1
I0410 17:55:42.742300 13180 net.cpp:131] Top shape: 50 96 55 55 (14520000)
I0410 17:55:42.742306 13180 net.cpp:139] Memory required for data: 147078000
I0410 17:55:42.742312 13180 layer_factory.hpp:77] Creating layer pool1
I0410 17:55:42.742326 13180 net.cpp:86] Creating Layer pool1
I0410 17:55:42.742331 13180 net.cpp:408] pool1 <- conv1
I0410 17:55:42.742341 13180 net.cpp:382] pool1 -> pool1
I0410 17:55:42.742398 13180 net.cpp:124] Setting up pool1
I0410 17:55:42.742429 13180 net.cpp:131] Top shape: 50 96 27 27 (3499200)
I0410 17:55:42.742434 13180 net.cpp:139] Memory required for data: 161074800
I0410 17:55:42.742440 13180 layer_factory.hpp:77] Creating layer norm1
I0410 17:55:42.742451 13180 net.cpp:86] Creating Layer norm1
I0410 17:55:42.742457 13180 net.cpp:408] norm1 <- pool1
I0410 17:55:42.742466 13180 net.cpp:382] norm1 -> norm1
I0410 17:55:42.742904 13180 net.cpp:124] Setting up norm1
I0410 17:55:42.742921 13180 net.cpp:131] Top shape: 50 96 27 27 (3499200)
I0410 17:55:42.742928 13180 net.cpp:139] Memory required for data: 175071600
I0410 17:55:42.742933 13180 layer_factory.hpp:77] Creating layer conv2
I0410 17:55:42.742951 13180 net.cpp:86] Creating Layer conv2
I0410 17:55:42.742957 13180 net.cpp:408] conv2 <- norm1
I0410 17:55:42.742967 13180 net.cpp:382] conv2 -> conv2
I0410 17:55:42.750682 13180 net.cpp:124] Setting up conv2
I0410 17:55:42.750730 13180 net.cpp:131] Top shape: 50 256 27 27 (9331200)
I0410 17:55:42.750736 13180 net.cpp:139] Memory required for data: 212396400
I0410 17:55:42.750758 13180 layer_factory.hpp:77] Creating layer relu2
I0410 17:55:42.750773 13180 net.cpp:86] Creating Layer relu2
I0410 17:55:42.750780 13180 net.cpp:408] relu2 <- conv2
I0410 17:55:42.750792 13180 net.cpp:369] relu2 -> conv2 (in-place)
I0410 17:55:42.751009 13180 net.cpp:124] Setting up relu2
I0410 17:55:42.751034 13180 net.cpp:131] Top shape: 50 256 27 27 (9331200)
I0410 17:55:42.751052 13180 net.cpp:139] Memory required for data: 249721200
I0410 17:55:42.751058 13180 layer_factory.hpp:77] Creating layer pool2
I0410 17:55:42.751072 13180 net.cpp:86] Creating Layer pool2
I0410 17:55:42.751078 13180 net.cpp:408] pool2 <- conv2
I0410 17:55:42.751087 13180 net.cpp:382] pool2 -> pool2
I0410 17:55:42.751148 13180 net.cpp:124] Setting up pool2
I0410 17:55:42.751160 13180 net.cpp:131] Top shape: 50 256 13 13 (2163200)
I0410 17:55:42.751165 13180 net.cpp:139] Memory required for data: 258374000
I0410 17:55:42.751171 13180 layer_factory.hpp:77] Creating layer norm2
I0410 17:55:42.751183 13180 net.cpp:86] Creating Layer norm2
I0410 17:55:42.751189 13180 net.cpp:408] norm2 <- pool2
I0410 17:55:42.751197 13180 net.cpp:382] norm2 -> norm2
I0410 17:55:42.751632 13180 net.cpp:124] Setting up norm2
I0410 17:55:42.751648 13180 net.cpp:131] Top shape: 50 256 13 13 (2163200)
I0410 17:55:42.751654 13180 net.cpp:139] Memory required for data: 267026800
I0410 17:55:42.751660 13180 layer_factory.hpp:77] Creating layer conv3
I0410 17:55:42.751677 13180 net.cpp:86] Creating Layer conv3
I0410 17:55:42.751683 13180 net.cpp:408] conv3 <- norm2
I0410 17:55:42.751693 13180 net.cpp:382] conv3 -> conv3
I0410 17:55:42.767304 13180 net.cpp:124] Setting up conv3
I0410 17:55:42.767352 13180 net.cpp:131] Top shape: 50 384 13 13 (3244800)
I0410 17:55:42.767359 13180 net.cpp:139] Memory required for data: 280006000
I0410 17:55:42.767382 13180 layer_factory.hpp:77] Creating layer relu3
I0410 17:55:42.767397 13180 net.cpp:86] Creating Layer relu3
I0410 17:55:42.767405 13180 net.cpp:408] relu3 <- conv3
I0410 17:55:42.767416 13180 net.cpp:369] relu3 -> conv3 (in-place)
I0410 17:55:42.767829 13180 net.cpp:124] Setting up relu3
I0410 17:55:42.767845 13180 net.cpp:131] Top shape: 50 384 13 13 (3244800)
I0410 17:55:42.767851 13180 net.cpp:139] Memory required for data: 292985200
I0410 17:55:42.767858 13180 layer_factory.hpp:77] Creating layer conv4
I0410 17:55:42.767875 13180 net.cpp:86] Creating Layer conv4
I0410 17:55:42.767882 13180 net.cpp:408] conv4 <- conv3
I0410 17:55:42.767894 13180 net.cpp:382] conv4 -> conv4
I0410 17:55:42.791462 13180 net.cpp:124] Setting up conv4
I0410 17:55:42.791517 13180 net.cpp:131] Top shape: 50 384 13 13 (3244800)
I0410 17:55:42.791524 13180 net.cpp:139] Memory required for data: 305964400
I0410 17:55:42.791540 13180 layer_factory.hpp:77] Creating layer relu4
I0410 17:55:42.791555 13180 net.cpp:86] Creating Layer relu4
I0410 17:55:42.791563 13180 net.cpp:408] relu4 <- conv4
I0410 17:55:42.791574 13180 net.cpp:369] relu4 -> conv4 (in-place)
I0410 17:55:42.791803 13180 net.cpp:124] Setting up relu4
I0410 17:55:42.791817 13180 net.cpp:131] Top shape: 50 384 13 13 (3244800)
I0410 17:55:42.791823 13180 net.cpp:139] Memory required for data: 318943600
I0410 17:55:42.791829 13180 layer_factory.hpp:77] Creating layer conv5
I0410 17:55:42.791847 13180 net.cpp:86] Creating Layer conv5
I0410 17:55:42.791853 13180 net.cpp:408] conv5 <- conv4
I0410 17:55:42.791863 13180 net.cpp:382] conv5 -> conv5
I0410 17:55:42.801853 13180 net.cpp:124] Setting up conv5
I0410 17:55:42.801901 13180 net.cpp:131] Top shape: 50 256 13 13 (2163200)
I0410 17:55:42.801908 13180 net.cpp:139] Memory required for data: 327596400
I0410 17:55:42.801931 13180 layer_factory.hpp:77] Creating layer relu5
I0410 17:55:42.801946 13180 net.cpp:86] Creating Layer relu5
I0410 17:55:42.801954 13180 net.cpp:408] relu5 <- conv5
I0410 17:55:42.801965 13180 net.cpp:369] relu5 -> conv5 (in-place)
I0410 17:55:42.802202 13180 net.cpp:124] Setting up relu5
I0410 17:55:42.802217 13180 net.cpp:131] Top shape: 50 256 13 13 (2163200)
I0410 17:55:42.802222 13180 net.cpp:139] Memory required for data: 336249200
I0410 17:55:42.802228 13180 layer_factory.hpp:77] Creating layer pool5
I0410 17:55:42.802243 13180 net.cpp:86] Creating Layer pool5
I0410 17:55:42.802249 13180 net.cpp:408] pool5 <- conv5
I0410 17:55:42.802261 13180 net.cpp:382] pool5 -> pool5
I0410 17:55:42.802336 13180 net.cpp:124] Setting up pool5
I0410 17:55:42.802361 13180 net.cpp:131] Top shape: 50 256 6 6 (460800)
I0410 17:55:42.802367 13180 net.cpp:139] Memory required for data: 338092400
I0410 17:55:42.802372 13180 layer_factory.hpp:77] Creating layer fc6
I0410 17:55:42.802386 13180 net.cpp:86] Creating Layer fc6
I0410 17:55:42.802392 13180 net.cpp:408] fc6 <- pool5
I0410 17:55:42.802412 13180 net.cpp:382] fc6 -> fc6
I0410 17:55:43.395447 13180 net.cpp:124] Setting up fc6
I0410 17:55:43.395496 13180 net.cpp:131] Top shape: 50 4096 (204800)
I0410 17:55:43.395504 13180 net.cpp:139] Memory required for data: 338911600
I0410 17:55:43.395521 13180 layer_factory.hpp:77] Creating layer relu6
I0410 17:55:43.395535 13180 net.cpp:86] Creating Layer relu6
I0410 17:55:43.395545 13180 net.cpp:408] relu6 <- fc6
I0410 17:55:43.395555 13180 net.cpp:369] relu6 -> fc6 (in-place)
I0410 17:55:43.405817 13180 net.cpp:124] Setting up relu6
I0410 17:55:43.405838 13180 net.cpp:131] Top shape: 50 4096 (204800)
I0410 17:55:43.405843 13180 net.cpp:139] Memory required for data: 339730800
I0410 17:55:43.405849 13180 layer_factory.hpp:77] Creating layer drop6
I0410 17:55:43.405863 13180 net.cpp:86] Creating Layer drop6
I0410 17:55:43.405869 13180 net.cpp:408] drop6 <- fc6
I0410 17:55:43.405879 13180 net.cpp:369] drop6 -> fc6 (in-place)
I0410 17:55:43.405925 13180 net.cpp:124] Setting up drop6
I0410 17:55:43.405936 13180 net.cpp:131] Top shape: 50 4096 (204800)
I0410 17:55:43.405941 13180 net.cpp:139] Memory required for data: 340550000
I0410 17:55:43.405947 13180 layer_factory.hpp:77] Creating layer fc7
I0410 17:55:43.405959 13180 net.cpp:86] Creating Layer fc7
I0410 17:55:43.405966 13180 net.cpp:408] fc7 <- fc6
I0410 17:55:43.405974 13180 net.cpp:382] fc7 -> fc7
I0410 17:55:43.665899 13180 net.cpp:124] Setting up fc7
I0410 17:55:43.665948 13180 net.cpp:131] Top shape: 50 4096 (204800)
I0410 17:55:43.665956 13180 net.cpp:139] Memory required for data: 341369200
I0410 17:55:43.665971 13180 layer_factory.hpp:77] Creating layer relu7
I0410 17:55:43.665985 13180 net.cpp:86] Creating Layer relu7
I0410 17:55:43.665992 13180 net.cpp:408] relu7 <- fc7
I0410 17:55:43.666003 13180 net.cpp:369] relu7 -> fc7 (in-place)
I0410 17:55:43.666290 13180 net.cpp:124] Setting up relu7
I0410 17:55:43.666304 13180 net.cpp:131] Top shape: 50 4096 (204800)
I0410 17:55:43.666309 13180 net.cpp:139] Memory required for data: 342188400
I0410 17:55:43.666316 13180 layer_factory.hpp:77] Creating layer drop7
I0410 17:55:43.666326 13180 net.cpp:86] Creating Layer drop7
I0410 17:55:43.666332 13180 net.cpp:408] drop7 <- fc7
I0410 17:55:43.666342 13180 net.cpp:369] drop7 -> fc7 (in-place)
I0410 17:55:43.666384 13180 net.cpp:124] Setting up drop7
I0410 17:55:43.666394 13180 net.cpp:131] Top shape: 50 4096 (204800)
I0410 17:55:43.666409 13180 net.cpp:139] Memory required for data: 343007600
I0410 17:55:43.666415 13180 layer_factory.hpp:77] Creating layer fc8
I0410 17:55:43.666427 13180 net.cpp:86] Creating Layer fc8
I0410 17:55:43.666435 13180 net.cpp:408] fc8 <- fc7
I0410 17:55:43.666442 13180 net.cpp:382] fc8 -> fc8
I0410 17:55:43.730104 13180 net.cpp:124] Setting up fc8
I0410 17:55:43.730155 13180 net.cpp:131] Top shape: 50 1000 (50000)
I0410 17:55:43.730160 13180 net.cpp:139] Memory required for data: 343207600
I0410 17:55:43.730176 13180 layer_factory.hpp:77] Creating layer fc8_fc8_0_split
I0410 17:55:43.730190 13180 net.cpp:86] Creating Layer fc8_fc8_0_split
I0410 17:55:43.730198 13180 net.cpp:408] fc8_fc8_0_split <- fc8
I0410 17:55:43.730211 13180 net.cpp:382] fc8_fc8_0_split -> fc8_fc8_0_split_0
I0410 17:55:43.730224 13180 net.cpp:382] fc8_fc8_0_split -> fc8_fc8_0_split_1
I0410 17:55:43.730283 13180 net.cpp:124] Setting up fc8_fc8_0_split
I0410 17:55:43.730293 13180 net.cpp:131] Top shape: 50 1000 (50000)
I0410 17:55:43.730299 13180 net.cpp:131] Top shape: 50 1000 (50000)
I0410 17:55:43.730304 13180 net.cpp:139] Memory required for data: 343607600
I0410 17:55:43.730310 13180 layer_factory.hpp:77] Creating layer accuracy
I0410 17:55:43.730321 13180 net.cpp:86] Creating Layer accuracy
I0410 17:55:43.730343 13180 net.cpp:408] accuracy <- fc8_fc8_0_split_0
I0410 17:55:43.730365 13180 net.cpp:408] accuracy <- label_data_1_split_0
I0410 17:55:43.730373 13180 net.cpp:382] accuracy -> accuracy
…
