…
I0404 19:09:29.638759 14155 net.cpp:296] The NetState phase (0) differed from the phase (1) specified by a rule in layer accuracy
I0404 19:09:29.639058 14155 net.cpp:53] Initializing net from parameters: 
name: "CaffeNet"
state {
  phase: TRAIN
  level: 0
  stage: ""
}
layer {
  name: "data"
  type: "Data"
  top: "data"
  top: "label"
  include {
    phase: TRAIN
  }
  transform_param {
    mirror: true
    crop_size: 227
    mean_file: "data/ilsvrc12/imagenet_mean.binaryproto"
  }
  data_param {
    source: "examples/imagenet/ilsvrc12_train_lmdb"
    batch_size: 256
    backend: LMDB
  }
}
layer {
  name: "conv1"
  type: "Convolution"
  bottom: "data"
  top: "conv1"
  param {
    lr_mult: 1
    decay_mult: 1
  }
  param {
    lr_mult: 2
    decay_mult: 0
  }
  convolution_param {
    num_output: 96
    kernel_size: 11
    stride: 4
    weight_filler {
      type: "gaussian"
      std: 0.01
    }
    bias_filler {
      type: "constant"
      value: 0
    }
  }
}
layer {
  name: "relu1"
  type: "ReLU"
  bottom: "conv1"
  top: "conv1"
}
layer {
  name: "pool1"
  type: "Pooling"
  bottom: "conv1"
  top: "pool1"
  pooling_param {
    pool: MAX
    kernel_size: 3
    stride: 2
  }
}
layer {
  name: "norm1"
  type: "LRN"
  bottom: "pool1"
  top: "norm1"
  lrn_param {
    local_size: 5
    alpha: 0.0001
    beta: 0.75
  }
}
layer {
  name: "conv2"
  type: "Convolution"
  bottom: "norm1"
  top: "conv2"
  param {
    lr_mult: 1
    decay_mult: 1
  }
  param {
    lr_mult: 2
    decay_mult: 0
  }
  convolution_param {
    num_output: 256
    pad: 2
    kernel_size: 5
    group: 2
    weight_filler {
      type: "gaussian"
      std: 0.01
    }
    bias_filler {
      type: "constant"
      value: 1
    }
  }
}
layer {
  name: "relu2"
  type: "ReLU"
  bottom: "conv2"
  top: "conv2"
}
layer {
  name: "pool2"
  type: "Pooling"
  bottom: "conv2"
  top: "pool2"
  pooling_param {
    pool: MAX
    kernel_size: 3
    stride: 2
  }
}
layer {
  name: "norm2"
  type: "LRN"
  bottom: "pool2"
  top: "norm2"
  lrn_param {
    local_size: 5
    alpha: 0.0001
    beta: 0.75
  }
}
layer {
  name: "conv3"
  type: "Convolution"
  bottom: "norm2"
  top: "conv3"
  param {
    lr_mult: 1
    decay_mult: 1
  }
  param {
    lr_mult: 2
    decay_mult: 0
  }
  convolution_param {
    num_output: 384
    pad: 1
    kernel_size: 3
    weight_filler {
      type: "gaussian"
      std: 0.01
    }
    bias_filler {
      type: "constant"
      value: 0
    }
  }
}
layer {
  name: "relu3"
  type: "ReLU"
  bottom: "conv3"
  top: "conv3"
}
layer {
  name: "conv4"
  type: "Convolution"
  bottom: "conv3"
  top: "conv4"
  param {
    lr_mult: 1
    decay_mult: 1
  }
  param {
    lr_mult: 2
    decay_mult: 0
  }
  convolution_param {
    num_output: 384
    pad: 1
    kernel_size: 3
    group: 2
    weight_filler {
      type: "gaussian"
      std: 0.01
    }
    bias_filler {
      type: "constant"
      value: 1
    }
  }
}
layer {
  name: "relu4"
  type: "ReLU"
  bottom: "conv4"
  top: "conv4"
}
layer {
  name: "conv5"
  type: "Convolution"
  bottom: "conv4"
  top: "conv5"
  param {
    lr_mult: 1
    decay_mult: 1
  }
  param {
    lr_mult: 2
    decay_mult: 0
  }
  convolution_param {
    num_output: 256
    pad: 1
    kernel_size: 3
    group: 2
    weight_filler {
      type: "gaussian"
      std: 0.01
    }
    bias_filler {
      type: "constant"
      value: 1
    }
  }
}
layer {
  name: "relu5"
  type: "ReLU"
  bottom: "conv5"
  top: "conv5"
}
layer {
  name: "pool5"
  type: "Pooling"
  bottom: "conv5"
  top: "pool5"
  pooling_param {
    pool: MAX
    kernel_size: 3
    stride: 2
  }
}
layer {
  name: "fc6"
  type: "InnerProduct"
  bottom: "pool5"
  top: "fc6"
  param {
    lr_mult: 1
    decay_mult: 1
  }
  param {
    lr_mult: 2
    decay_mult: 0
  }
  inner_product_param {
    num_output: 4096
    weight_filler {
      type: "gaussian"
      std: 0.005
    }
    bias_filler {
      type: "constant"
      value: 1
    }
  }
}
layer {
  name: "relu6"
  type: "ReLU"
  bottom: "fc6"
  top: "fc6"
}
layer {
  name: "drop6"
  type: "Dropout"
  bottom: "fc6"
  top: "fc6"
  dropout_param {
    dropout_ratio: 0.5
  }
}
layer {
  name: "fc7"
  type: "InnerProduct"
  bottom: "fc6"
  top: "fc7"
  param {
    lr_mult: 1
    decay_mult: 1
  }
  param {
    lr_mult: 2
    decay_mult: 0
  }
  inner_product_param {
    num_output: 4096
    weight_filler {
      type: "gaussian"
      std: 0.005
    }
    bias_filler {
      type: "constant"
      value: 1
    }
  }
}
layer {
  name: "relu7"
  type: "ReLU"
  bottom: "fc7"
  top: "fc7"
}
layer {
  name: "drop7"
  type: "Dropout"
  bottom: "fc7"
  top: "fc7"
  dropout_param {
    dropout_ratio: 0.5
  }
}
layer {
  name: "fc8"
  type: "InnerProduct"
  bottom: "fc7"
  top: "fc8"
  param {
    lr_mult: 1
    decay_mult: 1
  }
  param {
    lr_mult: 2
    decay_mult: 0
  }
  inner_product_param {
    num_output: 1000
    weight_filler {
      type: "gaussian"
      std: 0.01
    }
    bias_filler {
      type: "constant"
      value: 0
    }
  }
}
layer {
  name: "loss"
  type: "SoftmaxWithLoss"
  bottom: "fc8"
  bottom: "label"
  top: "loss"
}
I0404 19:09:29.639225 14155 layer_factory.hpp:77] Creating layer data
I0404 19:09:29.639384 14155 db_lmdb.cpp:35] Opened lmdb examples/imagenet/ilsvrc12_train_lmdb
I0404 19:09:29.667043 14155 net.cpp:86] Creating Layer data
I0404 19:09:29.667088 14155 net.cpp:382] data -> data
I0404 19:09:29.667141 14155 net.cpp:382] data -> label
I0404 19:09:29.667173 14155 data_transformer.cpp:25] Loading mean file from: data/ilsvrc12/imagenet_mean.binaryproto
I0404 19:09:29.744884 14155 data_layer.cpp:45] output data size: 256,3,227,227
I0404 19:09:30.337019 14155 net.cpp:124] Setting up data
I0404 19:09:30.337070 14155 net.cpp:131] Top shape: 256 3 227 227 (39574272)
I0404 19:09:30.337080 14155 net.cpp:131] Top shape: 256 (256)
I0404 19:09:30.337085 14155 net.cpp:139] Memory required for data: 158298112
I0404 19:09:30.337100 14155 layer_factory.hpp:77] Creating layer conv1
I0404 19:09:30.337131 14155 net.cpp:86] Creating Layer conv1
I0404 19:09:30.337141 14155 net.cpp:408] conv1 <- data
I0404 19:09:30.337162 14155 net.cpp:382] conv1 -> conv1
I0404 19:09:30.947208 14155 net.cpp:124] Setting up conv1
I0404 19:09:30.947259 14155 net.cpp:131] Top shape: 256 96 55 55 (74342400)
I0404 19:09:30.947268 14155 net.cpp:139] Memory required for data: 455667712
I0404 19:09:30.947299 14155 layer_factory.hpp:77] Creating layer relu1
I0404 19:09:30.947317 14155 net.cpp:86] Creating Layer relu1
I0404 19:09:30.947325 14155 net.cpp:408] relu1 <- conv1
I0404 19:09:30.947335 14155 net.cpp:369] relu1 -> conv1 (in-place)
I0404 19:09:30.947732 14155 net.cpp:124] Setting up relu1
I0404 19:09:30.947748 14155 net.cpp:131] Top shape: 256 96 55 55 (74342400)
I0404 19:09:30.947754 14155 net.cpp:139] Memory required for data: 753037312
I0404 19:09:30.947762 14155 layer_factory.hpp:77] Creating layer pool1
I0404 19:09:30.947772 14155 net.cpp:86] Creating Layer pool1
I0404 19:09:30.947778 14155 net.cpp:408] pool1 <- conv1
I0404 19:09:30.947788 14155 net.cpp:382] pool1 -> pool1
I0404 19:09:30.947849 14155 net.cpp:124] Setting up pool1
I0404 19:09:30.947861 14155 net.cpp:131] Top shape: 256 96 27 27 (17915904)
I0404 19:09:30.947866 14155 net.cpp:139] Memory required for data: 824700928
I0404 19:09:30.947872 14155 layer_factory.hpp:77] Creating layer norm1
I0404 19:09:30.947887 14155 net.cpp:86] Creating Layer norm1
I0404 19:09:30.947903 14155 net.cpp:408] norm1 <- pool1
I0404 19:09:30.947926 14155 net.cpp:382] norm1 -> norm1
I0404 19:09:30.948165 14155 net.cpp:124] Setting up norm1
I0404 19:09:30.948197 14155 net.cpp:131] Top shape: 256 96 27 27 (17915904)
I0404 19:09:30.948204 14155 net.cpp:139] Memory required for data: 896364544
I0404 19:09:30.948210 14155 layer_factory.hpp:77] Creating layer conv2
I0404 19:09:30.948226 14155 net.cpp:86] Creating Layer conv2
I0404 19:09:30.948233 14155 net.cpp:408] conv2 <- norm1
I0404 19:09:30.948243 14155 net.cpp:382] conv2 -> conv2
I0404 19:09:30.956084 14155 net.cpp:124] Setting up conv2
I0404 19:09:30.956117 14155 net.cpp:131] Top shape: 256 256 27 27 (47775744)
I0404 19:09:30.956125 14155 net.cpp:139] Memory required for data: 1087467520
I0404 19:09:30.956143 14155 layer_factory.hpp:77] Creating layer relu2
I0404 19:09:30.956156 14155 net.cpp:86] Creating Layer relu2
I0404 19:09:30.956163 14155 net.cpp:408] relu2 <- conv2
I0404 19:09:30.956173 14155 net.cpp:369] relu2 -> conv2 (in-place)
I0404 19:09:30.956398 14155 net.cpp:124] Setting up relu2
I0404 19:09:30.956413 14155 net.cpp:131] Top shape: 256 256 27 27 (47775744)
I0404 19:09:30.956419 14155 net.cpp:139] Memory required for data: 1278570496
I0404 19:09:30.956425 14155 layer_factory.hpp:77] Creating layer pool2
I0404 19:09:30.956435 14155 net.cpp:86] Creating Layer pool2
I0404 19:09:30.956442 14155 net.cpp:408] pool2 <- conv2
I0404 19:09:30.956450 14155 net.cpp:382] pool2 -> pool2
I0404 19:09:30.956506 14155 net.cpp:124] Setting up pool2
I0404 19:09:30.956518 14155 net.cpp:131] Top shape: 256 256 13 13 (11075584)
I0404 19:09:30.956523 14155 net.cpp:139] Memory required for data: 1322872832
I0404 19:09:30.956529 14155 layer_factory.hpp:77] Creating layer norm2
I0404 19:09:30.956544 14155 net.cpp:86] Creating Layer norm2
I0404 19:09:30.956550 14155 net.cpp:408] norm2 <- pool2
I0404 19:09:30.956575 14155 net.cpp:382] norm2 -> norm2
I0404 19:09:30.956995 14155 net.cpp:124] Setting up norm2
I0404 19:09:30.957012 14155 net.cpp:131] Top shape: 256 256 13 13 (11075584)
I0404 19:09:30.957018 14155 net.cpp:139] Memory required for data: 1367175168
I0404 19:09:30.957025 14155 layer_factory.hpp:77] Creating layer conv3
I0404 19:09:30.957042 14155 net.cpp:86] Creating Layer conv3
I0404 19:09:30.957049 14155 net.cpp:408] conv3 <- norm2
I0404 19:09:30.957060 14155 net.cpp:382] conv3 -> conv3
I0404 19:09:30.972826 14155 net.cpp:124] Setting up conv3
I0404 19:09:30.972873 14155 net.cpp:131] Top shape: 256 384 13 13 (16613376)
I0404 19:09:30.972880 14155 net.cpp:139] Memory required for data: 1433628672
I0404 19:09:30.972899 14155 layer_factory.hpp:77] Creating layer relu3
I0404 19:09:30.972913 14155 net.cpp:86] Creating Layer relu3
I0404 19:09:30.972921 14155 net.cpp:408] relu3 <- conv3
I0404 19:09:30.972932 14155 net.cpp:369] relu3 -> conv3 (in-place)
I0404 19:09:30.973176 14155 net.cpp:124] Setting up relu3
I0404 19:09:30.973191 14155 net.cpp:131] Top shape: 256 384 13 13 (16613376)
I0404 19:09:30.973196 14155 net.cpp:139] Memory required for data: 1500082176
I0404 19:09:30.973202 14155 layer_factory.hpp:77] Creating layer conv4
I0404 19:09:30.973220 14155 net.cpp:86] Creating Layer conv4
I0404 19:09:30.973227 14155 net.cpp:408] conv4 <- conv3
I0404 19:09:30.973238 14155 net.cpp:382] conv4 -> conv4
I0404 19:09:30.986506 14155 net.cpp:124] Setting up conv4
I0404 19:09:30.986548 14155 net.cpp:131] Top shape: 256 384 13 13 (16613376)
I0404 19:09:30.986555 14155 net.cpp:139] Memory required for data: 1566535680
I0404 19:09:30.986580 14155 layer_factory.hpp:77] Creating layer relu4
I0404 19:09:30.986594 14155 net.cpp:86] Creating Layer relu4
I0404 19:09:30.986601 14155 net.cpp:408] relu4 <- conv4
I0404 19:09:30.986615 14155 net.cpp:369] relu4 -> conv4 (in-place)
I0404 19:09:30.986841 14155 net.cpp:124] Setting up relu4
I0404 19:09:30.986855 14155 net.cpp:131] Top shape: 256 384 13 13 (16613376)
I0404 19:09:30.986860 14155 net.cpp:139] Memory required for data: 1632989184
I0404 19:09:30.986866 14155 layer_factory.hpp:77] Creating layer conv5
I0404 19:09:30.986893 14155 net.cpp:86] Creating Layer conv5
I0404 19:09:30.986912 14155 net.cpp:408] conv5 <- conv4
I0404 19:09:30.986923 14155 net.cpp:382] conv5 -> conv5
I0404 19:09:30.997167 14155 net.cpp:124] Setting up conv5
I0404 19:09:30.997201 14155 net.cpp:131] Top shape: 256 256 13 13 (11075584)
I0404 19:09:30.997208 14155 net.cpp:139] Memory required for data: 1677291520
I0404 19:09:30.997229 14155 layer_factory.hpp:77] Creating layer relu5
I0404 19:09:30.997241 14155 net.cpp:86] Creating Layer relu5
I0404 19:09:30.997249 14155 net.cpp:408] relu5 <- conv5
I0404 19:09:30.997262 14155 net.cpp:369] relu5 -> conv5 (in-place)
I0404 19:09:30.997480 14155 net.cpp:124] Setting up relu5
I0404 19:09:30.997494 14155 net.cpp:131] Top shape: 256 256 13 13 (11075584)
I0404 19:09:30.997500 14155 net.cpp:139] Memory required for data: 1721593856
I0404 19:09:30.997506 14155 layer_factory.hpp:77] Creating layer pool5
I0404 19:09:30.997517 14155 net.cpp:86] Creating Layer pool5
I0404 19:09:30.997524 14155 net.cpp:408] pool5 <- conv5
I0404 19:09:30.997534 14155 net.cpp:382] pool5 -> pool5
I0404 19:09:30.997593 14155 net.cpp:124] Setting up pool5
I0404 19:09:30.997607 14155 net.cpp:131] Top shape: 256 256 6 6 (2359296)
I0404 19:09:30.997613 14155 net.cpp:139] Memory required for data: 1731031040
I0404 19:09:30.997618 14155 layer_factory.hpp:77] Creating layer fc6
I0404 19:09:30.997635 14155 net.cpp:86] Creating Layer fc6
I0404 19:09:30.997642 14155 net.cpp:408] fc6 <- pool5
I0404 19:09:30.997651 14155 net.cpp:382] fc6 -> fc6
I0404 19:09:31.593893 14155 net.cpp:124] Setting up fc6
I0404 19:09:31.593940 14155 net.cpp:131] Top shape: 256 4096 (1048576)
I0404 19:09:31.593946 14155 net.cpp:139] Memory required for data: 1735225344
I0404 19:09:31.593961 14155 layer_factory.hpp:77] Creating layer relu6
I0404 19:09:31.593976 14155 net.cpp:86] Creating Layer relu6
I0404 19:09:31.593983 14155 net.cpp:408] relu6 <- fc6
I0404 19:09:31.593994 14155 net.cpp:369] relu6 -> fc6 (in-place)
I0404 19:09:31.594624 14155 net.cpp:124] Setting up relu6
I0404 19:09:31.594641 14155 net.cpp:131] Top shape: 256 4096 (1048576)
I0404 19:09:31.594647 14155 net.cpp:139] Memory required for data: 1739419648
I0404 19:09:31.594653 14155 layer_factory.hpp:77] Creating layer drop6
I0404 19:09:31.594674 14155 net.cpp:86] Creating Layer drop6
I0404 19:09:31.594681 14155 net.cpp:408] drop6 <- fc6
I0404 19:09:31.594691 14155 net.cpp:369] drop6 -> fc6 (in-place)
I0404 19:09:31.594732 14155 net.cpp:124] Setting up drop6
I0404 19:09:31.594753 14155 net.cpp:131] Top shape: 256 4096 (1048576)
I0404 19:09:31.594759 14155 net.cpp:139] Memory required for data: 1743613952
I0404 19:09:31.594765 14155 layer_factory.hpp:77] Creating layer fc7
I0404 19:09:31.594777 14155 net.cpp:86] Creating Layer fc7
I0404 19:09:31.594784 14155 net.cpp:408] fc7 <- fc6
I0404 19:09:31.594794 14155 net.cpp:382] fc7 -> fc7
I0404 19:09:31.859593 14155 net.cpp:124] Setting up fc7
I0404 19:09:31.859640 14155 net.cpp:131] Top shape: 256 4096 (1048576)
I0404 19:09:31.859647 14155 net.cpp:139] Memory required for data: 1747808256
I0404 19:09:31.859663 14155 layer_factory.hpp:77] Creating layer relu7
I0404 19:09:31.859676 14155 net.cpp:86] Creating Layer relu7
I0404 19:09:31.859686 14155 net.cpp:408] relu7 <- fc7
I0404 19:09:31.859699 14155 net.cpp:369] relu7 -> fc7 (in-place)
I0404 19:09:31.859994 14155 net.cpp:124] Setting up relu7
I0404 19:09:31.860008 14155 net.cpp:131] Top shape: 256 4096 (1048576)
I0404 19:09:31.860014 14155 net.cpp:139] Memory required for data: 1752002560
I0404 19:09:31.860020 14155 layer_factory.hpp:77] Creating layer drop7
I0404 19:09:31.860033 14155 net.cpp:86] Creating Layer drop7
I0404 19:09:31.860040 14155 net.cpp:408] drop7 <- fc7
I0404 19:09:31.860049 14155 net.cpp:369] drop7 -> fc7 (in-place)
I0404 19:09:31.860080 14155 net.cpp:124] Setting up drop7
I0404 19:09:31.860090 14155 net.cpp:131] Top shape: 256 4096 (1048576)
I0404 19:09:31.860095 14155 net.cpp:139] Memory required for data: 1756196864
I0404 19:09:31.860100 14155 layer_factory.hpp:77] Creating layer fc8
I0404 19:09:31.860116 14155 net.cpp:86] Creating Layer fc8
I0404 19:09:31.860131 14155 net.cpp:408] fc8 <- fc7
I0404 19:09:31.860168 14155 net.cpp:382] fc8 -> fc8
I0404 19:09:31.925181 14155 net.cpp:124] Setting up fc8
I0404 19:09:31.925240 14155 net.cpp:131] Top shape: 256 1000 (256000)
I0404 19:09:31.925246 14155 net.cpp:139] Memory required for data: 1757220864
I0404 19:09:31.925262 14155 layer_factory.hpp:77] Creating layer loss
I0404 19:09:31.925276 14155 net.cpp:86] Creating Layer loss
I0404 19:09:31.925284 14155 net.cpp:408] loss <- fc8
I0404 19:09:31.925293 14155 net.cpp:408] loss <- label
I0404 19:09:31.925310 14155 net.cpp:382] loss -> loss
I0404 19:09:31.925334 14155 layer_factory.hpp:77] Creating layer loss
…
I0404 19:09:31.927372 14155 net.cpp:296] The NetState phase (1) differed from the phase (0) specified by a rule in layer data
I0404 19:09:31.927616 14155 net.cpp:53] Initializing net from parameters: 
name: "CaffeNet"
state {
  phase: TEST
}
layer {
  name: "data"
  type: "Data"
  top: "data"
  top: "label"
  include {
    phase: TEST
  }
  transform_param {
    mirror: false
    crop_size: 227
    mean_file: "data/ilsvrc12/imagenet_mean.binaryproto"
  }
  data_param {
    source: "examples/imagenet/ilsvrc12_val_lmdb"
    batch_size: 50
    backend: LMDB
  }
}
layer {
  name: "conv1"
  type: "Convolution"
  bottom: "data"
  top: "conv1"
  param {
    lr_mult: 1
    decay_mult: 1
  }
  param {
    lr_mult: 2
    decay_mult: 0
  }
  convolution_param {
    num_output: 96
    kernel_size: 11
    stride: 4
    weight_filler {
      type: "gaussian"
      std: 0.01
    }
    bias_filler {
      type: "constant"
      value: 0
    }
  }
}
layer {
  name: "relu1"
  type: "ReLU"
  bottom: "conv1"
  top: "conv1"
}
layer {
  name: "pool1"
  type: "Pooling"
  bottom: "conv1"
  top: "pool1"
  pooling_param {
    pool: MAX
    kernel_size: 3
    stride: 2
  }
}
layer {
  name: "norm1"
  type: "LRN"
  bottom: "pool1"
  top: "norm1"
  lrn_param {
    local_size: 5
    alpha: 0.0001
    beta: 0.75
  }
}
layer {
  name: "conv2"
  type: "Convolution"
  bottom: "norm1"
  top: "conv2"
  param {
    lr_mult: 1
    decay_mult: 1
  }
  param {
    lr_mult: 2
    decay_mult: 0
  }
  convolution_param {
    num_output: 256
    pad: 2
    kernel_size: 5
    group: 2
    weight_filler {
      type: "gaussian"
      std: 0.01
    }
    bias_filler {
      type: "constant"
      value: 1
    }
  }
}
layer {
  name: "relu2"
  type: "ReLU"
  bottom: "conv2"
  top: "conv2"
}
layer {
  name: "pool2"
  type: "Pooling"
  bottom: "conv2"
  top: "pool2"
  pooling_param {
    pool: MAX
    kernel_size: 3
    stride: 2
  }
}
layer {
  name: "norm2"
  type: "LRN"
  bottom: "pool2"
  top: "norm2"
  lrn_param {
    local_size: 5
    alpha: 0.0001
    beta: 0.75
  }
}
layer {
  name: "conv3"
  type: "Convolution"
  bottom: "norm2"
  top: "conv3"
  param {
    lr_mult: 1
    decay_mult: 1
  }
  param {
    lr_mult: 2
    decay_mult: 0
  }
  convolution_param {
    num_output: 384
    pad: 1
    kernel_size: 3
    weight_filler {
      type: "gaussian"
      std: 0.01
    }
    bias_filler {
      type: "constant"
      value: 0
    }
  }
}
layer {
  name: "relu3"
  type: "ReLU"
  bottom: "conv3"
  top: "conv3"
}
layer {
  name: "conv4"
  type: "Convolution"
  bottom: "conv3"
  top: "conv4"
  param {
    lr_mult: 1
    decay_mult: 1
  }
  param {
    lr_mult: 2
    decay_mult: 0
  }
  convolution_param {
    num_output: 384
    pad: 1
    kernel_size: 3
    group: 2
    weight_filler {
      type: "gaussian"
      std: 0.01
    }
    bias_filler {
      type: "constant"
      value: 1
    }
  }
}
layer {
  name: "relu4"
  type: "ReLU"
  bottom: "conv4"
  top: "conv4"
}
layer {
  name: "conv5"
  type: "Convolution"
  bottom: "conv4"
  top: "conv5"
  param {
    lr_mult: 1
    decay_mult: 1
  }
  param {
    lr_mult: 2
    decay_mult: 0
  }
  convolution_param {
    num_output: 256
    pad: 1
    kernel_size: 3
    group: 2
    weight_filler {
      type: "gaussian"
      std: 0.01
    }
    bias_filler {
      type: "constant"
      value: 1
    }
  }
}
layer {
  name: "relu5"
  type: "ReLU"
  bottom: "conv5"
  top: "conv5"
}
layer {
  name: "pool5"
  type: "Pooling"
  bottom: "conv5"
  top: "pool5"
  pooling_param {
    pool: MAX
    kernel_size: 3
    stride: 2
  }
}
layer {
  name: "fc6"
  type: "InnerProduct"
  bottom: "pool5"
  top: "fc6"
  param {
    lr_mult: 1
    decay_mult: 1
  }
  param {
    lr_mult: 2
    decay_mult: 0
  }
  inner_product_param {
    num_output: 4096
    weight_filler {
      type: "gaussian"
      std: 0.005
    }
    bias_filler {
      type: "constant"
      value: 1
    }
  }
}
layer {
  name: "relu6"
  type: "ReLU"
  bottom: "fc6"
  top: "fc6"
}
layer {
  name: "drop6"
  type: "Dropout"
  bottom: "fc6"
  top: "fc6"
  dropout_param {
    dropout_ratio: 0.5
  }
}
layer {
  name: "fc7"
  type: "InnerProduct"
  bottom: "fc6"
  top: "fc7"
  param {
    lr_mult: 1
    decay_mult: 1
  }
  param {
    lr_mult: 2
    decay_mult: 0
  }
  inner_product_param {
    num_output: 4096
    weight_filler {
      type: "gaussian"
      std: 0.005
    }
    bias_filler {
      type: "constant"
      value: 1
    }
  }
}
layer {
  name: "relu7"
  type: "ReLU"
  bottom: "fc7"
  top: "fc7"
}
layer {
  name: "drop7"
  type: "Dropout"
  bottom: "fc7"
  top: "fc7"
  dropout_param {
    dropout_ratio: 0.5
  }
}
layer {
  name: "fc8"
  type: "InnerProduct"
  bottom: "fc7"
  top: "fc8"
  param {
    lr_mult: 1
    decay_mult: 1
  }
  param {
    lr_mult: 2
    decay_mult: 0
  }
  inner_product_param {
    num_output: 1000
    weight_filler {
      type: "gaussian"
      std: 0.01
    }
    bias_filler {
      type: "constant"
      value: 0
    }
  }
}
layer {
  name: "accuracy"
  type: "Accuracy"
  bottom: "fc8"
  bottom: "label"
  top: "accuracy"
  include {
    phase: TEST
  }
}
layer {
  name: "loss"
  type: "SoftmaxWithLoss"
  bottom: "fc8"
  bottom: "label"
  top: "loss"
}
I0404 19:09:31.927776 14155 layer_factory.hpp:77] Creating layer data
I0404 19:09:31.927871 14155 db_lmdb.cpp:35] Opened lmdb examples/imagenet/ilsvrc12_val_lmdb
I0404 19:09:31.927901 14155 net.cpp:86] Creating Layer data
I0404 19:09:31.927912 14155 net.cpp:382] data -> data
I0404 19:09:31.927927 14155 net.cpp:382] data -> label
I0404 19:09:31.927939 14155 data_transformer.cpp:25] Loading mean file from: data/ilsvrc12/imagenet_mean.binaryproto
I0404 19:09:31.930419 14155 data_layer.cpp:45] output data size: 50,3,227,227
I0404 19:09:32.009297 14155 net.cpp:124] Setting up data
I0404 19:09:32.009357 14155 net.cpp:131] Top shape: 50 3 227 227 (7729350)
I0404 19:09:32.009368 14155 net.cpp:131] Top shape: 50 (50)
I0404 19:09:32.009373 14155 net.cpp:139] Memory required for data: 30917600
I0404 19:09:32.009383 14155 layer_factory.hpp:77] Creating layer label_data_1_split
I0404 19:09:32.009402 14155 net.cpp:86] Creating Layer label_data_1_split
I0404 19:09:32.009409 14155 net.cpp:408] label_data_1_split <- label
I0404 19:09:32.009421 14155 net.cpp:382] label_data_1_split -> label_data_1_split_0
I0404 19:09:32.009438 14155 net.cpp:382] label_data_1_split -> label_data_1_split_1
I0404 19:09:32.009512 14155 net.cpp:124] Setting up label_data_1_split
I0404 19:09:32.009524 14155 net.cpp:131] Top shape: 50 (50)
I0404 19:09:32.009531 14155 net.cpp:131] Top shape: 50 (50)
I0404 19:09:32.009536 14155 net.cpp:139] Memory required for data: 30918000
I0404 19:09:32.009541 14155 layer_factory.hpp:77] Creating layer conv1
I0404 19:09:32.009559 14155 net.cpp:86] Creating Layer conv1
I0404 19:09:32.009567 14155 net.cpp:408] conv1 <- data
I0404 19:09:32.009575 14155 net.cpp:382] conv1 -> conv1
I0404 19:09:32.016399 14155 net.cpp:124] Setting up conv1
I0404 19:09:32.016451 14155 net.cpp:131] Top shape: 50 96 55 55 (14520000)
I0404 19:09:32.016458 14155 net.cpp:139] Memory required for data: 88998000
I0404 19:09:32.016494 14155 layer_factory.hpp:77] Creating layer relu1
I0404 19:09:32.016510 14155 net.cpp:86] Creating Layer relu1
I0404 19:09:32.016516 14155 net.cpp:408] relu1 <- conv1
I0404 19:09:32.016527 14155 net.cpp:369] relu1 -> conv1 (in-place)
I0404 19:09:32.016743 14155 net.cpp:124] Setting up relu1
I0404 19:09:32.016757 14155 net.cpp:131] Top shape: 50 96 55 55 (14520000)
I0404 19:09:32.016763 14155 net.cpp:139] Memory required for data: 147078000
I0404 19:09:32.016769 14155 layer_factory.hpp:77] Creating layer pool1
I0404 19:09:32.016782 14155 net.cpp:86] Creating Layer pool1
I0404 19:09:32.016789 14155 net.cpp:408] pool1 <- conv1
I0404 19:09:32.016798 14155 net.cpp:382] pool1 -> pool1
I0404 19:09:32.016857 14155 net.cpp:124] Setting up pool1
I0404 19:09:32.016870 14155 net.cpp:131] Top shape: 50 96 27 27 (3499200)
I0404 19:09:32.016875 14155 net.cpp:139] Memory required for data: 161074800
I0404 19:09:32.016880 14155 layer_factory.hpp:77] Creating layer norm1
I0404 19:09:32.016892 14155 net.cpp:86] Creating Layer norm1
I0404 19:09:32.016898 14155 net.cpp:408] norm1 <- pool1
I0404 19:09:32.016906 14155 net.cpp:382] norm1 -> norm1
I0404 19:09:32.017359 14155 net.cpp:124] Setting up norm1
I0404 19:09:32.017375 14155 net.cpp:131] Top shape: 50 96 27 27 (3499200)
I0404 19:09:32.017381 14155 net.cpp:139] Memory required for data: 175071600
I0404 19:09:32.017387 14155 layer_factory.hpp:77] Creating layer conv2
I0404 19:09:32.017405 14155 net.cpp:86] Creating Layer conv2
I0404 19:09:32.017411 14155 net.cpp:408] conv2 <- norm1
I0404 19:09:32.017421 14155 net.cpp:382] conv2 -> conv2
I0404 19:09:32.025143 14155 net.cpp:124] Setting up conv2
I0404 19:09:32.025194 14155 net.cpp:131] Top shape: 50 256 27 27 (9331200)
I0404 19:09:32.025200 14155 net.cpp:139] Memory required for data: 212396400
I0404 19:09:32.025221 14155 layer_factory.hpp:77] Creating layer relu2
I0404 19:09:32.025236 14155 net.cpp:86] Creating Layer relu2
I0404 19:09:32.025244 14155 net.cpp:408] relu2 <- conv2
I0404 19:09:32.025254 14155 net.cpp:369] relu2 -> conv2 (in-place)
I0404 19:09:32.025477 14155 net.cpp:124] Setting up relu2
I0404 19:09:32.025504 14155 net.cpp:131] Top shape: 50 256 27 27 (9331200)
I0404 19:09:32.025523 14155 net.cpp:139] Memory required for data: 249721200
I0404 19:09:32.025529 14155 layer_factory.hpp:77] Creating layer pool2
I0404 19:09:32.025543 14155 net.cpp:86] Creating Layer pool2
I0404 19:09:32.025549 14155 net.cpp:408] pool2 <- conv2
I0404 19:09:32.025558 14155 net.cpp:382] pool2 -> pool2
I0404 19:09:32.025621 14155 net.cpp:124] Setting up pool2
I0404 19:09:32.025635 14155 net.cpp:131] Top shape: 50 256 13 13 (2163200)
I0404 19:09:32.025640 14155 net.cpp:139] Memory required for data: 258374000
I0404 19:09:32.025648 14155 layer_factory.hpp:77] Creating layer norm2
I0404 19:09:32.025660 14155 net.cpp:86] Creating Layer norm2
I0404 19:09:32.025665 14155 net.cpp:408] norm2 <- pool2
I0404 19:09:32.025673 14155 net.cpp:382] norm2 -> norm2
I0404 19:09:32.026121 14155 net.cpp:124] Setting up norm2
I0404 19:09:32.026137 14155 net.cpp:131] Top shape: 50 256 13 13 (2163200)
I0404 19:09:32.026142 14155 net.cpp:139] Memory required for data: 267026800
I0404 19:09:32.026149 14155 layer_factory.hpp:77] Creating layer conv3
I0404 19:09:32.026165 14155 net.cpp:86] Creating Layer conv3
I0404 19:09:32.026172 14155 net.cpp:408] conv3 <- norm2
I0404 19:09:32.026182 14155 net.cpp:382] conv3 -> conv3
I0404 19:09:32.042012 14155 net.cpp:124] Setting up conv3
I0404 19:09:32.042062 14155 net.cpp:131] Top shape: 50 384 13 13 (3244800)
I0404 19:09:32.042069 14155 net.cpp:139] Memory required for data: 280006000
I0404 19:09:32.042090 14155 layer_factory.hpp:77] Creating layer relu3
I0404 19:09:32.042106 14155 net.cpp:86] Creating Layer relu3
I0404 19:09:32.042114 14155 net.cpp:408] relu3 <- conv3
I0404 19:09:32.042125 14155 net.cpp:369] relu3 -> conv3 (in-place)
I0404 19:09:32.042553 14155 net.cpp:124] Setting up relu3
I0404 19:09:32.042570 14155 net.cpp:131] Top shape: 50 384 13 13 (3244800)
I0404 19:09:32.042577 14155 net.cpp:139] Memory required for data: 292985200
I0404 19:09:32.042583 14155 layer_factory.hpp:77] Creating layer conv4
I0404 19:09:32.042599 14155 net.cpp:86] Creating Layer conv4
I0404 19:09:32.042606 14155 net.cpp:408] conv4 <- conv3
I0404 19:09:32.042616 14155 net.cpp:382] conv4 -> conv4
I0404 19:09:32.065457 14155 net.cpp:124] Setting up conv4
I0404 19:09:32.065513 14155 net.cpp:131] Top shape: 50 384 13 13 (3244800)
I0404 19:09:32.065521 14155 net.cpp:139] Memory required for data: 305964400
I0404 19:09:32.065536 14155 layer_factory.hpp:77] Creating layer relu4
I0404 19:09:32.065551 14155 net.cpp:86] Creating Layer relu4
I0404 19:09:32.065559 14155 net.cpp:408] relu4 <- conv4
I0404 19:09:32.065572 14155 net.cpp:369] relu4 -> conv4 (in-place)
I0404 19:09:32.065809 14155 net.cpp:124] Setting up relu4
I0404 19:09:32.065824 14155 net.cpp:131] Top shape: 50 384 13 13 (3244800)
I0404 19:09:32.065830 14155 net.cpp:139] Memory required for data: 318943600
I0404 19:09:32.065836 14155 layer_factory.hpp:77] Creating layer conv5
I0404 19:09:32.065855 14155 net.cpp:86] Creating Layer conv5
I0404 19:09:32.065861 14155 net.cpp:408] conv5 <- conv4
I0404 19:09:32.065871 14155 net.cpp:382] conv5 -> conv5
I0404 19:09:32.075778 14155 net.cpp:124] Setting up conv5
I0404 19:09:32.075827 14155 net.cpp:131] Top shape: 50 256 13 13 (2163200)
I0404 19:09:32.075834 14155 net.cpp:139] Memory required for data: 327596400
I0404 19:09:32.075855 14155 layer_factory.hpp:77] Creating layer relu5
I0404 19:09:32.075870 14155 net.cpp:86] Creating Layer relu5
I0404 19:09:32.075878 14155 net.cpp:408] relu5 <- conv5
I0404 19:09:32.075889 14155 net.cpp:369] relu5 -> conv5 (in-place)
I0404 19:09:32.076105 14155 net.cpp:124] Setting up relu5
I0404 19:09:32.076119 14155 net.cpp:131] Top shape: 50 256 13 13 (2163200)
I0404 19:09:32.076125 14155 net.cpp:139] Memory required for data: 336249200
I0404 19:09:32.076131 14155 layer_factory.hpp:77] Creating layer pool5
I0404 19:09:32.076145 14155 net.cpp:86] Creating Layer pool5
I0404 19:09:32.076151 14155 net.cpp:408] pool5 <- conv5
I0404 19:09:32.076160 14155 net.cpp:382] pool5 -> pool5
I0404 19:09:32.076238 14155 net.cpp:124] Setting up pool5
I0404 19:09:32.076267 14155 net.cpp:131] Top shape: 50 256 6 6 (460800)
I0404 19:09:32.076273 14155 net.cpp:139] Memory required for data: 338092400
I0404 19:09:32.076278 14155 layer_factory.hpp:77] Creating layer fc6
I0404 19:09:32.076292 14155 net.cpp:86] Creating Layer fc6
I0404 19:09:32.076297 14155 net.cpp:408] fc6 <- pool5
I0404 19:09:32.076306 14155 net.cpp:382] fc6 -> fc6
I0404 19:09:32.666036 14155 net.cpp:124] Setting up fc6
I0404 19:09:32.666085 14155 net.cpp:131] Top shape: 50 4096 (204800)
I0404 19:09:32.666092 14155 net.cpp:139] Memory required for data: 338911600
I0404 19:09:32.666108 14155 layer_factory.hpp:77] Creating layer relu6
I0404 19:09:32.666123 14155 net.cpp:86] Creating Layer relu6
I0404 19:09:32.666131 14155 net.cpp:408] relu6 <- fc6
I0404 19:09:32.666142 14155 net.cpp:369] relu6 -> fc6 (in-place)
I0404 19:09:32.685772 14155 net.cpp:124] Setting up relu6
I0404 19:09:32.685793 14155 net.cpp:131] Top shape: 50 4096 (204800)
I0404 19:09:32.685799 14155 net.cpp:139] Memory required for data: 339730800
I0404 19:09:32.685806 14155 layer_factory.hpp:77] Creating layer drop6
I0404 19:09:32.685817 14155 net.cpp:86] Creating Layer drop6
I0404 19:09:32.685824 14155 net.cpp:408] drop6 <- fc6
I0404 19:09:32.685834 14155 net.cpp:369] drop6 -> fc6 (in-place)
I0404 19:09:32.685881 14155 net.cpp:124] Setting up drop6
I0404 19:09:32.685892 14155 net.cpp:131] Top shape: 50 4096 (204800)
I0404 19:09:32.685897 14155 net.cpp:139] Memory required for data: 340550000
I0404 19:09:32.685904 14155 layer_factory.hpp:77] Creating layer fc7
I0404 19:09:32.685914 14155 net.cpp:86] Creating Layer fc7
I0404 19:09:32.685921 14155 net.cpp:408] fc7 <- fc6
I0404 19:09:32.685930 14155 net.cpp:382] fc7 -> fc7
I0404 19:09:32.946166 14155 net.cpp:124] Setting up fc7
I0404 19:09:32.946219 14155 net.cpp:131] Top shape: 50 4096 (204800)
I0404 19:09:32.946226 14155 net.cpp:139] Memory required for data: 341369200
I0404 19:09:32.946241 14155 layer_factory.hpp:77] Creating layer relu7
I0404 19:09:32.946255 14155 net.cpp:86] Creating Layer relu7
I0404 19:09:32.946264 14155 net.cpp:408] relu7 <- fc7
I0404 19:09:32.946274 14155 net.cpp:369] relu7 -> fc7 (in-place)
I0404 19:09:32.946581 14155 net.cpp:124] Setting up relu7
I0404 19:09:32.946596 14155 net.cpp:131] Top shape: 50 4096 (204800)
I0404 19:09:32.946602 14155 net.cpp:139] Memory required for data: 342188400
I0404 19:09:32.946609 14155 layer_factory.hpp:77] Creating layer drop7
I0404 19:09:32.946619 14155 net.cpp:86] Creating Layer drop7
I0404 19:09:32.946625 14155 net.cpp:408] drop7 <- fc7
I0404 19:09:32.946633 14155 net.cpp:369] drop7 -> fc7 (in-place)
I0404 19:09:32.946676 14155 net.cpp:124] Setting up drop7
I0404 19:09:32.946686 14155 net.cpp:131] Top shape: 50 4096 (204800)
I0404 19:09:32.946692 14155 net.cpp:139] Memory required for data: 343007600
I0404 19:09:32.946698 14155 layer_factory.hpp:77] Creating layer fc8
I0404 19:09:32.946709 14155 net.cpp:86] Creating Layer fc8
I0404 19:09:32.946715 14155 net.cpp:408] fc8 <- fc7
I0404 19:09:32.946724 14155 net.cpp:382] fc8 -> fc8
I0404 19:09:33.010823 14155 net.cpp:124] Setting up fc8
I0404 19:09:33.010874 14155 net.cpp:131] Top shape: 50 1000 (50000)
I0404 19:09:33.010880 14155 net.cpp:139] Memory required for data: 343207600
I0404 19:09:33.010896 14155 layer_factory.hpp:77] Creating layer fc8_fc8_0_split
I0404 19:09:33.010910 14155 net.cpp:86] Creating Layer fc8_fc8_0_split
I0404 19:09:33.010918 14155 net.cpp:408] fc8_fc8_0_split <- fc8
I0404 19:09:33.010931 14155 net.cpp:382] fc8_fc8_0_split -> fc8_fc8_0_split_0
I0404 19:09:33.010946 14155 net.cpp:382] fc8_fc8_0_split -> fc8_fc8_0_split_1
I0404 19:09:33.011005 14155 net.cpp:124] Setting up fc8_fc8_0_split
I0404 19:09:33.011016 14155 net.cpp:131] Top shape: 50 1000 (50000)
I0404 19:09:33.011023 14155 net.cpp:131] Top shape: 50 1000 (50000)
I0404 19:09:33.011029 14155 net.cpp:139] Memory required for data: 343607600
I0404 19:09:33.011034 14155 layer_factory.hpp:77] Creating layer accuracy
I0404 19:09:33.011044 14155 net.cpp:86] Creating Layer accuracy
I0404 19:09:33.011065 14155 net.cpp:408] accuracy <- fc8_fc8_0_split_0
I0404 19:09:33.011086 14155 net.cpp:408] accuracy <- label_data_1_split_0
I0404 19:09:33.011096 14155 net.cpp:382] accuracy -> accuracy
…
