…
I0214 11:41:23.848422 25555 net.cpp:296] The NetState phase (0) differed from the phase (1) specified by a rule in layer accuracy
I0214 11:41:23.848850 25555 net.cpp:53] Initializing net from parameters: 
name: "CaffeNet"
state {
  phase: TRAIN
  level: 0
  stage: ""
}
layer {
  name: "data"
  type: "Data"
  top: "data"
  top: "label"
  include {
    phase: TRAIN
  }
  transform_param {
    mirror: true
    crop_size: 227
    mean_file: "data/ilsvrc12/imagenet_mean.binaryproto"
  }
  data_param {
    source: "examples/imagenet/ilsvrc12_train_lmdb"
    batch_size: 256
    backend: LMDB
  }
}
layer {
  name: "conv1"
  type: "Convolution"
  bottom: "data"
  top: "conv1"
  param {
    lr_mult: 1
    decay_mult: 1
  }
  param {
    lr_mult: 2
    decay_mult: 0
  }
  convolution_param {
    num_output: 96
    kernel_size: 11
    stride: 4
    weight_filler {
      type: "gaussian"
      std: 0.01
    }
    bias_filler {
      type: "constant"
      value: 0
    }
  }
}
layer {
  name: "relu1"
  type: "ReLU"
  bottom: "conv1"
  top: "conv1"
}
layer {
  name: "pool1"
  type: "Pooling"
  bottom: "conv1"
  top: "pool1"
  pooling_param {
    pool: MAX
    kernel_size: 3
    stride: 2
  }
}
layer {
  name: "norm1"
  type: "LRN"
  bottom: "pool1"
  top: "norm1"
  lrn_param {
    local_size: 5
    alpha: 0.0001
    beta: 0.75
  }
}
layer {
  name: "conv2"
  type: "Convolution"
  bottom: "norm1"
  top: "conv2"
  param {
    lr_mult: 1
    decay_mult: 1
  }
  param {
    lr_mult: 2
    decay_mult: 0
  }
  convolution_param {
    num_output: 256
    pad: 2
    kernel_size: 5
    group: 2
    weight_filler {
      type: "gaussian"
      std: 0.01
    }
    bias_filler {
      type: "constant"
      value: 1
    }
  }
}
layer {
  name: "relu2"
  type: "ReLU"
  bottom: "conv2"
  top: "conv2"
}
layer {
  name: "pool2"
  type: "Pooling"
  bottom: "conv2"
  top: "pool2"
  pooling_param {
    pool: MAX
    kernel_size: 3
    stride: 2
  }
}
layer {
  name: "norm2"
  type: "LRN"
  bottom: "pool2"
  top: "norm2"
  lrn_param {
    local_size: 5
    alpha: 0.0001
    beta: 0.75
  }
}
layer {
  name: "conv3"
  type: "Convolution"
  bottom: "norm2"
  top: "conv3"
  param {
    lr_mult: 1
    decay_mult: 1
  }
  param {
    lr_mult: 2
    decay_mult: 0
  }
  convolution_param {
    num_output: 384
    pad: 1
    kernel_size: 3
    weight_filler {
      type: "gaussian"
      std: 0.01
    }
    bias_filler {
      type: "constant"
      value: 0
    }
  }
}
layer {
  name: "relu3"
  type: "ReLU"
  bottom: "conv3"
  top: "conv3"
}
layer {
  name: "conv4"
  type: "Convolution"
  bottom: "conv3"
  top: "conv4"
  param {
    lr_mult: 1
    decay_mult: 1
  }
  param {
    lr_mult: 2
    decay_mult: 0
  }
  convolution_param {
    num_output: 384
    pad: 1
    kernel_size: 3
    group: 2
    weight_filler {
      type: "gaussian"
      std: 0.01
    }
    bias_filler {
      type: "constant"
      value: 1
    }
  }
}
layer {
  name: "relu4"
  type: "ReLU"
  bottom: "conv4"
  top: "conv4"
}
layer {
  name: "conv5"
  type: "Convolution"
  bottom: "conv4"
  top: "conv5"
  param {
    lr_mult: 1
    decay_mult: 1
  }
  param {
    lr_mult: 2
    decay_mult: 0
  }
  convolution_param {
    num_output: 256
    pad: 1
    kernel_size: 3
    group: 2
    weight_filler {
      type: "gaussian"
      std: 0.01
    }
    bias_filler {
      type: "constant"
      value: 1
    }
  }
}
layer {
  name: "relu5"
  type: "ReLU"
  bottom: "conv5"
  top: "conv5"
}
layer {
  name: "pool5"
  type: "Pooling"
  bottom: "conv5"
  top: "pool5"
  pooling_param {
    pool: MAX
    kernel_size: 3
    stride: 2
  }
}
layer {
  name: "fc6"
  type: "InnerProduct"
  bottom: "pool5"
  top: "fc6"
  param {
    lr_mult: 1
    decay_mult: 1
  }
  param {
    lr_mult: 2
    decay_mult: 0
  }
  inner_product_param {
    num_output: 4096
    weight_filler {
      type: "gaussian"
      std: 0.005
    }
    bias_filler {
      type: "constant"
      value: 1
    }
  }
}
layer {
  name: "relu6"
  type: "ReLU"
  bottom: "fc6"
  top: "fc6"
}
layer {
  name: "drop6"
  type: "Dropout"
  bottom: "fc6"
  top: "fc6"
  dropout_param {
    dropout_ratio: 0.5
  }
}
layer {
  name: "fc7"
  type: "InnerProduct"
  bottom: "fc6"
  top: "fc7"
  param {
    lr_mult: 1
    decay_mult: 1
  }
  param {
    lr_mult: 2
    decay_mult: 0
  }
  inner_product_param {
    num_output: 4096
    weight_filler {
      type: "gaussian"
      std: 0.005
    }
    bias_filler {
      type: "constant"
      value: 1
    }
  }
}
layer {
  name: "relu7"
  type: "ReLU"
  bottom: "fc7"
  top: "fc7"
}
layer {
  name: "drop7"
  type: "Dropout"
  bottom: "fc7"
  top: "fc7"
  dropout_param {
    dropout_ratio: 0.5
  }
}
layer {
  name: "fc8"
  type: "InnerProduct"
  bottom: "fc7"
  top: "fc8"
  param {
    lr_mult: 1
    decay_mult: 1
  }
  param {
    lr_mult: 2
    decay_mult: 0
  }
  inner_product_param {
    num_output: 1000
    weight_filler {
      type: "gaussian"
      std: 0.01
    }
    bias_filler {
      type: "constant"
      value: 0
    }
  }
}
layer {
  name: "loss"
  type: "SoftmaxWithLoss"
  bottom: "fc8"
  bottom: "label"
  top: "loss"
}
I0214 11:41:23.849067 25555 layer_factory.hpp:77] Creating layer data
I0214 11:41:23.867369 25555 db_lmdb.cpp:35] Opened lmdb examples/imagenet/ilsvrc12_train_lmdb
I0214 11:41:23.901734 25555 net.cpp:86] Creating Layer data
I0214 11:41:23.901790 25555 net.cpp:382] data -> data
I0214 11:41:23.901854 25555 net.cpp:382] data -> label
I0214 11:41:23.901901 25555 data_transformer.cpp:25] Loading mean file from: data/ilsvrc12/imagenet_mean.binaryproto
I0214 11:41:23.968574 25555 data_layer.cpp:45] output data size: 256,3,227,227
I0214 11:41:24.399462 25555 net.cpp:124] Setting up data
I0214 11:41:24.399514 25555 net.cpp:131] Top shape: 256 3 227 227 (39574272)
I0214 11:41:24.399523 25555 net.cpp:131] Top shape: 256 (256)
I0214 11:41:24.399528 25555 net.cpp:139] Memory required for data: 158298112
I0214 11:41:24.399544 25555 layer_factory.hpp:77] Creating layer conv1
I0214 11:41:24.399574 25555 net.cpp:86] Creating Layer conv1
I0214 11:41:24.399585 25555 net.cpp:408] conv1 <- data
I0214 11:41:24.399605 25555 net.cpp:382] conv1 -> conv1
I0214 11:41:25.300976 25555 net.cpp:124] Setting up conv1
I0214 11:41:25.301059 25555 net.cpp:131] Top shape: 256 96 55 55 (74342400)
I0214 11:41:25.301070 25555 net.cpp:139] Memory required for data: 455667712
I0214 11:41:25.301125 25555 layer_factory.hpp:77] Creating layer relu1
I0214 11:41:25.301146 25555 net.cpp:86] Creating Layer relu1
I0214 11:41:25.301156 25555 net.cpp:408] relu1 <- conv1
I0214 11:41:25.301169 25555 net.cpp:369] relu1 -> conv1 (in-place)
I0214 11:41:25.301707 25555 net.cpp:124] Setting up relu1
I0214 11:41:25.301733 25555 net.cpp:131] Top shape: 256 96 55 55 (74342400)
I0214 11:41:25.301740 25555 net.cpp:139] Memory required for data: 753037312
I0214 11:41:25.301749 25555 layer_factory.hpp:77] Creating layer pool1
I0214 11:41:25.301765 25555 net.cpp:86] Creating Layer pool1
I0214 11:41:25.301774 25555 net.cpp:408] pool1 <- conv1
I0214 11:41:25.301787 25555 net.cpp:382] pool1 -> pool1
I0214 11:41:25.301877 25555 net.cpp:124] Setting up pool1
I0214 11:41:25.301894 25555 net.cpp:131] Top shape: 256 96 27 27 (17915904)
I0214 11:41:25.301903 25555 net.cpp:139] Memory required for data: 824700928
I0214 11:41:25.301911 25555 layer_factory.hpp:77] Creating layer norm1
I0214 11:41:25.301933 25555 net.cpp:86] Creating Layer norm1
I0214 11:41:25.301954 25555 net.cpp:408] norm1 <- pool1
I0214 11:41:25.301986 25555 net.cpp:382] norm1 -> norm1
I0214 11:41:25.302433 25555 net.cpp:124] Setting up norm1
I0214 11:41:25.302453 25555 net.cpp:131] Top shape: 256 96 27 27 (17915904)
I0214 11:41:25.302461 25555 net.cpp:139] Memory required for data: 896364544
I0214 11:41:25.302469 25555 layer_factory.hpp:77] Creating layer conv2
I0214 11:41:25.302490 25555 net.cpp:86] Creating Layer conv2
I0214 11:41:25.302500 25555 net.cpp:408] conv2 <- norm1
I0214 11:41:25.302512 25555 net.cpp:382] conv2 -> conv2
I0214 11:41:25.312974 25555 net.cpp:124] Setting up conv2
I0214 11:41:25.313024 25555 net.cpp:131] Top shape: 256 256 27 27 (47775744)
I0214 11:41:25.313043 25555 net.cpp:139] Memory required for data: 1087467520
I0214 11:41:25.313069 25555 layer_factory.hpp:77] Creating layer relu2
I0214 11:41:25.313087 25555 net.cpp:86] Creating Layer relu2
I0214 11:41:25.313097 25555 net.cpp:408] relu2 <- conv2
I0214 11:41:25.313110 25555 net.cpp:369] relu2 -> conv2 (in-place)
I0214 11:41:25.313408 25555 net.cpp:124] Setting up relu2
I0214 11:41:25.313427 25555 net.cpp:131] Top shape: 256 256 27 27 (47775744)
I0214 11:41:25.313436 25555 net.cpp:139] Memory required for data: 1278570496
I0214 11:41:25.313443 25555 layer_factory.hpp:77] Creating layer pool2
I0214 11:41:25.313459 25555 net.cpp:86] Creating Layer pool2
I0214 11:41:25.313467 25555 net.cpp:408] pool2 <- conv2
I0214 11:41:25.313479 25555 net.cpp:382] pool2 -> pool2
I0214 11:41:25.313575 25555 net.cpp:124] Setting up pool2
I0214 11:41:25.313591 25555 net.cpp:131] Top shape: 256 256 13 13 (11075584)
I0214 11:41:25.313598 25555 net.cpp:139] Memory required for data: 1322872832
I0214 11:41:25.313606 25555 layer_factory.hpp:77] Creating layer norm2
I0214 11:41:25.313622 25555 net.cpp:86] Creating Layer norm2
I0214 11:41:25.313630 25555 net.cpp:408] norm2 <- pool2
I0214 11:41:25.313642 25555 net.cpp:382] norm2 -> norm2
I0214 11:41:25.314211 25555 net.cpp:124] Setting up norm2
I0214 11:41:25.314234 25555 net.cpp:131] Top shape: 256 256 13 13 (11075584)
I0214 11:41:25.314242 25555 net.cpp:139] Memory required for data: 1367175168
I0214 11:41:25.314250 25555 layer_factory.hpp:77] Creating layer conv3
I0214 11:41:25.314272 25555 net.cpp:86] Creating Layer conv3
I0214 11:41:25.314281 25555 net.cpp:408] conv3 <- norm2
I0214 11:41:25.314296 25555 net.cpp:382] conv3 -> conv3
I0214 11:41:25.333849 25555 net.cpp:124] Setting up conv3
I0214 11:41:25.333899 25555 net.cpp:131] Top shape: 256 384 13 13 (16613376)
I0214 11:41:25.333907 25555 net.cpp:139] Memory required for data: 1433628672
I0214 11:41:25.333930 25555 layer_factory.hpp:77] Creating layer relu3
I0214 11:41:25.333948 25555 net.cpp:86] Creating Layer relu3
I0214 11:41:25.333957 25555 net.cpp:408] relu3 <- conv3
I0214 11:41:25.333971 25555 net.cpp:369] relu3 -> conv3 (in-place)
I0214 11:41:25.334256 25555 net.cpp:124] Setting up relu3
I0214 11:41:25.334273 25555 net.cpp:131] Top shape: 256 384 13 13 (16613376)
I0214 11:41:25.334280 25555 net.cpp:139] Memory required for data: 1500082176
I0214 11:41:25.334287 25555 layer_factory.hpp:77] Creating layer conv4
I0214 11:41:25.334326 25555 net.cpp:86] Creating Layer conv4
I0214 11:41:25.334336 25555 net.cpp:408] conv4 <- conv3
I0214 11:41:25.334348 25555 net.cpp:382] conv4 -> conv4
I0214 11:41:25.349154 25555 net.cpp:124] Setting up conv4
I0214 11:41:25.349180 25555 net.cpp:131] Top shape: 256 384 13 13 (16613376)
I0214 11:41:25.349187 25555 net.cpp:139] Memory required for data: 1566535680
I0214 11:41:25.349200 25555 layer_factory.hpp:77] Creating layer relu4
I0214 11:41:25.349215 25555 net.cpp:86] Creating Layer relu4
I0214 11:41:25.349222 25555 net.cpp:408] relu4 <- conv4
I0214 11:41:25.349231 25555 net.cpp:369] relu4 -> conv4 (in-place)
I0214 11:41:25.349483 25555 net.cpp:124] Setting up relu4
I0214 11:41:25.349498 25555 net.cpp:131] Top shape: 256 384 13 13 (16613376)
I0214 11:41:25.349504 25555 net.cpp:139] Memory required for data: 1632989184
I0214 11:41:25.349511 25555 layer_factory.hpp:77] Creating layer conv5
I0214 11:41:25.349537 25555 net.cpp:86] Creating Layer conv5
I0214 11:41:25.349558 25555 net.cpp:408] conv5 <- conv4
I0214 11:41:25.349572 25555 net.cpp:382] conv5 -> conv5
I0214 11:41:25.360117 25555 net.cpp:124] Setting up conv5
I0214 11:41:25.360153 25555 net.cpp:131] Top shape: 256 256 13 13 (11075584)
I0214 11:41:25.360165 25555 net.cpp:139] Memory required for data: 1677291520
I0214 11:41:25.360185 25555 layer_factory.hpp:77] Creating layer relu5
I0214 11:41:25.360198 25555 net.cpp:86] Creating Layer relu5
I0214 11:41:25.360206 25555 net.cpp:408] relu5 <- conv5
I0214 11:41:25.360218 25555 net.cpp:369] relu5 -> conv5 (in-place)
I0214 11:41:25.360456 25555 net.cpp:124] Setting up relu5
I0214 11:41:25.360471 25555 net.cpp:131] Top shape: 256 256 13 13 (11075584)
I0214 11:41:25.360477 25555 net.cpp:139] Memory required for data: 1721593856
I0214 11:41:25.360483 25555 layer_factory.hpp:77] Creating layer pool5
I0214 11:41:25.360494 25555 net.cpp:86] Creating Layer pool5
I0214 11:41:25.360502 25555 net.cpp:408] pool5 <- conv5
I0214 11:41:25.360513 25555 net.cpp:382] pool5 -> pool5
I0214 11:41:25.360582 25555 net.cpp:124] Setting up pool5
I0214 11:41:25.360595 25555 net.cpp:131] Top shape: 256 256 6 6 (2359296)
I0214 11:41:25.360601 25555 net.cpp:139] Memory required for data: 1731031040
I0214 11:41:25.360607 25555 layer_factory.hpp:77] Creating layer fc6
I0214 11:41:25.360626 25555 net.cpp:86] Creating Layer fc6
I0214 11:41:25.360635 25555 net.cpp:408] fc6 <- pool5
I0214 11:41:25.360644 25555 net.cpp:382] fc6 -> fc6
I0214 11:41:25.960654 25555 net.cpp:124] Setting up fc6
I0214 11:41:25.960696 25555 net.cpp:131] Top shape: 256 4096 (1048576)
I0214 11:41:25.960703 25555 net.cpp:139] Memory required for data: 1735225344
I0214 11:41:25.960718 25555 layer_factory.hpp:77] Creating layer relu6
I0214 11:41:25.960732 25555 net.cpp:86] Creating Layer relu6
I0214 11:41:25.960739 25555 net.cpp:408] relu6 <- fc6
I0214 11:41:25.960750 25555 net.cpp:369] relu6 -> fc6 (in-place)
I0214 11:41:25.961328 25555 net.cpp:124] Setting up relu6
I0214 11:41:25.961344 25555 net.cpp:131] Top shape: 256 4096 (1048576)
I0214 11:41:25.961350 25555 net.cpp:139] Memory required for data: 1739419648
I0214 11:41:25.961357 25555 layer_factory.hpp:77] Creating layer drop6
I0214 11:41:25.961369 25555 net.cpp:86] Creating Layer drop6
I0214 11:41:25.961374 25555 net.cpp:408] drop6 <- fc6
I0214 11:41:25.961382 25555 net.cpp:369] drop6 -> fc6 (in-place)
I0214 11:41:25.961422 25555 net.cpp:124] Setting up drop6
I0214 11:41:25.961433 25555 net.cpp:131] Top shape: 256 4096 (1048576)
I0214 11:41:25.961438 25555 net.cpp:139] Memory required for data: 1743613952
I0214 11:41:25.961444 25555 layer_factory.hpp:77] Creating layer fc7
I0214 11:41:25.961455 25555 net.cpp:86] Creating Layer fc7
I0214 11:41:25.961462 25555 net.cpp:408] fc7 <- fc6
I0214 11:41:25.961474 25555 net.cpp:382] fc7 -> fc7
I0214 11:41:26.250829 25555 net.cpp:124] Setting up fc7
I0214 11:41:26.250881 25555 net.cpp:131] Top shape: 256 4096 (1048576)
I0214 11:41:26.250888 25555 net.cpp:139] Memory required for data: 1747808256
I0214 11:41:26.250903 25555 layer_factory.hpp:77] Creating layer relu7
I0214 11:41:26.250918 25555 net.cpp:86] Creating Layer relu7
I0214 11:41:26.250926 25555 net.cpp:408] relu7 <- fc7
I0214 11:41:26.250939 25555 net.cpp:369] relu7 -> fc7 (in-place)
I0214 11:41:26.251219 25555 net.cpp:124] Setting up relu7
I0214 11:41:26.251231 25555 net.cpp:131] Top shape: 256 4096 (1048576)
I0214 11:41:26.251237 25555 net.cpp:139] Memory required for data: 1752002560
I0214 11:41:26.251243 25555 layer_factory.hpp:77] Creating layer drop7
I0214 11:41:26.251253 25555 net.cpp:86] Creating Layer drop7
I0214 11:41:26.251260 25555 net.cpp:408] drop7 <- fc7
I0214 11:41:26.251271 25555 net.cpp:369] drop7 -> fc7 (in-place)
I0214 11:41:26.251301 25555 net.cpp:124] Setting up drop7
I0214 11:41:26.251313 25555 net.cpp:131] Top shape: 256 4096 (1048576)
I0214 11:41:26.251319 25555 net.cpp:139] Memory required for data: 1756196864
I0214 11:41:26.251324 25555 layer_factory.hpp:77] Creating layer fc8
I0214 11:41:26.251335 25555 net.cpp:86] Creating Layer fc8
I0214 11:41:26.251351 25555 net.cpp:408] fc8 <- fc7
I0214 11:41:26.251374 25555 net.cpp:382] fc8 -> fc8
I0214 11:41:26.316773 25555 net.cpp:124] Setting up fc8
I0214 11:41:26.316819 25555 net.cpp:131] Top shape: 256 1000 (256000)
I0214 11:41:26.316825 25555 net.cpp:139] Memory required for data: 1757220864
I0214 11:41:26.316840 25555 layer_factory.hpp:77] Creating layer loss
I0214 11:41:26.316854 25555 net.cpp:86] Creating Layer loss
I0214 11:41:26.316861 25555 net.cpp:408] loss <- fc8
I0214 11:41:26.316871 25555 net.cpp:408] loss <- label
I0214 11:41:26.316890 25555 net.cpp:382] loss -> loss
I0214 11:41:26.316915 25555 layer_factory.hpp:77] Creating layer loss
…
I0214 11:41:26.318971 25555 net.cpp:296] The NetState phase (1) differed from the phase (0) specified by a rule in layer data
I0214 11:41:26.319216 25555 net.cpp:53] Initializing net from parameters: 
name: "CaffeNet"
state {
  phase: TEST
}
layer {
  name: "data"
  type: "Data"
  top: "data"
  top: "label"
  include {
    phase: TEST
  }
  transform_param {
    mirror: false
    crop_size: 227
    mean_file: "data/ilsvrc12/imagenet_mean.binaryproto"
  }
  data_param {
    source: "examples/imagenet/ilsvrc12_val_lmdb"
    batch_size: 50
    backend: LMDB
  }
}
layer {
  name: "conv1"
  type: "Convolution"
  bottom: "data"
  top: "conv1"
  param {
    lr_mult: 1
    decay_mult: 1
  }
  param {
    lr_mult: 2
    decay_mult: 0
  }
  convolution_param {
    num_output: 96
    kernel_size: 11
    stride: 4
    weight_filler {
      type: "gaussian"
      std: 0.01
    }
    bias_filler {
      type: "constant"
      value: 0
    }
  }
}
layer {
  name: "relu1"
  type: "ReLU"
  bottom: "conv1"
  top: "conv1"
}
layer {
  name: "pool1"
  type: "Pooling"
  bottom: "conv1"
  top: "pool1"
  pooling_param {
    pool: MAX
    kernel_size: 3
    stride: 2
  }
}
layer {
  name: "norm1"
  type: "LRN"
  bottom: "pool1"
  top: "norm1"
  lrn_param {
    local_size: 5
    alpha: 0.0001
    beta: 0.75
  }
}
layer {
  name: "conv2"
  type: "Convolution"
  bottom: "norm1"
  top: "conv2"
  param {
    lr_mult: 1
    decay_mult: 1
  }
  param {
    lr_mult: 2
    decay_mult: 0
  }
  convolution_param {
    num_output: 256
    pad: 2
    kernel_size: 5
    group: 2
    weight_filler {
      type: "gaussian"
      std: 0.01
    }
    bias_filler {
      type: "constant"
      value: 1
    }
  }
}
layer {
  name: "relu2"
  type: "ReLU"
  bottom: "conv2"
  top: "conv2"
}
layer {
  name: "pool2"
  type: "Pooling"
  bottom: "conv2"
  top: "pool2"
  pooling_param {
    pool: MAX
    kernel_size: 3
    stride: 2
  }
}
layer {
  name: "norm2"
  type: "LRN"
  bottom: "pool2"
  top: "norm2"
  lrn_param {
    local_size: 5
    alpha: 0.0001
    beta: 0.75
  }
}
layer {
  name: "conv3"
  type: "Convolution"
  bottom: "norm2"
  top: "conv3"
  param {
    lr_mult: 1
    decay_mult: 1
  }
  param {
    lr_mult: 2
    decay_mult: 0
  }
  convolution_param {
    num_output: 384
    pad: 1
    kernel_size: 3
    weight_filler {
      type: "gaussian"
      std: 0.01
    }
    bias_filler {
      type: "constant"
      value: 0
    }
  }
}
layer {
  name: "relu3"
  type: "ReLU"
  bottom: "conv3"
  top: "conv3"
}
layer {
  name: "conv4"
  type: "Convolution"
  bottom: "conv3"
  top: "conv4"
  param {
    lr_mult: 1
    decay_mult: 1
  }
  param {
    lr_mult: 2
    decay_mult: 0
  }
  convolution_param {
    num_output: 384
    pad: 1
    kernel_size: 3
    group: 2
    weight_filler {
      type: "gaussian"
      std: 0.01
    }
    bias_filler {
      type: "constant"
      value: 1
    }
  }
}
layer {
  name: "relu4"
  type: "ReLU"
  bottom: "conv4"
  top: "conv4"
}
layer {
  name: "conv5"
  type: "Convolution"
  bottom: "conv4"
  top: "conv5"
  param {
    lr_mult: 1
    decay_mult: 1
  }
  param {
    lr_mult: 2
    decay_mult: 0
  }
  convolution_param {
    num_output: 256
    pad: 1
    kernel_size: 3
    group: 2
    weight_filler {
      type: "gaussian"
      std: 0.01
    }
    bias_filler {
      type: "constant"
      value: 1
    }
  }
}
layer {
  name: "relu5"
  type: "ReLU"
  bottom: "conv5"
  top: "conv5"
}
layer {
  name: "pool5"
  type: "Pooling"
  bottom: "conv5"
  top: "pool5"
  pooling_param {
    pool: MAX
    kernel_size: 3
    stride: 2
  }
}
layer {
  name: "fc6"
  type: "InnerProduct"
  bottom: "pool5"
  top: "fc6"
  param {
    lr_mult: 1
    decay_mult: 1
  }
  param {
    lr_mult: 2
    decay_mult: 0
  }
  inner_product_param {
    num_output: 4096
    weight_filler {
      type: "gaussian"
      std: 0.005
    }
    bias_filler {
      type: "constant"
      value: 1
    }
  }
}
layer {
  name: "relu6"
  type: "ReLU"
  bottom: "fc6"
  top: "fc6"
}
layer {
  name: "drop6"
  type: "Dropout"
  bottom: "fc6"
  top: "fc6"
  dropout_param {
    dropout_ratio: 0.5
  }
}
layer {
  name: "fc7"
  type: "InnerProduct"
  bottom: "fc6"
  top: "fc7"
  param {
    lr_mult: 1
    decay_mult: 1
  }
  param {
    lr_mult: 2
    decay_mult: 0
  }
  inner_product_param {
    num_output: 4096
    weight_filler {
      type: "gaussian"
      std: 0.005
    }
    bias_filler {
      type: "constant"
      value: 1
    }
  }
}
layer {
  name: "relu7"
  type: "ReLU"
  bottom: "fc7"
  top: "fc7"
}
layer {
  name: "drop7"
  type: "Dropout"
  bottom: "fc7"
  top: "fc7"
  dropout_param {
    dropout_ratio: 0.5
  }
}
layer {
  name: "fc8"
  type: "InnerProduct"
  bottom: "fc7"
  top: "fc8"
  param {
    lr_mult: 1
    decay_mult: 1
  }
  param {
    lr_mult: 2
    decay_mult: 0
  }
  inner_product_param {
    num_output: 1000
    weight_filler {
      type: "gaussian"
      std: 0.01
    }
    bias_filler {
      type: "constant"
      value: 0
    }
  }
}
layer {
  name: "accuracy"
  type: "Accuracy"
  bottom: "fc8"
  bottom: "label"
  top: "accuracy"
  include {
    phase: TEST
  }
}
layer {
  name: "loss"
  type: "SoftmaxWithLoss"
  bottom: "fc8"
  bottom: "label"
  top: "loss"
}
I0214 11:41:26.319373 25555 layer_factory.hpp:77] Creating layer data
I0214 11:41:26.319453 25555 db_lmdb.cpp:35] Opened lmdb examples/imagenet/ilsvrc12_val_lmdb
I0214 11:41:26.319483 25555 net.cpp:86] Creating Layer data
I0214 11:41:26.319495 25555 net.cpp:382] data -> data
I0214 11:41:26.319509 25555 net.cpp:382] data -> label
I0214 11:41:26.319522 25555 data_transformer.cpp:25] Loading mean file from: data/ilsvrc12/imagenet_mean.binaryproto
I0214 11:41:26.322190 25555 data_layer.cpp:45] output data size: 50,3,227,227
I0214 11:41:26.404662 25555 net.cpp:124] Setting up data
I0214 11:41:26.404711 25555 net.cpp:131] Top shape: 50 3 227 227 (7729350)
I0214 11:41:26.404719 25555 net.cpp:131] Top shape: 50 (50)
I0214 11:41:26.404724 25555 net.cpp:139] Memory required for data: 30917600
I0214 11:41:26.404734 25555 layer_factory.hpp:77] Creating layer label_data_1_split
I0214 11:41:26.404752 25555 net.cpp:86] Creating Layer label_data_1_split
I0214 11:41:26.404759 25555 net.cpp:408] label_data_1_split <- label
I0214 11:41:26.404772 25555 net.cpp:382] label_data_1_split -> label_data_1_split_0
I0214 11:41:26.404788 25555 net.cpp:382] label_data_1_split -> label_data_1_split_1
I0214 11:41:26.404909 25555 net.cpp:124] Setting up label_data_1_split
I0214 11:41:26.404923 25555 net.cpp:131] Top shape: 50 (50)
I0214 11:41:26.404930 25555 net.cpp:131] Top shape: 50 (50)
I0214 11:41:26.404935 25555 net.cpp:139] Memory required for data: 30918000
I0214 11:41:26.404942 25555 layer_factory.hpp:77] Creating layer conv1
I0214 11:41:26.404960 25555 net.cpp:86] Creating Layer conv1
I0214 11:41:26.404966 25555 net.cpp:408] conv1 <- data
I0214 11:41:26.404976 25555 net.cpp:382] conv1 -> conv1
I0214 11:41:26.412219 25555 net.cpp:124] Setting up conv1
I0214 11:41:26.412262 25555 net.cpp:131] Top shape: 50 96 55 55 (14520000)
I0214 11:41:26.412269 25555 net.cpp:139] Memory required for data: 88998000
I0214 11:41:26.412291 25555 layer_factory.hpp:77] Creating layer relu1
I0214 11:41:26.412304 25555 net.cpp:86] Creating Layer relu1
I0214 11:41:26.412312 25555 net.cpp:408] relu1 <- conv1
I0214 11:41:26.412322 25555 net.cpp:369] relu1 -> conv1 (in-place)
I0214 11:41:26.412552 25555 net.cpp:124] Setting up relu1
I0214 11:41:26.412567 25555 net.cpp:131] Top shape: 50 96 55 55 (14520000)
I0214 11:41:26.412573 25555 net.cpp:139] Memory required for data: 147078000
I0214 11:41:26.412580 25555 layer_factory.hpp:77] Creating layer pool1
I0214 11:41:26.412593 25555 net.cpp:86] Creating Layer pool1
I0214 11:41:26.412600 25555 net.cpp:408] pool1 <- conv1
I0214 11:41:26.412608 25555 net.cpp:382] pool1 -> pool1
I0214 11:41:26.412669 25555 net.cpp:124] Setting up pool1
I0214 11:41:26.412681 25555 net.cpp:131] Top shape: 50 96 27 27 (3499200)
I0214 11:41:26.412686 25555 net.cpp:139] Memory required for data: 161074800
I0214 11:41:26.412693 25555 layer_factory.hpp:77] Creating layer norm1
I0214 11:41:26.412703 25555 net.cpp:86] Creating Layer norm1
I0214 11:41:26.412709 25555 net.cpp:408] norm1 <- pool1
I0214 11:41:26.412717 25555 net.cpp:382] norm1 -> norm1
I0214 11:41:26.413188 25555 net.cpp:124] Setting up norm1
I0214 11:41:26.413206 25555 net.cpp:131] Top shape: 50 96 27 27 (3499200)
I0214 11:41:26.413213 25555 net.cpp:139] Memory required for data: 175071600
I0214 11:41:26.413218 25555 layer_factory.hpp:77] Creating layer conv2
I0214 11:41:26.413235 25555 net.cpp:86] Creating Layer conv2
I0214 11:41:26.413242 25555 net.cpp:408] conv2 <- norm1
I0214 11:41:26.413254 25555 net.cpp:382] conv2 -> conv2
I0214 11:41:26.420985 25555 net.cpp:124] Setting up conv2
I0214 11:41:26.421036 25555 net.cpp:131] Top shape: 50 256 27 27 (9331200)
I0214 11:41:26.421042 25555 net.cpp:139] Memory required for data: 212396400
I0214 11:41:26.421064 25555 layer_factory.hpp:77] Creating layer relu2
I0214 11:41:26.421080 25555 net.cpp:86] Creating Layer relu2
I0214 11:41:26.421088 25555 net.cpp:408] relu2 <- conv2
I0214 11:41:26.421099 25555 net.cpp:369] relu2 -> conv2 (in-place)
I0214 11:41:26.421329 25555 net.cpp:124] Setting up relu2
I0214 11:41:26.421355 25555 net.cpp:131] Top shape: 50 256 27 27 (9331200)
I0214 11:41:26.421373 25555 net.cpp:139] Memory required for data: 249721200
I0214 11:41:26.421380 25555 layer_factory.hpp:77] Creating layer pool2
I0214 11:41:26.421393 25555 net.cpp:86] Creating Layer pool2
I0214 11:41:26.421399 25555 net.cpp:408] pool2 <- conv2
I0214 11:41:26.421407 25555 net.cpp:382] pool2 -> pool2
I0214 11:41:26.421470 25555 net.cpp:124] Setting up pool2
I0214 11:41:26.421483 25555 net.cpp:131] Top shape: 50 256 13 13 (2163200)
I0214 11:41:26.421489 25555 net.cpp:139] Memory required for data: 258374000
I0214 11:41:26.421494 25555 layer_factory.hpp:77] Creating layer norm2
I0214 11:41:26.421505 25555 net.cpp:86] Creating Layer norm2
I0214 11:41:26.421510 25555 net.cpp:408] norm2 <- pool2
I0214 11:41:26.421519 25555 net.cpp:382] norm2 -> norm2
I0214 11:41:26.421980 25555 net.cpp:124] Setting up norm2
I0214 11:41:26.421996 25555 net.cpp:131] Top shape: 50 256 13 13 (2163200)
I0214 11:41:26.422003 25555 net.cpp:139] Memory required for data: 267026800
I0214 11:41:26.422008 25555 layer_factory.hpp:77] Creating layer conv3
I0214 11:41:26.422024 25555 net.cpp:86] Creating Layer conv3
I0214 11:41:26.422031 25555 net.cpp:408] conv3 <- norm2
I0214 11:41:26.422041 25555 net.cpp:382] conv3 -> conv3
I0214 11:41:26.437891 25555 net.cpp:124] Setting up conv3
I0214 11:41:26.437938 25555 net.cpp:131] Top shape: 50 384 13 13 (3244800)
I0214 11:41:26.437944 25555 net.cpp:139] Memory required for data: 280006000
I0214 11:41:26.437965 25555 layer_factory.hpp:77] Creating layer relu3
I0214 11:41:26.437978 25555 net.cpp:86] Creating Layer relu3
I0214 11:41:26.437986 25555 net.cpp:408] relu3 <- conv3
I0214 11:41:26.437999 25555 net.cpp:369] relu3 -> conv3 (in-place)
I0214 11:41:26.438432 25555 net.cpp:124] Setting up relu3
I0214 11:41:26.438451 25555 net.cpp:131] Top shape: 50 384 13 13 (3244800)
I0214 11:41:26.438455 25555 net.cpp:139] Memory required for data: 292985200
I0214 11:41:26.438462 25555 layer_factory.hpp:77] Creating layer conv4
I0214 11:41:26.438478 25555 net.cpp:86] Creating Layer conv4
I0214 11:41:26.438485 25555 net.cpp:408] conv4 <- conv3
I0214 11:41:26.438495 25555 net.cpp:382] conv4 -> conv4
I0214 11:41:26.461679 25555 net.cpp:124] Setting up conv4
I0214 11:41:26.461737 25555 net.cpp:131] Top shape: 50 384 13 13 (3244800)
I0214 11:41:26.461745 25555 net.cpp:139] Memory required for data: 305964400
I0214 11:41:26.461760 25555 layer_factory.hpp:77] Creating layer relu4
I0214 11:41:26.461774 25555 net.cpp:86] Creating Layer relu4
I0214 11:41:26.461782 25555 net.cpp:408] relu4 <- conv4
I0214 11:41:26.461793 25555 net.cpp:369] relu4 -> conv4 (in-place)
I0214 11:41:26.462045 25555 net.cpp:124] Setting up relu4
I0214 11:41:26.462060 25555 net.cpp:131] Top shape: 50 384 13 13 (3244800)
I0214 11:41:26.462065 25555 net.cpp:139] Memory required for data: 318943600
I0214 11:41:26.462071 25555 layer_factory.hpp:77] Creating layer conv5
I0214 11:41:26.462090 25555 net.cpp:86] Creating Layer conv5
I0214 11:41:26.462097 25555 net.cpp:408] conv5 <- conv4
I0214 11:41:26.462107 25555 net.cpp:382] conv5 -> conv5
I0214 11:41:26.472231 25555 net.cpp:124] Setting up conv5
I0214 11:41:26.472280 25555 net.cpp:131] Top shape: 50 256 13 13 (2163200)
I0214 11:41:26.472285 25555 net.cpp:139] Memory required for data: 327596400
I0214 11:41:26.472307 25555 layer_factory.hpp:77] Creating layer relu5
I0214 11:41:26.472322 25555 net.cpp:86] Creating Layer relu5
I0214 11:41:26.472331 25555 net.cpp:408] relu5 <- conv5
I0214 11:41:26.472342 25555 net.cpp:369] relu5 -> conv5 (in-place)
I0214 11:41:26.472575 25555 net.cpp:124] Setting up relu5
I0214 11:41:26.472590 25555 net.cpp:131] Top shape: 50 256 13 13 (2163200)
I0214 11:41:26.472595 25555 net.cpp:139] Memory required for data: 336249200
I0214 11:41:26.472601 25555 layer_factory.hpp:77] Creating layer pool5
I0214 11:41:26.472615 25555 net.cpp:86] Creating Layer pool5
I0214 11:41:26.472622 25555 net.cpp:408] pool5 <- conv5
I0214 11:41:26.472631 25555 net.cpp:382] pool5 -> pool5
I0214 11:41:26.472710 25555 net.cpp:124] Setting up pool5
I0214 11:41:26.472735 25555 net.cpp:131] Top shape: 50 256 6 6 (460800)
I0214 11:41:26.472740 25555 net.cpp:139] Memory required for data: 338092400
I0214 11:41:26.472746 25555 layer_factory.hpp:77] Creating layer fc6
I0214 11:41:26.472759 25555 net.cpp:86] Creating Layer fc6
I0214 11:41:26.472764 25555 net.cpp:408] fc6 <- pool5
I0214 11:41:26.472774 25555 net.cpp:382] fc6 -> fc6
I0214 11:41:27.069146 25555 net.cpp:124] Setting up fc6
I0214 11:41:27.069201 25555 net.cpp:131] Top shape: 50 4096 (204800)
I0214 11:41:27.069208 25555 net.cpp:139] Memory required for data: 338911600
I0214 11:41:27.069224 25555 layer_factory.hpp:77] Creating layer relu6
I0214 11:41:27.069238 25555 net.cpp:86] Creating Layer relu6
I0214 11:41:27.069247 25555 net.cpp:408] relu6 <- fc6
I0214 11:41:27.069258 25555 net.cpp:369] relu6 -> fc6 (in-place)
I0214 11:41:27.069840 25555 net.cpp:124] Setting up relu6
I0214 11:41:27.069856 25555 net.cpp:131] Top shape: 50 4096 (204800)
I0214 11:41:27.069862 25555 net.cpp:139] Memory required for data: 339730800
I0214 11:41:27.069869 25555 layer_factory.hpp:77] Creating layer drop6
I0214 11:41:27.069880 25555 net.cpp:86] Creating Layer drop6
I0214 11:41:27.069885 25555 net.cpp:408] drop6 <- fc6
I0214 11:41:27.069895 25555 net.cpp:369] drop6 -> fc6 (in-place)
I0214 11:41:27.069936 25555 net.cpp:124] Setting up drop6
I0214 11:41:27.069947 25555 net.cpp:131] Top shape: 50 4096 (204800)
I0214 11:41:27.069952 25555 net.cpp:139] Memory required for data: 340550000
I0214 11:41:27.069957 25555 layer_factory.hpp:77] Creating layer fc7
I0214 11:41:27.069969 25555 net.cpp:86] Creating Layer fc7
I0214 11:41:27.069975 25555 net.cpp:408] fc7 <- fc6
I0214 11:41:27.069984 25555 net.cpp:382] fc7 -> fc7
I0214 11:41:27.332873 25555 net.cpp:124] Setting up fc7
I0214 11:41:27.332927 25555 net.cpp:131] Top shape: 50 4096 (204800)
I0214 11:41:27.332933 25555 net.cpp:139] Memory required for data: 341369200
I0214 11:41:27.332949 25555 layer_factory.hpp:77] Creating layer relu7
I0214 11:41:27.332963 25555 net.cpp:86] Creating Layer relu7
I0214 11:41:27.332970 25555 net.cpp:408] relu7 <- fc7
I0214 11:41:27.332981 25555 net.cpp:369] relu7 -> fc7 (in-place)
I0214 11:41:27.333274 25555 net.cpp:124] Setting up relu7
I0214 11:41:27.333287 25555 net.cpp:131] Top shape: 50 4096 (204800)
I0214 11:41:27.333293 25555 net.cpp:139] Memory required for data: 342188400
I0214 11:41:27.333299 25555 layer_factory.hpp:77] Creating layer drop7
I0214 11:41:27.333310 25555 net.cpp:86] Creating Layer drop7
I0214 11:41:27.333317 25555 net.cpp:408] drop7 <- fc7
I0214 11:41:27.333324 25555 net.cpp:369] drop7 -> fc7 (in-place)
I0214 11:41:27.333365 25555 net.cpp:124] Setting up drop7
I0214 11:41:27.333376 25555 net.cpp:131] Top shape: 50 4096 (204800)
I0214 11:41:27.333381 25555 net.cpp:139] Memory required for data: 343007600
I0214 11:41:27.333386 25555 layer_factory.hpp:77] Creating layer fc8
I0214 11:41:27.333398 25555 net.cpp:86] Creating Layer fc8
I0214 11:41:27.333403 25555 net.cpp:408] fc8 <- fc7
I0214 11:41:27.333413 25555 net.cpp:382] fc8 -> fc8
I0214 11:41:27.397977 25555 net.cpp:124] Setting up fc8
I0214 11:41:27.398030 25555 net.cpp:131] Top shape: 50 1000 (50000)
I0214 11:41:27.398035 25555 net.cpp:139] Memory required for data: 343207600
I0214 11:41:27.398051 25555 layer_factory.hpp:77] Creating layer fc8_fc8_0_split
I0214 11:41:27.398066 25555 net.cpp:86] Creating Layer fc8_fc8_0_split
I0214 11:41:27.398072 25555 net.cpp:408] fc8_fc8_0_split <- fc8
I0214 11:41:27.398084 25555 net.cpp:382] fc8_fc8_0_split -> fc8_fc8_0_split_0
I0214 11:41:27.398099 25555 net.cpp:382] fc8_fc8_0_split -> fc8_fc8_0_split_1
I0214 11:41:27.398156 25555 net.cpp:124] Setting up fc8_fc8_0_split
I0214 11:41:27.398167 25555 net.cpp:131] Top shape: 50 1000 (50000)
I0214 11:41:27.398175 25555 net.cpp:131] Top shape: 50 1000 (50000)
I0214 11:41:27.398178 25555 net.cpp:139] Memory required for data: 343607600
I0214 11:41:27.398185 25555 layer_factory.hpp:77] Creating layer accuracy
I0214 11:41:27.398195 25555 net.cpp:86] Creating Layer accuracy
I0214 11:41:27.398216 25555 net.cpp:408] accuracy <- fc8_fc8_0_split_0
I0214 11:41:27.398241 25555 net.cpp:408] accuracy <- label_data_1_split_0
I0214 11:41:27.398250 25555 net.cpp:382] accuracy -> accuracy
…
