…
I0216 10:54:22.239469 18596 net.cpp:296] The NetState phase (0) differed from the phase (1) specified by a rule in layer accuracy
I0216 10:54:22.239926 18596 net.cpp:53] Initializing net from parameters: 
name: "CaffeNet"
state {
  phase: TRAIN
  level: 0
  stage: ""
}
layer {
  name: "data"
  type: "Data"
  top: "data"
  top: "label"
  include {
    phase: TRAIN
  }
  transform_param {
    mirror: true
    crop_size: 227
    mean_file: "data/ilsvrc12/imagenet_mean.binaryproto"
  }
  data_param {
    source: "examples/imagenet/ilsvrc12_train_lmdb"
    batch_size: 256
    backend: LMDB
  }
}
layer {
  name: "conv1"
  type: "Convolution"
  bottom: "data"
  top: "conv1"
  param {
    lr_mult: 1
    decay_mult: 1
  }
  param {
    lr_mult: 2
    decay_mult: 0
  }
  convolution_param {
    num_output: 96
    kernel_size: 11
    stride: 4
    weight_filler {
      type: "gaussian"
      std: 0.01
    }
    bias_filler {
      type: "constant"
      value: 0
    }
  }
}
layer {
  name: "relu1"
  type: "ReLU"
  bottom: "conv1"
  top: "conv1"
}
layer {
  name: "pool1"
  type: "Pooling"
  bottom: "conv1"
  top: "pool1"
  pooling_param {
    pool: MAX
    kernel_size: 3
    stride: 2
  }
}
layer {
  name: "norm1"
  type: "LRN"
  bottom: "pool1"
  top: "norm1"
  lrn_param {
    local_size: 5
    alpha: 0.0001
    beta: 0.75
  }
}
layer {
  name: "conv2"
  type: "Convolution"
  bottom: "norm1"
  top: "conv2"
  param {
    lr_mult: 1
    decay_mult: 1
  }
  param {
    lr_mult: 2
    decay_mult: 0
  }
  convolution_param {
    num_output: 256
    pad: 2
    kernel_size: 5
    group: 2
    weight_filler {
      type: "gaussian"
      std: 0.01
    }
    bias_filler {
      type: "constant"
      value: 1
    }
  }
}
layer {
  name: "relu2"
  type: "ReLU"
  bottom: "conv2"
  top: "conv2"
}
layer {
  name: "pool2"
  type: "Pooling"
  bottom: "conv2"
  top: "pool2"
  pooling_param {
    pool: MAX
    kernel_size: 3
    stride: 2
  }
}
layer {
  name: "norm2"
  type: "LRN"
  bottom: "pool2"
  top: "norm2"
  lrn_param {
    local_size: 5
    alpha: 0.0001
    beta: 0.75
  }
}
layer {
  name: "conv3"
  type: "Convolution"
  bottom: "norm2"
  top: "conv3"
  param {
    lr_mult: 1
    decay_mult: 1
  }
  param {
    lr_mult: 2
    decay_mult: 0
  }
  convolution_param {
    num_output: 384
    pad: 1
    kernel_size: 3
    weight_filler {
      type: "gaussian"
      std: 0.01
    }
    bias_filler {
      type: "constant"
      value: 0
    }
  }
}
layer {
  name: "relu3"
  type: "ReLU"
  bottom: "conv3"
  top: "conv3"
}
layer {
  name: "conv4"
  type: "Convolution"
  bottom: "conv3"
  top: "conv4"
  param {
    lr_mult: 1
    decay_mult: 1
  }
  param {
    lr_mult: 2
    decay_mult: 0
  }
  convolution_param {
    num_output: 384
    pad: 1
    kernel_size: 3
    group: 2
    weight_filler {
      type: "gaussian"
      std: 0.01
    }
    bias_filler {
      type: "constant"
      value: 1
    }
  }
}
layer {
  name: "relu4"
  type: "ReLU"
  bottom: "conv4"
  top: "conv4"
}
layer {
  name: "conv5"
  type: "Convolution"
  bottom: "conv4"
  top: "conv5"
  param {
    lr_mult: 1
    decay_mult: 1
  }
  param {
    lr_mult: 2
    decay_mult: 0
  }
  convolution_param {
    num_output: 256
    pad: 1
    kernel_size: 3
    group: 2
    weight_filler {
      type: "gaussian"
      std: 0.01
    }
    bias_filler {
      type: "constant"
      value: 1
    }
  }
}
layer {
  name: "relu5"
  type: "ReLU"
  bottom: "conv5"
  top: "conv5"
}
layer {
  name: "pool5"
  type: "Pooling"
  bottom: "conv5"
  top: "pool5"
  pooling_param {
    pool: MAX
    kernel_size: 3
    stride: 2
  }
}
layer {
  name: "fc6"
  type: "InnerProduct"
  bottom: "pool5"
  top: "fc6"
  param {
    lr_mult: 1
    decay_mult: 1
  }
  param {
    lr_mult: 2
    decay_mult: 0
  }
  inner_product_param {
    num_output: 4096
    weight_filler {
      type: "gaussian"
      std: 0.005
    }
    bias_filler {
      type: "constant"
      value: 1
    }
  }
}
layer {
  name: "relu6"
  type: "ReLU"
  bottom: "fc6"
  top: "fc6"
}
layer {
  name: "drop6"
  type: "Dropout"
  bottom: "fc6"
  top: "fc6"
  dropout_param {
    dropout_ratio: 0.5
  }
}
layer {
  name: "fc7"
  type: "InnerProduct"
  bottom: "fc6"
  top: "fc7"
  param {
    lr_mult: 1
    decay_mult: 1
  }
  param {
    lr_mult: 2
    decay_mult: 0
  }
  inner_product_param {
    num_output: 4096
    weight_filler {
      type: "gaussian"
      std: 0.005
    }
    bias_filler {
      type: "constant"
      value: 1
    }
  }
}
layer {
  name: "relu7"
  type: "ReLU"
  bottom: "fc7"
  top: "fc7"
}
layer {
  name: "drop7"
  type: "Dropout"
  bottom: "fc7"
  top: "fc7"
  dropout_param {
    dropout_ratio: 0.5
  }
}
layer {
  name: "fc8"
  type: "InnerProduct"
  bottom: "fc7"
  top: "fc8"
  param {
    lr_mult: 1
    decay_mult: 1
  }
  param {
    lr_mult: 2
    decay_mult: 0
  }
  inner_product_param {
    num_output: 1000
    weight_filler {
      type: "gaussian"
      std: 0.01
    }
    bias_filler {
      type: "constant"
      value: 0
    }
  }
}
layer {
  name: "loss"
  type: "SoftmaxWithLoss"
  bottom: "fc8"
  bottom: "label"
  top: "loss"
}
I0216 10:54:22.240155 18596 layer_factory.hpp:77] Creating layer data
I0216 10:54:22.240348 18596 db_lmdb.cpp:35] Opened lmdb examples/imagenet/ilsvrc12_train_lmdb
I0216 10:54:22.292501 18596 net.cpp:86] Creating Layer data
I0216 10:54:22.292564 18596 net.cpp:382] data -> data
I0216 10:54:22.292625 18596 net.cpp:382] data -> label
I0216 10:54:22.292670 18596 data_transformer.cpp:25] Loading mean file from: data/ilsvrc12/imagenet_mean.binaryproto
I0216 10:54:22.353713 18596 data_layer.cpp:45] output data size: 256,3,227,227
I0216 10:54:22.949823 18596 net.cpp:124] Setting up data
I0216 10:54:22.949882 18596 net.cpp:131] Top shape: 256 3 227 227 (39574272)
I0216 10:54:22.949890 18596 net.cpp:131] Top shape: 256 (256)
I0216 10:54:22.949897 18596 net.cpp:139] Memory required for data: 158298112
I0216 10:54:22.949913 18596 layer_factory.hpp:77] Creating layer conv1
I0216 10:54:22.949944 18596 net.cpp:86] Creating Layer conv1
I0216 10:54:22.949955 18596 net.cpp:408] conv1 <- data
I0216 10:54:22.949975 18596 net.cpp:382] conv1 -> conv1
I0216 10:54:23.980193 18596 net.cpp:124] Setting up conv1
I0216 10:54:23.980245 18596 net.cpp:131] Top shape: 256 96 55 55 (74342400)
I0216 10:54:23.980253 18596 net.cpp:139] Memory required for data: 455667712
I0216 10:54:23.980288 18596 layer_factory.hpp:77] Creating layer relu1
I0216 10:54:23.980309 18596 net.cpp:86] Creating Layer relu1
I0216 10:54:23.980317 18596 net.cpp:408] relu1 <- conv1
I0216 10:54:23.980329 18596 net.cpp:369] relu1 -> conv1 (in-place)
I0216 10:54:23.980796 18596 net.cpp:124] Setting up relu1
I0216 10:54:23.980826 18596 net.cpp:131] Top shape: 256 96 55 55 (74342400)
I0216 10:54:23.980832 18596 net.cpp:139] Memory required for data: 753037312
I0216 10:54:23.980839 18596 layer_factory.hpp:77] Creating layer pool1
I0216 10:54:23.980850 18596 net.cpp:86] Creating Layer pool1
I0216 10:54:23.980857 18596 net.cpp:408] pool1 <- conv1
I0216 10:54:23.980866 18596 net.cpp:382] pool1 -> pool1
I0216 10:54:23.980931 18596 net.cpp:124] Setting up pool1
I0216 10:54:23.980943 18596 net.cpp:131] Top shape: 256 96 27 27 (17915904)
I0216 10:54:23.980949 18596 net.cpp:139] Memory required for data: 824700928
I0216 10:54:23.980955 18596 layer_factory.hpp:77] Creating layer norm1
I0216 10:54:23.980970 18596 net.cpp:86] Creating Layer norm1
I0216 10:54:23.980988 18596 net.cpp:408] norm1 <- pool1
I0216 10:54:23.981009 18596 net.cpp:382] norm1 -> norm1
I0216 10:54:23.981282 18596 net.cpp:124] Setting up norm1
I0216 10:54:23.981299 18596 net.cpp:131] Top shape: 256 96 27 27 (17915904)
I0216 10:54:23.981305 18596 net.cpp:139] Memory required for data: 896364544
I0216 10:54:23.981312 18596 layer_factory.hpp:77] Creating layer conv2
I0216 10:54:23.981330 18596 net.cpp:86] Creating Layer conv2
I0216 10:54:23.981338 18596 net.cpp:408] conv2 <- norm1
I0216 10:54:23.981348 18596 net.cpp:382] conv2 -> conv2
I0216 10:54:23.990043 18596 net.cpp:124] Setting up conv2
I0216 10:54:23.990089 18596 net.cpp:131] Top shape: 256 256 27 27 (47775744)
I0216 10:54:23.990097 18596 net.cpp:139] Memory required for data: 1087467520
I0216 10:54:23.990115 18596 layer_factory.hpp:77] Creating layer relu2
I0216 10:54:23.990129 18596 net.cpp:86] Creating Layer relu2
I0216 10:54:23.990149 18596 net.cpp:408] relu2 <- conv2
I0216 10:54:23.990159 18596 net.cpp:369] relu2 -> conv2 (in-place)
I0216 10:54:23.990397 18596 net.cpp:124] Setting up relu2
I0216 10:54:23.990424 18596 net.cpp:131] Top shape: 256 256 27 27 (47775744)
I0216 10:54:23.990430 18596 net.cpp:139] Memory required for data: 1278570496
I0216 10:54:23.990437 18596 layer_factory.hpp:77] Creating layer pool2
I0216 10:54:23.990447 18596 net.cpp:86] Creating Layer pool2
I0216 10:54:23.990453 18596 net.cpp:408] pool2 <- conv2
I0216 10:54:23.990463 18596 net.cpp:382] pool2 -> pool2
I0216 10:54:23.990519 18596 net.cpp:124] Setting up pool2
I0216 10:54:23.990530 18596 net.cpp:131] Top shape: 256 256 13 13 (11075584)
I0216 10:54:23.990535 18596 net.cpp:139] Memory required for data: 1322872832
I0216 10:54:23.990540 18596 layer_factory.hpp:77] Creating layer norm2
I0216 10:54:23.990564 18596 net.cpp:86] Creating Layer norm2
I0216 10:54:23.990571 18596 net.cpp:408] norm2 <- pool2
I0216 10:54:23.990579 18596 net.cpp:382] norm2 -> norm2
I0216 10:54:23.991031 18596 net.cpp:124] Setting up norm2
I0216 10:54:23.991049 18596 net.cpp:131] Top shape: 256 256 13 13 (11075584)
I0216 10:54:23.991065 18596 net.cpp:139] Memory required for data: 1367175168
I0216 10:54:23.991070 18596 layer_factory.hpp:77] Creating layer conv3
I0216 10:54:23.991087 18596 net.cpp:86] Creating Layer conv3
I0216 10:54:23.991094 18596 net.cpp:408] conv3 <- norm2
I0216 10:54:23.991104 18596 net.cpp:382] conv3 -> conv3
I0216 10:54:24.006832 18596 net.cpp:124] Setting up conv3
I0216 10:54:24.006866 18596 net.cpp:131] Top shape: 256 384 13 13 (16613376)
I0216 10:54:24.006872 18596 net.cpp:139] Memory required for data: 1433628672
I0216 10:54:24.006889 18596 layer_factory.hpp:77] Creating layer relu3
I0216 10:54:24.006902 18596 net.cpp:86] Creating Layer relu3
I0216 10:54:24.006911 18596 net.cpp:408] relu3 <- conv3
I0216 10:54:24.006922 18596 net.cpp:369] relu3 -> conv3 (in-place)
I0216 10:54:24.007141 18596 net.cpp:124] Setting up relu3
I0216 10:54:24.007155 18596 net.cpp:131] Top shape: 256 384 13 13 (16613376)
I0216 10:54:24.007161 18596 net.cpp:139] Memory required for data: 1500082176
I0216 10:54:24.007167 18596 layer_factory.hpp:77] Creating layer conv4
I0216 10:54:24.007184 18596 net.cpp:86] Creating Layer conv4
I0216 10:54:24.007189 18596 net.cpp:408] conv4 <- conv3
I0216 10:54:24.007201 18596 net.cpp:382] conv4 -> conv4
I0216 10:54:24.019966 18596 net.cpp:124] Setting up conv4
I0216 10:54:24.019989 18596 net.cpp:131] Top shape: 256 384 13 13 (16613376)
I0216 10:54:24.019995 18596 net.cpp:139] Memory required for data: 1566535680
I0216 10:54:24.020006 18596 layer_factory.hpp:77] Creating layer relu4
I0216 10:54:24.020015 18596 net.cpp:86] Creating Layer relu4
I0216 10:54:24.020022 18596 net.cpp:408] relu4 <- conv4
I0216 10:54:24.020030 18596 net.cpp:369] relu4 -> conv4 (in-place)
I0216 10:54:24.020272 18596 net.cpp:124] Setting up relu4
I0216 10:54:24.020287 18596 net.cpp:131] Top shape: 256 384 13 13 (16613376)
I0216 10:54:24.020292 18596 net.cpp:139] Memory required for data: 1632989184
I0216 10:54:24.020298 18596 layer_factory.hpp:77] Creating layer conv5
I0216 10:54:24.020323 18596 net.cpp:86] Creating Layer conv5
I0216 10:54:24.020342 18596 net.cpp:408] conv5 <- conv4
I0216 10:54:24.020354 18596 net.cpp:382] conv5 -> conv5
I0216 10:54:24.029981 18596 net.cpp:124] Setting up conv5
I0216 10:54:24.030016 18596 net.cpp:131] Top shape: 256 256 13 13 (11075584)
I0216 10:54:24.030038 18596 net.cpp:139] Memory required for data: 1677291520
I0216 10:54:24.030058 18596 layer_factory.hpp:77] Creating layer relu5
I0216 10:54:24.030073 18596 net.cpp:86] Creating Layer relu5
I0216 10:54:24.030081 18596 net.cpp:408] relu5 <- conv5
I0216 10:54:24.030092 18596 net.cpp:369] relu5 -> conv5 (in-place)
I0216 10:54:24.030309 18596 net.cpp:124] Setting up relu5
I0216 10:54:24.030324 18596 net.cpp:131] Top shape: 256 256 13 13 (11075584)
I0216 10:54:24.030330 18596 net.cpp:139] Memory required for data: 1721593856
I0216 10:54:24.030339 18596 layer_factory.hpp:77] Creating layer pool5
I0216 10:54:24.030351 18596 net.cpp:86] Creating Layer pool5
I0216 10:54:24.030359 18596 net.cpp:408] pool5 <- conv5
I0216 10:54:24.030367 18596 net.cpp:382] pool5 -> pool5
I0216 10:54:24.030436 18596 net.cpp:124] Setting up pool5
I0216 10:54:24.030448 18596 net.cpp:131] Top shape: 256 256 6 6 (2359296)
I0216 10:54:24.030454 18596 net.cpp:139] Memory required for data: 1731031040
I0216 10:54:24.030460 18596 layer_factory.hpp:77] Creating layer fc6
I0216 10:54:24.030477 18596 net.cpp:86] Creating Layer fc6
I0216 10:54:24.030483 18596 net.cpp:408] fc6 <- pool5
I0216 10:54:24.031137 18596 net.cpp:382] fc6 -> fc6
I0216 10:54:24.630060 18596 net.cpp:124] Setting up fc6
I0216 10:54:24.630112 18596 net.cpp:131] Top shape: 256 4096 (1048576)
I0216 10:54:24.630120 18596 net.cpp:139] Memory required for data: 1735225344
I0216 10:54:24.630136 18596 layer_factory.hpp:77] Creating layer relu6
I0216 10:54:24.630151 18596 net.cpp:86] Creating Layer relu6
I0216 10:54:24.630159 18596 net.cpp:408] relu6 <- fc6
I0216 10:54:24.630172 18596 net.cpp:369] relu6 -> fc6 (in-place)
I0216 10:54:24.630784 18596 net.cpp:124] Setting up relu6
I0216 10:54:24.630801 18596 net.cpp:131] Top shape: 256 4096 (1048576)
I0216 10:54:24.630807 18596 net.cpp:139] Memory required for data: 1739419648
I0216 10:54:24.630813 18596 layer_factory.hpp:77] Creating layer drop6
I0216 10:54:24.630825 18596 net.cpp:86] Creating Layer drop6
I0216 10:54:24.630831 18596 net.cpp:408] drop6 <- fc6
I0216 10:54:24.630841 18596 net.cpp:369] drop6 -> fc6 (in-place)
I0216 10:54:24.630879 18596 net.cpp:124] Setting up drop6
I0216 10:54:24.630892 18596 net.cpp:131] Top shape: 256 4096 (1048576)
I0216 10:54:24.630898 18596 net.cpp:139] Memory required for data: 1743613952
I0216 10:54:24.630904 18596 layer_factory.hpp:77] Creating layer fc7
I0216 10:54:24.630915 18596 net.cpp:86] Creating Layer fc7
I0216 10:54:24.630921 18596 net.cpp:408] fc7 <- fc6
I0216 10:54:24.630933 18596 net.cpp:382] fc7 -> fc7
I0216 10:54:24.917261 18596 net.cpp:124] Setting up fc7
I0216 10:54:24.917310 18596 net.cpp:131] Top shape: 256 4096 (1048576)
I0216 10:54:24.917316 18596 net.cpp:139] Memory required for data: 1747808256
I0216 10:54:24.917332 18596 layer_factory.hpp:77] Creating layer relu7
I0216 10:54:24.917346 18596 net.cpp:86] Creating Layer relu7
I0216 10:54:24.917353 18596 net.cpp:408] relu7 <- fc7
I0216 10:54:24.917366 18596 net.cpp:369] relu7 -> fc7 (in-place)
I0216 10:54:24.917639 18596 net.cpp:124] Setting up relu7
I0216 10:54:24.917652 18596 net.cpp:131] Top shape: 256 4096 (1048576)
I0216 10:54:24.917657 18596 net.cpp:139] Memory required for data: 1752002560
I0216 10:54:24.917664 18596 layer_factory.hpp:77] Creating layer drop7
I0216 10:54:24.917673 18596 net.cpp:86] Creating Layer drop7
I0216 10:54:24.917680 18596 net.cpp:408] drop7 <- fc7
I0216 10:54:24.917690 18596 net.cpp:369] drop7 -> fc7 (in-place)
I0216 10:54:24.917721 18596 net.cpp:124] Setting up drop7
I0216 10:54:24.917731 18596 net.cpp:131] Top shape: 256 4096 (1048576)
I0216 10:54:24.917735 18596 net.cpp:139] Memory required for data: 1756196864
I0216 10:54:24.917742 18596 layer_factory.hpp:77] Creating layer fc8
I0216 10:54:24.917755 18596 net.cpp:86] Creating Layer fc8
I0216 10:54:24.917773 18596 net.cpp:408] fc8 <- fc7
I0216 10:54:24.917795 18596 net.cpp:382] fc8 -> fc8
I0216 10:54:25.194232 18596 net.cpp:124] Setting up fc8
I0216 10:54:25.194303 18596 net.cpp:131] Top shape: 256 1000 (256000)
I0216 10:54:25.194309 18596 net.cpp:139] Memory required for data: 1757220864
I0216 10:54:25.194326 18596 layer_factory.hpp:77] Creating layer loss
I0216 10:54:25.194340 18596 net.cpp:86] Creating Layer loss
I0216 10:54:25.194349 18596 net.cpp:408] loss <- fc8
I0216 10:54:25.194358 18596 net.cpp:408] loss <- label
I0216 10:54:25.194372 18596 net.cpp:382] loss -> loss
I0216 10:54:25.194396 18596 layer_factory.hpp:77] Creating layer loss
…
I0216 10:54:25.196521 18596 net.cpp:296] The NetState phase (1) differed from the phase (0) specified by a rule in layer data
I0216 10:54:25.196774 18596 net.cpp:53] Initializing net from parameters: 
name: "CaffeNet"
state {
  phase: TEST
}
layer {
  name: "data"
  type: "Data"
  top: "data"
  top: "label"
  include {
    phase: TEST
  }
  transform_param {
    mirror: false
    crop_size: 227
    mean_file: "data/ilsvrc12/imagenet_mean.binaryproto"
  }
  data_param {
    source: "examples/imagenet/ilsvrc12_val_lmdb"
    batch_size: 50
    backend: LMDB
  }
}
layer {
  name: "conv1"
  type: "Convolution"
  bottom: "data"
  top: "conv1"
  param {
    lr_mult: 1
    decay_mult: 1
  }
  param {
    lr_mult: 2
    decay_mult: 0
  }
  convolution_param {
    num_output: 96
    kernel_size: 11
    stride: 4
    weight_filler {
      type: "gaussian"
      std: 0.01
    }
    bias_filler {
      type: "constant"
      value: 0
    }
  }
}
layer {
  name: "relu1"
  type: "ReLU"
  bottom: "conv1"
  top: "conv1"
}
layer {
  name: "pool1"
  type: "Pooling"
  bottom: "conv1"
  top: "pool1"
  pooling_param {
    pool: MAX
    kernel_size: 3
    stride: 2
  }
}
layer {
  name: "norm1"
  type: "LRN"
  bottom: "pool1"
  top: "norm1"
  lrn_param {
    local_size: 5
    alpha: 0.0001
    beta: 0.75
  }
}
layer {
  name: "conv2"
  type: "Convolution"
  bottom: "norm1"
  top: "conv2"
  param {
    lr_mult: 1
    decay_mult: 1
  }
  param {
    lr_mult: 2
    decay_mult: 0
  }
  convolution_param {
    num_output: 256
    pad: 2
    kernel_size: 5
    group: 2
    weight_filler {
      type: "gaussian"
      std: 0.01
    }
    bias_filler {
      type: "constant"
      value: 1
    }
  }
}
layer {
  name: "relu2"
  type: "ReLU"
  bottom: "conv2"
  top: "conv2"
}
layer {
  name: "pool2"
  type: "Pooling"
  bottom: "conv2"
  top: "pool2"
  pooling_param {
    pool: MAX
    kernel_size: 3
    stride: 2
  }
}
layer {
  name: "norm2"
  type: "LRN"
  bottom: "pool2"
  top: "norm2"
  lrn_param {
    local_size: 5
    alpha: 0.0001
    beta: 0.75
  }
}
layer {
  name: "conv3"
  type: "Convolution"
  bottom: "norm2"
  top: "conv3"
  param {
    lr_mult: 1
    decay_mult: 1
  }
  param {
    lr_mult: 2
    decay_mult: 0
  }
  convolution_param {
    num_output: 384
    pad: 1
    kernel_size: 3
    weight_filler {
      type: "gaussian"
      std: 0.01
    }
    bias_filler {
      type: "constant"
      value: 0
    }
  }
}
layer {
  name: "relu3"
  type: "ReLU"
  bottom: "conv3"
  top: "conv3"
}
layer {
  name: "conv4"
  type: "Convolution"
  bottom: "conv3"
  top: "conv4"
  param {
    lr_mult: 1
    decay_mult: 1
  }
  param {
    lr_mult: 2
    decay_mult: 0
  }
  convolution_param {
    num_output: 384
    pad: 1
    kernel_size: 3
    group: 2
    weight_filler {
      type: "gaussian"
      std: 0.01
    }
    bias_filler {
      type: "constant"
      value: 1
    }
  }
}
layer {
  name: "relu4"
  type: "ReLU"
  bottom: "conv4"
  top: "conv4"
}
layer {
  name: "conv5"
  type: "Convolution"
  bottom: "conv4"
  top: "conv5"
  param {
    lr_mult: 1
    decay_mult: 1
  }
  param {
    lr_mult: 2
    decay_mult: 0
  }
  convolution_param {
    num_output: 256
    pad: 1
    kernel_size: 3
    group: 2
    weight_filler {
      type: "gaussian"
      std: 0.01
    }
    bias_filler {
      type: "constant"
      value: 1
    }
  }
}
layer {
  name: "relu5"
  type: "ReLU"
  bottom: "conv5"
  top: "conv5"
}
layer {
  name: "pool5"
  type: "Pooling"
  bottom: "conv5"
  top: "pool5"
  pooling_param {
    pool: MAX
    kernel_size: 3
    stride: 2
  }
}
layer {
  name: "fc6"
  type: "InnerProduct"
  bottom: "pool5"
  top: "fc6"
  param {
    lr_mult: 1
    decay_mult: 1
  }
  param {
    lr_mult: 2
    decay_mult: 0
  }
  inner_product_param {
    num_output: 4096
    weight_filler {
      type: "gaussian"
      std: 0.005
    }
    bias_filler {
      type: "constant"
      value: 1
    }
  }
}
layer {
  name: "relu6"
  type: "ReLU"
  bottom: "fc6"
  top: "fc6"
}
layer {
  name: "drop6"
  type: "Dropout"
  bottom: "fc6"
  top: "fc6"
  dropout_param {
    dropout_ratio: 0.5
  }
}
layer {
  name: "fc7"
  type: "InnerProduct"
  bottom: "fc6"
  top: "fc7"
  param {
    lr_mult: 1
    decay_mult: 1
  }
  param {
    lr_mult: 2
    decay_mult: 0
  }
  inner_product_param {
    num_output: 4096
    weight_filler {
      type: "gaussian"
      std: 0.005
    }
    bias_filler {
      type: "constant"
      value: 1
    }
  }
}
layer {
  name: "relu7"
  type: "ReLU"
  bottom: "fc7"
  top: "fc7"
}
layer {
  name: "drop7"
  type: "Dropout"
  bottom: "fc7"
  top: "fc7"
  dropout_param {
    dropout_ratio: 0.5
  }
}
layer {
  name: "fc8"
  type: "InnerProduct"
  bottom: "fc7"
  top: "fc8"
  param {
    lr_mult: 1
    decay_mult: 1
  }
  param {
    lr_mult: 2
    decay_mult: 0
  }
  inner_product_param {
    num_output: 1000
    weight_filler {
      type: "gaussian"
      std: 0.01
    }
    bias_filler {
      type: "constant"
      value: 0
    }
  }
}
layer {
  name: "accuracy"
  type: "Accuracy"
  bottom: "fc8"
  bottom: "label"
  top: "accuracy"
  include {
    phase: TEST
  }
}
layer {
  name: "loss"
  type: "SoftmaxWithLoss"
  bottom: "fc8"
  bottom: "label"
  top: "loss"
}
I0216 10:54:25.196946 18596 layer_factory.hpp:77] Creating layer data
I0216 10:54:25.197028 18596 db_lmdb.cpp:35] Opened lmdb examples/imagenet/ilsvrc12_val_lmdb
I0216 10:54:25.197058 18596 net.cpp:86] Creating Layer data
I0216 10:54:25.197069 18596 net.cpp:382] data -> data
I0216 10:54:25.197083 18596 net.cpp:382] data -> label
I0216 10:54:25.197098 18596 data_transformer.cpp:25] Loading mean file from: data/ilsvrc12/imagenet_mean.binaryproto
I0216 10:54:25.199741 18596 data_layer.cpp:45] output data size: 50,3,227,227
I0216 10:54:25.281224 18596 net.cpp:124] Setting up data
I0216 10:54:25.281273 18596 net.cpp:131] Top shape: 50 3 227 227 (7729350)
I0216 10:54:25.281282 18596 net.cpp:131] Top shape: 50 (50)
I0216 10:54:25.281287 18596 net.cpp:139] Memory required for data: 30917600
I0216 10:54:25.281297 18596 layer_factory.hpp:77] Creating layer label_data_1_split
I0216 10:54:25.281316 18596 net.cpp:86] Creating Layer label_data_1_split
I0216 10:54:25.281323 18596 net.cpp:408] label_data_1_split <- label
I0216 10:54:25.281334 18596 net.cpp:382] label_data_1_split -> label_data_1_split_0
I0216 10:54:25.281352 18596 net.cpp:382] label_data_1_split -> label_data_1_split_1
I0216 10:54:25.281430 18596 net.cpp:124] Setting up label_data_1_split
I0216 10:54:25.281440 18596 net.cpp:131] Top shape: 50 (50)
I0216 10:54:25.281447 18596 net.cpp:131] Top shape: 50 (50)
I0216 10:54:25.281452 18596 net.cpp:139] Memory required for data: 30918000
I0216 10:54:25.281458 18596 layer_factory.hpp:77] Creating layer conv1
I0216 10:54:25.281476 18596 net.cpp:86] Creating Layer conv1
I0216 10:54:25.281483 18596 net.cpp:408] conv1 <- data
I0216 10:54:25.281493 18596 net.cpp:382] conv1 -> conv1
I0216 10:54:25.288635 18596 net.cpp:124] Setting up conv1
I0216 10:54:25.288682 18596 net.cpp:131] Top shape: 50 96 55 55 (14520000)
I0216 10:54:25.288689 18596 net.cpp:139] Memory required for data: 88998000
I0216 10:54:25.288710 18596 layer_factory.hpp:77] Creating layer relu1
I0216 10:54:25.288724 18596 net.cpp:86] Creating Layer relu1
I0216 10:54:25.288732 18596 net.cpp:408] relu1 <- conv1
I0216 10:54:25.288740 18596 net.cpp:369] relu1 -> conv1 (in-place)
I0216 10:54:25.288949 18596 net.cpp:124] Setting up relu1
I0216 10:54:25.288964 18596 net.cpp:131] Top shape: 50 96 55 55 (14520000)
I0216 10:54:25.288969 18596 net.cpp:139] Memory required for data: 147078000
I0216 10:54:25.288975 18596 layer_factory.hpp:77] Creating layer pool1
I0216 10:54:25.288988 18596 net.cpp:86] Creating Layer pool1
I0216 10:54:25.288995 18596 net.cpp:408] pool1 <- conv1
I0216 10:54:25.289003 18596 net.cpp:382] pool1 -> pool1
I0216 10:54:25.289062 18596 net.cpp:124] Setting up pool1
I0216 10:54:25.289072 18596 net.cpp:131] Top shape: 50 96 27 27 (3499200)
I0216 10:54:25.289077 18596 net.cpp:139] Memory required for data: 161074800
I0216 10:54:25.289083 18596 layer_factory.hpp:77] Creating layer norm1
I0216 10:54:25.289094 18596 net.cpp:86] Creating Layer norm1
I0216 10:54:25.289100 18596 net.cpp:408] norm1 <- pool1
I0216 10:54:25.289108 18596 net.cpp:382] norm1 -> norm1
I0216 10:54:25.289543 18596 net.cpp:124] Setting up norm1
I0216 10:54:25.289561 18596 net.cpp:131] Top shape: 50 96 27 27 (3499200)
I0216 10:54:25.289566 18596 net.cpp:139] Memory required for data: 175071600
I0216 10:54:25.289572 18596 layer_factory.hpp:77] Creating layer conv2
I0216 10:54:25.289589 18596 net.cpp:86] Creating Layer conv2
I0216 10:54:25.289595 18596 net.cpp:408] conv2 <- norm1
I0216 10:54:25.289605 18596 net.cpp:382] conv2 -> conv2
I0216 10:54:25.297111 18596 net.cpp:124] Setting up conv2
I0216 10:54:25.297159 18596 net.cpp:131] Top shape: 50 256 27 27 (9331200)
I0216 10:54:25.297166 18596 net.cpp:139] Memory required for data: 212396400
I0216 10:54:25.297186 18596 layer_factory.hpp:77] Creating layer relu2
I0216 10:54:25.297201 18596 net.cpp:86] Creating Layer relu2
I0216 10:54:25.297209 18596 net.cpp:408] relu2 <- conv2
I0216 10:54:25.297219 18596 net.cpp:369] relu2 -> conv2 (in-place)
I0216 10:54:25.297437 18596 net.cpp:124] Setting up relu2
I0216 10:54:25.297462 18596 net.cpp:131] Top shape: 50 256 27 27 (9331200)
I0216 10:54:25.297480 18596 net.cpp:139] Memory required for data: 249721200
I0216 10:54:25.297487 18596 layer_factory.hpp:77] Creating layer pool2
I0216 10:54:25.297500 18596 net.cpp:86] Creating Layer pool2
I0216 10:54:25.297507 18596 net.cpp:408] pool2 <- conv2
I0216 10:54:25.297515 18596 net.cpp:382] pool2 -> pool2
I0216 10:54:25.297576 18596 net.cpp:124] Setting up pool2
I0216 10:54:25.297588 18596 net.cpp:131] Top shape: 50 256 13 13 (2163200)
I0216 10:54:25.297593 18596 net.cpp:139] Memory required for data: 258374000
I0216 10:54:25.297600 18596 layer_factory.hpp:77] Creating layer norm2
I0216 10:54:25.297610 18596 net.cpp:86] Creating Layer norm2
I0216 10:54:25.297616 18596 net.cpp:408] norm2 <- pool2
I0216 10:54:25.297624 18596 net.cpp:382] norm2 -> norm2
I0216 10:54:25.298069 18596 net.cpp:124] Setting up norm2
I0216 10:54:25.298084 18596 net.cpp:131] Top shape: 50 256 13 13 (2163200)
I0216 10:54:25.298090 18596 net.cpp:139] Memory required for data: 267026800
I0216 10:54:25.298096 18596 layer_factory.hpp:77] Creating layer conv3
I0216 10:54:25.298112 18596 net.cpp:86] Creating Layer conv3
I0216 10:54:25.298120 18596 net.cpp:408] conv3 <- norm2
I0216 10:54:25.298130 18596 net.cpp:382] conv3 -> conv3
I0216 10:54:25.313427 18596 net.cpp:124] Setting up conv3
I0216 10:54:25.313473 18596 net.cpp:131] Top shape: 50 384 13 13 (3244800)
I0216 10:54:25.313479 18596 net.cpp:139] Memory required for data: 280006000
I0216 10:54:25.313499 18596 layer_factory.hpp:77] Creating layer relu3
I0216 10:54:25.313513 18596 net.cpp:86] Creating Layer relu3
I0216 10:54:25.313521 18596 net.cpp:408] relu3 <- conv3
I0216 10:54:25.313532 18596 net.cpp:369] relu3 -> conv3 (in-place)
I0216 10:54:25.313930 18596 net.cpp:124] Setting up relu3
I0216 10:54:25.313946 18596 net.cpp:131] Top shape: 50 384 13 13 (3244800)
I0216 10:54:25.313951 18596 net.cpp:139] Memory required for data: 292985200
I0216 10:54:25.313957 18596 layer_factory.hpp:77] Creating layer conv4
I0216 10:54:25.313973 18596 net.cpp:86] Creating Layer conv4
I0216 10:54:25.313980 18596 net.cpp:408] conv4 <- conv3
I0216 10:54:25.313990 18596 net.cpp:382] conv4 -> conv4
I0216 10:54:25.337225 18596 net.cpp:124] Setting up conv4
I0216 10:54:25.337280 18596 net.cpp:131] Top shape: 50 384 13 13 (3244800)
I0216 10:54:25.337286 18596 net.cpp:139] Memory required for data: 305964400
I0216 10:54:25.337302 18596 layer_factory.hpp:77] Creating layer relu4
I0216 10:54:25.337317 18596 net.cpp:86] Creating Layer relu4
I0216 10:54:25.337324 18596 net.cpp:408] relu4 <- conv4
I0216 10:54:25.337337 18596 net.cpp:369] relu4 -> conv4 (in-place)
I0216 10:54:25.337568 18596 net.cpp:124] Setting up relu4
I0216 10:54:25.337582 18596 net.cpp:131] Top shape: 50 384 13 13 (3244800)
I0216 10:54:25.337589 18596 net.cpp:139] Memory required for data: 318943600
I0216 10:54:25.337594 18596 layer_factory.hpp:77] Creating layer conv5
I0216 10:54:25.337612 18596 net.cpp:86] Creating Layer conv5
I0216 10:54:25.337620 18596 net.cpp:408] conv5 <- conv4
I0216 10:54:25.337630 18596 net.cpp:382] conv5 -> conv5
I0216 10:54:25.347570 18596 net.cpp:124] Setting up conv5
I0216 10:54:25.347618 18596 net.cpp:131] Top shape: 50 256 13 13 (2163200)
I0216 10:54:25.347625 18596 net.cpp:139] Memory required for data: 327596400
I0216 10:54:25.347646 18596 layer_factory.hpp:77] Creating layer relu5
I0216 10:54:25.347661 18596 net.cpp:86] Creating Layer relu5
I0216 10:54:25.347669 18596 net.cpp:408] relu5 <- conv5
I0216 10:54:25.347681 18596 net.cpp:369] relu5 -> conv5 (in-place)
I0216 10:54:25.347896 18596 net.cpp:124] Setting up relu5
I0216 10:54:25.347910 18596 net.cpp:131] Top shape: 50 256 13 13 (2163200)
I0216 10:54:25.347916 18596 net.cpp:139] Memory required for data: 336249200
I0216 10:54:25.347923 18596 layer_factory.hpp:77] Creating layer pool5
I0216 10:54:25.347937 18596 net.cpp:86] Creating Layer pool5
I0216 10:54:25.347944 18596 net.cpp:408] pool5 <- conv5
I0216 10:54:25.347952 18596 net.cpp:382] pool5 -> pool5
I0216 10:54:25.348029 18596 net.cpp:124] Setting up pool5
I0216 10:54:25.348053 18596 net.cpp:131] Top shape: 50 256 6 6 (460800)
I0216 10:54:25.348059 18596 net.cpp:139] Memory required for data: 338092400
I0216 10:54:25.348065 18596 layer_factory.hpp:77] Creating layer fc6
I0216 10:54:25.348078 18596 net.cpp:86] Creating Layer fc6
I0216 10:54:25.348083 18596 net.cpp:408] fc6 <- pool5
I0216 10:54:25.348093 18596 net.cpp:382] fc6 -> fc6
I0216 10:54:25.940502 18596 net.cpp:124] Setting up fc6
I0216 10:54:25.940556 18596 net.cpp:131] Top shape: 50 4096 (204800)
I0216 10:54:25.940562 18596 net.cpp:139] Memory required for data: 338911600
I0216 10:54:25.940577 18596 layer_factory.hpp:77] Creating layer relu6
I0216 10:54:25.940592 18596 net.cpp:86] Creating Layer relu6
I0216 10:54:25.940599 18596 net.cpp:408] relu6 <- fc6
I0216 10:54:25.940610 18596 net.cpp:369] relu6 -> fc6 (in-place)
I0216 10:54:25.941181 18596 net.cpp:124] Setting up relu6
I0216 10:54:25.941197 18596 net.cpp:131] Top shape: 50 4096 (204800)
I0216 10:54:25.941202 18596 net.cpp:139] Memory required for data: 339730800
I0216 10:54:25.941208 18596 layer_factory.hpp:77] Creating layer drop6
I0216 10:54:25.941220 18596 net.cpp:86] Creating Layer drop6
I0216 10:54:25.941226 18596 net.cpp:408] drop6 <- fc6
I0216 10:54:25.941234 18596 net.cpp:369] drop6 -> fc6 (in-place)
I0216 10:54:25.941277 18596 net.cpp:124] Setting up drop6
I0216 10:54:25.941287 18596 net.cpp:131] Top shape: 50 4096 (204800)
I0216 10:54:25.941293 18596 net.cpp:139] Memory required for data: 340550000
I0216 10:54:25.941298 18596 layer_factory.hpp:77] Creating layer fc7
I0216 10:54:25.941309 18596 net.cpp:86] Creating Layer fc7
I0216 10:54:25.941315 18596 net.cpp:408] fc7 <- fc6
I0216 10:54:25.941324 18596 net.cpp:382] fc7 -> fc7
I0216 10:54:26.203061 18596 net.cpp:124] Setting up fc7
I0216 10:54:26.203114 18596 net.cpp:131] Top shape: 50 4096 (204800)
I0216 10:54:26.203120 18596 net.cpp:139] Memory required for data: 341369200
I0216 10:54:26.203135 18596 layer_factory.hpp:77] Creating layer relu7
I0216 10:54:26.203150 18596 net.cpp:86] Creating Layer relu7
I0216 10:54:26.203157 18596 net.cpp:408] relu7 <- fc7
I0216 10:54:26.203168 18596 net.cpp:369] relu7 -> fc7 (in-place)
I0216 10:54:26.203454 18596 net.cpp:124] Setting up relu7
I0216 10:54:26.203467 18596 net.cpp:131] Top shape: 50 4096 (204800)
I0216 10:54:26.203474 18596 net.cpp:139] Memory required for data: 342188400
I0216 10:54:26.203480 18596 layer_factory.hpp:77] Creating layer drop7
I0216 10:54:26.203490 18596 net.cpp:86] Creating Layer drop7
I0216 10:54:26.203496 18596 net.cpp:408] drop7 <- fc7
I0216 10:54:26.203505 18596 net.cpp:369] drop7 -> fc7 (in-place)
I0216 10:54:26.203546 18596 net.cpp:124] Setting up drop7
I0216 10:54:26.203555 18596 net.cpp:131] Top shape: 50 4096 (204800)
I0216 10:54:26.203560 18596 net.cpp:139] Memory required for data: 343007600
I0216 10:54:26.203567 18596 layer_factory.hpp:77] Creating layer fc8
I0216 10:54:26.203577 18596 net.cpp:86] Creating Layer fc8
I0216 10:54:26.203583 18596 net.cpp:408] fc8 <- fc7
I0216 10:54:26.203593 18596 net.cpp:382] fc8 -> fc8
I0216 10:54:26.406286 18596 net.cpp:124] Setting up fc8
I0216 10:54:26.406343 18596 net.cpp:131] Top shape: 50 1000 (50000)
I0216 10:54:26.406350 18596 net.cpp:139] Memory required for data: 343207600
I0216 10:54:26.406366 18596 layer_factory.hpp:77] Creating layer fc8_fc8_0_split
I0216 10:54:26.406380 18596 net.cpp:86] Creating Layer fc8_fc8_0_split
I0216 10:54:26.406389 18596 net.cpp:408] fc8_fc8_0_split <- fc8
I0216 10:54:26.406407 18596 net.cpp:382] fc8_fc8_0_split -> fc8_fc8_0_split_0
I0216 10:54:26.406425 18596 net.cpp:382] fc8_fc8_0_split -> fc8_fc8_0_split_1
I0216 10:54:26.406484 18596 net.cpp:124] Setting up fc8_fc8_0_split
I0216 10:54:26.406494 18596 net.cpp:131] Top shape: 50 1000 (50000)
I0216 10:54:26.406502 18596 net.cpp:131] Top shape: 50 1000 (50000)
I0216 10:54:26.406507 18596 net.cpp:139] Memory required for data: 343607600
I0216 10:54:26.406512 18596 layer_factory.hpp:77] Creating layer accuracy
I0216 10:54:26.406523 18596 net.cpp:86] Creating Layer accuracy
I0216 10:54:26.406545 18596 net.cpp:408] accuracy <- fc8_fc8_0_split_0
I0216 10:54:26.406572 18596 net.cpp:408] accuracy <- label_data_1_split_0
I0216 10:54:26.406582 18596 net.cpp:382] accuracy -> accuracy
…
