…
I0216 11:16:29.369796 25712 net.cpp:296] The NetState phase (0) differed from the phase (1) specified by a rule in layer accuracy
I0216 11:16:29.370026 25712 net.cpp:53] Initializing net from parameters: 
name: "CaffeNet"
state {
  phase: TRAIN
  level: 0
  stage: ""
}
layer {
  name: "data"
  type: "Data"
  top: "data"
  top: "label"
  include {
    phase: TRAIN
  }
  transform_param {
    mirror: true
    crop_size: 227
    mean_file: "data/ilsvrc12/imagenet_mean.binaryproto"
  }
  data_param {
    source: "examples/imagenet/ilsvrc12_train_lmdb"
    batch_size: 256
    backend: LMDB
  }
}
layer {
  name: "conv1"
  type: "Convolution"
  bottom: "data"
  top: "conv1"
  param {
    lr_mult: 1
    decay_mult: 1
  }
  param {
    lr_mult: 2
    decay_mult: 0
  }
  convolution_param {
    num_output: 96
    kernel_size: 11
    stride: 4
    weight_filler {
      type: "gaussian"
      std: 0.01
    }
    bias_filler {
      type: "constant"
      value: 0
    }
  }
}
layer {
  name: "relu1"
  type: "ReLU"
  bottom: "conv1"
  top: "conv1"
}
layer {
  name: "pool1"
  type: "Pooling"
  bottom: "conv1"
  top: "pool1"
  pooling_param {
    pool: MAX
    kernel_size: 3
    stride: 2
  }
}
layer {
  name: "norm1"
  type: "LRN"
  bottom: "pool1"
  top: "norm1"
  lrn_param {
    local_size: 5
    alpha: 0.0001
    beta: 0.75
  }
}
layer {
  name: "conv2"
  type: "Convolution"
  bottom: "norm1"
  top: "conv2"
  param {
    lr_mult: 1
    decay_mult: 1
  }
  param {
    lr_mult: 2
    decay_mult: 0
  }
  convolution_param {
    num_output: 256
    pad: 2
    kernel_size: 5
    group: 2
    weight_filler {
      type: "gaussian"
      std: 0.01
    }
    bias_filler {
      type: "constant"
      value: 1
    }
  }
}
layer {
  name: "relu2"
  type: "ReLU"
  bottom: "conv2"
  top: "conv2"
}
layer {
  name: "pool2"
  type: "Pooling"
  bottom: "conv2"
  top: "pool2"
  pooling_param {
    pool: MAX
    kernel_size: 3
    stride: 2
  }
}
layer {
  name: "norm2"
  type: "LRN"
  bottom: "pool2"
  top: "norm2"
  lrn_param {
    local_size: 5
    alpha: 0.0001
    beta: 0.75
  }
}
layer {
  name: "conv3"
  type: "Convolution"
  bottom: "norm2"
  top: "conv3"
  param {
    lr_mult: 1
    decay_mult: 1
  }
  param {
    lr_mult: 2
    decay_mult: 0
  }
  convolution_param {
    num_output: 384
    pad: 1
    kernel_size: 3
    weight_filler {
      type: "gaussian"
      std: 0.01
    }
    bias_filler {
      type: "constant"
      value: 0
    }
  }
}
layer {
  name: "relu3"
  type: "ReLU"
  bottom: "conv3"
  top: "conv3"
}
layer {
  name: "conv4"
  type: "Convolution"
  bottom: "conv3"
  top: "conv4"
  param {
    lr_mult: 1
    decay_mult: 1
  }
  param {
    lr_mult: 2
    decay_mult: 0
  }
  convolution_param {
    num_output: 384
    pad: 1
    kernel_size: 3
    group: 2
    weight_filler {
      type: "gaussian"
      std: 0.01
    }
    bias_filler {
      type: "constant"
      value: 1
    }
  }
}
layer {
  name: "relu4"
  type: "ReLU"
  bottom: "conv4"
  top: "conv4"
}
layer {
  name: "conv5"
  type: "Convolution"
  bottom: "conv4"
  top: "conv5"
  param {
    lr_mult: 1
    decay_mult: 1
  }
  param {
    lr_mult: 2
    decay_mult: 0
  }
  convolution_param {
    num_output: 256
    pad: 1
    kernel_size: 3
    group: 2
    weight_filler {
      type: "gaussian"
      std: 0.01
    }
    bias_filler {
      type: "constant"
      value: 1
    }
  }
}
layer {
  name: "relu5"
  type: "ReLU"
  bottom: "conv5"
  top: "conv5"
}
layer {
  name: "pool5"
  type: "Pooling"
  bottom: "conv5"
  top: "pool5"
  pooling_param {
    pool: MAX
    kernel_size: 3
    stride: 2
  }
}
layer {
  name: "fc6"
  type: "InnerProduct"
  bottom: "pool5"
  top: "fc6"
  param {
    lr_mult: 1
    decay_mult: 1
  }
  param {
    lr_mult: 2
    decay_mult: 0
  }
  inner_product_param {
    num_output: 4096
    weight_filler {
      type: "gaussian"
      std: 0.005
    }
    bias_filler {
      type: "constant"
      value: 1
    }
  }
}
layer {
  name: "relu6"
  type: "ReLU"
  bottom: "fc6"
  top: "fc6"
}
layer {
  name: "drop6"
  type: "Dropout"
  bottom: "fc6"
  top: "fc6"
  dropout_param {
    dropout_ratio: 0.5
  }
}
layer {
  name: "fc7"
  type: "InnerProduct"
  bottom: "fc6"
  top: "fc7"
  param {
    lr_mult: 1
    decay_mult: 1
  }
  param {
    lr_mult: 2
    decay_mult: 0
  }
  inner_product_param {
    num_output: 4096
    weight_filler {
      type: "gaussian"
      std: 0.005
    }
    bias_filler {
      type: "constant"
      value: 1
    }
  }
}
layer {
  name: "relu7"
  type: "ReLU"
  bottom: "fc7"
  top: "fc7"
}
layer {
  name: "drop7"
  type: "Dropout"
  bottom: "fc7"
  top: "fc7"
  dropout_param {
    dropout_ratio: 0.5
  }
}
layer {
  name: "fc8"
  type: "InnerProduct"
  bottom: "fc7"
  top: "fc8"
  param {
    lr_mult: 1
    decay_mult: 1
  }
  param {
    lr_mult: 2
    decay_mult: 0
  }
  inner_product_param {
    num_output: 1000
    weight_filler {
      type: "gaussian"
      std: 0.01
    }
    bias_filler {
      type: "constant"
      value: 0
    }
  }
}
layer {
  name: "loss"
  type: "SoftmaxWithLoss"
  bottom: "fc8"
  bottom: "label"
  top: "loss"
}
I0216 11:16:29.370156 25712 layer_factory.hpp:77] Creating layer data
I0216 11:16:29.370282 25712 db_lmdb.cpp:35] Opened lmdb examples/imagenet/ilsvrc12_train_lmdb
I0216 11:16:29.440389 25712 net.cpp:86] Creating Layer data
I0216 11:16:29.440420 25712 net.cpp:382] data -> data
I0216 11:16:29.440456 25712 net.cpp:382] data -> label
I0216 11:16:29.440482 25712 data_transformer.cpp:25] Loading mean file from: data/ilsvrc12/imagenet_mean.binaryproto
I0216 11:16:29.443918 25712 data_layer.cpp:45] output data size: 256,3,227,227
I0216 11:16:30.009081 25712 net.cpp:124] Setting up data
I0216 11:16:30.009136 25712 net.cpp:131] Top shape: 256 3 227 227 (39574272)
I0216 11:16:30.009145 25712 net.cpp:131] Top shape: 256 (256)
I0216 11:16:30.009151 25712 net.cpp:139] Memory required for data: 158298112
I0216 11:16:30.009166 25712 layer_factory.hpp:77] Creating layer conv1
I0216 11:16:30.009197 25712 net.cpp:86] Creating Layer conv1
I0216 11:16:30.009208 25712 net.cpp:408] conv1 <- data
I0216 11:16:30.009228 25712 net.cpp:382] conv1 -> conv1
I0216 11:16:31.728720 25712 net.cpp:124] Setting up conv1
I0216 11:16:31.728795 25712 net.cpp:131] Top shape: 256 96 55 55 (74342400)
I0216 11:16:31.728804 25712 net.cpp:139] Memory required for data: 455667712
I0216 11:16:31.728840 25712 layer_factory.hpp:77] Creating layer relu1
I0216 11:16:31.728862 25712 net.cpp:86] Creating Layer relu1
I0216 11:16:31.728869 25712 net.cpp:408] relu1 <- conv1
I0216 11:16:31.728881 25712 net.cpp:369] relu1 -> conv1 (in-place)
I0216 11:16:31.729311 25712 net.cpp:124] Setting up relu1
I0216 11:16:31.729331 25712 net.cpp:131] Top shape: 256 96 55 55 (74342400)
I0216 11:16:31.729337 25712 net.cpp:139] Memory required for data: 753037312
I0216 11:16:31.729346 25712 layer_factory.hpp:77] Creating layer pool1
I0216 11:16:31.729357 25712 net.cpp:86] Creating Layer pool1
I0216 11:16:31.729364 25712 net.cpp:408] pool1 <- conv1
I0216 11:16:31.729375 25712 net.cpp:382] pool1 -> pool1
I0216 11:16:31.729403 25712 net.cpp:124] Setting up pool1
I0216 11:16:31.729413 25712 net.cpp:131] Top shape: 256 96 27 27 (17915904)
I0216 11:16:31.729419 25712 net.cpp:139] Memory required for data: 824700928
I0216 11:16:31.729426 25712 layer_factory.hpp:77] Creating layer norm1
I0216 11:16:31.729442 25712 net.cpp:86] Creating Layer norm1
I0216 11:16:31.729450 25712 net.cpp:408] norm1 <- pool1
I0216 11:16:31.729460 25712 net.cpp:382] norm1 -> norm1
I0216 11:16:31.729703 25712 net.cpp:124] Setting up norm1
I0216 11:16:31.729734 25712 net.cpp:131] Top shape: 256 96 27 27 (17915904)
I0216 11:16:31.729742 25712 net.cpp:139] Memory required for data: 896364544
I0216 11:16:31.729748 25712 layer_factory.hpp:77] Creating layer conv2
I0216 11:16:31.729768 25712 net.cpp:86] Creating Layer conv2
I0216 11:16:31.729775 25712 net.cpp:408] conv2 <- norm1
I0216 11:16:31.729786 25712 net.cpp:382] conv2 -> conv2
I0216 11:16:31.737123 25712 net.cpp:124] Setting up conv2
I0216 11:16:31.737154 25712 net.cpp:131] Top shape: 256 256 27 27 (47775744)
I0216 11:16:31.737162 25712 net.cpp:139] Memory required for data: 1087467520
I0216 11:16:31.737179 25712 layer_factory.hpp:77] Creating layer relu2
I0216 11:16:31.737190 25712 net.cpp:86] Creating Layer relu2
I0216 11:16:31.737197 25712 net.cpp:408] relu2 <- conv2
I0216 11:16:31.737206 25712 net.cpp:369] relu2 -> conv2 (in-place)
I0216 11:16:31.737457 25712 net.cpp:124] Setting up relu2
I0216 11:16:31.737473 25712 net.cpp:131] Top shape: 256 256 27 27 (47775744)
I0216 11:16:31.737479 25712 net.cpp:139] Memory required for data: 1278570496
I0216 11:16:31.737485 25712 layer_factory.hpp:77] Creating layer pool2
I0216 11:16:31.737496 25712 net.cpp:86] Creating Layer pool2
I0216 11:16:31.737504 25712 net.cpp:408] pool2 <- conv2
I0216 11:16:31.737514 25712 net.cpp:382] pool2 -> pool2
I0216 11:16:31.737530 25712 net.cpp:124] Setting up pool2
I0216 11:16:31.737540 25712 net.cpp:131] Top shape: 256 256 13 13 (11075584)
I0216 11:16:31.737545 25712 net.cpp:139] Memory required for data: 1322872832
I0216 11:16:31.737551 25712 layer_factory.hpp:77] Creating layer norm2
I0216 11:16:31.737565 25712 net.cpp:86] Creating Layer norm2
I0216 11:16:31.737572 25712 net.cpp:408] norm2 <- pool2
I0216 11:16:31.737583 25712 net.cpp:382] norm2 -> norm2
I0216 11:16:31.737969 25712 net.cpp:124] Setting up norm2
I0216 11:16:31.737987 25712 net.cpp:131] Top shape: 256 256 13 13 (11075584)
I0216 11:16:31.737993 25712 net.cpp:139] Memory required for data: 1367175168
I0216 11:16:31.737999 25712 layer_factory.hpp:77] Creating layer conv3
I0216 11:16:31.738016 25712 net.cpp:86] Creating Layer conv3
I0216 11:16:31.738023 25712 net.cpp:408] conv3 <- norm2
I0216 11:16:31.738036 25712 net.cpp:382] conv3 -> conv3
I0216 11:16:31.755950 25712 net.cpp:124] Setting up conv3
I0216 11:16:31.755998 25712 net.cpp:131] Top shape: 256 384 13 13 (16613376)
I0216 11:16:31.756006 25712 net.cpp:139] Memory required for data: 1433628672
I0216 11:16:31.756026 25712 layer_factory.hpp:77] Creating layer relu3
I0216 11:16:31.756039 25712 net.cpp:86] Creating Layer relu3
I0216 11:16:31.756047 25712 net.cpp:408] relu3 <- conv3
I0216 11:16:31.756060 25712 net.cpp:369] relu3 -> conv3 (in-place)
I0216 11:16:31.756273 25712 net.cpp:124] Setting up relu3
I0216 11:16:31.756286 25712 net.cpp:131] Top shape: 256 384 13 13 (16613376)
I0216 11:16:31.756292 25712 net.cpp:139] Memory required for data: 1500082176
I0216 11:16:31.756299 25712 layer_factory.hpp:77] Creating layer conv4
I0216 11:16:31.756315 25712 net.cpp:86] Creating Layer conv4
I0216 11:16:31.756322 25712 net.cpp:408] conv4 <- conv3
I0216 11:16:31.756333 25712 net.cpp:382] conv4 -> conv4
I0216 11:16:31.768726 25712 net.cpp:124] Setting up conv4
I0216 11:16:31.768770 25712 net.cpp:131] Top shape: 256 384 13 13 (16613376)
I0216 11:16:31.768776 25712 net.cpp:139] Memory required for data: 1566535680
I0216 11:16:31.768790 25712 layer_factory.hpp:77] Creating layer relu4
I0216 11:16:31.768803 25712 net.cpp:86] Creating Layer relu4
I0216 11:16:31.768821 25712 net.cpp:408] relu4 <- conv4
I0216 11:16:31.768831 25712 net.cpp:369] relu4 -> conv4 (in-place)
I0216 11:16:31.769062 25712 net.cpp:124] Setting up relu4
I0216 11:16:31.769078 25712 net.cpp:131] Top shape: 256 384 13 13 (16613376)
I0216 11:16:31.769083 25712 net.cpp:139] Memory required for data: 1632989184
I0216 11:16:31.769089 25712 layer_factory.hpp:77] Creating layer conv5
I0216 11:16:31.769107 25712 net.cpp:86] Creating Layer conv5
I0216 11:16:31.769114 25712 net.cpp:408] conv5 <- conv4
I0216 11:16:31.769139 25712 net.cpp:382] conv5 -> conv5
I0216 11:16:31.778300 25712 net.cpp:124] Setting up conv5
I0216 11:16:31.778334 25712 net.cpp:131] Top shape: 256 256 13 13 (11075584)
I0216 11:16:31.778340 25712 net.cpp:139] Memory required for data: 1677291520
I0216 11:16:31.778359 25712 layer_factory.hpp:77] Creating layer relu5
I0216 11:16:31.778373 25712 net.cpp:86] Creating Layer relu5
I0216 11:16:31.778379 25712 net.cpp:408] relu5 <- conv5
I0216 11:16:31.778393 25712 net.cpp:369] relu5 -> conv5 (in-place)
I0216 11:16:31.778619 25712 net.cpp:124] Setting up relu5
I0216 11:16:31.778635 25712 net.cpp:131] Top shape: 256 256 13 13 (11075584)
I0216 11:16:31.778640 25712 net.cpp:139] Memory required for data: 1721593856
I0216 11:16:31.778645 25712 layer_factory.hpp:77] Creating layer pool5
I0216 11:16:31.778656 25712 net.cpp:86] Creating Layer pool5
I0216 11:16:31.778662 25712 net.cpp:408] pool5 <- conv5
I0216 11:16:31.778673 25712 net.cpp:382] pool5 -> pool5
I0216 11:16:31.778689 25712 net.cpp:124] Setting up pool5
I0216 11:16:31.778699 25712 net.cpp:131] Top shape: 256 256 6 6 (2359296)
I0216 11:16:31.778705 25712 net.cpp:139] Memory required for data: 1731031040
I0216 11:16:31.778712 25712 layer_factory.hpp:77] Creating layer fc6
I0216 11:16:31.778726 25712 net.cpp:86] Creating Layer fc6
I0216 11:16:31.778733 25712 net.cpp:408] fc6 <- pool5
I0216 11:16:31.778743 25712 net.cpp:382] fc6 -> fc6
I0216 11:16:32.652784 25712 net.cpp:124] Setting up fc6
I0216 11:16:32.652837 25712 net.cpp:131] Top shape: 256 4096 (1048576)
I0216 11:16:32.652842 25712 net.cpp:139] Memory required for data: 1735225344
I0216 11:16:32.652858 25712 layer_factory.hpp:77] Creating layer relu6
I0216 11:16:32.652873 25712 net.cpp:86] Creating Layer relu6
I0216 11:16:32.652880 25712 net.cpp:408] relu6 <- fc6
I0216 11:16:32.652894 25712 net.cpp:369] relu6 -> fc6 (in-place)
I0216 11:16:32.713989 25712 net.cpp:124] Setting up relu6
I0216 11:16:32.714013 25712 net.cpp:131] Top shape: 256 4096 (1048576)
I0216 11:16:32.714020 25712 net.cpp:139] Memory required for data: 1739419648
I0216 11:16:32.714026 25712 layer_factory.hpp:77] Creating layer drop6
I0216 11:16:32.714038 25712 net.cpp:86] Creating Layer drop6
I0216 11:16:32.714045 25712 net.cpp:408] drop6 <- fc6
I0216 11:16:32.714056 25712 net.cpp:369] drop6 -> fc6 (in-place)
I0216 11:16:32.714074 25712 net.cpp:124] Setting up drop6
I0216 11:16:32.714082 25712 net.cpp:131] Top shape: 256 4096 (1048576)
I0216 11:16:32.714087 25712 net.cpp:139] Memory required for data: 1743613952
I0216 11:16:32.714093 25712 layer_factory.hpp:77] Creating layer fc7
I0216 11:16:32.714104 25712 net.cpp:86] Creating Layer fc7
I0216 11:16:32.714110 25712 net.cpp:408] fc7 <- fc6
I0216 11:16:32.714121 25712 net.cpp:382] fc7 -> fc7
I0216 11:16:33.096808 25712 net.cpp:124] Setting up fc7
I0216 11:16:33.096859 25712 net.cpp:131] Top shape: 256 4096 (1048576)
I0216 11:16:33.096865 25712 net.cpp:139] Memory required for data: 1747808256
I0216 11:16:33.096881 25712 layer_factory.hpp:77] Creating layer relu7
I0216 11:16:33.096896 25712 net.cpp:86] Creating Layer relu7
I0216 11:16:33.096904 25712 net.cpp:408] relu7 <- fc7
I0216 11:16:33.096916 25712 net.cpp:369] relu7 -> fc7 (in-place)
I0216 11:16:33.097229 25712 net.cpp:124] Setting up relu7
I0216 11:16:33.097244 25712 net.cpp:131] Top shape: 256 4096 (1048576)
I0216 11:16:33.097249 25712 net.cpp:139] Memory required for data: 1752002560
I0216 11:16:33.097255 25712 layer_factory.hpp:77] Creating layer drop7
I0216 11:16:33.097266 25712 net.cpp:86] Creating Layer drop7
I0216 11:16:33.097272 25712 net.cpp:408] drop7 <- fc7
I0216 11:16:33.097282 25712 net.cpp:369] drop7 -> fc7 (in-place)
I0216 11:16:33.097295 25712 net.cpp:124] Setting up drop7
I0216 11:16:33.097302 25712 net.cpp:131] Top shape: 256 4096 (1048576)
I0216 11:16:33.097307 25712 net.cpp:139] Memory required for data: 1756196864
I0216 11:16:33.097312 25712 layer_factory.hpp:77] Creating layer fc8
I0216 11:16:33.097324 25712 net.cpp:86] Creating Layer fc8
I0216 11:16:33.097329 25712 net.cpp:408] fc8 <- fc7
I0216 11:16:33.097353 25712 net.cpp:382] fc8 -> fc8
I0216 11:16:33.188335 25712 net.cpp:124] Setting up fc8
I0216 11:16:33.188382 25712 net.cpp:131] Top shape: 256 1000 (256000)
I0216 11:16:33.188388 25712 net.cpp:139] Memory required for data: 1757220864
I0216 11:16:33.188405 25712 layer_factory.hpp:77] Creating layer loss
I0216 11:16:33.188418 25712 net.cpp:86] Creating Layer loss
I0216 11:16:33.188426 25712 net.cpp:408] loss <- fc8
I0216 11:16:33.188437 25712 net.cpp:408] loss <- label
I0216 11:16:33.188452 25712 net.cpp:382] loss -> loss
I0216 11:16:33.188473 25712 layer_factory.hpp:77] Creating layer loss
…
I0216 11:16:33.190104 25712 net.cpp:296] The NetState phase (1) differed from the phase (0) specified by a rule in layer data
I0216 11:16:33.190346 25712 net.cpp:53] Initializing net from parameters: 
name: "CaffeNet"
state {
  phase: TEST
}
layer {
  name: "data"
  type: "Data"
  top: "data"
  top: "label"
  include {
    phase: TEST
  }
  transform_param {
    mirror: false
    crop_size: 227
    mean_file: "data/ilsvrc12/imagenet_mean.binaryproto"
  }
  data_param {
    source: "examples/imagenet/ilsvrc12_val_lmdb"
    batch_size: 50
    backend: LMDB
  }
}
layer {
  name: "conv1"
  type: "Convolution"
  bottom: "data"
  top: "conv1"
  param {
    lr_mult: 1
    decay_mult: 1
  }
  param {
    lr_mult: 2
    decay_mult: 0
  }
  convolution_param {
    num_output: 96
    kernel_size: 11
    stride: 4
    weight_filler {
      type: "gaussian"
      std: 0.01
    }
    bias_filler {
      type: "constant"
      value: 0
    }
  }
}
layer {
  name: "relu1"
  type: "ReLU"
  bottom: "conv1"
  top: "conv1"
}
layer {
  name: "pool1"
  type: "Pooling"
  bottom: "conv1"
  top: "pool1"
  pooling_param {
    pool: MAX
    kernel_size: 3
    stride: 2
  }
}
layer {
  name: "norm1"
  type: "LRN"
  bottom: "pool1"
  top: "norm1"
  lrn_param {
    local_size: 5
    alpha: 0.0001
    beta: 0.75
  }
}
layer {
  name: "conv2"
  type: "Convolution"
  bottom: "norm1"
  top: "conv2"
  param {
    lr_mult: 1
    decay_mult: 1
  }
  param {
    lr_mult: 2
    decay_mult: 0
  }
  convolution_param {
    num_output: 256
    pad: 2
    kernel_size: 5
    group: 2
    weight_filler {
      type: "gaussian"
      std: 0.01
    }
    bias_filler {
      type: "constant"
      value: 1
    }
  }
}
layer {
  name: "relu2"
  type: "ReLU"
  bottom: "conv2"
  top: "conv2"
}
layer {
  name: "pool2"
  type: "Pooling"
  bottom: "conv2"
  top: "pool2"
  pooling_param {
    pool: MAX
    kernel_size: 3
    stride: 2
  }
}
layer {
  name: "norm2"
  type: "LRN"
  bottom: "pool2"
  top: "norm2"
  lrn_param {
    local_size: 5
    alpha: 0.0001
    beta: 0.75
  }
}
layer {
  name: "conv3"
  type: "Convolution"
  bottom: "norm2"
  top: "conv3"
  param {
    lr_mult: 1
    decay_mult: 1
  }
  param {
    lr_mult: 2
    decay_mult: 0
  }
  convolution_param {
    num_output: 384
    pad: 1
    kernel_size: 3
    weight_filler {
      type: "gaussian"
      std: 0.01
    }
    bias_filler {
      type: "constant"
      value: 0
    }
  }
}
layer {
  name: "relu3"
  type: "ReLU"
  bottom: "conv3"
  top: "conv3"
}
layer {
  name: "conv4"
  type: "Convolution"
  bottom: "conv3"
  top: "conv4"
  param {
    lr_mult: 1
    decay_mult: 1
  }
  param {
    lr_mult: 2
    decay_mult: 0
  }
  convolution_param {
    num_output: 384
    pad: 1
    kernel_size: 3
    group: 2
    weight_filler {
      type: "gaussian"
      std: 0.01
    }
    bias_filler {
      type: "constant"
      value: 1
    }
  }
}
layer {
  name: "relu4"
  type: "ReLU"
  bottom: "conv4"
  top: "conv4"
}
layer {
  name: "conv5"
  type: "Convolution"
  bottom: "conv4"
  top: "conv5"
  param {
    lr_mult: 1
    decay_mult: 1
  }
  param {
    lr_mult: 2
    decay_mult: 0
  }
  convolution_param {
    num_output: 256
    pad: 1
    kernel_size: 3
    group: 2
    weight_filler {
      type: "gaussian"
      std: 0.01
    }
    bias_filler {
      type: "constant"
      value: 1
    }
  }
}
layer {
  name: "relu5"
  type: "ReLU"
  bottom: "conv5"
  top: "conv5"
}
layer {
  name: "pool5"
  type: "Pooling"
  bottom: "conv5"
  top: "pool5"
  pooling_param {
    pool: MAX
    kernel_size: 3
    stride: 2
  }
}
layer {
  name: "fc6"
  type: "InnerProduct"
  bottom: "pool5"
  top: "fc6"
  param {
    lr_mult: 1
    decay_mult: 1
  }
  param {
    lr_mult: 2
    decay_mult: 0
  }
  inner_product_param {
    num_output: 4096
    weight_filler {
      type: "gaussian"
      std: 0.005
    }
    bias_filler {
      type: "constant"
      value: 1
    }
  }
}
layer {
  name: "relu6"
  type: "ReLU"
  bottom: "fc6"
  top: "fc6"
}
layer {
  name: "drop6"
  type: "Dropout"
  bottom: "fc6"
  top: "fc6"
  dropout_param {
    dropout_ratio: 0.5
  }
}
layer {
  name: "fc7"
  type: "InnerProduct"
  bottom: "fc6"
  top: "fc7"
  param {
    lr_mult: 1
    decay_mult: 1
  }
  param {
    lr_mult: 2
    decay_mult: 0
  }
  inner_product_param {
    num_output: 4096
    weight_filler {
      type: "gaussian"
      std: 0.005
    }
    bias_filler {
      type: "constant"
      value: 1
    }
  }
}
layer {
  name: "relu7"
  type: "ReLU"
  bottom: "fc7"
  top: "fc7"
}
layer {
  name: "drop7"
  type: "Dropout"
  bottom: "fc7"
  top: "fc7"
  dropout_param {
    dropout_ratio: 0.5
  }
}
layer {
  name: "fc8"
  type: "InnerProduct"
  bottom: "fc7"
  top: "fc8"
  param {
    lr_mult: 1
    decay_mult: 1
  }
  param {
    lr_mult: 2
    decay_mult: 0
  }
  inner_product_param {
    num_output: 1000
    weight_filler {
      type: "gaussian"
      std: 0.01
    }
    bias_filler {
      type: "constant"
      value: 0
    }
  }
}
layer {
  name: "accuracy"
  type: "Accuracy"
  bottom: "fc8"
  bottom: "label"
  top: "accuracy"
  include {
    phase: TEST
  }
}
layer {
  name: "loss"
  type: "SoftmaxWithLoss"
  bottom: "fc8"
  bottom: "label"
  top: "loss"
}
I0216 11:16:33.190513 25712 layer_factory.hpp:77] Creating layer data
I0216 11:16:33.190609 25712 db_lmdb.cpp:35] Opened lmdb examples/imagenet/ilsvrc12_val_lmdb
I0216 11:16:33.190645 25712 net.cpp:86] Creating Layer data
I0216 11:16:33.190655 25712 net.cpp:382] data -> data
I0216 11:16:33.190673 25712 net.cpp:382] data -> label
I0216 11:16:33.190686 25712 data_transformer.cpp:25] Loading mean file from: data/ilsvrc12/imagenet_mean.binaryproto
I0216 11:16:33.192379 25712 data_layer.cpp:45] output data size: 50,3,227,227
I0216 11:16:33.444466 25712 net.cpp:124] Setting up data
I0216 11:16:33.444516 25712 net.cpp:131] Top shape: 50 3 227 227 (7729350)
I0216 11:16:33.444525 25712 net.cpp:131] Top shape: 50 (50)
I0216 11:16:33.444530 25712 net.cpp:139] Memory required for data: 30917600
I0216 11:16:33.444540 25712 layer_factory.hpp:77] Creating layer label_data_1_split
I0216 11:16:33.444558 25712 net.cpp:86] Creating Layer label_data_1_split
I0216 11:16:33.444566 25712 net.cpp:408] label_data_1_split <- label
I0216 11:16:33.444576 25712 net.cpp:382] label_data_1_split -> label_data_1_split_0
I0216 11:16:33.444592 25712 net.cpp:382] label_data_1_split -> label_data_1_split_1
I0216 11:16:33.444607 25712 net.cpp:124] Setting up label_data_1_split
I0216 11:16:33.444615 25712 net.cpp:131] Top shape: 50 (50)
I0216 11:16:33.444622 25712 net.cpp:131] Top shape: 50 (50)
I0216 11:16:33.444628 25712 net.cpp:139] Memory required for data: 30918000
I0216 11:16:33.444633 25712 layer_factory.hpp:77] Creating layer conv1
I0216 11:16:33.444649 25712 net.cpp:86] Creating Layer conv1
I0216 11:16:33.444656 25712 net.cpp:408] conv1 <- data
I0216 11:16:33.444665 25712 net.cpp:382] conv1 -> conv1
I0216 11:16:33.446262 25712 net.cpp:124] Setting up conv1
I0216 11:16:33.446281 25712 net.cpp:131] Top shape: 50 96 55 55 (14520000)
I0216 11:16:33.446286 25712 net.cpp:139] Memory required for data: 88998000
I0216 11:16:33.446303 25712 layer_factory.hpp:77] Creating layer relu1
I0216 11:16:33.446313 25712 net.cpp:86] Creating Layer relu1
I0216 11:16:33.446321 25712 net.cpp:408] relu1 <- conv1
I0216 11:16:33.446327 25712 net.cpp:369] relu1 -> conv1 (in-place)
I0216 11:16:33.446540 25712 net.cpp:124] Setting up relu1
I0216 11:16:33.446557 25712 net.cpp:131] Top shape: 50 96 55 55 (14520000)
I0216 11:16:33.446562 25712 net.cpp:139] Memory required for data: 147078000
I0216 11:16:33.446568 25712 layer_factory.hpp:77] Creating layer pool1
I0216 11:16:33.446580 25712 net.cpp:86] Creating Layer pool1
I0216 11:16:33.446586 25712 net.cpp:408] pool1 <- conv1
I0216 11:16:33.446594 25712 net.cpp:382] pool1 -> pool1
I0216 11:16:33.446610 25712 net.cpp:124] Setting up pool1
I0216 11:16:33.446619 25712 net.cpp:131] Top shape: 50 96 27 27 (3499200)
I0216 11:16:33.446624 25712 net.cpp:139] Memory required for data: 161074800
I0216 11:16:33.446630 25712 layer_factory.hpp:77] Creating layer norm1
I0216 11:16:33.446640 25712 net.cpp:86] Creating Layer norm1
I0216 11:16:33.446645 25712 net.cpp:408] norm1 <- pool1
I0216 11:16:33.446653 25712 net.cpp:382] norm1 -> norm1
I0216 11:16:33.447008 25712 net.cpp:124] Setting up norm1
I0216 11:16:33.447026 25712 net.cpp:131] Top shape: 50 96 27 27 (3499200)
I0216 11:16:33.447031 25712 net.cpp:139] Memory required for data: 175071600
I0216 11:16:33.447037 25712 layer_factory.hpp:77] Creating layer conv2
I0216 11:16:33.447051 25712 net.cpp:86] Creating Layer conv2
I0216 11:16:33.447057 25712 net.cpp:408] conv2 <- norm1
I0216 11:16:33.447067 25712 net.cpp:382] conv2 -> conv2
I0216 11:16:33.453632 25712 net.cpp:124] Setting up conv2
I0216 11:16:33.453680 25712 net.cpp:131] Top shape: 50 256 27 27 (9331200)
I0216 11:16:33.453686 25712 net.cpp:139] Memory required for data: 212396400
I0216 11:16:33.453708 25712 layer_factory.hpp:77] Creating layer relu2
I0216 11:16:33.453722 25712 net.cpp:86] Creating Layer relu2
I0216 11:16:33.453740 25712 net.cpp:408] relu2 <- conv2
I0216 11:16:33.453752 25712 net.cpp:369] relu2 -> conv2 (in-place)
I0216 11:16:33.454144 25712 net.cpp:124] Setting up relu2
I0216 11:16:33.454160 25712 net.cpp:131] Top shape: 50 256 27 27 (9331200)
I0216 11:16:33.454177 25712 net.cpp:139] Memory required for data: 249721200
I0216 11:16:33.454196 25712 layer_factory.hpp:77] Creating layer pool2
I0216 11:16:33.454212 25712 net.cpp:86] Creating Layer pool2
I0216 11:16:33.454219 25712 net.cpp:408] pool2 <- conv2
I0216 11:16:33.454228 25712 net.cpp:382] pool2 -> pool2
I0216 11:16:33.454247 25712 net.cpp:124] Setting up pool2
I0216 11:16:33.454257 25712 net.cpp:131] Top shape: 50 256 13 13 (2163200)
I0216 11:16:33.454262 25712 net.cpp:139] Memory required for data: 258374000
I0216 11:16:33.454268 25712 layer_factory.hpp:77] Creating layer norm2
I0216 11:16:33.454279 25712 net.cpp:86] Creating Layer norm2
I0216 11:16:33.454284 25712 net.cpp:408] norm2 <- pool2
I0216 11:16:33.454294 25712 net.cpp:382] norm2 -> norm2
I0216 11:16:33.454522 25712 net.cpp:124] Setting up norm2
I0216 11:16:33.454540 25712 net.cpp:131] Top shape: 50 256 13 13 (2163200)
I0216 11:16:33.454545 25712 net.cpp:139] Memory required for data: 267026800
I0216 11:16:33.454551 25712 layer_factory.hpp:77] Creating layer conv3
I0216 11:16:33.454569 25712 net.cpp:86] Creating Layer conv3
I0216 11:16:33.454576 25712 net.cpp:408] conv3 <- norm2
I0216 11:16:33.454586 25712 net.cpp:382] conv3 -> conv3
I0216 11:16:33.473346 25712 net.cpp:124] Setting up conv3
I0216 11:16:33.473395 25712 net.cpp:131] Top shape: 50 384 13 13 (3244800)
I0216 11:16:33.473402 25712 net.cpp:139] Memory required for data: 280006000
I0216 11:16:33.473422 25712 layer_factory.hpp:77] Creating layer relu3
I0216 11:16:33.473438 25712 net.cpp:86] Creating Layer relu3
I0216 11:16:33.473446 25712 net.cpp:408] relu3 <- conv3
I0216 11:16:33.473458 25712 net.cpp:369] relu3 -> conv3 (in-place)
I0216 11:16:33.473837 25712 net.cpp:124] Setting up relu3
I0216 11:16:33.473853 25712 net.cpp:131] Top shape: 50 384 13 13 (3244800)
I0216 11:16:33.473860 25712 net.cpp:139] Memory required for data: 292985200
I0216 11:16:33.473865 25712 layer_factory.hpp:77] Creating layer conv4
I0216 11:16:33.473883 25712 net.cpp:86] Creating Layer conv4
I0216 11:16:33.473891 25712 net.cpp:408] conv4 <- conv3
I0216 11:16:33.473902 25712 net.cpp:382] conv4 -> conv4
I0216 11:16:33.486222 25712 net.cpp:124] Setting up conv4
I0216 11:16:33.486270 25712 net.cpp:131] Top shape: 50 384 13 13 (3244800)
I0216 11:16:33.486276 25712 net.cpp:139] Memory required for data: 305964400
I0216 11:16:33.486291 25712 layer_factory.hpp:77] Creating layer relu4
I0216 11:16:33.486305 25712 net.cpp:86] Creating Layer relu4
I0216 11:16:33.486313 25712 net.cpp:408] relu4 <- conv4
I0216 11:16:33.486326 25712 net.cpp:369] relu4 -> conv4 (in-place)
I0216 11:16:33.486738 25712 net.cpp:124] Setting up relu4
I0216 11:16:33.486754 25712 net.cpp:131] Top shape: 50 384 13 13 (3244800)
I0216 11:16:33.486760 25712 net.cpp:139] Memory required for data: 318943600
I0216 11:16:33.486766 25712 layer_factory.hpp:77] Creating layer conv5
I0216 11:16:33.486785 25712 net.cpp:86] Creating Layer conv5
I0216 11:16:33.486793 25712 net.cpp:408] conv5 <- conv4
I0216 11:16:33.486809 25712 net.cpp:382] conv5 -> conv5
I0216 11:16:33.495795 25712 net.cpp:124] Setting up conv5
I0216 11:16:33.495843 25712 net.cpp:131] Top shape: 50 256 13 13 (2163200)
I0216 11:16:33.495849 25712 net.cpp:139] Memory required for data: 327596400
I0216 11:16:33.495873 25712 layer_factory.hpp:77] Creating layer relu5
I0216 11:16:33.495889 25712 net.cpp:86] Creating Layer relu5
I0216 11:16:33.495896 25712 net.cpp:408] relu5 <- conv5
I0216 11:16:33.495908 25712 net.cpp:369] relu5 -> conv5 (in-place)
I0216 11:16:33.496140 25712 net.cpp:124] Setting up relu5
I0216 11:16:33.496155 25712 net.cpp:131] Top shape: 50 256 13 13 (2163200)
I0216 11:16:33.496161 25712 net.cpp:139] Memory required for data: 336249200
I0216 11:16:33.496167 25712 layer_factory.hpp:77] Creating layer pool5
I0216 11:16:33.496186 25712 net.cpp:86] Creating Layer pool5
I0216 11:16:33.496192 25712 net.cpp:408] pool5 <- conv5
I0216 11:16:33.496203 25712 net.cpp:382] pool5 -> pool5
I0216 11:16:33.496219 25712 net.cpp:124] Setting up pool5
I0216 11:16:33.496227 25712 net.cpp:131] Top shape: 50 256 6 6 (460800)
I0216 11:16:33.496258 25712 net.cpp:139] Memory required for data: 338092400
I0216 11:16:33.496263 25712 layer_factory.hpp:77] Creating layer fc6
I0216 11:16:33.496275 25712 net.cpp:86] Creating Layer fc6
I0216 11:16:33.496281 25712 net.cpp:408] fc6 <- pool5
I0216 11:16:33.496291 25712 net.cpp:382] fc6 -> fc6
I0216 11:16:34.342504 25712 net.cpp:124] Setting up fc6
I0216 11:16:34.342555 25712 net.cpp:131] Top shape: 50 4096 (204800)
I0216 11:16:34.342561 25712 net.cpp:139] Memory required for data: 338911600
I0216 11:16:34.342576 25712 layer_factory.hpp:77] Creating layer relu6
I0216 11:16:34.342593 25712 net.cpp:86] Creating Layer relu6
I0216 11:16:34.342602 25712 net.cpp:408] relu6 <- fc6
I0216 11:16:34.342612 25712 net.cpp:369] relu6 -> fc6 (in-place)
I0216 11:16:34.343185 25712 net.cpp:124] Setting up relu6
I0216 11:16:34.343201 25712 net.cpp:131] Top shape: 50 4096 (204800)
I0216 11:16:34.343206 25712 net.cpp:139] Memory required for data: 339730800
I0216 11:16:34.343212 25712 layer_factory.hpp:77] Creating layer drop6
I0216 11:16:34.343225 25712 net.cpp:86] Creating Layer drop6
I0216 11:16:34.343230 25712 net.cpp:408] drop6 <- fc6
I0216 11:16:34.343238 25712 net.cpp:369] drop6 -> fc6 (in-place)
I0216 11:16:34.343251 25712 net.cpp:124] Setting up drop6
I0216 11:16:34.343258 25712 net.cpp:131] Top shape: 50 4096 (204800)
I0216 11:16:34.343264 25712 net.cpp:139] Memory required for data: 340550000
I0216 11:16:34.343269 25712 layer_factory.hpp:77] Creating layer fc7
I0216 11:16:34.343282 25712 net.cpp:86] Creating Layer fc7
I0216 11:16:34.343289 25712 net.cpp:408] fc7 <- fc6
I0216 11:16:34.343299 25712 net.cpp:382] fc7 -> fc7
I0216 11:16:34.699064 25712 net.cpp:124] Setting up fc7
I0216 11:16:34.699115 25712 net.cpp:131] Top shape: 50 4096 (204800)
I0216 11:16:34.699121 25712 net.cpp:139] Memory required for data: 341369200
I0216 11:16:34.699136 25712 layer_factory.hpp:77] Creating layer relu7
I0216 11:16:34.699152 25712 net.cpp:86] Creating Layer relu7
I0216 11:16:34.699160 25712 net.cpp:408] relu7 <- fc7
I0216 11:16:34.699172 25712 net.cpp:369] relu7 -> fc7 (in-place)
I0216 11:16:34.699499 25712 net.cpp:124] Setting up relu7
I0216 11:16:34.699514 25712 net.cpp:131] Top shape: 50 4096 (204800)
I0216 11:16:34.699519 25712 net.cpp:139] Memory required for data: 342188400
I0216 11:16:34.699525 25712 layer_factory.hpp:77] Creating layer drop7
I0216 11:16:34.699538 25712 net.cpp:86] Creating Layer drop7
I0216 11:16:34.699544 25712 net.cpp:408] drop7 <- fc7
I0216 11:16:34.699553 25712 net.cpp:369] drop7 -> fc7 (in-place)
I0216 11:16:34.699564 25712 net.cpp:124] Setting up drop7
I0216 11:16:34.699574 25712 net.cpp:131] Top shape: 50 4096 (204800)
I0216 11:16:34.699579 25712 net.cpp:139] Memory required for data: 343007600
I0216 11:16:34.699584 25712 layer_factory.hpp:77] Creating layer fc8
I0216 11:16:34.699596 25712 net.cpp:86] Creating Layer fc8
I0216 11:16:34.699602 25712 net.cpp:408] fc8 <- fc7
I0216 11:16:34.699610 25712 net.cpp:382] fc8 -> fc8
I0216 11:16:34.785118 25712 net.cpp:124] Setting up fc8
I0216 11:16:34.785169 25712 net.cpp:131] Top shape: 50 1000 (50000)
I0216 11:16:34.785176 25712 net.cpp:139] Memory required for data: 343207600
I0216 11:16:34.785190 25712 layer_factory.hpp:77] Creating layer fc8_fc8_0_split
I0216 11:16:34.785204 25712 net.cpp:86] Creating Layer fc8_fc8_0_split
I0216 11:16:34.785212 25712 net.cpp:408] fc8_fc8_0_split <- fc8
I0216 11:16:34.785223 25712 net.cpp:382] fc8_fc8_0_split -> fc8_fc8_0_split_0
I0216 11:16:34.785244 25712 net.cpp:382] fc8_fc8_0_split -> fc8_fc8_0_split_1
I0216 11:16:34.785259 25712 net.cpp:124] Setting up fc8_fc8_0_split
I0216 11:16:34.785266 25712 net.cpp:131] Top shape: 50 1000 (50000)
I0216 11:16:34.785274 25712 net.cpp:131] Top shape: 50 1000 (50000)
I0216 11:16:34.785279 25712 net.cpp:139] Memory required for data: 343607600
I0216 11:16:34.785284 25712 layer_factory.hpp:77] Creating layer accuracy
I0216 11:16:34.785295 25712 net.cpp:86] Creating Layer accuracy
I0216 11:16:34.785300 25712 net.cpp:408] accuracy <- fc8_fc8_0_split_0
I0216 11:16:34.785320 25712 net.cpp:408] accuracy <- label_data_1_split_0
I0216 11:16:34.785352 25712 net.cpp:382] accuracy -> accuracy
…
