…
I0220 20:08:09.710894  4854 net.cpp:296] The NetState phase (0) differed from the phase (1) specified by a rule in layer accuracy
I0220 20:08:09.711130  4854 net.cpp:53] Initializing net from parameters: 
name: "CaffeNet"
state {
  phase: TRAIN
  level: 0
  stage: ""
}
layer {
  name: "data"
  type: "Data"
  top: "data"
  top: "label"
  include {
    phase: TRAIN
  }
  transform_param {
    mirror: true
    crop_size: 227
    mean_file: "data/ilsvrc12/imagenet_mean.binaryproto"
  }
  data_param {
    source: "examples/imagenet/ilsvrc12_train_lmdb"
    batch_size: 256
    backend: LMDB
  }
}
layer {
  name: "conv1"
  type: "Convolution"
  bottom: "data"
  top: "conv1"
  param {
    lr_mult: 1
    decay_mult: 1
  }
  param {
    lr_mult: 2
    decay_mult: 0
  }
  convolution_param {
    num_output: 96
    kernel_size: 11
    stride: 4
    weight_filler {
      type: "gaussian"
      std: 0.01
    }
    bias_filler {
      type: "constant"
      value: 0
    }
  }
}
layer {
  name: "relu1"
  type: "ReLU"
  bottom: "conv1"
  top: "conv1"
}
layer {
  name: "pool1"
  type: "Pooling"
  bottom: "conv1"
  top: "pool1"
  pooling_param {
    pool: MAX
    kernel_size: 3
    stride: 2
  }
}
layer {
  name: "norm1"
  type: "LRN"
  bottom: "pool1"
  top: "norm1"
  lrn_param {
    local_size: 5
    alpha: 0.0001
    beta: 0.75
  }
}
layer {
  name: "conv2"
  type: "Convolution"
  bottom: "norm1"
  top: "conv2"
  param {
    lr_mult: 1
    decay_mult: 1
  }
  param {
    lr_mult: 2
    decay_mult: 0
  }
  convolution_param {
    num_output: 256
    pad: 2
    kernel_size: 5
    group: 2
    weight_filler {
      type: "gaussian"
      std: 0.01
    }
    bias_filler {
      type: "constant"
      value: 1
    }
  }
}
layer {
  name: "relu2"
  type: "ReLU"
  bottom: "conv2"
  top: "conv2"
}
layer {
  name: "pool2"
  type: "Pooling"
  bottom: "conv2"
  top: "pool2"
  pooling_param {
    pool: MAX
    kernel_size: 3
    stride: 2
  }
}
layer {
  name: "norm2"
  type: "LRN"
  bottom: "pool2"
  top: "norm2"
  lrn_param {
    local_size: 5
    alpha: 0.0001
    beta: 0.75
  }
}
layer {
  name: "conv3"
  type: "Convolution"
  bottom: "norm2"
  top: "conv3"
  param {
    lr_mult: 1
    decay_mult: 1
  }
  param {
    lr_mult: 2
    decay_mult: 0
  }
  convolution_param {
    num_output: 384
    pad: 1
    kernel_size: 3
    weight_filler {
      type: "gaussian"
      std: 0.01
    }
    bias_filler {
      type: "constant"
      value: 0
    }
  }
}
layer {
  name: "relu3"
  type: "ReLU"
  bottom: "conv3"
  top: "conv3"
}
layer {
  name: "conv4"
  type: "Convolution"
  bottom: "conv3"
  top: "conv4"
  param {
    lr_mult: 1
    decay_mult: 1
  }
  param {
    lr_mult: 2
    decay_mult: 0
  }
  convolution_param {
    num_output: 384
    pad: 1
    kernel_size: 3
    group: 2
    weight_filler {
      type: "gaussian"
      std: 0.01
    }
    bias_filler {
      type: "constant"
      value: 1
    }
  }
}
layer {
  name: "relu4"
  type: "ReLU"
  bottom: "conv4"
  top: "conv4"
}
layer {
  name: "conv5"
  type: "Convolution"
  bottom: "conv4"
  top: "conv5"
  param {
    lr_mult: 1
    decay_mult: 1
  }
  param {
    lr_mult: 2
    decay_mult: 0
  }
  convolution_param {
    num_output: 256
    pad: 1
    kernel_size: 3
    group: 2
    weight_filler {
      type: "gaussian"
      std: 0.01
    }
    bias_filler {
      type: "constant"
      value: 1
    }
  }
}
layer {
  name: "relu5"
  type: "ReLU"
  bottom: "conv5"
  top: "conv5"
}
layer {
  name: "pool5"
  type: "Pooling"
  bottom: "conv5"
  top: "pool5"
  pooling_param {
    pool: MAX
    kernel_size: 3
    stride: 2
  }
}
layer {
  name: "fc6"
  type: "InnerProduct"
  bottom: "pool5"
  top: "fc6"
  param {
    lr_mult: 1
    decay_mult: 1
  }
  param {
    lr_mult: 2
    decay_mult: 0
  }
  inner_product_param {
    num_output: 4096
    weight_filler {
      type: "gaussian"
      std: 0.005
    }
    bias_filler {
      type: "constant"
      value: 1
    }
  }
}
layer {
  name: "relu6"
  type: "ReLU"
  bottom: "fc6"
  top: "fc6"
}
layer {
  name: "drop6"
  type: "Dropout"
  bottom: "fc6"
  top: "fc6"
  dropout_param {
    dropout_ratio: 0.5
  }
}
layer {
  name: "fc7"
  type: "InnerProduct"
  bottom: "fc6"
  top: "fc7"
  param {
    lr_mult: 1
    decay_mult: 1
  }
  param {
    lr_mult: 2
    decay_mult: 0
  }
  inner_product_param {
    num_output: 4096
    weight_filler {
      type: "gaussian"
      std: 0.005
    }
    bias_filler {
      type: "constant"
      value: 1
    }
  }
}
layer {
  name: "relu7"
  type: "ReLU"
  bottom: "fc7"
  top: "fc7"
}
layer {
  name: "drop7"
  type: "Dropout"
  bottom: "fc7"
  top: "fc7"
  dropout_param {
    dropout_ratio: 0.5
  }
}
layer {
  name: "fc8"
  type: "InnerProduct"
  bottom: "fc7"
  top: "fc8"
  param {
    lr_mult: 1
    decay_mult: 1
  }
  param {
    lr_mult: 2
    decay_mult: 0
  }
  inner_product_param {
    num_output: 1000
    weight_filler {
      type: "gaussian"
      std: 0.01
    }
    bias_filler {
      type: "constant"
      value: 0
    }
  }
}
layer {
  name: "loss"
  type: "SoftmaxWithLoss"
  bottom: "fc8"
  bottom: "label"
  top: "loss"
}
I0220 20:08:09.711257  4854 layer_factory.hpp:77] Creating layer data
I0220 20:08:09.711395  4854 db_lmdb.cpp:35] Opened lmdb examples/imagenet/ilsvrc12_train_lmdb
I0220 20:08:09.764369  4854 net.cpp:86] Creating Layer data
I0220 20:08:09.764417  4854 net.cpp:382] data -> data
I0220 20:08:09.764467  4854 net.cpp:382] data -> label
I0220 20:08:09.764495  4854 data_transformer.cpp:25] Loading mean file from: data/ilsvrc12/imagenet_mean.binaryproto
I0220 20:08:09.825525  4854 data_layer.cpp:45] output data size: 256,3,227,227
I0220 20:08:10.249316  4854 net.cpp:124] Setting up data
I0220 20:08:10.249371  4854 net.cpp:131] Top shape: 256 3 227 227 (39574272)
I0220 20:08:10.249379  4854 net.cpp:131] Top shape: 256 (256)
I0220 20:08:10.249384  4854 net.cpp:139] Memory required for data: 158298112
I0220 20:08:10.249399  4854 layer_factory.hpp:77] Creating layer conv1
I0220 20:08:10.249431  4854 net.cpp:86] Creating Layer conv1
I0220 20:08:10.249441  4854 net.cpp:408] conv1 <- data
I0220 20:08:10.249461  4854 net.cpp:382] conv1 -> conv1
I0220 20:08:11.257858  4854 net.cpp:124] Setting up conv1
I0220 20:08:11.257907  4854 net.cpp:131] Top shape: 256 96 55 55 (74342400)
I0220 20:08:11.257915  4854 net.cpp:139] Memory required for data: 455667712
I0220 20:08:11.257946  4854 layer_factory.hpp:77] Creating layer relu1
I0220 20:08:11.257964  4854 net.cpp:86] Creating Layer relu1
I0220 20:08:11.257972  4854 net.cpp:408] relu1 <- conv1
I0220 20:08:11.257982  4854 net.cpp:369] relu1 -> conv1 (in-place)
I0220 20:08:11.258366  4854 net.cpp:124] Setting up relu1
I0220 20:08:11.258383  4854 net.cpp:131] Top shape: 256 96 55 55 (74342400)
I0220 20:08:11.258388  4854 net.cpp:139] Memory required for data: 753037312
I0220 20:08:11.258394  4854 layer_factory.hpp:77] Creating layer pool1
I0220 20:08:11.258412  4854 net.cpp:86] Creating Layer pool1
I0220 20:08:11.258420  4854 net.cpp:408] pool1 <- conv1
I0220 20:08:11.258430  4854 net.cpp:382] pool1 -> pool1
I0220 20:08:11.258491  4854 net.cpp:124] Setting up pool1
I0220 20:08:11.258503  4854 net.cpp:131] Top shape: 256 96 27 27 (17915904)
I0220 20:08:11.258509  4854 net.cpp:139] Memory required for data: 824700928
I0220 20:08:11.258514  4854 layer_factory.hpp:77] Creating layer norm1
I0220 20:08:11.258529  4854 net.cpp:86] Creating Layer norm1
I0220 20:08:11.258545  4854 net.cpp:408] norm1 <- pool1
I0220 20:08:11.258566  4854 net.cpp:382] norm1 -> norm1
I0220 20:08:11.258805  4854 net.cpp:124] Setting up norm1
I0220 20:08:11.258821  4854 net.cpp:131] Top shape: 256 96 27 27 (17915904)
I0220 20:08:11.258826  4854 net.cpp:139] Memory required for data: 896364544
I0220 20:08:11.258832  4854 layer_factory.hpp:77] Creating layer conv2
I0220 20:08:11.258849  4854 net.cpp:86] Creating Layer conv2
I0220 20:08:11.258857  4854 net.cpp:408] conv2 <- norm1
I0220 20:08:11.258865  4854 net.cpp:382] conv2 -> conv2
I0220 20:08:11.266548  4854 net.cpp:124] Setting up conv2
I0220 20:08:11.266580  4854 net.cpp:131] Top shape: 256 256 27 27 (47775744)
I0220 20:08:11.266587  4854 net.cpp:139] Memory required for data: 1087467520
I0220 20:08:11.266603  4854 layer_factory.hpp:77] Creating layer relu2
I0220 20:08:11.266614  4854 net.cpp:86] Creating Layer relu2
I0220 20:08:11.266621  4854 net.cpp:408] relu2 <- conv2
I0220 20:08:11.266630  4854 net.cpp:369] relu2 -> conv2 (in-place)
I0220 20:08:11.266855  4854 net.cpp:124] Setting up relu2
I0220 20:08:11.266870  4854 net.cpp:131] Top shape: 256 256 27 27 (47775744)
I0220 20:08:11.266875  4854 net.cpp:139] Memory required for data: 1278570496
I0220 20:08:11.266881  4854 layer_factory.hpp:77] Creating layer pool2
I0220 20:08:11.266891  4854 net.cpp:86] Creating Layer pool2
I0220 20:08:11.266897  4854 net.cpp:408] pool2 <- conv2
I0220 20:08:11.266911  4854 net.cpp:382] pool2 -> pool2
I0220 20:08:11.266965  4854 net.cpp:124] Setting up pool2
I0220 20:08:11.266976  4854 net.cpp:131] Top shape: 256 256 13 13 (11075584)
I0220 20:08:11.266983  4854 net.cpp:139] Memory required for data: 1322872832
I0220 20:08:11.266988  4854 layer_factory.hpp:77] Creating layer norm2
I0220 20:08:11.267000  4854 net.cpp:86] Creating Layer norm2
I0220 20:08:11.267006  4854 net.cpp:408] norm2 <- pool2
I0220 20:08:11.267014  4854 net.cpp:382] norm2 -> norm2
I0220 20:08:11.267452  4854 net.cpp:124] Setting up norm2
I0220 20:08:11.267467  4854 net.cpp:131] Top shape: 256 256 13 13 (11075584)
I0220 20:08:11.267472  4854 net.cpp:139] Memory required for data: 1367175168
I0220 20:08:11.267478  4854 layer_factory.hpp:77] Creating layer conv3
I0220 20:08:11.267495  4854 net.cpp:86] Creating Layer conv3
I0220 20:08:11.267503  4854 net.cpp:408] conv3 <- norm2
I0220 20:08:11.267513  4854 net.cpp:382] conv3 -> conv3
I0220 20:08:11.283059  4854 net.cpp:124] Setting up conv3
I0220 20:08:11.283105  4854 net.cpp:131] Top shape: 256 384 13 13 (16613376)
I0220 20:08:11.283113  4854 net.cpp:139] Memory required for data: 1433628672
I0220 20:08:11.283133  4854 layer_factory.hpp:77] Creating layer relu3
I0220 20:08:11.283146  4854 net.cpp:86] Creating Layer relu3
I0220 20:08:11.283154  4854 net.cpp:408] relu3 <- conv3
I0220 20:08:11.283166  4854 net.cpp:369] relu3 -> conv3 (in-place)
I0220 20:08:11.283385  4854 net.cpp:124] Setting up relu3
I0220 20:08:11.283398  4854 net.cpp:131] Top shape: 256 384 13 13 (16613376)
I0220 20:08:11.283403  4854 net.cpp:139] Memory required for data: 1500082176
I0220 20:08:11.283409  4854 layer_factory.hpp:77] Creating layer conv4
I0220 20:08:11.283427  4854 net.cpp:86] Creating Layer conv4
I0220 20:08:11.283433  4854 net.cpp:408] conv4 <- conv3
I0220 20:08:11.283448  4854 net.cpp:382] conv4 -> conv4
I0220 20:08:11.296581  4854 net.cpp:124] Setting up conv4
I0220 20:08:11.296622  4854 net.cpp:131] Top shape: 256 384 13 13 (16613376)
I0220 20:08:11.296628  4854 net.cpp:139] Memory required for data: 1566535680
I0220 20:08:11.296641  4854 layer_factory.hpp:77] Creating layer relu4
I0220 20:08:11.296654  4854 net.cpp:86] Creating Layer relu4
I0220 20:08:11.296661  4854 net.cpp:408] relu4 <- conv4
I0220 20:08:11.296672  4854 net.cpp:369] relu4 -> conv4 (in-place)
I0220 20:08:11.296895  4854 net.cpp:124] Setting up relu4
I0220 20:08:11.296910  4854 net.cpp:131] Top shape: 256 384 13 13 (16613376)
I0220 20:08:11.296916  4854 net.cpp:139] Memory required for data: 1632989184
I0220 20:08:11.296921  4854 layer_factory.hpp:77] Creating layer conv5
I0220 20:08:11.296937  4854 net.cpp:86] Creating Layer conv5
I0220 20:08:11.296967  4854 net.cpp:408] conv5 <- conv4
I0220 20:08:11.296978  4854 net.cpp:382] conv5 -> conv5
I0220 20:08:11.306706  4854 net.cpp:124] Setting up conv5
I0220 20:08:11.306738  4854 net.cpp:131] Top shape: 256 256 13 13 (11075584)
I0220 20:08:11.306746  4854 net.cpp:139] Memory required for data: 1677291520
I0220 20:08:11.306764  4854 layer_factory.hpp:77] Creating layer relu5
I0220 20:08:11.306776  4854 net.cpp:86] Creating Layer relu5
I0220 20:08:11.306782  4854 net.cpp:408] relu5 <- conv5
I0220 20:08:11.306794  4854 net.cpp:369] relu5 -> conv5 (in-place)
I0220 20:08:11.307024  4854 net.cpp:124] Setting up relu5
I0220 20:08:11.307039  4854 net.cpp:131] Top shape: 256 256 13 13 (11075584)
I0220 20:08:11.307045  4854 net.cpp:139] Memory required for data: 1721593856
I0220 20:08:11.307051  4854 layer_factory.hpp:77] Creating layer pool5
I0220 20:08:11.307062  4854 net.cpp:86] Creating Layer pool5
I0220 20:08:11.307068  4854 net.cpp:408] pool5 <- conv5
I0220 20:08:11.307080  4854 net.cpp:382] pool5 -> pool5
I0220 20:08:11.307140  4854 net.cpp:124] Setting up pool5
I0220 20:08:11.307152  4854 net.cpp:131] Top shape: 256 256 6 6 (2359296)
I0220 20:08:11.307157  4854 net.cpp:139] Memory required for data: 1731031040
I0220 20:08:11.307163  4854 layer_factory.hpp:77] Creating layer fc6
I0220 20:08:11.307181  4854 net.cpp:86] Creating Layer fc6
I0220 20:08:11.307188  4854 net.cpp:408] fc6 <- pool5
I0220 20:08:11.307198  4854 net.cpp:382] fc6 -> fc6
I0220 20:08:11.903759  4854 net.cpp:124] Setting up fc6
I0220 20:08:11.903807  4854 net.cpp:131] Top shape: 256 4096 (1048576)
I0220 20:08:11.903813  4854 net.cpp:139] Memory required for data: 1735225344
I0220 20:08:11.903830  4854 layer_factory.hpp:77] Creating layer relu6
I0220 20:08:11.903842  4854 net.cpp:86] Creating Layer relu6
I0220 20:08:11.903851  4854 net.cpp:408] relu6 <- fc6
I0220 20:08:11.903863  4854 net.cpp:369] relu6 -> fc6 (in-place)
I0220 20:08:11.904450  4854 net.cpp:124] Setting up relu6
I0220 20:08:11.904466  4854 net.cpp:131] Top shape: 256 4096 (1048576)
I0220 20:08:11.904472  4854 net.cpp:139] Memory required for data: 1739419648
I0220 20:08:11.904479  4854 layer_factory.hpp:77] Creating layer drop6
I0220 20:08:11.904489  4854 net.cpp:86] Creating Layer drop6
I0220 20:08:11.904495  4854 net.cpp:408] drop6 <- fc6
I0220 20:08:11.904506  4854 net.cpp:369] drop6 -> fc6 (in-place)
I0220 20:08:11.904556  4854 net.cpp:124] Setting up drop6
I0220 20:08:11.904567  4854 net.cpp:131] Top shape: 256 4096 (1048576)
I0220 20:08:11.904572  4854 net.cpp:139] Memory required for data: 1743613952
I0220 20:08:11.904578  4854 layer_factory.hpp:77] Creating layer fc7
I0220 20:08:11.904593  4854 net.cpp:86] Creating Layer fc7
I0220 20:08:11.904599  4854 net.cpp:408] fc7 <- fc6
I0220 20:08:11.904608  4854 net.cpp:382] fc7 -> fc7
I0220 20:08:12.169039  4854 net.cpp:124] Setting up fc7
I0220 20:08:12.169086  4854 net.cpp:131] Top shape: 256 4096 (1048576)
I0220 20:08:12.169093  4854 net.cpp:139] Memory required for data: 1747808256
I0220 20:08:12.169108  4854 layer_factory.hpp:77] Creating layer relu7
I0220 20:08:12.169124  4854 net.cpp:86] Creating Layer relu7
I0220 20:08:12.169132  4854 net.cpp:408] relu7 <- fc7
I0220 20:08:12.169144  4854 net.cpp:369] relu7 -> fc7 (in-place)
I0220 20:08:12.169430  4854 net.cpp:124] Setting up relu7
I0220 20:08:12.169443  4854 net.cpp:131] Top shape: 256 4096 (1048576)
I0220 20:08:12.169450  4854 net.cpp:139] Memory required for data: 1752002560
I0220 20:08:12.169456  4854 layer_factory.hpp:77] Creating layer drop7
I0220 20:08:12.169469  4854 net.cpp:86] Creating Layer drop7
I0220 20:08:12.169476  4854 net.cpp:408] drop7 <- fc7
I0220 20:08:12.169484  4854 net.cpp:369] drop7 -> fc7 (in-place)
I0220 20:08:12.169517  4854 net.cpp:124] Setting up drop7
I0220 20:08:12.169528  4854 net.cpp:131] Top shape: 256 4096 (1048576)
I0220 20:08:12.169533  4854 net.cpp:139] Memory required for data: 1756196864
I0220 20:08:12.169538  4854 layer_factory.hpp:77] Creating layer fc8
I0220 20:08:12.169550  4854 net.cpp:86] Creating Layer fc8
I0220 20:08:12.169565  4854 net.cpp:408] fc8 <- fc7
I0220 20:08:12.169589  4854 net.cpp:382] fc8 -> fc8
I0220 20:08:12.234653  4854 net.cpp:124] Setting up fc8
I0220 20:08:12.234711  4854 net.cpp:131] Top shape: 256 1000 (256000)
I0220 20:08:12.234719  4854 net.cpp:139] Memory required for data: 1757220864
I0220 20:08:12.234735  4854 layer_factory.hpp:77] Creating layer loss
I0220 20:08:12.234750  4854 net.cpp:86] Creating Layer loss
I0220 20:08:12.234756  4854 net.cpp:408] loss <- fc8
I0220 20:08:12.234766  4854 net.cpp:408] loss <- label
I0220 20:08:12.234782  4854 net.cpp:382] loss -> loss
I0220 20:08:12.234805  4854 layer_factory.hpp:77] Creating layer loss
…
I0220 20:08:12.236846  4854 net.cpp:296] The NetState phase (1) differed from the phase (0) specified by a rule in layer data
I0220 20:08:12.237087  4854 net.cpp:53] Initializing net from parameters: 
name: "CaffeNet"
state {
  phase: TEST
}
layer {
  name: "data"
  type: "Data"
  top: "data"
  top: "label"
  include {
    phase: TEST
  }
  transform_param {
    mirror: false
    crop_size: 227
    mean_file: "data/ilsvrc12/imagenet_mean.binaryproto"
  }
  data_param {
    source: "examples/imagenet/ilsvrc12_val_lmdb"
    batch_size: 50
    backend: LMDB
  }
}
layer {
  name: "conv1"
  type: "Convolution"
  bottom: "data"
  top: "conv1"
  param {
    lr_mult: 1
    decay_mult: 1
  }
  param {
    lr_mult: 2
    decay_mult: 0
  }
  convolution_param {
    num_output: 96
    kernel_size: 11
    stride: 4
    weight_filler {
      type: "gaussian"
      std: 0.01
    }
    bias_filler {
      type: "constant"
      value: 0
    }
  }
}
layer {
  name: "relu1"
  type: "ReLU"
  bottom: "conv1"
  top: "conv1"
}
layer {
  name: "pool1"
  type: "Pooling"
  bottom: "conv1"
  top: "pool1"
  pooling_param {
    pool: MAX
    kernel_size: 3
    stride: 2
  }
}
layer {
  name: "norm1"
  type: "LRN"
  bottom: "pool1"
  top: "norm1"
  lrn_param {
    local_size: 5
    alpha: 0.0001
    beta: 0.75
  }
}
layer {
  name: "conv2"
  type: "Convolution"
  bottom: "norm1"
  top: "conv2"
  param {
    lr_mult: 1
    decay_mult: 1
  }
  param {
    lr_mult: 2
    decay_mult: 0
  }
  convolution_param {
    num_output: 256
    pad: 2
    kernel_size: 5
    group: 2
    weight_filler {
      type: "gaussian"
      std: 0.01
    }
    bias_filler {
      type: "constant"
      value: 1
    }
  }
}
layer {
  name: "relu2"
  type: "ReLU"
  bottom: "conv2"
  top: "conv2"
}
layer {
  name: "pool2"
  type: "Pooling"
  bottom: "conv2"
  top: "pool2"
  pooling_param {
    pool: MAX
    kernel_size: 3
    stride: 2
  }
}
layer {
  name: "norm2"
  type: "LRN"
  bottom: "pool2"
  top: "norm2"
  lrn_param {
    local_size: 5
    alpha: 0.0001
    beta: 0.75
  }
}
layer {
  name: "conv3"
  type: "Convolution"
  bottom: "norm2"
  top: "conv3"
  param {
    lr_mult: 1
    decay_mult: 1
  }
  param {
    lr_mult: 2
    decay_mult: 0
  }
  convolution_param {
    num_output: 384
    pad: 1
    kernel_size: 3
    weight_filler {
      type: "gaussian"
      std: 0.01
    }
    bias_filler {
      type: "constant"
      value: 0
    }
  }
}
layer {
  name: "relu3"
  type: "ReLU"
  bottom: "conv3"
  top: "conv3"
}
layer {
  name: "conv4"
  type: "Convolution"
  bottom: "conv3"
  top: "conv4"
  param {
    lr_mult: 1
    decay_mult: 1
  }
  param {
    lr_mult: 2
    decay_mult: 0
  }
  convolution_param {
    num_output: 384
    pad: 1
    kernel_size: 3
    group: 2
    weight_filler {
      type: "gaussian"
      std: 0.01
    }
    bias_filler {
      type: "constant"
      value: 1
    }
  }
}
layer {
  name: "relu4"
  type: "ReLU"
  bottom: "conv4"
  top: "conv4"
}
layer {
  name: "conv5"
  type: "Convolution"
  bottom: "conv4"
  top: "conv5"
  param {
    lr_mult: 1
    decay_mult: 1
  }
  param {
    lr_mult: 2
    decay_mult: 0
  }
  convolution_param {
    num_output: 256
    pad: 1
    kernel_size: 3
    group: 2
    weight_filler {
      type: "gaussian"
      std: 0.01
    }
    bias_filler {
      type: "constant"
      value: 1
    }
  }
}
layer {
  name: "relu5"
  type: "ReLU"
  bottom: "conv5"
  top: "conv5"
}
layer {
  name: "pool5"
  type: "Pooling"
  bottom: "conv5"
  top: "pool5"
  pooling_param {
    pool: MAX
    kernel_size: 3
    stride: 2
  }
}
layer {
  name: "fc6"
  type: "InnerProduct"
  bottom: "pool5"
  top: "fc6"
  param {
    lr_mult: 1
    decay_mult: 1
  }
  param {
    lr_mult: 2
    decay_mult: 0
  }
  inner_product_param {
    num_output: 4096
    weight_filler {
      type: "gaussian"
      std: 0.005
    }
    bias_filler {
      type: "constant"
      value: 1
    }
  }
}
layer {
  name: "relu6"
  type: "ReLU"
  bottom: "fc6"
  top: "fc6"
}
layer {
  name: "drop6"
  type: "Dropout"
  bottom: "fc6"
  top: "fc6"
  dropout_param {
    dropout_ratio: 0.5
  }
}
layer {
  name: "fc7"
  type: "InnerProduct"
  bottom: "fc6"
  top: "fc7"
  param {
    lr_mult: 1
    decay_mult: 1
  }
  param {
    lr_mult: 2
    decay_mult: 0
  }
  inner_product_param {
    num_output: 4096
    weight_filler {
      type: "gaussian"
      std: 0.005
    }
    bias_filler {
      type: "constant"
      value: 1
    }
  }
}
layer {
  name: "relu7"
  type: "ReLU"
  bottom: "fc7"
  top: "fc7"
}
layer {
  name: "drop7"
  type: "Dropout"
  bottom: "fc7"
  top: "fc7"
  dropout_param {
    dropout_ratio: 0.5
  }
}
layer {
  name: "fc8"
  type: "InnerProduct"
  bottom: "fc7"
  top: "fc8"
  param {
    lr_mult: 1
    decay_mult: 1
  }
  param {
    lr_mult: 2
    decay_mult: 0
  }
  inner_product_param {
    num_output: 1000
    weight_filler {
      type: "gaussian"
      std: 0.01
    }
    bias_filler {
      type: "constant"
      value: 0
    }
  }
}
layer {
  name: "accuracy"
  type: "Accuracy"
  bottom: "fc8"
  bottom: "label"
  top: "accuracy"
  include {
    phase: TEST
  }
}
layer {
  name: "loss"
  type: "SoftmaxWithLoss"
  bottom: "fc8"
  bottom: "label"
  top: "loss"
}
I0220 20:08:12.237247  4854 layer_factory.hpp:77] Creating layer data
I0220 20:08:12.237329  4854 db_lmdb.cpp:35] Opened lmdb examples/imagenet/ilsvrc12_val_lmdb
I0220 20:08:12.237356  4854 net.cpp:86] Creating Layer data
I0220 20:08:12.237368  4854 net.cpp:382] data -> data
I0220 20:08:12.237382  4854 net.cpp:382] data -> label
I0220 20:08:12.237395  4854 data_transformer.cpp:25] Loading mean file from: data/ilsvrc12/imagenet_mean.binaryproto
I0220 20:08:12.239890  4854 data_layer.cpp:45] output data size: 50,3,227,227
I0220 20:08:12.321465  4854 net.cpp:124] Setting up data
I0220 20:08:12.321526  4854 net.cpp:131] Top shape: 50 3 227 227 (7729350)
I0220 20:08:12.321535  4854 net.cpp:131] Top shape: 50 (50)
I0220 20:08:12.321540  4854 net.cpp:139] Memory required for data: 30917600
I0220 20:08:12.321550  4854 layer_factory.hpp:77] Creating layer label_data_1_split
I0220 20:08:12.321568  4854 net.cpp:86] Creating Layer label_data_1_split
I0220 20:08:12.321575  4854 net.cpp:408] label_data_1_split <- label
I0220 20:08:12.321586  4854 net.cpp:382] label_data_1_split -> label_data_1_split_0
I0220 20:08:12.321604  4854 net.cpp:382] label_data_1_split -> label_data_1_split_1
I0220 20:08:12.321681  4854 net.cpp:124] Setting up label_data_1_split
I0220 20:08:12.321692  4854 net.cpp:131] Top shape: 50 (50)
I0220 20:08:12.321699  4854 net.cpp:131] Top shape: 50 (50)
I0220 20:08:12.321704  4854 net.cpp:139] Memory required for data: 30918000
I0220 20:08:12.321710  4854 layer_factory.hpp:77] Creating layer conv1
I0220 20:08:12.321728  4854 net.cpp:86] Creating Layer conv1
I0220 20:08:12.321735  4854 net.cpp:408] conv1 <- data
I0220 20:08:12.321744  4854 net.cpp:382] conv1 -> conv1
I0220 20:08:12.329053  4854 net.cpp:124] Setting up conv1
I0220 20:08:12.329097  4854 net.cpp:131] Top shape: 50 96 55 55 (14520000)
I0220 20:08:12.329103  4854 net.cpp:139] Memory required for data: 88998000
I0220 20:08:12.329125  4854 layer_factory.hpp:77] Creating layer relu1
I0220 20:08:12.329139  4854 net.cpp:86] Creating Layer relu1
I0220 20:08:12.329146  4854 net.cpp:408] relu1 <- conv1
I0220 20:08:12.329155  4854 net.cpp:369] relu1 -> conv1 (in-place)
I0220 20:08:12.329452  4854 net.cpp:124] Setting up relu1
I0220 20:08:12.329481  4854 net.cpp:131] Top shape: 50 96 55 55 (14520000)
I0220 20:08:12.329493  4854 net.cpp:139] Memory required for data: 147078000
I0220 20:08:12.329504  4854 layer_factory.hpp:77] Creating layer pool1
I0220 20:08:12.329527  4854 net.cpp:86] Creating Layer pool1
I0220 20:08:12.329540  4854 net.cpp:408] pool1 <- conv1
I0220 20:08:12.329556  4854 net.cpp:382] pool1 -> pool1
I0220 20:08:12.329671  4854 net.cpp:124] Setting up pool1
I0220 20:08:12.329694  4854 net.cpp:131] Top shape: 50 96 27 27 (3499200)
I0220 20:08:12.329704  4854 net.cpp:139] Memory required for data: 161074800
I0220 20:08:12.329715  4854 layer_factory.hpp:77] Creating layer norm1
I0220 20:08:12.329735  4854 net.cpp:86] Creating Layer norm1
I0220 20:08:12.329746  4854 net.cpp:408] norm1 <- pool1
I0220 20:08:12.329763  4854 net.cpp:382] norm1 -> norm1
I0220 20:08:12.330570  4854 net.cpp:124] Setting up norm1
I0220 20:08:12.330588  4854 net.cpp:131] Top shape: 50 96 27 27 (3499200)
I0220 20:08:12.330608  4854 net.cpp:139] Memory required for data: 175071600
I0220 20:08:12.330621  4854 layer_factory.hpp:77] Creating layer conv2
I0220 20:08:12.330651  4854 net.cpp:86] Creating Layer conv2
I0220 20:08:12.330664  4854 net.cpp:408] conv2 <- norm1
I0220 20:08:12.330684  4854 net.cpp:382] conv2 -> conv2
I0220 20:08:12.340294  4854 net.cpp:124] Setting up conv2
I0220 20:08:12.340344  4854 net.cpp:131] Top shape: 50 256 27 27 (9331200)
I0220 20:08:12.340351  4854 net.cpp:139] Memory required for data: 212396400
I0220 20:08:12.340374  4854 layer_factory.hpp:77] Creating layer relu2
I0220 20:08:12.340390  4854 net.cpp:86] Creating Layer relu2
I0220 20:08:12.340399  4854 net.cpp:408] relu2 <- conv2
I0220 20:08:12.340410  4854 net.cpp:369] relu2 -> conv2 (in-place)
I0220 20:08:12.340646  4854 net.cpp:124] Setting up relu2
I0220 20:08:12.340672  4854 net.cpp:131] Top shape: 50 256 27 27 (9331200)
I0220 20:08:12.340693  4854 net.cpp:139] Memory required for data: 249721200
I0220 20:08:12.340700  4854 layer_factory.hpp:77] Creating layer pool2
I0220 20:08:12.340715  4854 net.cpp:86] Creating Layer pool2
I0220 20:08:12.340723  4854 net.cpp:408] pool2 <- conv2
I0220 20:08:12.340731  4854 net.cpp:382] pool2 -> pool2
I0220 20:08:12.340798  4854 net.cpp:124] Setting up pool2
I0220 20:08:12.340812  4854 net.cpp:131] Top shape: 50 256 13 13 (2163200)
I0220 20:08:12.340818  4854 net.cpp:139] Memory required for data: 258374000
I0220 20:08:12.340824  4854 layer_factory.hpp:77] Creating layer norm2
I0220 20:08:12.340837  4854 net.cpp:86] Creating Layer norm2
I0220 20:08:12.340842  4854 net.cpp:408] norm2 <- pool2
I0220 20:08:12.340852  4854 net.cpp:382] norm2 -> norm2
I0220 20:08:12.341339  4854 net.cpp:124] Setting up norm2
I0220 20:08:12.341357  4854 net.cpp:131] Top shape: 50 256 13 13 (2163200)
I0220 20:08:12.341363  4854 net.cpp:139] Memory required for data: 267026800
I0220 20:08:12.341369  4854 layer_factory.hpp:77] Creating layer conv3
I0220 20:08:12.341387  4854 net.cpp:86] Creating Layer conv3
I0220 20:08:12.341394  4854 net.cpp:408] conv3 <- norm2
I0220 20:08:12.341406  4854 net.cpp:382] conv3 -> conv3
I0220 20:08:12.357815  4854 net.cpp:124] Setting up conv3
I0220 20:08:12.357862  4854 net.cpp:131] Top shape: 50 384 13 13 (3244800)
I0220 20:08:12.357869  4854 net.cpp:139] Memory required for data: 280006000
I0220 20:08:12.357890  4854 layer_factory.hpp:77] Creating layer relu3
I0220 20:08:12.357904  4854 net.cpp:86] Creating Layer relu3
I0220 20:08:12.357913  4854 net.cpp:408] relu3 <- conv3
I0220 20:08:12.357923  4854 net.cpp:369] relu3 -> conv3 (in-place)
I0220 20:08:12.358347  4854 net.cpp:124] Setting up relu3
I0220 20:08:12.358364  4854 net.cpp:131] Top shape: 50 384 13 13 (3244800)
I0220 20:08:12.358371  4854 net.cpp:139] Memory required for data: 292985200
I0220 20:08:12.358376  4854 layer_factory.hpp:77] Creating layer conv4
I0220 20:08:12.358417  4854 net.cpp:86] Creating Layer conv4
I0220 20:08:12.358424  4854 net.cpp:408] conv4 <- conv3
I0220 20:08:12.358435  4854 net.cpp:382] conv4 -> conv4
I0220 20:08:12.382267  4854 net.cpp:124] Setting up conv4
I0220 20:08:12.382320  4854 net.cpp:131] Top shape: 50 384 13 13 (3244800)
I0220 20:08:12.382328  4854 net.cpp:139] Memory required for data: 305964400
I0220 20:08:12.382344  4854 layer_factory.hpp:77] Creating layer relu4
I0220 20:08:12.382359  4854 net.cpp:86] Creating Layer relu4
I0220 20:08:12.382365  4854 net.cpp:408] relu4 <- conv4
I0220 20:08:12.382377  4854 net.cpp:369] relu4 -> conv4 (in-place)
I0220 20:08:12.382625  4854 net.cpp:124] Setting up relu4
I0220 20:08:12.382642  4854 net.cpp:131] Top shape: 50 384 13 13 (3244800)
I0220 20:08:12.382647  4854 net.cpp:139] Memory required for data: 318943600
I0220 20:08:12.382652  4854 layer_factory.hpp:77] Creating layer conv5
I0220 20:08:12.382670  4854 net.cpp:86] Creating Layer conv5
I0220 20:08:12.382676  4854 net.cpp:408] conv5 <- conv4
I0220 20:08:12.382688  4854 net.cpp:382] conv5 -> conv5
I0220 20:08:12.392400  4854 net.cpp:124] Setting up conv5
I0220 20:08:12.392452  4854 net.cpp:131] Top shape: 50 256 13 13 (2163200)
I0220 20:08:12.392458  4854 net.cpp:139] Memory required for data: 327596400
I0220 20:08:12.392479  4854 layer_factory.hpp:77] Creating layer relu5
I0220 20:08:12.392494  4854 net.cpp:86] Creating Layer relu5
I0220 20:08:12.392503  4854 net.cpp:408] relu5 <- conv5
I0220 20:08:12.392514  4854 net.cpp:369] relu5 -> conv5 (in-place)
I0220 20:08:12.392735  4854 net.cpp:124] Setting up relu5
I0220 20:08:12.392748  4854 net.cpp:131] Top shape: 50 256 13 13 (2163200)
I0220 20:08:12.392755  4854 net.cpp:139] Memory required for data: 336249200
I0220 20:08:12.392760  4854 layer_factory.hpp:77] Creating layer pool5
I0220 20:08:12.392774  4854 net.cpp:86] Creating Layer pool5
I0220 20:08:12.392781  4854 net.cpp:408] pool5 <- conv5
I0220 20:08:12.392791  4854 net.cpp:382] pool5 -> pool5
I0220 20:08:12.392866  4854 net.cpp:124] Setting up pool5
I0220 20:08:12.392895  4854 net.cpp:131] Top shape: 50 256 6 6 (460800)
I0220 20:08:12.392901  4854 net.cpp:139] Memory required for data: 338092400
I0220 20:08:12.392907  4854 layer_factory.hpp:77] Creating layer fc6
I0220 20:08:12.392920  4854 net.cpp:86] Creating Layer fc6
I0220 20:08:12.392925  4854 net.cpp:408] fc6 <- pool5
I0220 20:08:12.392935  4854 net.cpp:382] fc6 -> fc6
I0220 20:08:12.984205  4854 net.cpp:124] Setting up fc6
I0220 20:08:12.984261  4854 net.cpp:131] Top shape: 50 4096 (204800)
I0220 20:08:12.984266  4854 net.cpp:139] Memory required for data: 338911600
I0220 20:08:12.984282  4854 layer_factory.hpp:77] Creating layer relu6
I0220 20:08:12.984295  4854 net.cpp:86] Creating Layer relu6
I0220 20:08:12.984303  4854 net.cpp:408] relu6 <- fc6
I0220 20:08:12.984315  4854 net.cpp:369] relu6 -> fc6 (in-place)
I0220 20:08:12.993904  4854 net.cpp:124] Setting up relu6
I0220 20:08:12.993928  4854 net.cpp:131] Top shape: 50 4096 (204800)
I0220 20:08:12.993935  4854 net.cpp:139] Memory required for data: 339730800
I0220 20:08:12.993942  4854 layer_factory.hpp:77] Creating layer drop6
I0220 20:08:12.993953  4854 net.cpp:86] Creating Layer drop6
I0220 20:08:12.993959  4854 net.cpp:408] drop6 <- fc6
I0220 20:08:12.993968  4854 net.cpp:369] drop6 -> fc6 (in-place)
I0220 20:08:12.994014  4854 net.cpp:124] Setting up drop6
I0220 20:08:12.994024  4854 net.cpp:131] Top shape: 50 4096 (204800)
I0220 20:08:12.994030  4854 net.cpp:139] Memory required for data: 340550000
I0220 20:08:12.994035  4854 layer_factory.hpp:77] Creating layer fc7
I0220 20:08:12.994047  4854 net.cpp:86] Creating Layer fc7
I0220 20:08:12.994053  4854 net.cpp:408] fc7 <- fc6
I0220 20:08:12.994062  4854 net.cpp:382] fc7 -> fc7
I0220 20:08:13.257606  4854 net.cpp:124] Setting up fc7
I0220 20:08:13.257659  4854 net.cpp:131] Top shape: 50 4096 (204800)
I0220 20:08:13.257665  4854 net.cpp:139] Memory required for data: 341369200
I0220 20:08:13.257681  4854 layer_factory.hpp:77] Creating layer relu7
I0220 20:08:13.257696  4854 net.cpp:86] Creating Layer relu7
I0220 20:08:13.257704  4854 net.cpp:408] relu7 <- fc7
I0220 20:08:13.257715  4854 net.cpp:369] relu7 -> fc7 (in-place)
I0220 20:08:13.258004  4854 net.cpp:124] Setting up relu7
I0220 20:08:13.258018  4854 net.cpp:131] Top shape: 50 4096 (204800)
I0220 20:08:13.258024  4854 net.cpp:139] Memory required for data: 342188400
I0220 20:08:13.258029  4854 layer_factory.hpp:77] Creating layer drop7
I0220 20:08:13.258040  4854 net.cpp:86] Creating Layer drop7
I0220 20:08:13.258046  4854 net.cpp:408] drop7 <- fc7
I0220 20:08:13.258055  4854 net.cpp:369] drop7 -> fc7 (in-place)
I0220 20:08:13.258097  4854 net.cpp:124] Setting up drop7
I0220 20:08:13.258107  4854 net.cpp:131] Top shape: 50 4096 (204800)
I0220 20:08:13.258113  4854 net.cpp:139] Memory required for data: 343007600
I0220 20:08:13.258118  4854 layer_factory.hpp:77] Creating layer fc8
I0220 20:08:13.258131  4854 net.cpp:86] Creating Layer fc8
I0220 20:08:13.258136  4854 net.cpp:408] fc8 <- fc7
I0220 20:08:13.258144  4854 net.cpp:382] fc8 -> fc8
I0220 20:08:13.322489  4854 net.cpp:124] Setting up fc8
I0220 20:08:13.322540  4854 net.cpp:131] Top shape: 50 1000 (50000)
I0220 20:08:13.322546  4854 net.cpp:139] Memory required for data: 343207600
I0220 20:08:13.322561  4854 layer_factory.hpp:77] Creating layer fc8_fc8_0_split
I0220 20:08:13.322576  4854 net.cpp:86] Creating Layer fc8_fc8_0_split
I0220 20:08:13.322583  4854 net.cpp:408] fc8_fc8_0_split <- fc8
I0220 20:08:13.322595  4854 net.cpp:382] fc8_fc8_0_split -> fc8_fc8_0_split_0
I0220 20:08:13.322610  4854 net.cpp:382] fc8_fc8_0_split -> fc8_fc8_0_split_1
I0220 20:08:13.322669  4854 net.cpp:124] Setting up fc8_fc8_0_split
I0220 20:08:13.322679  4854 net.cpp:131] Top shape: 50 1000 (50000)
I0220 20:08:13.322686  4854 net.cpp:131] Top shape: 50 1000 (50000)
I0220 20:08:13.322691  4854 net.cpp:139] Memory required for data: 343607600
I0220 20:08:13.322697  4854 layer_factory.hpp:77] Creating layer accuracy
I0220 20:08:13.322707  4854 net.cpp:86] Creating Layer accuracy
I0220 20:08:13.322731  4854 net.cpp:408] accuracy <- fc8_fc8_0_split_0
I0220 20:08:13.322753  4854 net.cpp:408] accuracy <- label_data_1_split_0
I0220 20:08:13.322763  4854 net.cpp:382] accuracy -> accuracy
…
