…
I0223 11:38:58.780762 27291 net.cpp:296] The NetState phase (0) differed from the phase (1) specified by a rule in layer accuracy
I0223 11:38:58.781074 27291 net.cpp:53] Initializing net from parameters: 
name: "CaffeNet"
state {
  phase: TRAIN
  level: 0
  stage: ""
}
layer {
  name: "data"
  type: "Data"
  top: "data"
  top: "label"
  include {
    phase: TRAIN
  }
  transform_param {
    mirror: true
    crop_size: 227
    mean_file: "data/ilsvrc12/imagenet_mean.binaryproto"
  }
  data_param {
    source: "examples/imagenet/ilsvrc12_train_lmdb"
    batch_size: 256
    backend: LMDB
  }
}
layer {
  name: "conv1"
  type: "Convolution"
  bottom: "data"
  top: "conv1"
  param {
    lr_mult: 1
    decay_mult: 1
  }
  param {
    lr_mult: 2
    decay_mult: 0
  }
  convolution_param {
    num_output: 96
    kernel_size: 11
    stride: 4
    weight_filler {
      type: "gaussian"
      std: 0.01
    }
    bias_filler {
      type: "constant"
      value: 0
    }
  }
}
layer {
  name: "relu1"
  type: "ReLU"
  bottom: "conv1"
  top: "conv1"
}
layer {
  name: "pool1"
  type: "Pooling"
  bottom: "conv1"
  top: "pool1"
  pooling_param {
    pool: MAX
    kernel_size: 3
    stride: 2
  }
}
layer {
  name: "norm1"
  type: "LRN"
  bottom: "pool1"
  top: "norm1"
  lrn_param {
    local_size: 5
    alpha: 0.0001
    beta: 0.75
  }
}
layer {
  name: "conv2"
  type: "Convolution"
  bottom: "norm1"
  top: "conv2"
  param {
    lr_mult: 1
    decay_mult: 1
  }
  param {
    lr_mult: 2
    decay_mult: 0
  }
  convolution_param {
    num_output: 256
    pad: 2
    kernel_size: 5
    group: 2
    weight_filler {
      type: "gaussian"
      std: 0.01
    }
    bias_filler {
      type: "constant"
      value: 1
    }
  }
}
layer {
  name: "relu2"
  type: "ReLU"
  bottom: "conv2"
  top: "conv2"
}
layer {
  name: "pool2"
  type: "Pooling"
  bottom: "conv2"
  top: "pool2"
  pooling_param {
    pool: MAX
    kernel_size: 3
    stride: 2
  }
}
layer {
  name: "norm2"
  type: "LRN"
  bottom: "pool2"
  top: "norm2"
  lrn_param {
    local_size: 5
    alpha: 0.0001
    beta: 0.75
  }
}
layer {
  name: "conv3"
  type: "Convolution"
  bottom: "norm2"
  top: "conv3"
  param {
    lr_mult: 1
    decay_mult: 1
  }
  param {
    lr_mult: 2
    decay_mult: 0
  }
  convolution_param {
    num_output: 384
    pad: 1
    kernel_size: 3
    weight_filler {
      type: "gaussian"
      std: 0.01
    }
    bias_filler {
      type: "constant"
      value: 0
    }
  }
}
layer {
  name: "relu3"
  type: "ReLU"
  bottom: "conv3"
  top: "conv3"
}
layer {
  name: "conv4"
  type: "Convolution"
  bottom: "conv3"
  top: "conv4"
  param {
    lr_mult: 1
    decay_mult: 1
  }
  param {
    lr_mult: 2
    decay_mult: 0
  }
  convolution_param {
    num_output: 384
    pad: 1
    kernel_size: 3
    group: 2
    weight_filler {
      type: "gaussian"
      std: 0.01
    }
    bias_filler {
      type: "constant"
      value: 1
    }
  }
}
layer {
  name: "relu4"
  type: "ReLU"
  bottom: "conv4"
  top: "conv4"
}
layer {
  name: "conv5"
  type: "Convolution"
  bottom: "conv4"
  top: "conv5"
  param {
    lr_mult: 1
    decay_mult: 1
  }
  param {
    lr_mult: 2
    decay_mult: 0
  }
  convolution_param {
    num_output: 256
    pad: 1
    kernel_size: 3
    group: 2
    weight_filler {
      type: "gaussian"
      std: 0.01
    }
    bias_filler {
      type: "constant"
      value: 1
    }
  }
}
layer {
  name: "relu5"
  type: "ReLU"
  bottom: "conv5"
  top: "conv5"
}
layer {
  name: "pool5"
  type: "Pooling"
  bottom: "conv5"
  top: "pool5"
  pooling_param {
    pool: MAX
    kernel_size: 3
    stride: 2
  }
}
layer {
  name: "fc6"
  type: "InnerProduct"
  bottom: "pool5"
  top: "fc6"
  param {
    lr_mult: 1
    decay_mult: 1
  }
  param {
    lr_mult: 2
    decay_mult: 0
  }
  inner_product_param {
    num_output: 4096
    weight_filler {
      type: "gaussian"
      std: 0.005
    }
    bias_filler {
      type: "constant"
      value: 1
    }
  }
}
layer {
  name: "relu6"
  type: "ReLU"
  bottom: "fc6"
  top: "fc6"
}
layer {
  name: "drop6"
  type: "Dropout"
  bottom: "fc6"
  top: "fc6"
  dropout_param {
    dropout_ratio: 0.5
  }
}
layer {
  name: "fc7"
  type: "InnerProduct"
  bottom: "fc6"
  top: "fc7"
  param {
    lr_mult: 1
    decay_mult: 1
  }
  param {
    lr_mult: 2
    decay_mult: 0
  }
  inner_product_param {
    num_output: 4096
    weight_filler {
      type: "gaussian"
      std: 0.005
    }
    bias_filler {
      type: "constant"
      value: 1
    }
  }
}
layer {
  name: "relu7"
  type: "ReLU"
  bottom: "fc7"
  top: "fc7"
}
layer {
  name: "drop7"
  type: "Dropout"
  bottom: "fc7"
  top: "fc7"
  dropout_param {
    dropout_ratio: 0.5
  }
}
layer {
  name: "fc8"
  type: "InnerProduct"
  bottom: "fc7"
  top: "fc8"
  param {
    lr_mult: 1
    decay_mult: 1
  }
  param {
    lr_mult: 2
    decay_mult: 0
  }
  inner_product_param {
    num_output: 1000
    weight_filler {
      type: "gaussian"
      std: 0.01
    }
    bias_filler {
      type: "constant"
      value: 0
    }
  }
}
layer {
  name: "loss"
  type: "SoftmaxWithLoss"
  bottom: "fc8"
  bottom: "label"
  top: "loss"
}
I0223 11:38:58.781232 27291 layer_factory.hpp:77] Creating layer data
I0223 11:38:58.781397 27291 db_lmdb.cpp:35] Opened lmdb examples/imagenet/ilsvrc12_train_lmdb
I0223 11:38:58.809061 27291 net.cpp:86] Creating Layer data
I0223 11:38:58.809098 27291 net.cpp:382] data -> data
I0223 11:38:58.809142 27291 net.cpp:382] data -> label
I0223 11:38:58.809170 27291 data_transformer.cpp:25] Loading mean file from: data/ilsvrc12/imagenet_mean.binaryproto
I0223 11:38:58.870247 27291 data_layer.cpp:45] output data size: 256,3,227,227
I0223 11:38:59.292888 27291 net.cpp:124] Setting up data
I0223 11:38:59.292933 27291 net.cpp:131] Top shape: 256 3 227 227 (39574272)
I0223 11:38:59.292943 27291 net.cpp:131] Top shape: 256 (256)
I0223 11:38:59.292948 27291 net.cpp:139] Memory required for data: 158298112
I0223 11:38:59.292963 27291 layer_factory.hpp:77] Creating layer conv1
I0223 11:38:59.292994 27291 net.cpp:86] Creating Layer conv1
I0223 11:38:59.293004 27291 net.cpp:408] conv1 <- data
I0223 11:38:59.293023 27291 net.cpp:382] conv1 -> conv1
I0223 11:39:00.000360 27291 net.cpp:124] Setting up conv1
I0223 11:39:00.000408 27291 net.cpp:131] Top shape: 256 96 55 55 (74342400)
I0223 11:39:00.000416 27291 net.cpp:139] Memory required for data: 455667712
I0223 11:39:00.000449 27291 layer_factory.hpp:77] Creating layer relu1
I0223 11:39:00.000468 27291 net.cpp:86] Creating Layer relu1
I0223 11:39:00.000475 27291 net.cpp:408] relu1 <- conv1
I0223 11:39:00.000486 27291 net.cpp:369] relu1 -> conv1 (in-place)
I0223 11:39:00.000902 27291 net.cpp:124] Setting up relu1
I0223 11:39:00.000919 27291 net.cpp:131] Top shape: 256 96 55 55 (74342400)
I0223 11:39:00.000926 27291 net.cpp:139] Memory required for data: 753037312
I0223 11:39:00.000932 27291 layer_factory.hpp:77] Creating layer pool1
I0223 11:39:00.000943 27291 net.cpp:86] Creating Layer pool1
I0223 11:39:00.000949 27291 net.cpp:408] pool1 <- conv1
I0223 11:39:00.000958 27291 net.cpp:382] pool1 -> pool1
I0223 11:39:00.001022 27291 net.cpp:124] Setting up pool1
I0223 11:39:00.001039 27291 net.cpp:131] Top shape: 256 96 27 27 (17915904)
I0223 11:39:00.001044 27291 net.cpp:139] Memory required for data: 824700928
I0223 11:39:00.001049 27291 layer_factory.hpp:77] Creating layer norm1
I0223 11:39:00.001065 27291 net.cpp:86] Creating Layer norm1
I0223 11:39:00.001080 27291 net.cpp:408] norm1 <- pool1
I0223 11:39:00.001107 27291 net.cpp:382] norm1 -> norm1
I0223 11:39:00.001371 27291 net.cpp:124] Setting up norm1
I0223 11:39:00.001386 27291 net.cpp:131] Top shape: 256 96 27 27 (17915904)
I0223 11:39:00.001392 27291 net.cpp:139] Memory required for data: 896364544
I0223 11:39:00.001399 27291 layer_factory.hpp:77] Creating layer conv2
I0223 11:39:00.001418 27291 net.cpp:86] Creating Layer conv2
I0223 11:39:00.001425 27291 net.cpp:408] conv2 <- norm1
I0223 11:39:00.001436 27291 net.cpp:382] conv2 -> conv2
I0223 11:39:00.009143 27291 net.cpp:124] Setting up conv2
I0223 11:39:00.009177 27291 net.cpp:131] Top shape: 256 256 27 27 (47775744)
I0223 11:39:00.009183 27291 net.cpp:139] Memory required for data: 1087467520
I0223 11:39:00.009203 27291 layer_factory.hpp:77] Creating layer relu2
I0223 11:39:00.009215 27291 net.cpp:86] Creating Layer relu2
I0223 11:39:00.009222 27291 net.cpp:408] relu2 <- conv2
I0223 11:39:00.009232 27291 net.cpp:369] relu2 -> conv2 (in-place)
I0223 11:39:00.009457 27291 net.cpp:124] Setting up relu2
I0223 11:39:00.009474 27291 net.cpp:131] Top shape: 256 256 27 27 (47775744)
I0223 11:39:00.009479 27291 net.cpp:139] Memory required for data: 1278570496
I0223 11:39:00.009485 27291 layer_factory.hpp:77] Creating layer pool2
I0223 11:39:00.009496 27291 net.cpp:86] Creating Layer pool2
I0223 11:39:00.009502 27291 net.cpp:408] pool2 <- conv2
I0223 11:39:00.009511 27291 net.cpp:382] pool2 -> pool2
I0223 11:39:00.009567 27291 net.cpp:124] Setting up pool2
I0223 11:39:00.009579 27291 net.cpp:131] Top shape: 256 256 13 13 (11075584)
I0223 11:39:00.009584 27291 net.cpp:139] Memory required for data: 1322872832
I0223 11:39:00.009590 27291 layer_factory.hpp:77] Creating layer norm2
I0223 11:39:00.009604 27291 net.cpp:86] Creating Layer norm2
I0223 11:39:00.009611 27291 net.cpp:408] norm2 <- pool2
I0223 11:39:00.009621 27291 net.cpp:382] norm2 -> norm2
I0223 11:39:00.010047 27291 net.cpp:124] Setting up norm2
I0223 11:39:00.010066 27291 net.cpp:131] Top shape: 256 256 13 13 (11075584)
I0223 11:39:00.010071 27291 net.cpp:139] Memory required for data: 1367175168
I0223 11:39:00.010077 27291 layer_factory.hpp:77] Creating layer conv3
I0223 11:39:00.010094 27291 net.cpp:86] Creating Layer conv3
I0223 11:39:00.010102 27291 net.cpp:408] conv3 <- norm2
I0223 11:39:00.010112 27291 net.cpp:382] conv3 -> conv3
I0223 11:39:00.025396 27291 net.cpp:124] Setting up conv3
I0223 11:39:00.025449 27291 net.cpp:131] Top shape: 256 384 13 13 (16613376)
I0223 11:39:00.025455 27291 net.cpp:139] Memory required for data: 1433628672
I0223 11:39:00.025475 27291 layer_factory.hpp:77] Creating layer relu3
I0223 11:39:00.025488 27291 net.cpp:86] Creating Layer relu3
I0223 11:39:00.025496 27291 net.cpp:408] relu3 <- conv3
I0223 11:39:00.025506 27291 net.cpp:369] relu3 -> conv3 (in-place)
I0223 11:39:00.025732 27291 net.cpp:124] Setting up relu3
I0223 11:39:00.025746 27291 net.cpp:131] Top shape: 256 384 13 13 (16613376)
I0223 11:39:00.025753 27291 net.cpp:139] Memory required for data: 1500082176
I0223 11:39:00.025758 27291 layer_factory.hpp:77] Creating layer conv4
I0223 11:39:00.025776 27291 net.cpp:86] Creating Layer conv4
I0223 11:39:00.025784 27291 net.cpp:408] conv4 <- conv3
I0223 11:39:00.025795 27291 net.cpp:382] conv4 -> conv4
I0223 11:39:00.038836 27291 net.cpp:124] Setting up conv4
I0223 11:39:00.038878 27291 net.cpp:131] Top shape: 256 384 13 13 (16613376)
I0223 11:39:00.038885 27291 net.cpp:139] Memory required for data: 1566535680
I0223 11:39:00.038899 27291 layer_factory.hpp:77] Creating layer relu4
I0223 11:39:00.038913 27291 net.cpp:86] Creating Layer relu4
I0223 11:39:00.038920 27291 net.cpp:408] relu4 <- conv4
I0223 11:39:00.038933 27291 net.cpp:369] relu4 -> conv4 (in-place)
I0223 11:39:00.039155 27291 net.cpp:124] Setting up relu4
I0223 11:39:00.039170 27291 net.cpp:131] Top shape: 256 384 13 13 (16613376)
I0223 11:39:00.039176 27291 net.cpp:139] Memory required for data: 1632989184
I0223 11:39:00.039182 27291 layer_factory.hpp:77] Creating layer conv5
I0223 11:39:00.039211 27291 net.cpp:86] Creating Layer conv5
I0223 11:39:00.039230 27291 net.cpp:408] conv5 <- conv4
I0223 11:39:00.039242 27291 net.cpp:382] conv5 -> conv5
I0223 11:39:00.048818 27291 net.cpp:124] Setting up conv5
I0223 11:39:00.048851 27291 net.cpp:131] Top shape: 256 256 13 13 (11075584)
I0223 11:39:00.048857 27291 net.cpp:139] Memory required for data: 1677291520
I0223 11:39:00.048878 27291 layer_factory.hpp:77] Creating layer relu5
I0223 11:39:00.048890 27291 net.cpp:86] Creating Layer relu5
I0223 11:39:00.048897 27291 net.cpp:408] relu5 <- conv5
I0223 11:39:00.048909 27291 net.cpp:369] relu5 -> conv5 (in-place)
I0223 11:39:00.049132 27291 net.cpp:124] Setting up relu5
I0223 11:39:00.049147 27291 net.cpp:131] Top shape: 256 256 13 13 (11075584)
I0223 11:39:00.049154 27291 net.cpp:139] Memory required for data: 1721593856
I0223 11:39:00.049160 27291 layer_factory.hpp:77] Creating layer pool5
I0223 11:39:00.049170 27291 net.cpp:86] Creating Layer pool5
I0223 11:39:00.049176 27291 net.cpp:408] pool5 <- conv5
I0223 11:39:00.049187 27291 net.cpp:382] pool5 -> pool5
I0223 11:39:00.049247 27291 net.cpp:124] Setting up pool5
I0223 11:39:00.049259 27291 net.cpp:131] Top shape: 256 256 6 6 (2359296)
I0223 11:39:00.049265 27291 net.cpp:139] Memory required for data: 1731031040
I0223 11:39:00.049271 27291 layer_factory.hpp:77] Creating layer fc6
I0223 11:39:00.049288 27291 net.cpp:86] Creating Layer fc6
I0223 11:39:00.049295 27291 net.cpp:408] fc6 <- pool5
I0223 11:39:00.049304 27291 net.cpp:382] fc6 -> fc6
I0223 11:39:00.638916 27291 net.cpp:124] Setting up fc6
I0223 11:39:00.638963 27291 net.cpp:131] Top shape: 256 4096 (1048576)
I0223 11:39:00.638969 27291 net.cpp:139] Memory required for data: 1735225344
I0223 11:39:00.638985 27291 layer_factory.hpp:77] Creating layer relu6
I0223 11:39:00.638999 27291 net.cpp:86] Creating Layer relu6
I0223 11:39:00.639008 27291 net.cpp:408] relu6 <- fc6
I0223 11:39:00.639019 27291 net.cpp:369] relu6 -> fc6 (in-place)
I0223 11:39:00.639595 27291 net.cpp:124] Setting up relu6
I0223 11:39:00.639611 27291 net.cpp:131] Top shape: 256 4096 (1048576)
I0223 11:39:00.639617 27291 net.cpp:139] Memory required for data: 1739419648
I0223 11:39:00.639623 27291 layer_factory.hpp:77] Creating layer drop6
I0223 11:39:00.639637 27291 net.cpp:86] Creating Layer drop6
I0223 11:39:00.639643 27291 net.cpp:408] drop6 <- fc6
I0223 11:39:00.639652 27291 net.cpp:369] drop6 -> fc6 (in-place)
I0223 11:39:00.639693 27291 net.cpp:124] Setting up drop6
I0223 11:39:00.639704 27291 net.cpp:131] Top shape: 256 4096 (1048576)
I0223 11:39:00.639709 27291 net.cpp:139] Memory required for data: 1743613952
I0223 11:39:00.639715 27291 layer_factory.hpp:77] Creating layer fc7
I0223 11:39:00.639727 27291 net.cpp:86] Creating Layer fc7
I0223 11:39:00.639734 27291 net.cpp:408] fc7 <- fc6
I0223 11:39:00.639745 27291 net.cpp:382] fc7 -> fc7
I0223 11:39:00.901700 27291 net.cpp:124] Setting up fc7
I0223 11:39:00.901747 27291 net.cpp:131] Top shape: 256 4096 (1048576)
I0223 11:39:00.901753 27291 net.cpp:139] Memory required for data: 1747808256
I0223 11:39:00.901768 27291 layer_factory.hpp:77] Creating layer relu7
I0223 11:39:00.901783 27291 net.cpp:86] Creating Layer relu7
I0223 11:39:00.901793 27291 net.cpp:408] relu7 <- fc7
I0223 11:39:00.901804 27291 net.cpp:369] relu7 -> fc7 (in-place)
I0223 11:39:00.902097 27291 net.cpp:124] Setting up relu7
I0223 11:39:00.902112 27291 net.cpp:131] Top shape: 256 4096 (1048576)
I0223 11:39:00.902117 27291 net.cpp:139] Memory required for data: 1752002560
I0223 11:39:00.902123 27291 layer_factory.hpp:77] Creating layer drop7
I0223 11:39:00.902137 27291 net.cpp:86] Creating Layer drop7
I0223 11:39:00.902143 27291 net.cpp:408] drop7 <- fc7
I0223 11:39:00.902151 27291 net.cpp:369] drop7 -> fc7 (in-place)
I0223 11:39:00.902182 27291 net.cpp:124] Setting up drop7
I0223 11:39:00.902192 27291 net.cpp:131] Top shape: 256 4096 (1048576)
I0223 11:39:00.902199 27291 net.cpp:139] Memory required for data: 1756196864
I0223 11:39:00.902204 27291 layer_factory.hpp:77] Creating layer fc8
I0223 11:39:00.902220 27291 net.cpp:86] Creating Layer fc8
I0223 11:39:00.902235 27291 net.cpp:408] fc8 <- fc7
I0223 11:39:00.902259 27291 net.cpp:382] fc8 -> fc8
I0223 11:39:00.966593 27291 net.cpp:124] Setting up fc8
I0223 11:39:00.966639 27291 net.cpp:131] Top shape: 256 1000 (256000)
I0223 11:39:00.966645 27291 net.cpp:139] Memory required for data: 1757220864
I0223 11:39:00.966660 27291 layer_factory.hpp:77] Creating layer loss
I0223 11:39:00.966675 27291 net.cpp:86] Creating Layer loss
I0223 11:39:00.966682 27291 net.cpp:408] loss <- fc8
I0223 11:39:00.966692 27291 net.cpp:408] loss <- label
I0223 11:39:00.966709 27291 net.cpp:382] loss -> loss
I0223 11:39:00.966733 27291 layer_factory.hpp:77] Creating layer loss
…
I0223 11:39:01.155465 27291 net.cpp:296] The NetState phase (1) differed from the phase (0) specified by a rule in layer data
I0223 11:39:01.155791 27291 net.cpp:53] Initializing net from parameters: 
name: "CaffeNet"
state {
  phase: TEST
}
layer {
  name: "data"
  type: "Data"
  top: "data"
  top: "label"
  include {
    phase: TEST
  }
  transform_param {
    mirror: false
    crop_size: 227
    mean_file: "data/ilsvrc12/imagenet_mean.binaryproto"
  }
  data_param {
    source: "examples/imagenet/ilsvrc12_val_lmdb"
    batch_size: 50
    backend: LMDB
  }
}
layer {
  name: "conv1"
  type: "Convolution"
  bottom: "data"
  top: "conv1"
  param {
    lr_mult: 1
    decay_mult: 1
  }
  param {
    lr_mult: 2
    decay_mult: 0
  }
  convolution_param {
    num_output: 96
    kernel_size: 11
    stride: 4
    weight_filler {
      type: "gaussian"
      std: 0.01
    }
    bias_filler {
      type: "constant"
      value: 0
    }
  }
}
layer {
  name: "relu1"
  type: "ReLU"
  bottom: "conv1"
  top: "conv1"
}
layer {
  name: "pool1"
  type: "Pooling"
  bottom: "conv1"
  top: "pool1"
  pooling_param {
    pool: MAX
    kernel_size: 3
    stride: 2
  }
}
layer {
  name: "norm1"
  type: "LRN"
  bottom: "pool1"
  top: "norm1"
  lrn_param {
    local_size: 5
    alpha: 0.0001
    beta: 0.75
  }
}
layer {
  name: "conv2"
  type: "Convolution"
  bottom: "norm1"
  top: "conv2"
  param {
    lr_mult: 1
    decay_mult: 1
  }
  param {
    lr_mult: 2
    decay_mult: 0
  }
  convolution_param {
    num_output: 256
    pad: 2
    kernel_size: 5
    group: 2
    weight_filler {
      type: "gaussian"
      std: 0.01
    }
    bias_filler {
      type: "constant"
      value: 1
    }
  }
}
layer {
  name: "relu2"
  type: "ReLU"
  bottom: "conv2"
  top: "conv2"
}
layer {
  name: "pool2"
  type: "Pooling"
  bottom: "conv2"
  top: "pool2"
  pooling_param {
    pool: MAX
    kernel_size: 3
    stride: 2
  }
}
layer {
  name: "norm2"
  type: "LRN"
  bottom: "pool2"
  top: "norm2"
  lrn_param {
    local_size: 5
    alpha: 0.0001
    beta: 0.75
  }
}
layer {
  name: "conv3"
  type: "Convolution"
  bottom: "norm2"
  top: "conv3"
  param {
    lr_mult: 1
    decay_mult: 1
  }
  param {
    lr_mult: 2
    decay_mult: 0
  }
  convolution_param {
    num_output: 384
    pad: 1
    kernel_size: 3
    weight_filler {
      type: "gaussian"
      std: 0.01
    }
    bias_filler {
      type: "constant"
      value: 0
    }
  }
}
layer {
  name: "relu3"
  type: "ReLU"
  bottom: "conv3"
  top: "conv3"
}
layer {
  name: "conv4"
  type: "Convolution"
  bottom: "conv3"
  top: "conv4"
  param {
    lr_mult: 1
    decay_mult: 1
  }
  param {
    lr_mult: 2
    decay_mult: 0
  }
  convolution_param {
    num_output: 384
    pad: 1
    kernel_size: 3
    group: 2
    weight_filler {
      type: "gaussian"
      std: 0.01
    }
    bias_filler {
      type: "constant"
      value: 1
    }
  }
}
layer {
  name: "relu4"
  type: "ReLU"
  bottom: "conv4"
  top: "conv4"
}
layer {
  name: "conv5"
  type: "Convolution"
  bottom: "conv4"
  top: "conv5"
  param {
    lr_mult: 1
    decay_mult: 1
  }
  param {
    lr_mult: 2
    decay_mult: 0
  }
  convolution_param {
    num_output: 256
    pad: 1
    kernel_size: 3
    group: 2
    weight_filler {
      type: "gaussian"
      std: 0.01
    }
    bias_filler {
      type: "constant"
      value: 1
    }
  }
}
layer {
  name: "relu5"
  type: "ReLU"
  bottom: "conv5"
  top: "conv5"
}
layer {
  name: "pool5"
  type: "Pooling"
  bottom: "conv5"
  top: "pool5"
  pooling_param {
    pool: MAX
    kernel_size: 3
    stride: 2
  }
}
layer {
  name: "fc6"
  type: "InnerProduct"
  bottom: "pool5"
  top: "fc6"
  param {
    lr_mult: 1
    decay_mult: 1
  }
  param {
    lr_mult: 2
    decay_mult: 0
  }
  inner_product_param {
    num_output: 4096
    weight_filler {
      type: "gaussian"
      std: 0.005
    }
    bias_filler {
      type: "constant"
      value: 1
    }
  }
}
layer {
  name: "relu6"
  type: "ReLU"
  bottom: "fc6"
  top: "fc6"
}
layer {
  name: "drop6"
  type: "Dropout"
  bottom: "fc6"
  top: "fc6"
  dropout_param {
    dropout_ratio: 0.5
  }
}
layer {
  name: "fc7"
  type: "InnerProduct"
  bottom: "fc6"
  top: "fc7"
  param {
    lr_mult: 1
    decay_mult: 1
  }
  param {
    lr_mult: 2
    decay_mult: 0
  }
  inner_product_param {
    num_output: 4096
    weight_filler {
      type: "gaussian"
      std: 0.005
    }
    bias_filler {
      type: "constant"
      value: 1
    }
  }
}
layer {
  name: "relu7"
  type: "ReLU"
  bottom: "fc7"
  top: "fc7"
}
layer {
  name: "drop7"
  type: "Dropout"
  bottom: "fc7"
  top: "fc7"
  dropout_param {
    dropout_ratio: 0.5
  }
}
layer {
  name: "fc8"
  type: "InnerProduct"
  bottom: "fc7"
  top: "fc8"
  param {
    lr_mult: 1
    decay_mult: 1
  }
  param {
    lr_mult: 2
    decay_mult: 0
  }
  inner_product_param {
    num_output: 1000
    weight_filler {
      type: "gaussian"
      std: 0.01
    }
    bias_filler {
      type: "constant"
      value: 0
    }
  }
}
layer {
  name: "accuracy"
  type: "Accuracy"
  bottom: "fc8"
  bottom: "label"
  top: "accuracy"
  include {
    phase: TEST
  }
}
layer {
  name: "loss"
  type: "SoftmaxWithLoss"
  bottom: "fc8"
  bottom: "label"
  top: "loss"
}
I0223 11:39:01.156018 27291 layer_factory.hpp:77] Creating layer data
I0223 11:39:01.156128 27291 db_lmdb.cpp:35] Opened lmdb examples/imagenet/ilsvrc12_val_lmdb
I0223 11:39:01.156167 27291 net.cpp:86] Creating Layer data
I0223 11:39:01.156184 27291 net.cpp:382] data -> data
I0223 11:39:01.156204 27291 net.cpp:382] data -> label
I0223 11:39:01.156222 27291 data_transformer.cpp:25] Loading mean file from: data/ilsvrc12/imagenet_mean.binaryproto
I0223 11:39:01.179786 27291 data_layer.cpp:45] output data size: 50,3,227,227
I0223 11:39:01.265939 27291 net.cpp:124] Setting up data
I0223 11:39:01.265991 27291 net.cpp:131] Top shape: 50 3 227 227 (7729350)
I0223 11:39:01.266000 27291 net.cpp:131] Top shape: 50 (50)
I0223 11:39:01.266006 27291 net.cpp:139] Memory required for data: 30917600
I0223 11:39:01.266016 27291 layer_factory.hpp:77] Creating layer label_data_1_split
I0223 11:39:01.266034 27291 net.cpp:86] Creating Layer label_data_1_split
I0223 11:39:01.266042 27291 net.cpp:408] label_data_1_split <- label
I0223 11:39:01.266054 27291 net.cpp:382] label_data_1_split -> label_data_1_split_0
I0223 11:39:01.266070 27291 net.cpp:382] label_data_1_split -> label_data_1_split_1
I0223 11:39:01.266156 27291 net.cpp:124] Setting up label_data_1_split
I0223 11:39:01.266168 27291 net.cpp:131] Top shape: 50 (50)
I0223 11:39:01.266175 27291 net.cpp:131] Top shape: 50 (50)
I0223 11:39:01.266180 27291 net.cpp:139] Memory required for data: 30918000
I0223 11:39:01.266185 27291 layer_factory.hpp:77] Creating layer conv1
I0223 11:39:01.266204 27291 net.cpp:86] Creating Layer conv1
I0223 11:39:01.266211 27291 net.cpp:408] conv1 <- data
I0223 11:39:01.266222 27291 net.cpp:382] conv1 -> conv1
I0223 11:39:01.273448 27291 net.cpp:124] Setting up conv1
I0223 11:39:01.273494 27291 net.cpp:131] Top shape: 50 96 55 55 (14520000)
I0223 11:39:01.273501 27291 net.cpp:139] Memory required for data: 88998000
I0223 11:39:01.273522 27291 layer_factory.hpp:77] Creating layer relu1
I0223 11:39:01.273536 27291 net.cpp:86] Creating Layer relu1
I0223 11:39:01.273543 27291 net.cpp:408] relu1 <- conv1
I0223 11:39:01.273552 27291 net.cpp:369] relu1 -> conv1 (in-place)
I0223 11:39:01.273766 27291 net.cpp:124] Setting up relu1
I0223 11:39:01.273780 27291 net.cpp:131] Top shape: 50 96 55 55 (14520000)
I0223 11:39:01.273787 27291 net.cpp:139] Memory required for data: 147078000
I0223 11:39:01.273792 27291 layer_factory.hpp:77] Creating layer pool1
I0223 11:39:01.273805 27291 net.cpp:86] Creating Layer pool1
I0223 11:39:01.273813 27291 net.cpp:408] pool1 <- conv1
I0223 11:39:01.273821 27291 net.cpp:382] pool1 -> pool1
I0223 11:39:01.273880 27291 net.cpp:124] Setting up pool1
I0223 11:39:01.273892 27291 net.cpp:131] Top shape: 50 96 27 27 (3499200)
I0223 11:39:01.273897 27291 net.cpp:139] Memory required for data: 161074800
I0223 11:39:01.273903 27291 layer_factory.hpp:77] Creating layer norm1
I0223 11:39:01.273914 27291 net.cpp:86] Creating Layer norm1
I0223 11:39:01.273921 27291 net.cpp:408] norm1 <- pool1
I0223 11:39:01.273929 27291 net.cpp:382] norm1 -> norm1
I0223 11:39:01.274368 27291 net.cpp:124] Setting up norm1
I0223 11:39:01.274386 27291 net.cpp:131] Top shape: 50 96 27 27 (3499200)
I0223 11:39:01.274392 27291 net.cpp:139] Memory required for data: 175071600
I0223 11:39:01.274425 27291 layer_factory.hpp:77] Creating layer conv2
I0223 11:39:01.274446 27291 net.cpp:86] Creating Layer conv2
I0223 11:39:01.274452 27291 net.cpp:408] conv2 <- norm1
I0223 11:39:01.274463 27291 net.cpp:382] conv2 -> conv2
I0223 11:39:01.282747 27291 net.cpp:124] Setting up conv2
I0223 11:39:01.282799 27291 net.cpp:131] Top shape: 50 256 27 27 (9331200)
I0223 11:39:01.282804 27291 net.cpp:139] Memory required for data: 212396400
I0223 11:39:01.282824 27291 layer_factory.hpp:77] Creating layer relu2
I0223 11:39:01.282840 27291 net.cpp:86] Creating Layer relu2
I0223 11:39:01.282847 27291 net.cpp:408] relu2 <- conv2
I0223 11:39:01.282858 27291 net.cpp:369] relu2 -> conv2 (in-place)
I0223 11:39:01.283076 27291 net.cpp:124] Setting up relu2
I0223 11:39:01.283102 27291 net.cpp:131] Top shape: 50 256 27 27 (9331200)
I0223 11:39:01.283123 27291 net.cpp:139] Memory required for data: 249721200
I0223 11:39:01.283128 27291 layer_factory.hpp:77] Creating layer pool2
I0223 11:39:01.283143 27291 net.cpp:86] Creating Layer pool2
I0223 11:39:01.283149 27291 net.cpp:408] pool2 <- conv2
I0223 11:39:01.283157 27291 net.cpp:382] pool2 -> pool2
I0223 11:39:01.283218 27291 net.cpp:124] Setting up pool2
I0223 11:39:01.283231 27291 net.cpp:131] Top shape: 50 256 13 13 (2163200)
I0223 11:39:01.283236 27291 net.cpp:139] Memory required for data: 258374000
I0223 11:39:01.283241 27291 layer_factory.hpp:77] Creating layer norm2
I0223 11:39:01.283253 27291 net.cpp:86] Creating Layer norm2
I0223 11:39:01.283259 27291 net.cpp:408] norm2 <- pool2
I0223 11:39:01.283268 27291 net.cpp:382] norm2 -> norm2
I0223 11:39:01.283702 27291 net.cpp:124] Setting up norm2
I0223 11:39:01.283718 27291 net.cpp:131] Top shape: 50 256 13 13 (2163200)
I0223 11:39:01.283725 27291 net.cpp:139] Memory required for data: 267026800
I0223 11:39:01.283730 27291 layer_factory.hpp:77] Creating layer conv3
I0223 11:39:01.283747 27291 net.cpp:86] Creating Layer conv3
I0223 11:39:01.283754 27291 net.cpp:408] conv3 <- norm2
I0223 11:39:01.283764 27291 net.cpp:382] conv3 -> conv3
I0223 11:39:01.299298 27291 net.cpp:124] Setting up conv3
I0223 11:39:01.299346 27291 net.cpp:131] Top shape: 50 384 13 13 (3244800)
I0223 11:39:01.299353 27291 net.cpp:139] Memory required for data: 280006000
I0223 11:39:01.299374 27291 layer_factory.hpp:77] Creating layer relu3
I0223 11:39:01.299388 27291 net.cpp:86] Creating Layer relu3
I0223 11:39:01.299396 27291 net.cpp:408] relu3 <- conv3
I0223 11:39:01.299407 27291 net.cpp:369] relu3 -> conv3 (in-place)
I0223 11:39:01.299808 27291 net.cpp:124] Setting up relu3
I0223 11:39:01.299823 27291 net.cpp:131] Top shape: 50 384 13 13 (3244800)
I0223 11:39:01.299829 27291 net.cpp:139] Memory required for data: 292985200
I0223 11:39:01.299835 27291 layer_factory.hpp:77] Creating layer conv4
I0223 11:39:01.299851 27291 net.cpp:86] Creating Layer conv4
I0223 11:39:01.299859 27291 net.cpp:408] conv4 <- conv3
I0223 11:39:01.299868 27291 net.cpp:382] conv4 -> conv4
I0223 11:39:01.322974 27291 net.cpp:124] Setting up conv4
I0223 11:39:01.323029 27291 net.cpp:131] Top shape: 50 384 13 13 (3244800)
I0223 11:39:01.323035 27291 net.cpp:139] Memory required for data: 305964400
I0223 11:39:01.323051 27291 layer_factory.hpp:77] Creating layer relu4
I0223 11:39:01.323066 27291 net.cpp:86] Creating Layer relu4
I0223 11:39:01.323074 27291 net.cpp:408] relu4 <- conv4
I0223 11:39:01.323086 27291 net.cpp:369] relu4 -> conv4 (in-place)
I0223 11:39:01.323320 27291 net.cpp:124] Setting up relu4
I0223 11:39:01.323334 27291 net.cpp:131] Top shape: 50 384 13 13 (3244800)
I0223 11:39:01.323340 27291 net.cpp:139] Memory required for data: 318943600
I0223 11:39:01.323348 27291 layer_factory.hpp:77] Creating layer conv5
I0223 11:39:01.323365 27291 net.cpp:86] Creating Layer conv5
I0223 11:39:01.323372 27291 net.cpp:408] conv5 <- conv4
I0223 11:39:01.323382 27291 net.cpp:382] conv5 -> conv5
I0223 11:39:01.333160 27291 net.cpp:124] Setting up conv5
I0223 11:39:01.333210 27291 net.cpp:131] Top shape: 50 256 13 13 (2163200)
I0223 11:39:01.333216 27291 net.cpp:139] Memory required for data: 327596400
I0223 11:39:01.333240 27291 layer_factory.hpp:77] Creating layer relu5
I0223 11:39:01.333256 27291 net.cpp:86] Creating Layer relu5
I0223 11:39:01.333263 27291 net.cpp:408] relu5 <- conv5
I0223 11:39:01.333276 27291 net.cpp:369] relu5 -> conv5 (in-place)
I0223 11:39:01.333497 27291 net.cpp:124] Setting up relu5
I0223 11:39:01.333511 27291 net.cpp:131] Top shape: 50 256 13 13 (2163200)
I0223 11:39:01.333518 27291 net.cpp:139] Memory required for data: 336249200
I0223 11:39:01.333523 27291 layer_factory.hpp:77] Creating layer pool5
I0223 11:39:01.333539 27291 net.cpp:86] Creating Layer pool5
I0223 11:39:01.333544 27291 net.cpp:408] pool5 <- conv5
I0223 11:39:01.333554 27291 net.cpp:382] pool5 -> pool5
I0223 11:39:01.333629 27291 net.cpp:124] Setting up pool5
I0223 11:39:01.333654 27291 net.cpp:131] Top shape: 50 256 6 6 (460800)
I0223 11:39:01.333660 27291 net.cpp:139] Memory required for data: 338092400
I0223 11:39:01.333667 27291 layer_factory.hpp:77] Creating layer fc6
I0223 11:39:01.333679 27291 net.cpp:86] Creating Layer fc6
I0223 11:39:01.333685 27291 net.cpp:408] fc6 <- pool5
I0223 11:39:01.333694 27291 net.cpp:382] fc6 -> fc6
I0223 11:39:01.925012 27291 net.cpp:124] Setting up fc6
I0223 11:39:01.925066 27291 net.cpp:131] Top shape: 50 4096 (204800)
I0223 11:39:01.925072 27291 net.cpp:139] Memory required for data: 338911600
I0223 11:39:01.925087 27291 layer_factory.hpp:77] Creating layer relu6
I0223 11:39:01.925102 27291 net.cpp:86] Creating Layer relu6
I0223 11:39:01.925109 27291 net.cpp:408] relu6 <- fc6
I0223 11:39:01.925120 27291 net.cpp:369] relu6 -> fc6 (in-place)
I0223 11:39:01.925688 27291 net.cpp:124] Setting up relu6
I0223 11:39:01.925704 27291 net.cpp:131] Top shape: 50 4096 (204800)
I0223 11:39:01.925710 27291 net.cpp:139] Memory required for data: 339730800
I0223 11:39:01.925717 27291 layer_factory.hpp:77] Creating layer drop6
I0223 11:39:01.925729 27291 net.cpp:86] Creating Layer drop6
I0223 11:39:01.925734 27291 net.cpp:408] drop6 <- fc6
I0223 11:39:01.925742 27291 net.cpp:369] drop6 -> fc6 (in-place)
I0223 11:39:01.925786 27291 net.cpp:124] Setting up drop6
I0223 11:39:01.925796 27291 net.cpp:131] Top shape: 50 4096 (204800)
I0223 11:39:01.925802 27291 net.cpp:139] Memory required for data: 340550000
I0223 11:39:01.925807 27291 layer_factory.hpp:77] Creating layer fc7
I0223 11:39:01.925819 27291 net.cpp:86] Creating Layer fc7
I0223 11:39:01.925825 27291 net.cpp:408] fc7 <- fc6
I0223 11:39:01.925834 27291 net.cpp:382] fc7 -> fc7
I0223 11:39:02.187759 27291 net.cpp:124] Setting up fc7
I0223 11:39:02.187809 27291 net.cpp:131] Top shape: 50 4096 (204800)
I0223 11:39:02.187815 27291 net.cpp:139] Memory required for data: 341369200
I0223 11:39:02.187830 27291 layer_factory.hpp:77] Creating layer relu7
I0223 11:39:02.187844 27291 net.cpp:86] Creating Layer relu7
I0223 11:39:02.187851 27291 net.cpp:408] relu7 <- fc7
I0223 11:39:02.187862 27291 net.cpp:369] relu7 -> fc7 (in-place)
I0223 11:39:02.188153 27291 net.cpp:124] Setting up relu7
I0223 11:39:02.188166 27291 net.cpp:131] Top shape: 50 4096 (204800)
I0223 11:39:02.188172 27291 net.cpp:139] Memory required for data: 342188400
I0223 11:39:02.188179 27291 layer_factory.hpp:77] Creating layer drop7
I0223 11:39:02.188189 27291 net.cpp:86] Creating Layer drop7
I0223 11:39:02.188195 27291 net.cpp:408] drop7 <- fc7
I0223 11:39:02.188204 27291 net.cpp:369] drop7 -> fc7 (in-place)
I0223 11:39:02.188246 27291 net.cpp:124] Setting up drop7
I0223 11:39:02.188257 27291 net.cpp:131] Top shape: 50 4096 (204800)
I0223 11:39:02.188262 27291 net.cpp:139] Memory required for data: 343007600
I0223 11:39:02.188268 27291 layer_factory.hpp:77] Creating layer fc8
I0223 11:39:02.188280 27291 net.cpp:86] Creating Layer fc8
I0223 11:39:02.188287 27291 net.cpp:408] fc8 <- fc7
I0223 11:39:02.188295 27291 net.cpp:382] fc8 -> fc8
I0223 11:39:02.407955 27291 net.cpp:124] Setting up fc8
I0223 11:39:02.408015 27291 net.cpp:131] Top shape: 50 1000 (50000)
I0223 11:39:02.408020 27291 net.cpp:139] Memory required for data: 343207600
I0223 11:39:02.408037 27291 layer_factory.hpp:77] Creating layer fc8_fc8_0_split
I0223 11:39:02.408052 27291 net.cpp:86] Creating Layer fc8_fc8_0_split
I0223 11:39:02.408061 27291 net.cpp:408] fc8_fc8_0_split <- fc8
I0223 11:39:02.408073 27291 net.cpp:382] fc8_fc8_0_split -> fc8_fc8_0_split_0
I0223 11:39:02.408090 27291 net.cpp:382] fc8_fc8_0_split -> fc8_fc8_0_split_1
I0223 11:39:02.408149 27291 net.cpp:124] Setting up fc8_fc8_0_split
I0223 11:39:02.408159 27291 net.cpp:131] Top shape: 50 1000 (50000)
I0223 11:39:02.408166 27291 net.cpp:131] Top shape: 50 1000 (50000)
I0223 11:39:02.408171 27291 net.cpp:139] Memory required for data: 343607600
I0223 11:39:02.408177 27291 layer_factory.hpp:77] Creating layer accuracy
I0223 11:39:02.408188 27291 net.cpp:86] Creating Layer accuracy
I0223 11:39:02.408210 27291 net.cpp:408] accuracy <- fc8_fc8_0_split_0
I0223 11:39:02.408231 27291 net.cpp:408] accuracy <- label_data_1_split_0
I0223 11:39:02.408241 27291 net.cpp:382] accuracy -> accuracy
…
