…
I0329 22:19:25.787144 16096 net.cpp:296] The NetState phase (0) differed from the phase (1) specified by a rule in layer accuracy
I0329 22:19:25.787544 16096 net.cpp:53] Initializing net from parameters: 
name: "CaffeNet"
state {
  phase: TRAIN
  level: 0
  stage: ""
}
layer {
  name: "data"
  type: "Data"
  top: "data"
  top: "label"
  include {
    phase: TRAIN
  }
  transform_param {
    mirror: true
    crop_size: 227
    mean_file: "data/ilsvrc12/imagenet_mean.binaryproto"
  }
  data_param {
    source: "examples/imagenet/ilsvrc12_train_lmdb"
    batch_size: 256
    backend: LMDB
  }
}
layer {
  name: "conv1"
  type: "Convolution"
  bottom: "data"
  top: "conv1"
  param {
    lr_mult: 1
    decay_mult: 1
  }
  param {
    lr_mult: 2
    decay_mult: 0
  }
  convolution_param {
    num_output: 96
    kernel_size: 11
    stride: 4
    weight_filler {
      type: "gaussian"
      std: 0.01
    }
    bias_filler {
      type: "constant"
      value: 0
    }
  }
}
layer {
  name: "relu1"
  type: "ReLU"
  bottom: "conv1"
  top: "conv1"
}
layer {
  name: "pool1"
  type: "Pooling"
  bottom: "conv1"
  top: "pool1"
  pooling_param {
    pool: MAX
    kernel_size: 3
    stride: 2
  }
}
layer {
  name: "norm1"
  type: "LRN"
  bottom: "pool1"
  top: "norm1"
  lrn_param {
    local_size: 5
    alpha: 0.0001
    beta: 0.75
  }
}
layer {
  name: "conv2"
  type: "Convolution"
  bottom: "norm1"
  top: "conv2"
  param {
    lr_mult: 1
    decay_mult: 1
  }
  param {
    lr_mult: 2
    decay_mult: 0
  }
  convolution_param {
    num_output: 256
    pad: 2
    kernel_size: 5
    group: 2
    weight_filler {
      type: "gaussian"
      std: 0.01
    }
    bias_filler {
      type: "constant"
      value: 1
    }
  }
}
layer {
  name: "relu2"
  type: "ReLU"
  bottom: "conv2"
  top: "conv2"
}
layer {
  name: "pool2"
  type: "Pooling"
  bottom: "conv2"
  top: "pool2"
  pooling_param {
    pool: MAX
    kernel_size: 3
    stride: 2
  }
}
layer {
  name: "norm2"
  type: "LRN"
  bottom: "pool2"
  top: "norm2"
  lrn_param {
    local_size: 5
    alpha: 0.0001
    beta: 0.75
  }
}
layer {
  name: "conv3"
  type: "Convolution"
  bottom: "norm2"
  top: "conv3"
  param {
    lr_mult: 1
    decay_mult: 1
  }
  param {
    lr_mult: 2
    decay_mult: 0
  }
  convolution_param {
    num_output: 384
    pad: 1
    kernel_size: 3
    weight_filler {
      type: "gaussian"
      std: 0.01
    }
    bias_filler {
      type: "constant"
      value: 0
    }
  }
}
layer {
  name: "relu3"
  type: "ReLU"
  bottom: "conv3"
  top: "conv3"
}
layer {
  name: "conv4"
  type: "Convolution"
  bottom: "conv3"
  top: "conv4"
  param {
    lr_mult: 1
    decay_mult: 1
  }
  param {
    lr_mult: 2
    decay_mult: 0
  }
  convolution_param {
    num_output: 384
    pad: 1
    kernel_size: 3
    group: 2
    weight_filler {
      type: "gaussian"
      std: 0.01
    }
    bias_filler {
      type: "constant"
      value: 1
    }
  }
}
layer {
  name: "relu4"
  type: "ReLU"
  bottom: "conv4"
  top: "conv4"
}
layer {
  name: "conv5"
  type: "Convolution"
  bottom: "conv4"
  top: "conv5"
  param {
    lr_mult: 1
    decay_mult: 1
  }
  param {
    lr_mult: 2
    decay_mult: 0
  }
  convolution_param {
    num_output: 256
    pad: 1
    kernel_size: 3
    group: 2
    weight_filler {
      type: "gaussian"
      std: 0.01
    }
    bias_filler {
      type: "constant"
      value: 1
    }
  }
}
layer {
  name: "relu5"
  type: "ReLU"
  bottom: "conv5"
  top: "conv5"
}
layer {
  name: "pool5"
  type: "Pooling"
  bottom: "conv5"
  top: "pool5"
  pooling_param {
    pool: MAX
    kernel_size: 3
    stride: 2
  }
}
layer {
  name: "fc6"
  type: "InnerProduct"
  bottom: "pool5"
  top: "fc6"
  param {
    lr_mult: 1
    decay_mult: 1
  }
  param {
    lr_mult: 2
    decay_mult: 0
  }
  inner_product_param {
    num_output: 4096
    weight_filler {
      type: "gaussian"
      std: 0.005
    }
    bias_filler {
      type: "constant"
      value: 1
    }
  }
}
layer {
  name: "relu6"
  type: "ReLU"
  bottom: "fc6"
  top: "fc6"
}
layer {
  name: "drop6"
  type: "Dropout"
  bottom: "fc6"
  top: "fc6"
  dropout_param {
    dropout_ratio: 0.5
  }
}
layer {
  name: "fc7"
  type: "InnerProduct"
  bottom: "fc6"
  top: "fc7"
  param {
    lr_mult: 1
    decay_mult: 1
  }
  param {
    lr_mult: 2
    decay_mult: 0
  }
  inner_product_param {
    num_output: 4096
    weight_filler {
      type: "gaussian"
      std: 0.005
    }
    bias_filler {
      type: "constant"
      value: 1
    }
  }
}
layer {
  name: "relu7"
  type: "ReLU"
  bottom: "fc7"
  top: "fc7"
}
layer {
  name: "drop7"
  type: "Dropout"
  bottom: "fc7"
  top: "fc7"
  dropout_param {
    dropout_ratio: 0.5
  }
}
layer {
  name: "fc8"
  type: "InnerProduct"
  bottom: "fc7"
  top: "fc8"
  param {
    lr_mult: 1
    decay_mult: 1
  }
  param {
    lr_mult: 2
    decay_mult: 0
  }
  inner_product_param {
    num_output: 1000
    weight_filler {
      type: "gaussian"
      std: 0.01
    }
    bias_filler {
      type: "constant"
      value: 0
    }
  }
}
layer {
  name: "loss"
  type: "SoftmaxWithLoss"
  bottom: "fc8"
  bottom: "label"
  top: "loss"
}
I0329 22:19:25.787750 16096 layer_factory.hpp:77] Creating layer data
I0329 22:19:25.787956 16096 db_lmdb.cpp:35] Opened lmdb examples/imagenet/ilsvrc12_train_lmdb
I0329 22:19:25.815311 16096 net.cpp:86] Creating Layer data
I0329 22:19:25.815366 16096 net.cpp:382] data -> data
I0329 22:19:25.815428 16096 net.cpp:382] data -> label
I0329 22:19:25.815465 16096 data_transformer.cpp:25] Loading mean file from: data/ilsvrc12/imagenet_mean.binaryproto
I0329 22:19:25.876457 16096 data_layer.cpp:45] output data size: 256,3,227,227
I0329 22:19:26.467491 16096 net.cpp:124] Setting up data
I0329 22:19:26.467548 16096 net.cpp:131] Top shape: 256 3 227 227 (39574272)
I0329 22:19:26.467557 16096 net.cpp:131] Top shape: 256 (256)
I0329 22:19:26.467562 16096 net.cpp:139] Memory required for data: 158298112
I0329 22:19:26.467577 16096 layer_factory.hpp:77] Creating layer conv1
I0329 22:19:26.467609 16096 net.cpp:86] Creating Layer conv1
I0329 22:19:26.467619 16096 net.cpp:408] conv1 <- data
I0329 22:19:26.467639 16096 net.cpp:382] conv1 -> conv1
I0329 22:19:27.022469 16096 net.cpp:124] Setting up conv1
I0329 22:19:27.022518 16096 net.cpp:131] Top shape: 256 96 55 55 (74342400)
I0329 22:19:27.022526 16096 net.cpp:139] Memory required for data: 455667712
I0329 22:19:27.022573 16096 layer_factory.hpp:77] Creating layer relu1
I0329 22:19:27.022593 16096 net.cpp:86] Creating Layer relu1
I0329 22:19:27.022601 16096 net.cpp:408] relu1 <- conv1
I0329 22:19:27.022611 16096 net.cpp:369] relu1 -> conv1 (in-place)
I0329 22:19:27.023020 16096 net.cpp:124] Setting up relu1
I0329 22:19:27.023036 16096 net.cpp:131] Top shape: 256 96 55 55 (74342400)
I0329 22:19:27.023042 16096 net.cpp:139] Memory required for data: 753037312
I0329 22:19:27.023048 16096 layer_factory.hpp:77] Creating layer pool1
I0329 22:19:27.023059 16096 net.cpp:86] Creating Layer pool1
I0329 22:19:27.023066 16096 net.cpp:408] pool1 <- conv1
I0329 22:19:27.023075 16096 net.cpp:382] pool1 -> pool1
I0329 22:19:27.023136 16096 net.cpp:124] Setting up pool1
I0329 22:19:27.023149 16096 net.cpp:131] Top shape: 256 96 27 27 (17915904)
I0329 22:19:27.023154 16096 net.cpp:139] Memory required for data: 824700928
I0329 22:19:27.023159 16096 layer_factory.hpp:77] Creating layer norm1
I0329 22:19:27.023175 16096 net.cpp:86] Creating Layer norm1
I0329 22:19:27.023191 16096 net.cpp:408] norm1 <- pool1
I0329 22:19:27.023212 16096 net.cpp:382] norm1 -> norm1
I0329 22:19:27.023450 16096 net.cpp:124] Setting up norm1
I0329 22:19:27.023465 16096 net.cpp:131] Top shape: 256 96 27 27 (17915904)
I0329 22:19:27.023470 16096 net.cpp:139] Memory required for data: 896364544
I0329 22:19:27.023476 16096 layer_factory.hpp:77] Creating layer conv2
I0329 22:19:27.023494 16096 net.cpp:86] Creating Layer conv2
I0329 22:19:27.023500 16096 net.cpp:408] conv2 <- norm1
I0329 22:19:27.023510 16096 net.cpp:382] conv2 -> conv2
I0329 22:19:27.031533 16096 net.cpp:124] Setting up conv2
I0329 22:19:27.031569 16096 net.cpp:131] Top shape: 256 256 27 27 (47775744)
I0329 22:19:27.031575 16096 net.cpp:139] Memory required for data: 1087467520
I0329 22:19:27.031594 16096 layer_factory.hpp:77] Creating layer relu2
I0329 22:19:27.031605 16096 net.cpp:86] Creating Layer relu2
I0329 22:19:27.031616 16096 net.cpp:408] relu2 <- conv2
I0329 22:19:27.031626 16096 net.cpp:369] relu2 -> conv2 (in-place)
I0329 22:19:27.031850 16096 net.cpp:124] Setting up relu2
I0329 22:19:27.031867 16096 net.cpp:131] Top shape: 256 256 27 27 (47775744)
I0329 22:19:27.031872 16096 net.cpp:139] Memory required for data: 1278570496
I0329 22:19:27.031878 16096 layer_factory.hpp:77] Creating layer pool2
I0329 22:19:27.031889 16096 net.cpp:86] Creating Layer pool2
I0329 22:19:27.031895 16096 net.cpp:408] pool2 <- conv2
I0329 22:19:27.031904 16096 net.cpp:382] pool2 -> pool2
I0329 22:19:27.031961 16096 net.cpp:124] Setting up pool2
I0329 22:19:27.031972 16096 net.cpp:131] Top shape: 256 256 13 13 (11075584)
I0329 22:19:27.031978 16096 net.cpp:139] Memory required for data: 1322872832
I0329 22:19:27.031983 16096 layer_factory.hpp:77] Creating layer norm2
I0329 22:19:27.031998 16096 net.cpp:86] Creating Layer norm2
I0329 22:19:27.032004 16096 net.cpp:408] norm2 <- pool2
I0329 22:19:27.032013 16096 net.cpp:382] norm2 -> norm2
I0329 22:19:27.032515 16096 net.cpp:124] Setting up norm2
I0329 22:19:27.032533 16096 net.cpp:131] Top shape: 256 256 13 13 (11075584)
I0329 22:19:27.032539 16096 net.cpp:139] Memory required for data: 1367175168
I0329 22:19:27.032562 16096 layer_factory.hpp:77] Creating layer conv3
I0329 22:19:27.032595 16096 net.cpp:86] Creating Layer conv3
I0329 22:19:27.032609 16096 net.cpp:408] conv3 <- norm2
I0329 22:19:27.032629 16096 net.cpp:382] conv3 -> conv3
I0329 22:19:27.053499 16096 net.cpp:124] Setting up conv3
I0329 22:19:27.053547 16096 net.cpp:131] Top shape: 256 384 13 13 (16613376)
I0329 22:19:27.053553 16096 net.cpp:139] Memory required for data: 1433628672
I0329 22:19:27.053587 16096 layer_factory.hpp:77] Creating layer relu3
I0329 22:19:27.053604 16096 net.cpp:86] Creating Layer relu3
I0329 22:19:27.053613 16096 net.cpp:408] relu3 <- conv3
I0329 22:19:27.053625 16096 net.cpp:369] relu3 -> conv3 (in-place)
I0329 22:19:27.053889 16096 net.cpp:124] Setting up relu3
I0329 22:19:27.053908 16096 net.cpp:131] Top shape: 256 384 13 13 (16613376)
I0329 22:19:27.053916 16096 net.cpp:139] Memory required for data: 1500082176
I0329 22:19:27.053923 16096 layer_factory.hpp:77] Creating layer conv4
I0329 22:19:27.053943 16096 net.cpp:86] Creating Layer conv4
I0329 22:19:27.053951 16096 net.cpp:408] conv4 <- conv3
I0329 22:19:27.053962 16096 net.cpp:382] conv4 -> conv4
I0329 22:19:27.068037 16096 net.cpp:124] Setting up conv4
I0329 22:19:27.068081 16096 net.cpp:131] Top shape: 256 384 13 13 (16613376)
I0329 22:19:27.068089 16096 net.cpp:139] Memory required for data: 1566535680
I0329 22:19:27.068102 16096 layer_factory.hpp:77] Creating layer relu4
I0329 22:19:27.068116 16096 net.cpp:86] Creating Layer relu4
I0329 22:19:27.068123 16096 net.cpp:408] relu4 <- conv4
I0329 22:19:27.068137 16096 net.cpp:369] relu4 -> conv4 (in-place)
I0329 22:19:27.068369 16096 net.cpp:124] Setting up relu4
I0329 22:19:27.068385 16096 net.cpp:131] Top shape: 256 384 13 13 (16613376)
I0329 22:19:27.068390 16096 net.cpp:139] Memory required for data: 1632989184
I0329 22:19:27.068397 16096 layer_factory.hpp:77] Creating layer conv5
I0329 22:19:27.068425 16096 net.cpp:86] Creating Layer conv5
I0329 22:19:27.068454 16096 net.cpp:408] conv5 <- conv4
I0329 22:19:27.068465 16096 net.cpp:382] conv5 -> conv5
I0329 22:19:27.078694 16096 net.cpp:124] Setting up conv5
I0329 22:19:27.078727 16096 net.cpp:131] Top shape: 256 256 13 13 (11075584)
I0329 22:19:27.078734 16096 net.cpp:139] Memory required for data: 1677291520
I0329 22:19:27.078752 16096 layer_factory.hpp:77] Creating layer relu5
I0329 22:19:27.078766 16096 net.cpp:86] Creating Layer relu5
I0329 22:19:27.078773 16096 net.cpp:408] relu5 <- conv5
I0329 22:19:27.078784 16096 net.cpp:369] relu5 -> conv5 (in-place)
I0329 22:19:27.079007 16096 net.cpp:124] Setting up relu5
I0329 22:19:27.079021 16096 net.cpp:131] Top shape: 256 256 13 13 (11075584)
I0329 22:19:27.079027 16096 net.cpp:139] Memory required for data: 1721593856
I0329 22:19:27.079033 16096 layer_factory.hpp:77] Creating layer pool5
I0329 22:19:27.079046 16096 net.cpp:86] Creating Layer pool5
I0329 22:19:27.079053 16096 net.cpp:408] pool5 <- conv5
I0329 22:19:27.079064 16096 net.cpp:382] pool5 -> pool5
I0329 22:19:27.079123 16096 net.cpp:124] Setting up pool5
I0329 22:19:27.079134 16096 net.cpp:131] Top shape: 256 256 6 6 (2359296)
I0329 22:19:27.079140 16096 net.cpp:139] Memory required for data: 1731031040
I0329 22:19:27.079146 16096 layer_factory.hpp:77] Creating layer fc6
I0329 22:19:27.079164 16096 net.cpp:86] Creating Layer fc6
I0329 22:19:27.079170 16096 net.cpp:408] fc6 <- pool5
I0329 22:19:27.079180 16096 net.cpp:382] fc6 -> fc6
I0329 22:19:27.671298 16096 net.cpp:124] Setting up fc6
I0329 22:19:27.671344 16096 net.cpp:131] Top shape: 256 4096 (1048576)
I0329 22:19:27.671350 16096 net.cpp:139] Memory required for data: 1735225344
I0329 22:19:27.671365 16096 layer_factory.hpp:77] Creating layer relu6
I0329 22:19:27.671378 16096 net.cpp:86] Creating Layer relu6
I0329 22:19:27.671386 16096 net.cpp:408] relu6 <- fc6
I0329 22:19:27.671397 16096 net.cpp:369] relu6 -> fc6 (in-place)
I0329 22:19:27.671968 16096 net.cpp:124] Setting up relu6
I0329 22:19:27.671984 16096 net.cpp:131] Top shape: 256 4096 (1048576)
I0329 22:19:27.671990 16096 net.cpp:139] Memory required for data: 1739419648
I0329 22:19:27.671996 16096 layer_factory.hpp:77] Creating layer drop6
I0329 22:19:27.672018 16096 net.cpp:86] Creating Layer drop6
I0329 22:19:27.672024 16096 net.cpp:408] drop6 <- fc6
I0329 22:19:27.672032 16096 net.cpp:369] drop6 -> fc6 (in-place)
I0329 22:19:27.672072 16096 net.cpp:124] Setting up drop6
I0329 22:19:27.672083 16096 net.cpp:131] Top shape: 256 4096 (1048576)
I0329 22:19:27.672088 16096 net.cpp:139] Memory required for data: 1743613952
I0329 22:19:27.672094 16096 layer_factory.hpp:77] Creating layer fc7
I0329 22:19:27.672106 16096 net.cpp:86] Creating Layer fc7
I0329 22:19:27.672111 16096 net.cpp:408] fc7 <- fc6
I0329 22:19:27.672122 16096 net.cpp:382] fc7 -> fc7
I0329 22:19:27.935652 16096 net.cpp:124] Setting up fc7
I0329 22:19:27.935698 16096 net.cpp:131] Top shape: 256 4096 (1048576)
I0329 22:19:27.935704 16096 net.cpp:139] Memory required for data: 1747808256
I0329 22:19:27.935719 16096 layer_factory.hpp:77] Creating layer relu7
I0329 22:19:27.935734 16096 net.cpp:86] Creating Layer relu7
I0329 22:19:27.935740 16096 net.cpp:408] relu7 <- fc7
I0329 22:19:27.935753 16096 net.cpp:369] relu7 -> fc7 (in-place)
I0329 22:19:27.936055 16096 net.cpp:124] Setting up relu7
I0329 22:19:27.936070 16096 net.cpp:131] Top shape: 256 4096 (1048576)
I0329 22:19:27.936075 16096 net.cpp:139] Memory required for data: 1752002560
I0329 22:19:27.936082 16096 layer_factory.hpp:77] Creating layer drop7
I0329 22:19:27.936092 16096 net.cpp:86] Creating Layer drop7
I0329 22:19:27.936100 16096 net.cpp:408] drop7 <- fc7
I0329 22:19:27.936110 16096 net.cpp:369] drop7 -> fc7 (in-place)
I0329 22:19:27.936141 16096 net.cpp:124] Setting up drop7
I0329 22:19:27.936151 16096 net.cpp:131] Top shape: 256 4096 (1048576)
I0329 22:19:27.936157 16096 net.cpp:139] Memory required for data: 1756196864
I0329 22:19:27.936162 16096 layer_factory.hpp:77] Creating layer fc8
I0329 22:19:27.936178 16096 net.cpp:86] Creating Layer fc8
I0329 22:19:27.936192 16096 net.cpp:408] fc8 <- fc7
I0329 22:19:27.936216 16096 net.cpp:382] fc8 -> fc8
I0329 22:19:28.000879 16096 net.cpp:124] Setting up fc8
I0329 22:19:28.000924 16096 net.cpp:131] Top shape: 256 1000 (256000)
I0329 22:19:28.000931 16096 net.cpp:139] Memory required for data: 1757220864
I0329 22:19:28.000946 16096 layer_factory.hpp:77] Creating layer loss
I0329 22:19:28.000960 16096 net.cpp:86] Creating Layer loss
I0329 22:19:28.000967 16096 net.cpp:408] loss <- fc8
I0329 22:19:28.000977 16096 net.cpp:408] loss <- label
I0329 22:19:28.000990 16096 net.cpp:382] loss -> loss
I0329 22:19:28.001013 16096 layer_factory.hpp:77] Creating layer loss
…
I0329 22:19:28.003013 16096 net.cpp:296] The NetState phase (1) differed from the phase (0) specified by a rule in layer data
I0329 22:19:28.003255 16096 net.cpp:53] Initializing net from parameters: 
name: "CaffeNet"
state {
  phase: TEST
}
layer {
  name: "data"
  type: "Data"
  top: "data"
  top: "label"
  include {
    phase: TEST
  }
  transform_param {
    mirror: false
    crop_size: 227
    mean_file: "data/ilsvrc12/imagenet_mean.binaryproto"
  }
  data_param {
    source: "examples/imagenet/ilsvrc12_val_lmdb"
    batch_size: 50
    backend: LMDB
  }
}
layer {
  name: "conv1"
  type: "Convolution"
  bottom: "data"
  top: "conv1"
  param {
    lr_mult: 1
    decay_mult: 1
  }
  param {
    lr_mult: 2
    decay_mult: 0
  }
  convolution_param {
    num_output: 96
    kernel_size: 11
    stride: 4
    weight_filler {
      type: "gaussian"
      std: 0.01
    }
    bias_filler {
      type: "constant"
      value: 0
    }
  }
}
layer {
  name: "relu1"
  type: "ReLU"
  bottom: "conv1"
  top: "conv1"
}
layer {
  name: "pool1"
  type: "Pooling"
  bottom: "conv1"
  top: "pool1"
  pooling_param {
    pool: MAX
    kernel_size: 3
    stride: 2
  }
}
layer {
  name: "norm1"
  type: "LRN"
  bottom: "pool1"
  top: "norm1"
  lrn_param {
    local_size: 5
    alpha: 0.0001
    beta: 0.75
  }
}
layer {
  name: "conv2"
  type: "Convolution"
  bottom: "norm1"
  top: "conv2"
  param {
    lr_mult: 1
    decay_mult: 1
  }
  param {
    lr_mult: 2
    decay_mult: 0
  }
  convolution_param {
    num_output: 256
    pad: 2
    kernel_size: 5
    group: 2
    weight_filler {
      type: "gaussian"
      std: 0.01
    }
    bias_filler {
      type: "constant"
      value: 1
    }
  }
}
layer {
  name: "relu2"
  type: "ReLU"
  bottom: "conv2"
  top: "conv2"
}
layer {
  name: "pool2"
  type: "Pooling"
  bottom: "conv2"
  top: "pool2"
  pooling_param {
    pool: MAX
    kernel_size: 3
    stride: 2
  }
}
layer {
  name: "norm2"
  type: "LRN"
  bottom: "pool2"
  top: "norm2"
  lrn_param {
    local_size: 5
    alpha: 0.0001
    beta: 0.75
  }
}
layer {
  name: "conv3"
  type: "Convolution"
  bottom: "norm2"
  top: "conv3"
  param {
    lr_mult: 1
    decay_mult: 1
  }
  param {
    lr_mult: 2
    decay_mult: 0
  }
  convolution_param {
    num_output: 384
    pad: 1
    kernel_size: 3
    weight_filler {
      type: "gaussian"
      std: 0.01
    }
    bias_filler {
      type: "constant"
      value: 0
    }
  }
}
layer {
  name: "relu3"
  type: "ReLU"
  bottom: "conv3"
  top: "conv3"
}
layer {
  name: "conv4"
  type: "Convolution"
  bottom: "conv3"
  top: "conv4"
  param {
    lr_mult: 1
    decay_mult: 1
  }
  param {
    lr_mult: 2
    decay_mult: 0
  }
  convolution_param {
    num_output: 384
    pad: 1
    kernel_size: 3
    group: 2
    weight_filler {
      type: "gaussian"
      std: 0.01
    }
    bias_filler {
      type: "constant"
      value: 1
    }
  }
}
layer {
  name: "relu4"
  type: "ReLU"
  bottom: "conv4"
  top: "conv4"
}
layer {
  name: "conv5"
  type: "Convolution"
  bottom: "conv4"
  top: "conv5"
  param {
    lr_mult: 1
    decay_mult: 1
  }
  param {
    lr_mult: 2
    decay_mult: 0
  }
  convolution_param {
    num_output: 256
    pad: 1
    kernel_size: 3
    group: 2
    weight_filler {
      type: "gaussian"
      std: 0.01
    }
    bias_filler {
      type: "constant"
      value: 1
    }
  }
}
layer {
  name: "relu5"
  type: "ReLU"
  bottom: "conv5"
  top: "conv5"
}
layer {
  name: "pool5"
  type: "Pooling"
  bottom: "conv5"
  top: "pool5"
  pooling_param {
    pool: MAX
    kernel_size: 3
    stride: 2
  }
}
layer {
  name: "fc6"
  type: "InnerProduct"
  bottom: "pool5"
  top: "fc6"
  param {
    lr_mult: 1
    decay_mult: 1
  }
  param {
    lr_mult: 2
    decay_mult: 0
  }
  inner_product_param {
    num_output: 4096
    weight_filler {
      type: "gaussian"
      std: 0.005
    }
    bias_filler {
      type: "constant"
      value: 1
    }
  }
}
layer {
  name: "relu6"
  type: "ReLU"
  bottom: "fc6"
  top: "fc6"
}
layer {
  name: "drop6"
  type: "Dropout"
  bottom: "fc6"
  top: "fc6"
  dropout_param {
    dropout_ratio: 0.5
  }
}
layer {
  name: "fc7"
  type: "InnerProduct"
  bottom: "fc6"
  top: "fc7"
  param {
    lr_mult: 1
    decay_mult: 1
  }
  param {
    lr_mult: 2
    decay_mult: 0
  }
  inner_product_param {
    num_output: 4096
    weight_filler {
      type: "gaussian"
      std: 0.005
    }
    bias_filler {
      type: "constant"
      value: 1
    }
  }
}
layer {
  name: "relu7"
  type: "ReLU"
  bottom: "fc7"
  top: "fc7"
}
layer {
  name: "drop7"
  type: "Dropout"
  bottom: "fc7"
  top: "fc7"
  dropout_param {
    dropout_ratio: 0.5
  }
}
layer {
  name: "fc8"
  type: "InnerProduct"
  bottom: "fc7"
  top: "fc8"
  param {
    lr_mult: 1
    decay_mult: 1
  }
  param {
    lr_mult: 2
    decay_mult: 0
  }
  inner_product_param {
    num_output: 1000
    weight_filler {
      type: "gaussian"
      std: 0.01
    }
    bias_filler {
      type: "constant"
      value: 0
    }
  }
}
layer {
  name: "accuracy"
  type: "Accuracy"
  bottom: "fc8"
  bottom: "label"
  top: "accuracy"
  include {
    phase: TEST
  }
}
layer {
  name: "loss"
  type: "SoftmaxWithLoss"
  bottom: "fc8"
  bottom: "label"
  top: "loss"
}
I0329 22:19:28.003414 16096 layer_factory.hpp:77] Creating layer data
I0329 22:19:28.003509 16096 db_lmdb.cpp:35] Opened lmdb examples/imagenet/ilsvrc12_val_lmdb
I0329 22:19:28.003536 16096 net.cpp:86] Creating Layer data
I0329 22:19:28.003546 16096 net.cpp:382] data -> data
I0329 22:19:28.003563 16096 net.cpp:382] data -> label
I0329 22:19:28.003576 16096 data_transformer.cpp:25] Loading mean file from: data/ilsvrc12/imagenet_mean.binaryproto
I0329 22:19:28.006073 16096 data_layer.cpp:45] output data size: 50,3,227,227
I0329 22:19:28.087416 16096 net.cpp:124] Setting up data
I0329 22:19:28.087468 16096 net.cpp:131] Top shape: 50 3 227 227 (7729350)
I0329 22:19:28.087477 16096 net.cpp:131] Top shape: 50 (50)
I0329 22:19:28.087482 16096 net.cpp:139] Memory required for data: 30917600
I0329 22:19:28.087492 16096 layer_factory.hpp:77] Creating layer label_data_1_split
I0329 22:19:28.087510 16096 net.cpp:86] Creating Layer label_data_1_split
I0329 22:19:28.087518 16096 net.cpp:408] label_data_1_split <- label
I0329 22:19:28.087529 16096 net.cpp:382] label_data_1_split -> label_data_1_split_0
I0329 22:19:28.087548 16096 net.cpp:382] label_data_1_split -> label_data_1_split_1
I0329 22:19:28.087646 16096 net.cpp:124] Setting up label_data_1_split
I0329 22:19:28.087659 16096 net.cpp:131] Top shape: 50 (50)
I0329 22:19:28.087666 16096 net.cpp:131] Top shape: 50 (50)
I0329 22:19:28.087671 16096 net.cpp:139] Memory required for data: 30918000
I0329 22:19:28.087677 16096 layer_factory.hpp:77] Creating layer conv1
I0329 22:19:28.087695 16096 net.cpp:86] Creating Layer conv1
I0329 22:19:28.087702 16096 net.cpp:408] conv1 <- data
I0329 22:19:28.087713 16096 net.cpp:382] conv1 -> conv1
I0329 22:19:28.094535 16096 net.cpp:124] Setting up conv1
I0329 22:19:28.094578 16096 net.cpp:131] Top shape: 50 96 55 55 (14520000)
I0329 22:19:28.094584 16096 net.cpp:139] Memory required for data: 88998000
I0329 22:19:28.094605 16096 layer_factory.hpp:77] Creating layer relu1
I0329 22:19:28.094617 16096 net.cpp:86] Creating Layer relu1
I0329 22:19:28.094624 16096 net.cpp:408] relu1 <- conv1
I0329 22:19:28.094635 16096 net.cpp:369] relu1 -> conv1 (in-place)
I0329 22:19:28.094852 16096 net.cpp:124] Setting up relu1
I0329 22:19:28.094867 16096 net.cpp:131] Top shape: 50 96 55 55 (14520000)
I0329 22:19:28.094873 16096 net.cpp:139] Memory required for data: 147078000
I0329 22:19:28.094879 16096 layer_factory.hpp:77] Creating layer pool1
I0329 22:19:28.094892 16096 net.cpp:86] Creating Layer pool1
I0329 22:19:28.094899 16096 net.cpp:408] pool1 <- conv1
I0329 22:19:28.094908 16096 net.cpp:382] pool1 -> pool1
I0329 22:19:28.094964 16096 net.cpp:124] Setting up pool1
I0329 22:19:28.094976 16096 net.cpp:131] Top shape: 50 96 27 27 (3499200)
I0329 22:19:28.094981 16096 net.cpp:139] Memory required for data: 161074800
I0329 22:19:28.094987 16096 layer_factory.hpp:77] Creating layer norm1
I0329 22:19:28.094998 16096 net.cpp:86] Creating Layer norm1
I0329 22:19:28.095005 16096 net.cpp:408] norm1 <- pool1
I0329 22:19:28.095013 16096 net.cpp:382] norm1 -> norm1
I0329 22:19:28.095459 16096 net.cpp:124] Setting up norm1
I0329 22:19:28.095476 16096 net.cpp:131] Top shape: 50 96 27 27 (3499200)
I0329 22:19:28.095482 16096 net.cpp:139] Memory required for data: 175071600
I0329 22:19:28.095489 16096 layer_factory.hpp:77] Creating layer conv2
I0329 22:19:28.095506 16096 net.cpp:86] Creating Layer conv2
I0329 22:19:28.095512 16096 net.cpp:408] conv2 <- norm1
I0329 22:19:28.095522 16096 net.cpp:382] conv2 -> conv2
I0329 22:19:28.103070 16096 net.cpp:124] Setting up conv2
I0329 22:19:28.103121 16096 net.cpp:131] Top shape: 50 256 27 27 (9331200)
I0329 22:19:28.103128 16096 net.cpp:139] Memory required for data: 212396400
I0329 22:19:28.103149 16096 layer_factory.hpp:77] Creating layer relu2
I0329 22:19:28.103165 16096 net.cpp:86] Creating Layer relu2
I0329 22:19:28.103173 16096 net.cpp:408] relu2 <- conv2
I0329 22:19:28.103184 16096 net.cpp:369] relu2 -> conv2 (in-place)
I0329 22:19:28.103412 16096 net.cpp:124] Setting up relu2
I0329 22:19:28.103437 16096 net.cpp:131] Top shape: 50 256 27 27 (9331200)
I0329 22:19:28.103456 16096 net.cpp:139] Memory required for data: 249721200
I0329 22:19:28.103461 16096 layer_factory.hpp:77] Creating layer pool2
I0329 22:19:28.103476 16096 net.cpp:86] Creating Layer pool2
I0329 22:19:28.103482 16096 net.cpp:408] pool2 <- conv2
I0329 22:19:28.103490 16096 net.cpp:382] pool2 -> pool2
I0329 22:19:28.103552 16096 net.cpp:124] Setting up pool2
I0329 22:19:28.103564 16096 net.cpp:131] Top shape: 50 256 13 13 (2163200)
I0329 22:19:28.103570 16096 net.cpp:139] Memory required for data: 258374000
I0329 22:19:28.103575 16096 layer_factory.hpp:77] Creating layer norm2
I0329 22:19:28.103586 16096 net.cpp:86] Creating Layer norm2
I0329 22:19:28.103592 16096 net.cpp:408] norm2 <- pool2
I0329 22:19:28.103601 16096 net.cpp:382] norm2 -> norm2
I0329 22:19:28.104061 16096 net.cpp:124] Setting up norm2
I0329 22:19:28.104079 16096 net.cpp:131] Top shape: 50 256 13 13 (2163200)
I0329 22:19:28.104084 16096 net.cpp:139] Memory required for data: 267026800
I0329 22:19:28.104090 16096 layer_factory.hpp:77] Creating layer conv3
I0329 22:19:28.104107 16096 net.cpp:86] Creating Layer conv3
I0329 22:19:28.104113 16096 net.cpp:408] conv3 <- norm2
I0329 22:19:28.104125 16096 net.cpp:382] conv3 -> conv3
I0329 22:19:28.119585 16096 net.cpp:124] Setting up conv3
I0329 22:19:28.119637 16096 net.cpp:131] Top shape: 50 384 13 13 (3244800)
I0329 22:19:28.119642 16096 net.cpp:139] Memory required for data: 280006000
I0329 22:19:28.119664 16096 layer_factory.hpp:77] Creating layer relu3
I0329 22:19:28.119679 16096 net.cpp:86] Creating Layer relu3
I0329 22:19:28.119690 16096 net.cpp:408] relu3 <- conv3
I0329 22:19:28.119701 16096 net.cpp:369] relu3 -> conv3 (in-place)
I0329 22:19:28.120127 16096 net.cpp:124] Setting up relu3
I0329 22:19:28.120144 16096 net.cpp:131] Top shape: 50 384 13 13 (3244800)
I0329 22:19:28.120149 16096 net.cpp:139] Memory required for data: 292985200
I0329 22:19:28.120157 16096 layer_factory.hpp:77] Creating layer conv4
I0329 22:19:28.120173 16096 net.cpp:86] Creating Layer conv4
I0329 22:19:28.120179 16096 net.cpp:408] conv4 <- conv3
I0329 22:19:28.120190 16096 net.cpp:382] conv4 -> conv4
I0329 22:19:28.143251 16096 net.cpp:124] Setting up conv4
I0329 22:19:28.143306 16096 net.cpp:131] Top shape: 50 384 13 13 (3244800)
I0329 22:19:28.143311 16096 net.cpp:139] Memory required for data: 305964400
I0329 22:19:28.143326 16096 layer_factory.hpp:77] Creating layer relu4
I0329 22:19:28.143342 16096 net.cpp:86] Creating Layer relu4
I0329 22:19:28.143349 16096 net.cpp:408] relu4 <- conv4
I0329 22:19:28.143360 16096 net.cpp:369] relu4 -> conv4 (in-place)
I0329 22:19:28.143599 16096 net.cpp:124] Setting up relu4
I0329 22:19:28.143613 16096 net.cpp:131] Top shape: 50 384 13 13 (3244800)
I0329 22:19:28.143620 16096 net.cpp:139] Memory required for data: 318943600
I0329 22:19:28.143625 16096 layer_factory.hpp:77] Creating layer conv5
I0329 22:19:28.143643 16096 net.cpp:86] Creating Layer conv5
I0329 22:19:28.143649 16096 net.cpp:408] conv5 <- conv4
I0329 22:19:28.143661 16096 net.cpp:382] conv5 -> conv5
I0329 22:19:28.153527 16096 net.cpp:124] Setting up conv5
I0329 22:19:28.153576 16096 net.cpp:131] Top shape: 50 256 13 13 (2163200)
I0329 22:19:28.153583 16096 net.cpp:139] Memory required for data: 327596400
I0329 22:19:28.153604 16096 layer_factory.hpp:77] Creating layer relu5
I0329 22:19:28.153620 16096 net.cpp:86] Creating Layer relu5
I0329 22:19:28.153628 16096 net.cpp:408] relu5 <- conv5
I0329 22:19:28.153640 16096 net.cpp:369] relu5 -> conv5 (in-place)
I0329 22:19:28.153865 16096 net.cpp:124] Setting up relu5
I0329 22:19:28.153879 16096 net.cpp:131] Top shape: 50 256 13 13 (2163200)
I0329 22:19:28.153885 16096 net.cpp:139] Memory required for data: 336249200
I0329 22:19:28.153892 16096 layer_factory.hpp:77] Creating layer pool5
I0329 22:19:28.153906 16096 net.cpp:86] Creating Layer pool5
I0329 22:19:28.153913 16096 net.cpp:408] pool5 <- conv5
I0329 22:19:28.153921 16096 net.cpp:382] pool5 -> pool5
I0329 22:19:28.154002 16096 net.cpp:124] Setting up pool5
I0329 22:19:28.154027 16096 net.cpp:131] Top shape: 50 256 6 6 (460800)
I0329 22:19:28.154033 16096 net.cpp:139] Memory required for data: 338092400
I0329 22:19:28.154039 16096 layer_factory.hpp:77] Creating layer fc6
I0329 22:19:28.154052 16096 net.cpp:86] Creating Layer fc6
I0329 22:19:28.154057 16096 net.cpp:408] fc6 <- pool5
I0329 22:19:28.154067 16096 net.cpp:382] fc6 -> fc6
I0329 22:19:28.747632 16096 net.cpp:124] Setting up fc6
I0329 22:19:28.747681 16096 net.cpp:131] Top shape: 50 4096 (204800)
I0329 22:19:28.747689 16096 net.cpp:139] Memory required for data: 338911600
I0329 22:19:28.747706 16096 layer_factory.hpp:77] Creating layer relu6
I0329 22:19:28.747721 16096 net.cpp:86] Creating Layer relu6
I0329 22:19:28.747730 16096 net.cpp:408] relu6 <- fc6
I0329 22:19:28.747740 16096 net.cpp:369] relu6 -> fc6 (in-place)
I0329 22:19:28.767170 16096 net.cpp:124] Setting up relu6
I0329 22:19:28.767190 16096 net.cpp:131] Top shape: 50 4096 (204800)
I0329 22:19:28.767196 16096 net.cpp:139] Memory required for data: 339730800
I0329 22:19:28.767202 16096 layer_factory.hpp:77] Creating layer drop6
I0329 22:19:28.767215 16096 net.cpp:86] Creating Layer drop6
I0329 22:19:28.767221 16096 net.cpp:408] drop6 <- fc6
I0329 22:19:28.767231 16096 net.cpp:369] drop6 -> fc6 (in-place)
I0329 22:19:28.767277 16096 net.cpp:124] Setting up drop6
I0329 22:19:28.767288 16096 net.cpp:131] Top shape: 50 4096 (204800)
I0329 22:19:28.767294 16096 net.cpp:139] Memory required for data: 340550000
I0329 22:19:28.767299 16096 layer_factory.hpp:77] Creating layer fc7
I0329 22:19:28.767312 16096 net.cpp:86] Creating Layer fc7
I0329 22:19:28.767318 16096 net.cpp:408] fc7 <- fc6
I0329 22:19:28.767328 16096 net.cpp:382] fc7 -> fc7
I0329 22:19:29.029902 16096 net.cpp:124] Setting up fc7
I0329 22:19:29.029952 16096 net.cpp:131] Top shape: 50 4096 (204800)
I0329 22:19:29.029958 16096 net.cpp:139] Memory required for data: 341369200
I0329 22:19:29.029974 16096 layer_factory.hpp:77] Creating layer relu7
I0329 22:19:29.029989 16096 net.cpp:86] Creating Layer relu7
I0329 22:19:29.029996 16096 net.cpp:408] relu7 <- fc7
I0329 22:19:29.030007 16096 net.cpp:369] relu7 -> fc7 (in-place)
I0329 22:19:29.030300 16096 net.cpp:124] Setting up relu7
I0329 22:19:29.030315 16096 net.cpp:131] Top shape: 50 4096 (204800)
I0329 22:19:29.030320 16096 net.cpp:139] Memory required for data: 342188400
I0329 22:19:29.030326 16096 layer_factory.hpp:77] Creating layer drop7
I0329 22:19:29.030338 16096 net.cpp:86] Creating Layer drop7
I0329 22:19:29.030344 16096 net.cpp:408] drop7 <- fc7
I0329 22:19:29.030352 16096 net.cpp:369] drop7 -> fc7 (in-place)
I0329 22:19:29.030393 16096 net.cpp:124] Setting up drop7
I0329 22:19:29.030412 16096 net.cpp:131] Top shape: 50 4096 (204800)
I0329 22:19:29.030418 16096 net.cpp:139] Memory required for data: 343007600
I0329 22:19:29.030424 16096 layer_factory.hpp:77] Creating layer fc8
I0329 22:19:29.030436 16096 net.cpp:86] Creating Layer fc8
I0329 22:19:29.030442 16096 net.cpp:408] fc8 <- fc7
I0329 22:19:29.030452 16096 net.cpp:382] fc8 -> fc8
I0329 22:19:29.094889 16096 net.cpp:124] Setting up fc8
I0329 22:19:29.094941 16096 net.cpp:131] Top shape: 50 1000 (50000)
I0329 22:19:29.094947 16096 net.cpp:139] Memory required for data: 343207600
I0329 22:19:29.094964 16096 layer_factory.hpp:77] Creating layer fc8_fc8_0_split
I0329 22:19:29.094977 16096 net.cpp:86] Creating Layer fc8_fc8_0_split
I0329 22:19:29.094985 16096 net.cpp:408] fc8_fc8_0_split <- fc8
I0329 22:19:29.094997 16096 net.cpp:382] fc8_fc8_0_split -> fc8_fc8_0_split_0
I0329 22:19:29.095011 16096 net.cpp:382] fc8_fc8_0_split -> fc8_fc8_0_split_1
I0329 22:19:29.095070 16096 net.cpp:124] Setting up fc8_fc8_0_split
I0329 22:19:29.095082 16096 net.cpp:131] Top shape: 50 1000 (50000)
I0329 22:19:29.095088 16096 net.cpp:131] Top shape: 50 1000 (50000)
I0329 22:19:29.095093 16096 net.cpp:139] Memory required for data: 343607600
I0329 22:19:29.095098 16096 layer_factory.hpp:77] Creating layer accuracy
I0329 22:19:29.095109 16096 net.cpp:86] Creating Layer accuracy
I0329 22:19:29.095130 16096 net.cpp:408] accuracy <- fc8_fc8_0_split_0
I0329 22:19:29.095151 16096 net.cpp:408] accuracy <- label_data_1_split_0
I0329 22:19:29.095161 16096 net.cpp:382] accuracy -> accuracy
…
