…
I0404 11:42:47.364675 26662 net.cpp:296] The NetState phase (0) differed from the phase (1) specified by a rule in layer accuracy
I0404 11:42:47.364914 26662 net.cpp:53] Initializing net from parameters: 
name: "CaffeNet"
state {
  phase: TRAIN
  level: 0
  stage: ""
}
layer {
  name: "data"
  type: "Data"
  top: "data"
  top: "label"
  include {
    phase: TRAIN
  }
  transform_param {
    mirror: true
    crop_size: 227
    mean_file: "data/ilsvrc12/imagenet_mean.binaryproto"
  }
  data_param {
    source: "examples/imagenet/ilsvrc12_train_lmdb"
    batch_size: 256
    backend: LMDB
  }
}
layer {
  name: "conv1"
  type: "Convolution"
  bottom: "data"
  top: "conv1"
  param {
    lr_mult: 1
    decay_mult: 1
  }
  param {
    lr_mult: 2
    decay_mult: 0
  }
  convolution_param {
    num_output: 96
    kernel_size: 11
    stride: 4
    weight_filler {
      type: "gaussian"
      std: 0.01
    }
    bias_filler {
      type: "constant"
      value: 0
    }
  }
}
layer {
  name: "relu1"
  type: "ReLU"
  bottom: "conv1"
  top: "conv1"
}
layer {
  name: "pool1"
  type: "Pooling"
  bottom: "conv1"
  top: "pool1"
  pooling_param {
    pool: MAX
    kernel_size: 3
    stride: 2
  }
}
layer {
  name: "norm1"
  type: "LRN"
  bottom: "pool1"
  top: "norm1"
  lrn_param {
    local_size: 5
    alpha: 0.0001
    beta: 0.75
  }
}
layer {
  name: "conv2"
  type: "Convolution"
  bottom: "norm1"
  top: "conv2"
  param {
    lr_mult: 1
    decay_mult: 1
  }
  param {
    lr_mult: 2
    decay_mult: 0
  }
  convolution_param {
    num_output: 256
    pad: 2
    kernel_size: 5
    group: 2
    weight_filler {
      type: "gaussian"
      std: 0.01
    }
    bias_filler {
      type: "constant"
      value: 1
    }
  }
}
layer {
  name: "relu2"
  type: "ReLU"
  bottom: "conv2"
  top: "conv2"
}
layer {
  name: "pool2"
  type: "Pooling"
  bottom: "conv2"
  top: "pool2"
  pooling_param {
    pool: MAX
    kernel_size: 3
    stride: 2
  }
}
layer {
  name: "norm2"
  type: "LRN"
  bottom: "pool2"
  top: "norm2"
  lrn_param {
    local_size: 5
    alpha: 0.0001
    beta: 0.75
  }
}
layer {
  name: "conv3"
  type: "Convolution"
  bottom: "norm2"
  top: "conv3"
  param {
    lr_mult: 1
    decay_mult: 1
  }
  param {
    lr_mult: 2
    decay_mult: 0
  }
  convolution_param {
    num_output: 384
    pad: 1
    kernel_size: 3
    weight_filler {
      type: "gaussian"
      std: 0.01
    }
    bias_filler {
      type: "constant"
      value: 0
    }
  }
}
layer {
  name: "relu3"
  type: "ReLU"
  bottom: "conv3"
  top: "conv3"
}
layer {
  name: "conv4"
  type: "Convolution"
  bottom: "conv3"
  top: "conv4"
  param {
    lr_mult: 1
    decay_mult: 1
  }
  param {
    lr_mult: 2
    decay_mult: 0
  }
  convolution_param {
    num_output: 384
    pad: 1
    kernel_size: 3
    group: 2
    weight_filler {
      type: "gaussian"
      std: 0.01
    }
    bias_filler {
      type: "constant"
      value: 1
    }
  }
}
layer {
  name: "relu4"
  type: "ReLU"
  bottom: "conv4"
  top: "conv4"
}
layer {
  name: "conv5"
  type: "Convolution"
  bottom: "conv4"
  top: "conv5"
  param {
    lr_mult: 1
    decay_mult: 1
  }
  param {
    lr_mult: 2
    decay_mult: 0
  }
  convolution_param {
    num_output: 256
    pad: 1
    kernel_size: 3
    group: 2
    weight_filler {
      type: "gaussian"
      std: 0.01
    }
    bias_filler {
      type: "constant"
      value: 1
    }
  }
}
layer {
  name: "relu5"
  type: "ReLU"
  bottom: "conv5"
  top: "conv5"
}
layer {
  name: "pool5"
  type: "Pooling"
  bottom: "conv5"
  top: "pool5"
  pooling_param {
    pool: MAX
    kernel_size: 3
    stride: 2
  }
}
layer {
  name: "fc6"
  type: "InnerProduct"
  bottom: "pool5"
  top: "fc6"
  param {
    lr_mult: 1
    decay_mult: 1
  }
  param {
    lr_mult: 2
    decay_mult: 0
  }
  inner_product_param {
    num_output: 4096
    weight_filler {
      type: "gaussian"
      std: 0.005
    }
    bias_filler {
      type: "constant"
      value: 1
    }
  }
}
layer {
  name: "relu6"
  type: "ReLU"
  bottom: "fc6"
  top: "fc6"
}
layer {
  name: "drop6"
  type: "Dropout"
  bottom: "fc6"
  top: "fc6"
  dropout_param {
    dropout_ratio: 0.5
  }
}
layer {
  name: "fc7"
  type: "InnerProduct"
  bottom: "fc6"
  top: "fc7"
  param {
    lr_mult: 1
    decay_mult: 1
  }
  param {
    lr_mult: 2
    decay_mult: 0
  }
  inner_product_param {
    num_output: 4096
    weight_filler {
      type: "gaussian"
      std: 0.005
    }
    bias_filler {
      type: "constant"
      value: 1
    }
  }
}
layer {
  name: "relu7"
  type: "ReLU"
  bottom: "fc7"
  top: "fc7"
}
layer {
  name: "drop7"
  type: "Dropout"
  bottom: "fc7"
  top: "fc7"
  dropout_param {
    dropout_ratio: 0.5
  }
}
layer {
  name: "fc8"
  type: "InnerProduct"
  bottom: "fc7"
  top: "fc8"
  param {
    lr_mult: 1
    decay_mult: 1
  }
  param {
    lr_mult: 2
    decay_mult: 0
  }
  inner_product_param {
    num_output: 1000
    weight_filler {
      type: "gaussian"
      std: 0.01
    }
    bias_filler {
      type: "constant"
      value: 0
    }
  }
}
layer {
  name: "loss"
  type: "SoftmaxWithLoss"
  bottom: "fc8"
  bottom: "label"
  top: "loss"
}
I0404 11:42:47.365043 26662 layer_factory.hpp:77] Creating layer data
I0404 11:42:47.365173 26662 db_lmdb.cpp:35] Opened lmdb examples/imagenet/ilsvrc12_train_lmdb
I0404 11:42:47.418081 26662 net.cpp:86] Creating Layer data
I0404 11:42:47.418114 26662 net.cpp:382] data -> data
I0404 11:42:47.418154 26662 net.cpp:382] data -> label
I0404 11:42:47.418179 26662 data_transformer.cpp:25] Loading mean file from: data/ilsvrc12/imagenet_mean.binaryproto
I0404 11:42:47.479233 26662 data_layer.cpp:45] output data size: 256,3,227,227
I0404 11:42:47.898780 26662 net.cpp:124] Setting up data
I0404 11:42:47.898834 26662 net.cpp:131] Top shape: 256 3 227 227 (39574272)
I0404 11:42:47.898844 26662 net.cpp:131] Top shape: 256 (256)
I0404 11:42:47.898849 26662 net.cpp:139] Memory required for data: 158298112
I0404 11:42:47.898864 26662 layer_factory.hpp:77] Creating layer conv1
I0404 11:42:47.898895 26662 net.cpp:86] Creating Layer conv1
I0404 11:42:47.898905 26662 net.cpp:408] conv1 <- data
I0404 11:42:47.898926 26662 net.cpp:382] conv1 -> conv1
I0404 11:42:48.800211 26662 net.cpp:124] Setting up conv1
I0404 11:42:48.800269 26662 net.cpp:131] Top shape: 256 96 55 55 (74342400)
I0404 11:42:48.800278 26662 net.cpp:139] Memory required for data: 455667712
I0404 11:42:48.800318 26662 layer_factory.hpp:77] Creating layer relu1
I0404 11:42:48.800338 26662 net.cpp:86] Creating Layer relu1
I0404 11:42:48.800348 26662 net.cpp:408] relu1 <- conv1
I0404 11:42:48.800361 26662 net.cpp:369] relu1 -> conv1 (in-place)
I0404 11:42:48.800884 26662 net.cpp:124] Setting up relu1
I0404 11:42:48.800904 26662 net.cpp:131] Top shape: 256 96 55 55 (74342400)
I0404 11:42:48.800911 26662 net.cpp:139] Memory required for data: 753037312
I0404 11:42:48.800920 26662 layer_factory.hpp:77] Creating layer pool1
I0404 11:42:48.800933 26662 net.cpp:86] Creating Layer pool1
I0404 11:42:48.800941 26662 net.cpp:408] pool1 <- conv1
I0404 11:42:48.800953 26662 net.cpp:382] pool1 -> pool1
I0404 11:42:48.801031 26662 net.cpp:124] Setting up pool1
I0404 11:42:48.801046 26662 net.cpp:131] Top shape: 256 96 27 27 (17915904)
I0404 11:42:48.801054 26662 net.cpp:139] Memory required for data: 824700928
I0404 11:42:48.801061 26662 layer_factory.hpp:77] Creating layer norm1
I0404 11:42:48.801079 26662 net.cpp:86] Creating Layer norm1
I0404 11:42:48.801098 26662 net.cpp:408] norm1 <- pool1
I0404 11:42:48.801126 26662 net.cpp:382] norm1 -> norm1
I0404 11:42:48.801437 26662 net.cpp:124] Setting up norm1
I0404 11:42:48.801456 26662 net.cpp:131] Top shape: 256 96 27 27 (17915904)
I0404 11:42:48.801465 26662 net.cpp:139] Memory required for data: 896364544
I0404 11:42:48.801471 26662 layer_factory.hpp:77] Creating layer conv2
I0404 11:42:48.801492 26662 net.cpp:86] Creating Layer conv2
I0404 11:42:48.801501 26662 net.cpp:408] conv2 <- norm1
I0404 11:42:48.801513 26662 net.cpp:382] conv2 -> conv2
I0404 11:42:48.810881 26662 net.cpp:124] Setting up conv2
I0404 11:42:48.810916 26662 net.cpp:131] Top shape: 256 256 27 27 (47775744)
I0404 11:42:48.810923 26662 net.cpp:139] Memory required for data: 1087467520
I0404 11:42:48.810945 26662 layer_factory.hpp:77] Creating layer relu2
I0404 11:42:48.810959 26662 net.cpp:86] Creating Layer relu2
I0404 11:42:48.810967 26662 net.cpp:408] relu2 <- conv2
I0404 11:42:48.810979 26662 net.cpp:369] relu2 -> conv2 (in-place)
I0404 11:42:48.811255 26662 net.cpp:124] Setting up relu2
I0404 11:42:48.811272 26662 net.cpp:131] Top shape: 256 256 27 27 (47775744)
I0404 11:42:48.811280 26662 net.cpp:139] Memory required for data: 1278570496
I0404 11:42:48.811286 26662 layer_factory.hpp:77] Creating layer pool2
I0404 11:42:48.811298 26662 net.cpp:86] Creating Layer pool2
I0404 11:42:48.811305 26662 net.cpp:408] pool2 <- conv2
I0404 11:42:48.811318 26662 net.cpp:382] pool2 -> pool2
I0404 11:42:48.811383 26662 net.cpp:124] Setting up pool2
I0404 11:42:48.811399 26662 net.cpp:131] Top shape: 256 256 13 13 (11075584)
I0404 11:42:48.811406 26662 net.cpp:139] Memory required for data: 1322872832
I0404 11:42:48.811413 26662 layer_factory.hpp:77] Creating layer norm2
I0404 11:42:48.811429 26662 net.cpp:86] Creating Layer norm2
I0404 11:42:48.811436 26662 net.cpp:408] norm2 <- pool2
I0404 11:42:48.811447 26662 net.cpp:382] norm2 -> norm2
I0404 11:42:48.811944 26662 net.cpp:124] Setting up norm2
I0404 11:42:48.811962 26662 net.cpp:131] Top shape: 256 256 13 13 (11075584)
I0404 11:42:48.811969 26662 net.cpp:139] Memory required for data: 1367175168
I0404 11:42:48.811977 26662 layer_factory.hpp:77] Creating layer conv3
I0404 11:42:48.811997 26662 net.cpp:86] Creating Layer conv3
I0404 11:42:48.812006 26662 net.cpp:408] conv3 <- norm2
I0404 11:42:48.812021 26662 net.cpp:382] conv3 -> conv3
I0404 11:42:48.829195 26662 net.cpp:124] Setting up conv3
I0404 11:42:48.829223 26662 net.cpp:131] Top shape: 256 384 13 13 (16613376)
I0404 11:42:48.829231 26662 net.cpp:139] Memory required for data: 1433628672
I0404 11:42:48.829247 26662 layer_factory.hpp:77] Creating layer relu3
I0404 11:42:48.829259 26662 net.cpp:86] Creating Layer relu3
I0404 11:42:48.829267 26662 net.cpp:408] relu3 <- conv3
I0404 11:42:48.829277 26662 net.cpp:369] relu3 -> conv3 (in-place)
I0404 11:42:48.829531 26662 net.cpp:124] Setting up relu3
I0404 11:42:48.829548 26662 net.cpp:131] Top shape: 256 384 13 13 (16613376)
I0404 11:42:48.829555 26662 net.cpp:139] Memory required for data: 1500082176
I0404 11:42:48.829560 26662 layer_factory.hpp:77] Creating layer conv4
I0404 11:42:48.829579 26662 net.cpp:86] Creating Layer conv4
I0404 11:42:48.829586 26662 net.cpp:408] conv4 <- conv3
I0404 11:42:48.829599 26662 net.cpp:382] conv4 -> conv4
I0404 11:42:48.843500 26662 net.cpp:124] Setting up conv4
I0404 11:42:48.843547 26662 net.cpp:131] Top shape: 256 384 13 13 (16613376)
I0404 11:42:48.843554 26662 net.cpp:139] Memory required for data: 1566535680
I0404 11:42:48.843569 26662 layer_factory.hpp:77] Creating layer relu4
I0404 11:42:48.843582 26662 net.cpp:86] Creating Layer relu4
I0404 11:42:48.843590 26662 net.cpp:408] relu4 <- conv4
I0404 11:42:48.843600 26662 net.cpp:369] relu4 -> conv4 (in-place)
I0404 11:42:48.843833 26662 net.cpp:124] Setting up relu4
I0404 11:42:48.843848 26662 net.cpp:131] Top shape: 256 384 13 13 (16613376)
I0404 11:42:48.843854 26662 net.cpp:139] Memory required for data: 1632989184
I0404 11:42:48.843860 26662 layer_factory.hpp:77] Creating layer conv5
I0404 11:42:48.843888 26662 net.cpp:86] Creating Layer conv5
I0404 11:42:48.843906 26662 net.cpp:408] conv5 <- conv4
I0404 11:42:48.843919 26662 net.cpp:382] conv5 -> conv5
I0404 11:42:48.854005 26662 net.cpp:124] Setting up conv5
I0404 11:42:48.854043 26662 net.cpp:131] Top shape: 256 256 13 13 (11075584)
I0404 11:42:48.854049 26662 net.cpp:139] Memory required for data: 1677291520
I0404 11:42:48.854068 26662 layer_factory.hpp:77] Creating layer relu5
I0404 11:42:48.854081 26662 net.cpp:86] Creating Layer relu5
I0404 11:42:48.854089 26662 net.cpp:408] relu5 <- conv5
I0404 11:42:48.854100 26662 net.cpp:369] relu5 -> conv5 (in-place)
I0404 11:42:48.854323 26662 net.cpp:124] Setting up relu5
I0404 11:42:48.854337 26662 net.cpp:131] Top shape: 256 256 13 13 (11075584)
I0404 11:42:48.854343 26662 net.cpp:139] Memory required for data: 1721593856
I0404 11:42:48.854349 26662 layer_factory.hpp:77] Creating layer pool5
I0404 11:42:48.854364 26662 net.cpp:86] Creating Layer pool5
I0404 11:42:48.854372 26662 net.cpp:408] pool5 <- conv5
I0404 11:42:48.854380 26662 net.cpp:382] pool5 -> pool5
I0404 11:42:48.854450 26662 net.cpp:124] Setting up pool5
I0404 11:42:48.854463 26662 net.cpp:131] Top shape: 256 256 6 6 (2359296)
I0404 11:42:48.854470 26662 net.cpp:139] Memory required for data: 1731031040
I0404 11:42:48.854475 26662 layer_factory.hpp:77] Creating layer fc6
I0404 11:42:48.854493 26662 net.cpp:86] Creating Layer fc6
I0404 11:42:48.854501 26662 net.cpp:408] fc6 <- pool5
I0404 11:42:48.854509 26662 net.cpp:382] fc6 -> fc6
I0404 11:42:49.448267 26662 net.cpp:124] Setting up fc6
I0404 11:42:49.448314 26662 net.cpp:131] Top shape: 256 4096 (1048576)
I0404 11:42:49.448320 26662 net.cpp:139] Memory required for data: 1735225344
I0404 11:42:49.448335 26662 layer_factory.hpp:77] Creating layer relu6
I0404 11:42:49.448365 26662 net.cpp:86] Creating Layer relu6
I0404 11:42:49.448374 26662 net.cpp:408] relu6 <- fc6
I0404 11:42:49.448387 26662 net.cpp:369] relu6 -> fc6 (in-place)
I0404 11:42:49.448977 26662 net.cpp:124] Setting up relu6
I0404 11:42:49.448993 26662 net.cpp:131] Top shape: 256 4096 (1048576)
I0404 11:42:49.448999 26662 net.cpp:139] Memory required for data: 1739419648
I0404 11:42:49.449005 26662 layer_factory.hpp:77] Creating layer drop6
I0404 11:42:49.449017 26662 net.cpp:86] Creating Layer drop6
I0404 11:42:49.449023 26662 net.cpp:408] drop6 <- fc6
I0404 11:42:49.449033 26662 net.cpp:369] drop6 -> fc6 (in-place)
I0404 11:42:49.449071 26662 net.cpp:124] Setting up drop6
I0404 11:42:49.449081 26662 net.cpp:131] Top shape: 256 4096 (1048576)
I0404 11:42:49.449086 26662 net.cpp:139] Memory required for data: 1743613952
I0404 11:42:49.449092 26662 layer_factory.hpp:77] Creating layer fc7
I0404 11:42:49.449106 26662 net.cpp:86] Creating Layer fc7
I0404 11:42:49.449113 26662 net.cpp:408] fc7 <- fc6
I0404 11:42:49.449122 26662 net.cpp:382] fc7 -> fc7
I0404 11:42:49.725965 26662 net.cpp:124] Setting up fc7
I0404 11:42:49.726013 26662 net.cpp:131] Top shape: 256 4096 (1048576)
I0404 11:42:49.726019 26662 net.cpp:139] Memory required for data: 1747808256
I0404 11:42:49.726034 26662 layer_factory.hpp:77] Creating layer relu7
I0404 11:42:49.726052 26662 net.cpp:86] Creating Layer relu7
I0404 11:42:49.726059 26662 net.cpp:408] relu7 <- fc7
I0404 11:42:49.726070 26662 net.cpp:369] relu7 -> fc7 (in-place)
I0404 11:42:49.726349 26662 net.cpp:124] Setting up relu7
I0404 11:42:49.726363 26662 net.cpp:131] Top shape: 256 4096 (1048576)
I0404 11:42:49.726369 26662 net.cpp:139] Memory required for data: 1752002560
I0404 11:42:49.726375 26662 layer_factory.hpp:77] Creating layer drop7
I0404 11:42:49.726388 26662 net.cpp:86] Creating Layer drop7
I0404 11:42:49.726395 26662 net.cpp:408] drop7 <- fc7
I0404 11:42:49.726436 26662 net.cpp:369] drop7 -> fc7 (in-place)
I0404 11:42:49.726475 26662 net.cpp:124] Setting up drop7
I0404 11:42:49.726486 26662 net.cpp:131] Top shape: 256 4096 (1048576)
I0404 11:42:49.726492 26662 net.cpp:139] Memory required for data: 1756196864
I0404 11:42:49.726497 26662 layer_factory.hpp:77] Creating layer fc8
I0404 11:42:49.726510 26662 net.cpp:86] Creating Layer fc8
I0404 11:42:49.726526 26662 net.cpp:408] fc8 <- fc7
I0404 11:42:49.726547 26662 net.cpp:382] fc8 -> fc8
I0404 11:42:49.791322 26662 net.cpp:124] Setting up fc8
I0404 11:42:49.791364 26662 net.cpp:131] Top shape: 256 1000 (256000)
I0404 11:42:49.791370 26662 net.cpp:139] Memory required for data: 1757220864
I0404 11:42:49.791385 26662 layer_factory.hpp:77] Creating layer loss
I0404 11:42:49.791401 26662 net.cpp:86] Creating Layer loss
I0404 11:42:49.791409 26662 net.cpp:408] loss <- fc8
I0404 11:42:49.791419 26662 net.cpp:408] loss <- label
I0404 11:42:49.791430 26662 net.cpp:382] loss -> loss
I0404 11:42:49.791453 26662 layer_factory.hpp:77] Creating layer loss
…
I0404 11:42:49.793424 26662 net.cpp:296] The NetState phase (1) differed from the phase (0) specified by a rule in layer data
I0404 11:42:49.793664 26662 net.cpp:53] Initializing net from parameters: 
name: "CaffeNet"
state {
  phase: TEST
}
layer {
  name: "data"
  type: "Data"
  top: "data"
  top: "label"
  include {
    phase: TEST
  }
  transform_param {
    mirror: false
    crop_size: 227
    mean_file: "data/ilsvrc12/imagenet_mean.binaryproto"
  }
  data_param {
    source: "examples/imagenet/ilsvrc12_val_lmdb"
    batch_size: 50
    backend: LMDB
  }
}
layer {
  name: "conv1"
  type: "Convolution"
  bottom: "data"
  top: "conv1"
  param {
    lr_mult: 1
    decay_mult: 1
  }
  param {
    lr_mult: 2
    decay_mult: 0
  }
  convolution_param {
    num_output: 96
    kernel_size: 11
    stride: 4
    weight_filler {
      type: "gaussian"
      std: 0.01
    }
    bias_filler {
      type: "constant"
      value: 0
    }
  }
}
layer {
  name: "relu1"
  type: "ReLU"
  bottom: "conv1"
  top: "conv1"
}
layer {
  name: "pool1"
  type: "Pooling"
  bottom: "conv1"
  top: "pool1"
  pooling_param {
    pool: MAX
    kernel_size: 3
    stride: 2
  }
}
layer {
  name: "norm1"
  type: "LRN"
  bottom: "pool1"
  top: "norm1"
  lrn_param {
    local_size: 5
    alpha: 0.0001
    beta: 0.75
  }
}
layer {
  name: "conv2"
  type: "Convolution"
  bottom: "norm1"
  top: "conv2"
  param {
    lr_mult: 1
    decay_mult: 1
  }
  param {
    lr_mult: 2
    decay_mult: 0
  }
  convolution_param {
    num_output: 256
    pad: 2
    kernel_size: 5
    group: 2
    weight_filler {
      type: "gaussian"
      std: 0.01
    }
    bias_filler {
      type: "constant"
      value: 1
    }
  }
}
layer {
  name: "relu2"
  type: "ReLU"
  bottom: "conv2"
  top: "conv2"
}
layer {
  name: "pool2"
  type: "Pooling"
  bottom: "conv2"
  top: "pool2"
  pooling_param {
    pool: MAX
    kernel_size: 3
    stride: 2
  }
}
layer {
  name: "norm2"
  type: "LRN"
  bottom: "pool2"
  top: "norm2"
  lrn_param {
    local_size: 5
    alpha: 0.0001
    beta: 0.75
  }
}
layer {
  name: "conv3"
  type: "Convolution"
  bottom: "norm2"
  top: "conv3"
  param {
    lr_mult: 1
    decay_mult: 1
  }
  param {
    lr_mult: 2
    decay_mult: 0
  }
  convolution_param {
    num_output: 384
    pad: 1
    kernel_size: 3
    weight_filler {
      type: "gaussian"
      std: 0.01
    }
    bias_filler {
      type: "constant"
      value: 0
    }
  }
}
layer {
  name: "relu3"
  type: "ReLU"
  bottom: "conv3"
  top: "conv3"
}
layer {
  name: "conv4"
  type: "Convolution"
  bottom: "conv3"
  top: "conv4"
  param {
    lr_mult: 1
    decay_mult: 1
  }
  param {
    lr_mult: 2
    decay_mult: 0
  }
  convolution_param {
    num_output: 384
    pad: 1
    kernel_size: 3
    group: 2
    weight_filler {
      type: "gaussian"
      std: 0.01
    }
    bias_filler {
      type: "constant"
      value: 1
    }
  }
}
layer {
  name: "relu4"
  type: "ReLU"
  bottom: "conv4"
  top: "conv4"
}
layer {
  name: "conv5"
  type: "Convolution"
  bottom: "conv4"
  top: "conv5"
  param {
    lr_mult: 1
    decay_mult: 1
  }
  param {
    lr_mult: 2
    decay_mult: 0
  }
  convolution_param {
    num_output: 256
    pad: 1
    kernel_size: 3
    group: 2
    weight_filler {
      type: "gaussian"
      std: 0.01
    }
    bias_filler {
      type: "constant"
      value: 1
    }
  }
}
layer {
  name: "relu5"
  type: "ReLU"
  bottom: "conv5"
  top: "conv5"
}
layer {
  name: "pool5"
  type: "Pooling"
  bottom: "conv5"
  top: "pool5"
  pooling_param {
    pool: MAX
    kernel_size: 3
    stride: 2
  }
}
layer {
  name: "fc6"
  type: "InnerProduct"
  bottom: "pool5"
  top: "fc6"
  param {
    lr_mult: 1
    decay_mult: 1
  }
  param {
    lr_mult: 2
    decay_mult: 0
  }
  inner_product_param {
    num_output: 4096
    weight_filler {
      type: "gaussian"
      std: 0.005
    }
    bias_filler {
      type: "constant"
      value: 1
    }
  }
}
layer {
  name: "relu6"
  type: "ReLU"
  bottom: "fc6"
  top: "fc6"
}
layer {
  name: "drop6"
  type: "Dropout"
  bottom: "fc6"
  top: "fc6"
  dropout_param {
    dropout_ratio: 0.5
  }
}
layer {
  name: "fc7"
  type: "InnerProduct"
  bottom: "fc6"
  top: "fc7"
  param {
    lr_mult: 1
    decay_mult: 1
  }
  param {
    lr_mult: 2
    decay_mult: 0
  }
  inner_product_param {
    num_output: 4096
    weight_filler {
      type: "gaussian"
      std: 0.005
    }
    bias_filler {
      type: "constant"
      value: 1
    }
  }
}
layer {
  name: "relu7"
  type: "ReLU"
  bottom: "fc7"
  top: "fc7"
}
layer {
  name: "drop7"
  type: "Dropout"
  bottom: "fc7"
  top: "fc7"
  dropout_param {
    dropout_ratio: 0.5
  }
}
layer {
  name: "fc8"
  type: "InnerProduct"
  bottom: "fc7"
  top: "fc8"
  param {
    lr_mult: 1
    decay_mult: 1
  }
  param {
    lr_mult: 2
    decay_mult: 0
  }
  inner_product_param {
    num_output: 1000
    weight_filler {
      type: "gaussian"
      std: 0.01
    }
    bias_filler {
      type: "constant"
      value: 0
    }
  }
}
layer {
  name: "accuracy"
  type: "Accuracy"
  bottom: "fc8"
  bottom: "label"
  top: "accuracy"
  include {
    phase: TEST
  }
}
layer {
  name: "loss"
  type: "SoftmaxWithLoss"
  bottom: "fc8"
  bottom: "label"
  top: "loss"
}
I0404 11:42:49.793835 26662 layer_factory.hpp:77] Creating layer data
I0404 11:42:49.793910 26662 db_lmdb.cpp:35] Opened lmdb examples/imagenet/ilsvrc12_val_lmdb
I0404 11:42:50.142199 26662 net.cpp:86] Creating Layer data
I0404 11:42:50.142277 26662 net.cpp:382] data -> data
I0404 11:42:50.142315 26662 net.cpp:382] data -> label
I0404 11:42:50.142340 26662 data_transformer.cpp:25] Loading mean file from: data/ilsvrc12/imagenet_mean.binaryproto
I0404 11:42:50.400998 26662 data_layer.cpp:45] output data size: 50,3,227,227
I0404 11:42:50.505851 26662 net.cpp:124] Setting up data
I0404 11:42:50.505915 26662 net.cpp:131] Top shape: 50 3 227 227 (7729350)
I0404 11:42:50.505925 26662 net.cpp:131] Top shape: 50 (50)
I0404 11:42:50.505933 26662 net.cpp:139] Memory required for data: 30917600
I0404 11:42:50.505944 26662 layer_factory.hpp:77] Creating layer label_data_1_split
I0404 11:42:50.505964 26662 net.cpp:86] Creating Layer label_data_1_split
I0404 11:42:50.505973 26662 net.cpp:408] label_data_1_split <- label
I0404 11:42:50.505986 26662 net.cpp:382] label_data_1_split -> label_data_1_split_0
I0404 11:42:50.506006 26662 net.cpp:382] label_data_1_split -> label_data_1_split_1
I0404 11:42:50.506089 26662 net.cpp:124] Setting up label_data_1_split
I0404 11:42:50.506103 26662 net.cpp:131] Top shape: 50 (50)
I0404 11:42:50.506111 26662 net.cpp:131] Top shape: 50 (50)
I0404 11:42:50.506117 26662 net.cpp:139] Memory required for data: 30918000
I0404 11:42:50.506124 26662 layer_factory.hpp:77] Creating layer conv1
I0404 11:42:50.506146 26662 net.cpp:86] Creating Layer conv1
I0404 11:42:50.506155 26662 net.cpp:408] conv1 <- data
I0404 11:42:50.506166 26662 net.cpp:382] conv1 -> conv1
I0404 11:42:50.513412 26662 net.cpp:124] Setting up conv1
I0404 11:42:50.513444 26662 net.cpp:131] Top shape: 50 96 55 55 (14520000)
I0404 11:42:50.513453 26662 net.cpp:139] Memory required for data: 88998000
I0404 11:42:50.513473 26662 layer_factory.hpp:77] Creating layer relu1
I0404 11:42:50.513485 26662 net.cpp:86] Creating Layer relu1
I0404 11:42:50.513494 26662 net.cpp:408] relu1 <- conv1
I0404 11:42:50.513504 26662 net.cpp:369] relu1 -> conv1 (in-place)
I0404 11:42:50.513751 26662 net.cpp:124] Setting up relu1
I0404 11:42:50.513768 26662 net.cpp:131] Top shape: 50 96 55 55 (14520000)
I0404 11:42:50.513774 26662 net.cpp:139] Memory required for data: 147078000
I0404 11:42:50.513782 26662 layer_factory.hpp:77] Creating layer pool1
I0404 11:42:50.513797 26662 net.cpp:86] Creating Layer pool1
I0404 11:42:50.513804 26662 net.cpp:408] pool1 <- conv1
I0404 11:42:50.513814 26662 net.cpp:382] pool1 -> pool1
I0404 11:42:50.513883 26662 net.cpp:124] Setting up pool1
I0404 11:42:50.513896 26662 net.cpp:131] Top shape: 50 96 27 27 (3499200)
I0404 11:42:50.513903 26662 net.cpp:139] Memory required for data: 161074800
I0404 11:42:50.513909 26662 layer_factory.hpp:77] Creating layer norm1
I0404 11:42:50.513922 26662 net.cpp:86] Creating Layer norm1
I0404 11:42:50.513929 26662 net.cpp:408] norm1 <- pool1
I0404 11:42:50.513939 26662 net.cpp:382] norm1 -> norm1
I0404 11:42:50.514503 26662 net.cpp:124] Setting up norm1
I0404 11:42:50.514523 26662 net.cpp:131] Top shape: 50 96 27 27 (3499200)
I0404 11:42:50.514529 26662 net.cpp:139] Memory required for data: 175071600
I0404 11:42:50.514536 26662 layer_factory.hpp:77] Creating layer conv2
I0404 11:42:50.514551 26662 net.cpp:86] Creating Layer conv2
I0404 11:42:50.514559 26662 net.cpp:408] conv2 <- norm1
I0404 11:42:50.514570 26662 net.cpp:382] conv2 -> conv2
I0404 11:42:50.523000 26662 net.cpp:124] Setting up conv2
I0404 11:42:50.523027 26662 net.cpp:131] Top shape: 50 256 27 27 (9331200)
I0404 11:42:50.523035 26662 net.cpp:139] Memory required for data: 212396400
I0404 11:42:50.523051 26662 layer_factory.hpp:77] Creating layer relu2
I0404 11:42:50.523062 26662 net.cpp:86] Creating Layer relu2
I0404 11:42:50.523069 26662 net.cpp:408] relu2 <- conv2
I0404 11:42:50.523080 26662 net.cpp:369] relu2 -> conv2 (in-place)
I0404 11:42:50.523319 26662 net.cpp:124] Setting up relu2
I0404 11:42:50.523344 26662 net.cpp:131] Top shape: 50 256 27 27 (9331200)
I0404 11:42:50.523366 26662 net.cpp:139] Memory required for data: 249721200
I0404 11:42:50.523373 26662 layer_factory.hpp:77] Creating layer pool2
I0404 11:42:50.523386 26662 net.cpp:86] Creating Layer pool2
I0404 11:42:50.523394 26662 net.cpp:408] pool2 <- conv2
I0404 11:42:50.523403 26662 net.cpp:382] pool2 -> pool2
I0404 11:42:50.523469 26662 net.cpp:124] Setting up pool2
I0404 11:42:50.523483 26662 net.cpp:131] Top shape: 50 256 13 13 (2163200)
I0404 11:42:50.523489 26662 net.cpp:139] Memory required for data: 258374000
I0404 11:42:50.523495 26662 layer_factory.hpp:77] Creating layer norm2
I0404 11:42:50.523506 26662 net.cpp:86] Creating Layer norm2
I0404 11:42:50.523514 26662 net.cpp:408] norm2 <- pool2
I0404 11:42:50.523522 26662 net.cpp:382] norm2 -> norm2
I0404 11:42:50.523998 26662 net.cpp:124] Setting up norm2
I0404 11:42:50.524015 26662 net.cpp:131] Top shape: 50 256 13 13 (2163200)
I0404 11:42:50.524022 26662 net.cpp:139] Memory required for data: 267026800
I0404 11:42:50.524029 26662 layer_factory.hpp:77] Creating layer conv3
I0404 11:42:50.524044 26662 net.cpp:86] Creating Layer conv3
I0404 11:42:50.524052 26662 net.cpp:408] conv3 <- norm2
I0404 11:42:50.524063 26662 net.cpp:382] conv3 -> conv3
I0404 11:42:50.540621 26662 net.cpp:124] Setting up conv3
I0404 11:42:50.540668 26662 net.cpp:131] Top shape: 50 384 13 13 (3244800)
I0404 11:42:50.540674 26662 net.cpp:139] Memory required for data: 280006000
I0404 11:42:50.540694 26662 layer_factory.hpp:77] Creating layer relu3
I0404 11:42:50.540709 26662 net.cpp:86] Creating Layer relu3
I0404 11:42:50.540716 26662 net.cpp:408] relu3 <- conv3
I0404 11:42:50.540727 26662 net.cpp:369] relu3 -> conv3 (in-place)
I0404 11:42:50.541131 26662 net.cpp:124] Setting up relu3
I0404 11:42:50.541147 26662 net.cpp:131] Top shape: 50 384 13 13 (3244800)
I0404 11:42:50.541153 26662 net.cpp:139] Memory required for data: 292985200
I0404 11:42:50.541159 26662 layer_factory.hpp:77] Creating layer conv4
I0404 11:42:50.541175 26662 net.cpp:86] Creating Layer conv4
I0404 11:42:50.541182 26662 net.cpp:408] conv4 <- conv3
I0404 11:42:50.541193 26662 net.cpp:382] conv4 -> conv4
I0404 11:42:50.554857 26662 net.cpp:124] Setting up conv4
I0404 11:42:50.554895 26662 net.cpp:131] Top shape: 50 384 13 13 (3244800)
I0404 11:42:50.554901 26662 net.cpp:139] Memory required for data: 305964400
I0404 11:42:50.554914 26662 layer_factory.hpp:77] Creating layer relu4
I0404 11:42:50.554926 26662 net.cpp:86] Creating Layer relu4
I0404 11:42:50.554934 26662 net.cpp:408] relu4 <- conv4
I0404 11:42:50.554944 26662 net.cpp:369] relu4 -> conv4 (in-place)
I0404 11:42:50.555183 26662 net.cpp:124] Setting up relu4
I0404 11:42:50.555198 26662 net.cpp:131] Top shape: 50 384 13 13 (3244800)
I0404 11:42:50.555204 26662 net.cpp:139] Memory required for data: 318943600
I0404 11:42:50.555210 26662 layer_factory.hpp:77] Creating layer conv5
I0404 11:42:50.555225 26662 net.cpp:86] Creating Layer conv5
I0404 11:42:50.555233 26662 net.cpp:408] conv5 <- conv4
I0404 11:42:50.555243 26662 net.cpp:382] conv5 -> conv5
I0404 11:42:50.564617 26662 net.cpp:124] Setting up conv5
I0404 11:42:50.564656 26662 net.cpp:131] Top shape: 50 256 13 13 (2163200)
I0404 11:42:50.564663 26662 net.cpp:139] Memory required for data: 327596400
I0404 11:42:50.564680 26662 layer_factory.hpp:77] Creating layer relu5
I0404 11:42:50.564692 26662 net.cpp:86] Creating Layer relu5
I0404 11:42:50.564698 26662 net.cpp:408] relu5 <- conv5
I0404 11:42:50.564708 26662 net.cpp:369] relu5 -> conv5 (in-place)
I0404 11:42:50.564916 26662 net.cpp:124] Setting up relu5
I0404 11:42:50.564931 26662 net.cpp:131] Top shape: 50 256 13 13 (2163200)
I0404 11:42:50.564937 26662 net.cpp:139] Memory required for data: 336249200
I0404 11:42:50.564944 26662 layer_factory.hpp:77] Creating layer pool5
I0404 11:42:50.564956 26662 net.cpp:86] Creating Layer pool5
I0404 11:42:50.564963 26662 net.cpp:408] pool5 <- conv5
I0404 11:42:50.564972 26662 net.cpp:382] pool5 -> pool5
I0404 11:42:50.565044 26662 net.cpp:124] Setting up pool5
I0404 11:42:50.565068 26662 net.cpp:131] Top shape: 50 256 6 6 (460800)
I0404 11:42:50.565073 26662 net.cpp:139] Memory required for data: 338092400
I0404 11:42:50.565079 26662 layer_factory.hpp:77] Creating layer fc6
I0404 11:42:50.565091 26662 net.cpp:86] Creating Layer fc6
I0404 11:42:50.565098 26662 net.cpp:408] fc6 <- pool5
I0404 11:42:50.565106 26662 net.cpp:382] fc6 -> fc6
I0404 11:42:51.156319 26662 net.cpp:124] Setting up fc6
I0404 11:42:51.156368 26662 net.cpp:131] Top shape: 50 4096 (204800)
I0404 11:42:51.156388 26662 net.cpp:139] Memory required for data: 338911600
I0404 11:42:51.156404 26662 layer_factory.hpp:77] Creating layer relu6
I0404 11:42:51.156419 26662 net.cpp:86] Creating Layer relu6
I0404 11:42:51.156426 26662 net.cpp:408] relu6 <- fc6
I0404 11:42:51.156437 26662 net.cpp:369] relu6 -> fc6 (in-place)
I0404 11:42:51.157022 26662 net.cpp:124] Setting up relu6
I0404 11:42:51.157039 26662 net.cpp:131] Top shape: 50 4096 (204800)
I0404 11:42:51.157045 26662 net.cpp:139] Memory required for data: 339730800
I0404 11:42:51.157052 26662 layer_factory.hpp:77] Creating layer drop6
I0404 11:42:51.157063 26662 net.cpp:86] Creating Layer drop6
I0404 11:42:51.157068 26662 net.cpp:408] drop6 <- fc6
I0404 11:42:51.157078 26662 net.cpp:369] drop6 -> fc6 (in-place)
I0404 11:42:51.157119 26662 net.cpp:124] Setting up drop6
I0404 11:42:51.157130 26662 net.cpp:131] Top shape: 50 4096 (204800)
I0404 11:42:51.157135 26662 net.cpp:139] Memory required for data: 340550000
I0404 11:42:51.157140 26662 layer_factory.hpp:77] Creating layer fc7
I0404 11:42:51.157152 26662 net.cpp:86] Creating Layer fc7
I0404 11:42:51.157158 26662 net.cpp:408] fc7 <- fc6
I0404 11:42:51.157167 26662 net.cpp:382] fc7 -> fc7
I0404 11:42:51.419428 26662 net.cpp:124] Setting up fc7
I0404 11:42:51.419481 26662 net.cpp:131] Top shape: 50 4096 (204800)
I0404 11:42:51.419487 26662 net.cpp:139] Memory required for data: 341369200
I0404 11:42:51.419502 26662 layer_factory.hpp:77] Creating layer relu7
I0404 11:42:51.419517 26662 net.cpp:86] Creating Layer relu7
I0404 11:42:51.419524 26662 net.cpp:408] relu7 <- fc7
I0404 11:42:51.419535 26662 net.cpp:369] relu7 -> fc7 (in-place)
I0404 11:42:51.419831 26662 net.cpp:124] Setting up relu7
I0404 11:42:51.419844 26662 net.cpp:131] Top shape: 50 4096 (204800)
I0404 11:42:51.419850 26662 net.cpp:139] Memory required for data: 342188400
I0404 11:42:51.419857 26662 layer_factory.hpp:77] Creating layer drop7
I0404 11:42:51.419867 26662 net.cpp:86] Creating Layer drop7
I0404 11:42:51.419873 26662 net.cpp:408] drop7 <- fc7
I0404 11:42:51.419881 26662 net.cpp:369] drop7 -> fc7 (in-place)
I0404 11:42:51.419924 26662 net.cpp:124] Setting up drop7
I0404 11:42:51.419934 26662 net.cpp:131] Top shape: 50 4096 (204800)
I0404 11:42:51.419939 26662 net.cpp:139] Memory required for data: 343007600
I0404 11:42:51.419945 26662 layer_factory.hpp:77] Creating layer fc8
I0404 11:42:51.419956 26662 net.cpp:86] Creating Layer fc8
I0404 11:42:51.419962 26662 net.cpp:408] fc8 <- fc7
I0404 11:42:51.419971 26662 net.cpp:382] fc8 -> fc8
I0404 11:42:51.484160 26662 net.cpp:124] Setting up fc8
I0404 11:42:51.484208 26662 net.cpp:131] Top shape: 50 1000 (50000)
I0404 11:42:51.484215 26662 net.cpp:139] Memory required for data: 343207600
I0404 11:42:51.484230 26662 layer_factory.hpp:77] Creating layer fc8_fc8_0_split
I0404 11:42:51.484244 26662 net.cpp:86] Creating Layer fc8_fc8_0_split
I0404 11:42:51.484252 26662 net.cpp:408] fc8_fc8_0_split <- fc8
I0404 11:42:51.484264 26662 net.cpp:382] fc8_fc8_0_split -> fc8_fc8_0_split_0
I0404 11:42:51.484280 26662 net.cpp:382] fc8_fc8_0_split -> fc8_fc8_0_split_1
I0404 11:42:51.484338 26662 net.cpp:124] Setting up fc8_fc8_0_split
I0404 11:42:51.484349 26662 net.cpp:131] Top shape: 50 1000 (50000)
I0404 11:42:51.484355 26662 net.cpp:131] Top shape: 50 1000 (50000)
I0404 11:42:51.484360 26662 net.cpp:139] Memory required for data: 343607600
I0404 11:42:51.484365 26662 layer_factory.hpp:77] Creating layer accuracy
I0404 11:42:51.484376 26662 net.cpp:86] Creating Layer accuracy
I0404 11:42:51.484397 26662 net.cpp:408] accuracy <- fc8_fc8_0_split_0
I0404 11:42:51.484417 26662 net.cpp:408] accuracy <- label_data_1_split_0
I0404 11:42:51.484427 26662 net.cpp:382] accuracy -> accuracy
…
