…
I0315 01:45:09.537818 17875 net.cpp:296] The NetState phase (0) differed from the phase (1) specified by a rule in layer accuracy
I0315 01:45:09.538050 17875 net.cpp:53] Initializing net from parameters: 
name: "CaffeNet"
state {
  phase: TRAIN
  level: 0
  stage: ""
}
layer {
  name: "data"
  type: "Data"
  top: "data"
  top: "label"
  include {
    phase: TRAIN
  }
  transform_param {
    mirror: true
    crop_size: 227
    mean_file: "data/ilsvrc12/imagenet_mean.binaryproto"
  }
  data_param {
    source: "examples/imagenet/ilsvrc12_train_lmdb"
    batch_size: 256
    backend: LMDB
  }
}
layer {
  name: "conv1"
  type: "Convolution"
  bottom: "data"
  top: "conv1"
  param {
    lr_mult: 1
    decay_mult: 1
  }
  param {
    lr_mult: 2
    decay_mult: 0
  }
  convolution_param {
    num_output: 96
    kernel_size: 11
    stride: 4
    weight_filler {
      type: "gaussian"
      std: 0.01
    }
    bias_filler {
      type: "constant"
      value: 0
    }
  }
}
layer {
  name: "relu1"
  type: "ReLU"
  bottom: "conv1"
  top: "conv1"
}
layer {
  name: "pool1"
  type: "Pooling"
  bottom: "conv1"
  top: "pool1"
  pooling_param {
    pool: MAX
    kernel_size: 3
    stride: 2
  }
}
layer {
  name: "norm1"
  type: "LRN"
  bottom: "pool1"
  top: "norm1"
  lrn_param {
    local_size: 5
    alpha: 0.0001
    beta: 0.75
  }
}
layer {
  name: "conv2"
  type: "Convolution"
  bottom: "norm1"
  top: "conv2"
  param {
    lr_mult: 1
    decay_mult: 1
  }
  param {
    lr_mult: 2
    decay_mult: 0
  }
  convolution_param {
    num_output: 256
    pad: 2
    kernel_size: 5
    group: 2
    weight_filler {
      type: "gaussian"
      std: 0.01
    }
    bias_filler {
      type: "constant"
      value: 1
    }
  }
}
layer {
  name: "relu2"
  type: "ReLU"
  bottom: "conv2"
  top: "conv2"
}
layer {
  name: "pool2"
  type: "Pooling"
  bottom: "conv2"
  top: "pool2"
  pooling_param {
    pool: MAX
    kernel_size: 3
    stride: 2
  }
}
layer {
  name: "norm2"
  type: "LRN"
  bottom: "pool2"
  top: "norm2"
  lrn_param {
    local_size: 5
    alpha: 0.0001
    beta: 0.75
  }
}
layer {
  name: "conv3"
  type: "Convolution"
  bottom: "norm2"
  top: "conv3"
  param {
    lr_mult: 1
    decay_mult: 1
  }
  param {
    lr_mult: 2
    decay_mult: 0
  }
  convolution_param {
    num_output: 384
    pad: 1
    kernel_size: 3
    weight_filler {
      type: "gaussian"
      std: 0.01
    }
    bias_filler {
      type: "constant"
      value: 0
    }
  }
}
layer {
  name: "relu3"
  type: "ReLU"
  bottom: "conv3"
  top: "conv3"
}
layer {
  name: "conv4"
  type: "Convolution"
  bottom: "conv3"
  top: "conv4"
  param {
    lr_mult: 1
    decay_mult: 1
  }
  param {
    lr_mult: 2
    decay_mult: 0
  }
  convolution_param {
    num_output: 384
    pad: 1
    kernel_size: 3
    group: 2
    weight_filler {
      type: "gaussian"
      std: 0.01
    }
    bias_filler {
      type: "constant"
      value: 1
    }
  }
}
layer {
  name: "relu4"
  type: "ReLU"
  bottom: "conv4"
  top: "conv4"
}
layer {
  name: "conv5"
  type: "Convolution"
  bottom: "conv4"
  top: "conv5"
  param {
    lr_mult: 1
    decay_mult: 1
  }
  param {
    lr_mult: 2
    decay_mult: 0
  }
  convolution_param {
    num_output: 256
    pad: 1
    kernel_size: 3
    group: 2
    weight_filler {
      type: "gaussian"
      std: 0.01
    }
    bias_filler {
      type: "constant"
      value: 1
    }
  }
}
layer {
  name: "relu5"
  type: "ReLU"
  bottom: "conv5"
  top: "conv5"
}
layer {
  name: "pool5"
  type: "Pooling"
  bottom: "conv5"
  top: "pool5"
  pooling_param {
    pool: MAX
    kernel_size: 3
    stride: 2
  }
}
layer {
  name: "fc6"
  type: "InnerProduct"
  bottom: "pool5"
  top: "fc6"
  param {
    lr_mult: 1
    decay_mult: 1
  }
  param {
    lr_mult: 2
    decay_mult: 0
  }
  inner_product_param {
    num_output: 4096
    weight_filler {
      type: "gaussian"
      std: 0.005
    }
    bias_filler {
      type: "constant"
      value: 1
    }
  }
}
layer {
  name: "relu6"
  type: "ReLU"
  bottom: "fc6"
  top: "fc6"
}
layer {
  name: "drop6"
  type: "Dropout"
  bottom: "fc6"
  top: "fc6"
  dropout_param {
    dropout_ratio: 0.5
  }
}
layer {
  name: "fc7"
  type: "InnerProduct"
  bottom: "fc6"
  top: "fc7"
  param {
    lr_mult: 1
    decay_mult: 1
  }
  param {
    lr_mult: 2
    decay_mult: 0
  }
  inner_product_param {
    num_output: 4096
    weight_filler {
      type: "gaussian"
      std: 0.005
    }
    bias_filler {
      type: "constant"
      value: 1
    }
  }
}
layer {
  name: "relu7"
  type: "ReLU"
  bottom: "fc7"
  top: "fc7"
}
layer {
  name: "drop7"
  type: "Dropout"
  bottom: "fc7"
  top: "fc7"
  dropout_param {
    dropout_ratio: 0.5
  }
}
layer {
  name: "fc8"
  type: "InnerProduct"
  bottom: "fc7"
  top: "fc8"
  param {
    lr_mult: 1
    decay_mult: 1
  }
  param {
    lr_mult: 2
    decay_mult: 0
  }
  inner_product_param {
    num_output: 1000
    weight_filler {
      type: "gaussian"
      std: 0.01
    }
    bias_filler {
      type: "constant"
      value: 0
    }
  }
}
layer {
  name: "loss"
  type: "SoftmaxWithLoss"
  bottom: "fc8"
  bottom: "label"
  top: "loss"
}
I0315 01:45:09.538182 17875 layer_factory.hpp:77] Creating layer data
I0315 01:45:09.538313 17875 db_lmdb.cpp:35] Opened lmdb examples/imagenet/ilsvrc12_train_lmdb
I0315 01:45:09.593281 17875 net.cpp:86] Creating Layer data
I0315 01:45:09.593338 17875 net.cpp:382] data -> data
I0315 01:45:09.593400 17875 net.cpp:382] data -> label
I0315 01:45:09.593439 17875 data_transformer.cpp:25] Loading mean file from: data/ilsvrc12/imagenet_mean.binaryproto
I0315 01:45:09.598623 17875 data_layer.cpp:45] output data size: 256,3,227,227
I0315 01:45:10.132323 17875 net.cpp:124] Setting up data
I0315 01:45:10.132377 17875 net.cpp:131] Top shape: 256 3 227 227 (39574272)
I0315 01:45:10.132386 17875 net.cpp:131] Top shape: 256 (256)
I0315 01:45:10.132392 17875 net.cpp:139] Memory required for data: 158298112
I0315 01:45:10.132407 17875 layer_factory.hpp:77] Creating layer conv1
I0315 01:45:10.132438 17875 net.cpp:86] Creating Layer conv1
I0315 01:45:10.132449 17875 net.cpp:408] conv1 <- data
I0315 01:45:10.132468 17875 net.cpp:382] conv1 -> conv1
I0315 01:45:12.127555 17875 net.cpp:124] Setting up conv1
I0315 01:45:12.127622 17875 net.cpp:131] Top shape: 256 96 55 55 (74342400)
I0315 01:45:12.127635 17875 net.cpp:139] Memory required for data: 455667712
I0315 01:45:12.127682 17875 layer_factory.hpp:77] Creating layer relu1
I0315 01:45:12.127710 17875 net.cpp:86] Creating Layer relu1
I0315 01:45:12.127723 17875 net.cpp:408] relu1 <- conv1
I0315 01:45:12.127739 17875 net.cpp:369] relu1 -> conv1 (in-place)
I0315 01:45:12.128312 17875 net.cpp:124] Setting up relu1
I0315 01:45:12.128340 17875 net.cpp:131] Top shape: 256 96 55 55 (74342400)
I0315 01:45:12.128350 17875 net.cpp:139] Memory required for data: 753037312
I0315 01:45:12.128361 17875 layer_factory.hpp:77] Creating layer pool1
I0315 01:45:12.128379 17875 net.cpp:86] Creating Layer pool1
I0315 01:45:12.128391 17875 net.cpp:408] pool1 <- conv1
I0315 01:45:12.128407 17875 net.cpp:382] pool1 -> pool1
I0315 01:45:12.128444 17875 net.cpp:124] Setting up pool1
I0315 01:45:12.128461 17875 net.cpp:131] Top shape: 256 96 27 27 (17915904)
I0315 01:45:12.128470 17875 net.cpp:139] Memory required for data: 824700928
I0315 01:45:12.128480 17875 layer_factory.hpp:77] Creating layer norm1
I0315 01:45:12.128504 17875 net.cpp:86] Creating Layer norm1
I0315 01:45:12.128515 17875 net.cpp:408] norm1 <- pool1
I0315 01:45:12.128530 17875 net.cpp:382] norm1 -> norm1
I0315 01:45:12.128888 17875 net.cpp:124] Setting up norm1
I0315 01:45:12.128935 17875 net.cpp:131] Top shape: 256 96 27 27 (17915904)
I0315 01:45:12.128947 17875 net.cpp:139] Memory required for data: 896364544
I0315 01:45:12.128957 17875 layer_factory.hpp:77] Creating layer conv2
I0315 01:45:12.128983 17875 net.cpp:86] Creating Layer conv2
I0315 01:45:12.128993 17875 net.cpp:408] conv2 <- norm1
I0315 01:45:12.129009 17875 net.cpp:382] conv2 -> conv2
I0315 01:45:12.140377 17875 net.cpp:124] Setting up conv2
I0315 01:45:12.140419 17875 net.cpp:131] Top shape: 256 256 27 27 (47775744)
I0315 01:45:12.140429 17875 net.cpp:139] Memory required for data: 1087467520
I0315 01:45:12.140453 17875 layer_factory.hpp:77] Creating layer relu2
I0315 01:45:12.140481 17875 net.cpp:86] Creating Layer relu2
I0315 01:45:12.140493 17875 net.cpp:408] relu2 <- conv2
I0315 01:45:12.140508 17875 net.cpp:369] relu2 -> conv2 (in-place)
I0315 01:45:12.140908 17875 net.cpp:124] Setting up relu2
I0315 01:45:12.140930 17875 net.cpp:131] Top shape: 256 256 27 27 (47775744)
I0315 01:45:12.140938 17875 net.cpp:139] Memory required for data: 1278570496
I0315 01:45:12.140947 17875 layer_factory.hpp:77] Creating layer pool2
I0315 01:45:12.140965 17875 net.cpp:86] Creating Layer pool2
I0315 01:45:12.140974 17875 net.cpp:408] pool2 <- conv2
I0315 01:45:12.140988 17875 net.cpp:382] pool2 -> pool2
I0315 01:45:12.141013 17875 net.cpp:124] Setting up pool2
I0315 01:45:12.141027 17875 net.cpp:131] Top shape: 256 256 13 13 (11075584)
I0315 01:45:12.141036 17875 net.cpp:139] Memory required for data: 1322872832
I0315 01:45:12.141043 17875 layer_factory.hpp:77] Creating layer norm2
I0315 01:45:12.141065 17875 net.cpp:86] Creating Layer norm2
I0315 01:45:12.141075 17875 net.cpp:408] norm2 <- pool2
I0315 01:45:12.141088 17875 net.cpp:382] norm2 -> norm2
I0315 01:45:12.141643 17875 net.cpp:124] Setting up norm2
I0315 01:45:12.141670 17875 net.cpp:131] Top shape: 256 256 13 13 (11075584)
I0315 01:45:12.141680 17875 net.cpp:139] Memory required for data: 1367175168
I0315 01:45:12.141690 17875 layer_factory.hpp:77] Creating layer conv3
I0315 01:45:12.141713 17875 net.cpp:86] Creating Layer conv3
I0315 01:45:12.141724 17875 net.cpp:408] conv3 <- norm2
I0315 01:45:12.141741 17875 net.cpp:382] conv3 -> conv3
I0315 01:45:12.380678 17875 net.cpp:124] Setting up conv3
I0315 01:45:12.380731 17875 net.cpp:131] Top shape: 256 384 13 13 (16613376)
I0315 01:45:12.380738 17875 net.cpp:139] Memory required for data: 1433628672
I0315 01:45:12.380760 17875 layer_factory.hpp:77] Creating layer relu3
I0315 01:45:12.380779 17875 net.cpp:86] Creating Layer relu3
I0315 01:45:12.380787 17875 net.cpp:408] relu3 <- conv3
I0315 01:45:12.380798 17875 net.cpp:369] relu3 -> conv3 (in-place)
I0315 01:45:12.381016 17875 net.cpp:124] Setting up relu3
I0315 01:45:12.381031 17875 net.cpp:131] Top shape: 256 384 13 13 (16613376)
I0315 01:45:12.381036 17875 net.cpp:139] Memory required for data: 1500082176
I0315 01:45:12.381042 17875 layer_factory.hpp:77] Creating layer conv4
I0315 01:45:12.381063 17875 net.cpp:86] Creating Layer conv4
I0315 01:45:12.381070 17875 net.cpp:408] conv4 <- conv3
I0315 01:45:12.381079 17875 net.cpp:382] conv4 -> conv4
I0315 01:45:12.393100 17875 net.cpp:124] Setting up conv4
I0315 01:45:12.393123 17875 net.cpp:131] Top shape: 256 384 13 13 (16613376)
I0315 01:45:12.393129 17875 net.cpp:139] Memory required for data: 1566535680
I0315 01:45:12.393141 17875 layer_factory.hpp:77] Creating layer relu4
I0315 01:45:12.393151 17875 net.cpp:86] Creating Layer relu4
I0315 01:45:12.393157 17875 net.cpp:408] relu4 <- conv4
I0315 01:45:12.393167 17875 net.cpp:369] relu4 -> conv4 (in-place)
I0315 01:45:12.393404 17875 net.cpp:124] Setting up relu4
I0315 01:45:12.393417 17875 net.cpp:131] Top shape: 256 384 13 13 (16613376)
I0315 01:45:12.393422 17875 net.cpp:139] Memory required for data: 1632989184
I0315 01:45:12.393429 17875 layer_factory.hpp:77] Creating layer conv5
I0315 01:45:12.393445 17875 net.cpp:86] Creating Layer conv5
I0315 01:45:12.393452 17875 net.cpp:408] conv5 <- conv4
I0315 01:45:12.393476 17875 net.cpp:382] conv5 -> conv5
I0315 01:45:12.402305 17875 net.cpp:124] Setting up conv5
I0315 01:45:12.402326 17875 net.cpp:131] Top shape: 256 256 13 13 (11075584)
I0315 01:45:12.402333 17875 net.cpp:139] Memory required for data: 1677291520
I0315 01:45:12.402349 17875 layer_factory.hpp:77] Creating layer relu5
I0315 01:45:12.402359 17875 net.cpp:86] Creating Layer relu5
I0315 01:45:12.402366 17875 net.cpp:408] relu5 <- conv5
I0315 01:45:12.402375 17875 net.cpp:369] relu5 -> conv5 (in-place)
I0315 01:45:12.402596 17875 net.cpp:124] Setting up relu5
I0315 01:45:12.402612 17875 net.cpp:131] Top shape: 256 256 13 13 (11075584)
I0315 01:45:12.402617 17875 net.cpp:139] Memory required for data: 1721593856
I0315 01:45:12.402623 17875 layer_factory.hpp:77] Creating layer pool5
I0315 01:45:12.402634 17875 net.cpp:86] Creating Layer pool5
I0315 01:45:12.402640 17875 net.cpp:408] pool5 <- conv5
I0315 01:45:12.402652 17875 net.cpp:382] pool5 -> pool5
I0315 01:45:12.402667 17875 net.cpp:124] Setting up pool5
I0315 01:45:12.402676 17875 net.cpp:131] Top shape: 256 256 6 6 (2359296)
I0315 01:45:12.402681 17875 net.cpp:139] Memory required for data: 1731031040
I0315 01:45:12.402686 17875 layer_factory.hpp:77] Creating layer fc6
I0315 01:45:12.402703 17875 net.cpp:86] Creating Layer fc6
I0315 01:45:12.402709 17875 net.cpp:408] fc6 <- pool5
I0315 01:45:12.402717 17875 net.cpp:382] fc6 -> fc6
I0315 01:45:13.316448 17875 net.cpp:124] Setting up fc6
I0315 01:45:13.316504 17875 net.cpp:131] Top shape: 256 4096 (1048576)
I0315 01:45:13.316511 17875 net.cpp:139] Memory required for data: 1735225344
I0315 01:45:13.316526 17875 layer_factory.hpp:77] Creating layer relu6
I0315 01:45:13.316541 17875 net.cpp:86] Creating Layer relu6
I0315 01:45:13.316548 17875 net.cpp:408] relu6 <- fc6
I0315 01:45:13.316560 17875 net.cpp:369] relu6 -> fc6 (in-place)
I0315 01:45:13.317168 17875 net.cpp:124] Setting up relu6
I0315 01:45:13.317184 17875 net.cpp:131] Top shape: 256 4096 (1048576)
I0315 01:45:13.317190 17875 net.cpp:139] Memory required for data: 1739419648
I0315 01:45:13.317196 17875 layer_factory.hpp:77] Creating layer drop6
I0315 01:45:13.317209 17875 net.cpp:86] Creating Layer drop6
I0315 01:45:13.317216 17875 net.cpp:408] drop6 <- fc6
I0315 01:45:13.317225 17875 net.cpp:369] drop6 -> fc6 (in-place)
I0315 01:45:13.317242 17875 net.cpp:124] Setting up drop6
I0315 01:45:13.317253 17875 net.cpp:131] Top shape: 256 4096 (1048576)
I0315 01:45:13.317258 17875 net.cpp:139] Memory required for data: 1743613952
I0315 01:45:13.317265 17875 layer_factory.hpp:77] Creating layer fc7
I0315 01:45:13.317276 17875 net.cpp:86] Creating Layer fc7
I0315 01:45:13.317281 17875 net.cpp:408] fc7 <- fc6
I0315 01:45:13.317289 17875 net.cpp:382] fc7 -> fc7
I0315 01:45:13.691203 17875 net.cpp:124] Setting up fc7
I0315 01:45:13.691258 17875 net.cpp:131] Top shape: 256 4096 (1048576)
I0315 01:45:13.691264 17875 net.cpp:139] Memory required for data: 1747808256
I0315 01:45:13.691280 17875 layer_factory.hpp:77] Creating layer relu7
I0315 01:45:13.691294 17875 net.cpp:86] Creating Layer relu7
I0315 01:45:13.691301 17875 net.cpp:408] relu7 <- fc7
I0315 01:45:13.691313 17875 net.cpp:369] relu7 -> fc7 (in-place)
I0315 01:45:13.691640 17875 net.cpp:124] Setting up relu7
I0315 01:45:13.691654 17875 net.cpp:131] Top shape: 256 4096 (1048576)
I0315 01:45:13.691660 17875 net.cpp:139] Memory required for data: 1752002560
I0315 01:45:13.691666 17875 layer_factory.hpp:77] Creating layer drop7
I0315 01:45:13.691678 17875 net.cpp:86] Creating Layer drop7
I0315 01:45:13.691684 17875 net.cpp:408] drop7 <- fc7
I0315 01:45:13.691691 17875 net.cpp:369] drop7 -> fc7 (in-place)
I0315 01:45:13.691704 17875 net.cpp:124] Setting up drop7
I0315 01:45:13.691710 17875 net.cpp:131] Top shape: 256 4096 (1048576)
I0315 01:45:13.691715 17875 net.cpp:139] Memory required for data: 1756196864
I0315 01:45:13.691721 17875 layer_factory.hpp:77] Creating layer fc8
I0315 01:45:13.691735 17875 net.cpp:86] Creating Layer fc8
I0315 01:45:13.691740 17875 net.cpp:408] fc8 <- fc7
I0315 01:45:13.691762 17875 net.cpp:382] fc8 -> fc8
I0315 01:45:13.777269 17875 net.cpp:124] Setting up fc8
I0315 01:45:13.777320 17875 net.cpp:131] Top shape: 256 1000 (256000)
I0315 01:45:13.777325 17875 net.cpp:139] Memory required for data: 1757220864
I0315 01:45:13.777340 17875 layer_factory.hpp:77] Creating layer loss
I0315 01:45:13.777365 17875 net.cpp:86] Creating Layer loss
I0315 01:45:13.777374 17875 net.cpp:408] loss <- fc8
I0315 01:45:13.777384 17875 net.cpp:408] loss <- label
I0315 01:45:13.777400 17875 net.cpp:382] loss -> loss
I0315 01:45:13.777425 17875 layer_factory.hpp:77] Creating layer loss
…
I0315 01:45:13.779083 17875 net.cpp:296] The NetState phase (1) differed from the phase (0) specified by a rule in layer data
I0315 01:45:13.779326 17875 net.cpp:53] Initializing net from parameters: 
name: "CaffeNet"
state {
  phase: TEST
}
layer {
  name: "data"
  type: "Data"
  top: "data"
  top: "label"
  include {
    phase: TEST
  }
  transform_param {
    mirror: false
    crop_size: 227
    mean_file: "data/ilsvrc12/imagenet_mean.binaryproto"
  }
  data_param {
    source: "examples/imagenet/ilsvrc12_val_lmdb"
    batch_size: 50
    backend: LMDB
  }
}
layer {
  name: "conv1"
  type: "Convolution"
  bottom: "data"
  top: "conv1"
  param {
    lr_mult: 1
    decay_mult: 1
  }
  param {
    lr_mult: 2
    decay_mult: 0
  }
  convolution_param {
    num_output: 96
    kernel_size: 11
    stride: 4
    weight_filler {
      type: "gaussian"
      std: 0.01
    }
    bias_filler {
      type: "constant"
      value: 0
    }
  }
}
layer {
  name: "relu1"
  type: "ReLU"
  bottom: "conv1"
  top: "conv1"
}
layer {
  name: "pool1"
  type: "Pooling"
  bottom: "conv1"
  top: "pool1"
  pooling_param {
    pool: MAX
    kernel_size: 3
    stride: 2
  }
}
layer {
  name: "norm1"
  type: "LRN"
  bottom: "pool1"
  top: "norm1"
  lrn_param {
    local_size: 5
    alpha: 0.0001
    beta: 0.75
  }
}
layer {
  name: "conv2"
  type: "Convolution"
  bottom: "norm1"
  top: "conv2"
  param {
    lr_mult: 1
    decay_mult: 1
  }
  param {
    lr_mult: 2
    decay_mult: 0
  }
  convolution_param {
    num_output: 256
    pad: 2
    kernel_size: 5
    group: 2
    weight_filler {
      type: "gaussian"
      std: 0.01
    }
    bias_filler {
      type: "constant"
      value: 1
    }
  }
}
layer {
  name: "relu2"
  type: "ReLU"
  bottom: "conv2"
  top: "conv2"
}
layer {
  name: "pool2"
  type: "Pooling"
  bottom: "conv2"
  top: "pool2"
  pooling_param {
    pool: MAX
    kernel_size: 3
    stride: 2
  }
}
layer {
  name: "norm2"
  type: "LRN"
  bottom: "pool2"
  top: "norm2"
  lrn_param {
    local_size: 5
    alpha: 0.0001
    beta: 0.75
  }
}
layer {
  name: "conv3"
  type: "Convolution"
  bottom: "norm2"
  top: "conv3"
  param {
    lr_mult: 1
    decay_mult: 1
  }
  param {
    lr_mult: 2
    decay_mult: 0
  }
  convolution_param {
    num_output: 384
    pad: 1
    kernel_size: 3
    weight_filler {
      type: "gaussian"
      std: 0.01
    }
    bias_filler {
      type: "constant"
      value: 0
    }
  }
}
layer {
  name: "relu3"
  type: "ReLU"
  bottom: "conv3"
  top: "conv3"
}
layer {
  name: "conv4"
  type: "Convolution"
  bottom: "conv3"
  top: "conv4"
  param {
    lr_mult: 1
    decay_mult: 1
  }
  param {
    lr_mult: 2
    decay_mult: 0
  }
  convolution_param {
    num_output: 384
    pad: 1
    kernel_size: 3
    group: 2
    weight_filler {
      type: "gaussian"
      std: 0.01
    }
    bias_filler {
      type: "constant"
      value: 1
    }
  }
}
layer {
  name: "relu4"
  type: "ReLU"
  bottom: "conv4"
  top: "conv4"
}
layer {
  name: "conv5"
  type: "Convolution"
  bottom: "conv4"
  top: "conv5"
  param {
    lr_mult: 1
    decay_mult: 1
  }
  param {
    lr_mult: 2
    decay_mult: 0
  }
  convolution_param {
    num_output: 256
    pad: 1
    kernel_size: 3
    group: 2
    weight_filler {
      type: "gaussian"
      std: 0.01
    }
    bias_filler {
      type: "constant"
      value: 1
    }
  }
}
layer {
  name: "relu5"
  type: "ReLU"
  bottom: "conv5"
  top: "conv5"
}
layer {
  name: "pool5"
  type: "Pooling"
  bottom: "conv5"
  top: "pool5"
  pooling_param {
    pool: MAX
    kernel_size: 3
    stride: 2
  }
}
layer {
  name: "fc6"
  type: "InnerProduct"
  bottom: "pool5"
  top: "fc6"
  param {
    lr_mult: 1
    decay_mult: 1
  }
  param {
    lr_mult: 2
    decay_mult: 0
  }
  inner_product_param {
    num_output: 4096
    weight_filler {
      type: "gaussian"
      std: 0.005
    }
    bias_filler {
      type: "constant"
      value: 1
    }
  }
}
layer {
  name: "relu6"
  type: "ReLU"
  bottom: "fc6"
  top: "fc6"
}
layer {
  name: "drop6"
  type: "Dropout"
  bottom: "fc6"
  top: "fc6"
  dropout_param {
    dropout_ratio: 0.5
  }
}
layer {
  name: "fc7"
  type: "InnerProduct"
  bottom: "fc6"
  top: "fc7"
  param {
    lr_mult: 1
    decay_mult: 1
  }
  param {
    lr_mult: 2
    decay_mult: 0
  }
  inner_product_param {
    num_output: 4096
    weight_filler {
      type: "gaussian"
      std: 0.005
    }
    bias_filler {
      type: "constant"
      value: 1
    }
  }
}
layer {
  name: "relu7"
  type: "ReLU"
  bottom: "fc7"
  top: "fc7"
}
layer {
  name: "drop7"
  type: "Dropout"
  bottom: "fc7"
  top: "fc7"
  dropout_param {
    dropout_ratio: 0.5
  }
}
layer {
  name: "fc8"
  type: "InnerProduct"
  bottom: "fc7"
  top: "fc8"
  param {
    lr_mult: 1
    decay_mult: 1
  }
  param {
    lr_mult: 2
    decay_mult: 0
  }
  inner_product_param {
    num_output: 1000
    weight_filler {
      type: "gaussian"
      std: 0.01
    }
    bias_filler {
      type: "constant"
      value: 0
    }
  }
}
layer {
  name: "accuracy"
  type: "Accuracy"
  bottom: "fc8"
  bottom: "label"
  top: "accuracy"
  include {
    phase: TEST
  }
}
layer {
  name: "loss"
  type: "SoftmaxWithLoss"
  bottom: "fc8"
  bottom: "label"
  top: "loss"
}
I0315 01:45:13.779484 17875 layer_factory.hpp:77] Creating layer data
I0315 01:45:13.779579 17875 db_lmdb.cpp:35] Opened lmdb examples/imagenet/ilsvrc12_val_lmdb
I0315 01:45:13.779609 17875 net.cpp:86] Creating Layer data
I0315 01:45:13.779623 17875 net.cpp:382] data -> data
I0315 01:45:13.779636 17875 net.cpp:382] data -> label
I0315 01:45:13.779649 17875 data_transformer.cpp:25] Loading mean file from: data/ilsvrc12/imagenet_mean.binaryproto
I0315 01:45:13.781447 17875 data_layer.cpp:45] output data size: 50,3,227,227
I0315 01:45:14.031540 17875 net.cpp:124] Setting up data
I0315 01:45:14.031594 17875 net.cpp:131] Top shape: 50 3 227 227 (7729350)
I0315 01:45:14.031601 17875 net.cpp:131] Top shape: 50 (50)
I0315 01:45:14.031607 17875 net.cpp:139] Memory required for data: 30917600
I0315 01:45:14.031617 17875 layer_factory.hpp:77] Creating layer label_data_1_split
I0315 01:45:14.031635 17875 net.cpp:86] Creating Layer label_data_1_split
I0315 01:45:14.031642 17875 net.cpp:408] label_data_1_split <- label
I0315 01:45:14.031653 17875 net.cpp:382] label_data_1_split -> label_data_1_split_0
I0315 01:45:14.031671 17875 net.cpp:382] label_data_1_split -> label_data_1_split_1
I0315 01:45:14.031685 17875 net.cpp:124] Setting up label_data_1_split
I0315 01:45:14.031693 17875 net.cpp:131] Top shape: 50 (50)
I0315 01:45:14.031699 17875 net.cpp:131] Top shape: 50 (50)
I0315 01:45:14.031704 17875 net.cpp:139] Memory required for data: 30918000
I0315 01:45:14.031710 17875 layer_factory.hpp:77] Creating layer conv1
I0315 01:45:14.031728 17875 net.cpp:86] Creating Layer conv1
I0315 01:45:14.031733 17875 net.cpp:408] conv1 <- data
I0315 01:45:14.031744 17875 net.cpp:382] conv1 -> conv1
I0315 01:45:14.033512 17875 net.cpp:124] Setting up conv1
I0315 01:45:14.033530 17875 net.cpp:131] Top shape: 50 96 55 55 (14520000)
I0315 01:45:14.033537 17875 net.cpp:139] Memory required for data: 88998000
I0315 01:45:14.033553 17875 layer_factory.hpp:77] Creating layer relu1
I0315 01:45:14.033563 17875 net.cpp:86] Creating Layer relu1
I0315 01:45:14.033570 17875 net.cpp:408] relu1 <- conv1
I0315 01:45:14.033578 17875 net.cpp:369] relu1 -> conv1 (in-place)
I0315 01:45:14.033778 17875 net.cpp:124] Setting up relu1
I0315 01:45:14.033793 17875 net.cpp:131] Top shape: 50 96 55 55 (14520000)
I0315 01:45:14.033798 17875 net.cpp:139] Memory required for data: 147078000
I0315 01:45:14.033804 17875 layer_factory.hpp:77] Creating layer pool1
I0315 01:45:14.033818 17875 net.cpp:86] Creating Layer pool1
I0315 01:45:14.033823 17875 net.cpp:408] pool1 <- conv1
I0315 01:45:14.033833 17875 net.cpp:382] pool1 -> pool1
I0315 01:45:14.033848 17875 net.cpp:124] Setting up pool1
I0315 01:45:14.033855 17875 net.cpp:131] Top shape: 50 96 27 27 (3499200)
I0315 01:45:14.033861 17875 net.cpp:139] Memory required for data: 161074800
I0315 01:45:14.033866 17875 layer_factory.hpp:77] Creating layer norm1
I0315 01:45:14.033877 17875 net.cpp:86] Creating Layer norm1
I0315 01:45:14.033884 17875 net.cpp:408] norm1 <- pool1
I0315 01:45:14.033891 17875 net.cpp:382] norm1 -> norm1
I0315 01:45:14.034245 17875 net.cpp:124] Setting up norm1
I0315 01:45:14.034260 17875 net.cpp:131] Top shape: 50 96 27 27 (3499200)
I0315 01:45:14.034266 17875 net.cpp:139] Memory required for data: 175071600
I0315 01:45:14.034272 17875 layer_factory.hpp:77] Creating layer conv2
I0315 01:45:14.034286 17875 net.cpp:86] Creating Layer conv2
I0315 01:45:14.034292 17875 net.cpp:408] conv2 <- norm1
I0315 01:45:14.034302 17875 net.cpp:382] conv2 -> conv2
I0315 01:45:14.040899 17875 net.cpp:124] Setting up conv2
I0315 01:45:14.040948 17875 net.cpp:131] Top shape: 50 256 27 27 (9331200)
I0315 01:45:14.040954 17875 net.cpp:139] Memory required for data: 212396400
I0315 01:45:14.040974 17875 layer_factory.hpp:77] Creating layer relu2
I0315 01:45:14.040989 17875 net.cpp:86] Creating Layer relu2
I0315 01:45:14.040997 17875 net.cpp:408] relu2 <- conv2
I0315 01:45:14.041007 17875 net.cpp:369] relu2 -> conv2 (in-place)
I0315 01:45:14.041395 17875 net.cpp:124] Setting up relu2
I0315 01:45:14.041411 17875 net.cpp:131] Top shape: 50 256 27 27 (9331200)
I0315 01:45:14.041431 17875 net.cpp:139] Memory required for data: 249721200
I0315 01:45:14.041450 17875 layer_factory.hpp:77] Creating layer pool2
I0315 01:45:14.041465 17875 net.cpp:86] Creating Layer pool2
I0315 01:45:14.041471 17875 net.cpp:408] pool2 <- conv2
I0315 01:45:14.041482 17875 net.cpp:382] pool2 -> pool2
I0315 01:45:14.041501 17875 net.cpp:124] Setting up pool2
I0315 01:45:14.041512 17875 net.cpp:131] Top shape: 50 256 13 13 (2163200)
I0315 01:45:14.041517 17875 net.cpp:139] Memory required for data: 258374000
I0315 01:45:14.041522 17875 layer_factory.hpp:77] Creating layer norm2
I0315 01:45:14.041533 17875 net.cpp:86] Creating Layer norm2
I0315 01:45:14.041539 17875 net.cpp:408] norm2 <- pool2
I0315 01:45:14.041548 17875 net.cpp:382] norm2 -> norm2
I0315 01:45:14.041766 17875 net.cpp:124] Setting up norm2
I0315 01:45:14.041780 17875 net.cpp:131] Top shape: 50 256 13 13 (2163200)
I0315 01:45:14.041786 17875 net.cpp:139] Memory required for data: 267026800
I0315 01:45:14.041791 17875 layer_factory.hpp:77] Creating layer conv3
I0315 01:45:14.041810 17875 net.cpp:86] Creating Layer conv3
I0315 01:45:14.041817 17875 net.cpp:408] conv3 <- norm2
I0315 01:45:14.041829 17875 net.cpp:382] conv3 -> conv3
I0315 01:45:14.060577 17875 net.cpp:124] Setting up conv3
I0315 01:45:14.060627 17875 net.cpp:131] Top shape: 50 384 13 13 (3244800)
I0315 01:45:14.060634 17875 net.cpp:139] Memory required for data: 280006000
I0315 01:45:14.060654 17875 layer_factory.hpp:77] Creating layer relu3
I0315 01:45:14.060669 17875 net.cpp:86] Creating Layer relu3
I0315 01:45:14.060678 17875 net.cpp:408] relu3 <- conv3
I0315 01:45:14.060690 17875 net.cpp:369] relu3 -> conv3 (in-place)
I0315 01:45:14.061067 17875 net.cpp:124] Setting up relu3
I0315 01:45:14.061084 17875 net.cpp:131] Top shape: 50 384 13 13 (3244800)
I0315 01:45:14.061089 17875 net.cpp:139] Memory required for data: 292985200
I0315 01:45:14.061095 17875 layer_factory.hpp:77] Creating layer conv4
I0315 01:45:14.061112 17875 net.cpp:86] Creating Layer conv4
I0315 01:45:14.061120 17875 net.cpp:408] conv4 <- conv3
I0315 01:45:14.061131 17875 net.cpp:382] conv4 -> conv4
I0315 01:45:14.073429 17875 net.cpp:124] Setting up conv4
I0315 01:45:14.073479 17875 net.cpp:131] Top shape: 50 384 13 13 (3244800)
I0315 01:45:14.073487 17875 net.cpp:139] Memory required for data: 305964400
I0315 01:45:14.073501 17875 layer_factory.hpp:77] Creating layer relu4
I0315 01:45:14.073521 17875 net.cpp:86] Creating Layer relu4
I0315 01:45:14.073530 17875 net.cpp:408] relu4 <- conv4
I0315 01:45:14.073545 17875 net.cpp:369] relu4 -> conv4 (in-place)
I0315 01:45:14.073938 17875 net.cpp:124] Setting up relu4
I0315 01:45:14.073954 17875 net.cpp:131] Top shape: 50 384 13 13 (3244800)
I0315 01:45:14.073961 17875 net.cpp:139] Memory required for data: 318943600
I0315 01:45:14.073966 17875 layer_factory.hpp:77] Creating layer conv5
I0315 01:45:14.073987 17875 net.cpp:86] Creating Layer conv5
I0315 01:45:14.073993 17875 net.cpp:408] conv5 <- conv4
I0315 01:45:14.074007 17875 net.cpp:382] conv5 -> conv5
I0315 01:45:14.083017 17875 net.cpp:124] Setting up conv5
I0315 01:45:14.083065 17875 net.cpp:131] Top shape: 50 256 13 13 (2163200)
I0315 01:45:14.083071 17875 net.cpp:139] Memory required for data: 327596400
I0315 01:45:14.083096 17875 layer_factory.hpp:77] Creating layer relu5
I0315 01:45:14.083111 17875 net.cpp:86] Creating Layer relu5
I0315 01:45:14.083118 17875 net.cpp:408] relu5 <- conv5
I0315 01:45:14.083133 17875 net.cpp:369] relu5 -> conv5 (in-place)
I0315 01:45:14.083358 17875 net.cpp:124] Setting up relu5
I0315 01:45:14.083372 17875 net.cpp:131] Top shape: 50 256 13 13 (2163200)
I0315 01:45:14.083377 17875 net.cpp:139] Memory required for data: 336249200
I0315 01:45:14.083384 17875 layer_factory.hpp:77] Creating layer pool5
I0315 01:45:14.083400 17875 net.cpp:86] Creating Layer pool5
I0315 01:45:14.083407 17875 net.cpp:408] pool5 <- conv5
I0315 01:45:14.083416 17875 net.cpp:382] pool5 -> pool5
I0315 01:45:14.083432 17875 net.cpp:124] Setting up pool5
I0315 01:45:14.083441 17875 net.cpp:131] Top shape: 50 256 6 6 (460800)
I0315 01:45:14.083468 17875 net.cpp:139] Memory required for data: 338092400
I0315 01:45:14.083474 17875 layer_factory.hpp:77] Creating layer fc6
I0315 01:45:14.083489 17875 net.cpp:86] Creating Layer fc6
I0315 01:45:14.083497 17875 net.cpp:408] fc6 <- pool5
I0315 01:45:14.083508 17875 net.cpp:382] fc6 -> fc6
I0315 01:45:14.920123 17875 net.cpp:124] Setting up fc6
I0315 01:45:14.920176 17875 net.cpp:131] Top shape: 50 4096 (204800)
I0315 01:45:14.920181 17875 net.cpp:139] Memory required for data: 338911600
I0315 01:45:14.920198 17875 layer_factory.hpp:77] Creating layer relu6
I0315 01:45:14.920214 17875 net.cpp:86] Creating Layer relu6
I0315 01:45:14.920223 17875 net.cpp:408] relu6 <- fc6
I0315 01:45:14.920234 17875 net.cpp:369] relu6 -> fc6 (in-place)
I0315 01:45:14.920820 17875 net.cpp:124] Setting up relu6
I0315 01:45:14.920836 17875 net.cpp:131] Top shape: 50 4096 (204800)
I0315 01:45:14.920842 17875 net.cpp:139] Memory required for data: 339730800
I0315 01:45:14.920848 17875 layer_factory.hpp:77] Creating layer drop6
I0315 01:45:14.920861 17875 net.cpp:86] Creating Layer drop6
I0315 01:45:14.920867 17875 net.cpp:408] drop6 <- fc6
I0315 01:45:14.920876 17875 net.cpp:369] drop6 -> fc6 (in-place)
I0315 01:45:14.920888 17875 net.cpp:124] Setting up drop6
I0315 01:45:14.920897 17875 net.cpp:131] Top shape: 50 4096 (204800)
I0315 01:45:14.920902 17875 net.cpp:139] Memory required for data: 340550000
I0315 01:45:14.920907 17875 layer_factory.hpp:77] Creating layer fc7
I0315 01:45:14.920919 17875 net.cpp:86] Creating Layer fc7
I0315 01:45:14.920925 17875 net.cpp:408] fc7 <- fc6
I0315 01:45:14.920934 17875 net.cpp:382] fc7 -> fc7
I0315 01:45:15.296018 17875 net.cpp:124] Setting up fc7
I0315 01:45:15.296070 17875 net.cpp:131] Top shape: 50 4096 (204800)
I0315 01:45:15.296077 17875 net.cpp:139] Memory required for data: 341369200
I0315 01:45:15.296092 17875 layer_factory.hpp:77] Creating layer relu7
I0315 01:45:15.296108 17875 net.cpp:86] Creating Layer relu7
I0315 01:45:15.296115 17875 net.cpp:408] relu7 <- fc7
I0315 01:45:15.296128 17875 net.cpp:369] relu7 -> fc7 (in-place)
I0315 01:45:15.296473 17875 net.cpp:124] Setting up relu7
I0315 01:45:15.296486 17875 net.cpp:131] Top shape: 50 4096 (204800)
I0315 01:45:15.296492 17875 net.cpp:139] Memory required for data: 342188400
I0315 01:45:15.296499 17875 layer_factory.hpp:77] Creating layer drop7
I0315 01:45:15.296509 17875 net.cpp:86] Creating Layer drop7
I0315 01:45:15.296514 17875 net.cpp:408] drop7 <- fc7
I0315 01:45:15.296525 17875 net.cpp:369] drop7 -> fc7 (in-place)
I0315 01:45:15.296537 17875 net.cpp:124] Setting up drop7
I0315 01:45:15.296545 17875 net.cpp:131] Top shape: 50 4096 (204800)
I0315 01:45:15.296550 17875 net.cpp:139] Memory required for data: 343007600
I0315 01:45:15.296556 17875 layer_factory.hpp:77] Creating layer fc8
I0315 01:45:15.296566 17875 net.cpp:86] Creating Layer fc8
I0315 01:45:15.296572 17875 net.cpp:408] fc8 <- fc7
I0315 01:45:15.296583 17875 net.cpp:382] fc8 -> fc8
I0315 01:45:15.385787 17875 net.cpp:124] Setting up fc8
I0315 01:45:15.385838 17875 net.cpp:131] Top shape: 50 1000 (50000)
I0315 01:45:15.385843 17875 net.cpp:139] Memory required for data: 343207600
I0315 01:45:15.385857 17875 layer_factory.hpp:77] Creating layer fc8_fc8_0_split
I0315 01:45:15.385871 17875 net.cpp:86] Creating Layer fc8_fc8_0_split
I0315 01:45:15.385879 17875 net.cpp:408] fc8_fc8_0_split <- fc8
I0315 01:45:15.385893 17875 net.cpp:382] fc8_fc8_0_split -> fc8_fc8_0_split_0
I0315 01:45:15.385908 17875 net.cpp:382] fc8_fc8_0_split -> fc8_fc8_0_split_1
I0315 01:45:15.385921 17875 net.cpp:124] Setting up fc8_fc8_0_split
I0315 01:45:15.385927 17875 net.cpp:131] Top shape: 50 1000 (50000)
I0315 01:45:15.385934 17875 net.cpp:131] Top shape: 50 1000 (50000)
I0315 01:45:15.385938 17875 net.cpp:139] Memory required for data: 343607600
I0315 01:45:15.385944 17875 layer_factory.hpp:77] Creating layer accuracy
I0315 01:45:15.385957 17875 net.cpp:86] Creating Layer accuracy
I0315 01:45:15.385963 17875 net.cpp:408] accuracy <- fc8_fc8_0_split_0
I0315 01:45:15.385982 17875 net.cpp:408] accuracy <- label_data_1_split_0
I0315 01:45:15.386008 17875 net.cpp:382] accuracy -> accuracy
…
