…
I0212 22:13:57.962229  9690 net.cpp:296] The NetState phase (0) differed from the phase (1) specified by a rule in layer accuracy
I0212 22:13:57.962474  9690 net.cpp:53] Initializing net from parameters: 
name: "CaffeNet"
state {
  phase: TRAIN
  level: 0
  stage: ""
}
layer {
  name: "data"
  type: "Data"
  top: "data"
  top: "label"
  include {
    phase: TRAIN
  }
  transform_param {
    mirror: true
    crop_size: 227
    mean_file: "data/ilsvrc12/imagenet_mean.binaryproto"
  }
  data_param {
    source: "examples/imagenet/ilsvrc12_train_lmdb"
    batch_size: 256
    backend: LMDB
  }
}
layer {
  name: "conv1"
  type: "Convolution"
  bottom: "data"
  top: "conv1"
  param {
    lr_mult: 1
    decay_mult: 1
  }
  param {
    lr_mult: 2
    decay_mult: 0
  }
  convolution_param {
    num_output: 96
    kernel_size: 11
    stride: 4
    weight_filler {
      type: "gaussian"
      std: 0.01
    }
    bias_filler {
      type: "constant"
      value: 0
    }
  }
}
layer {
  name: "relu1"
  type: "ReLU"
  bottom: "conv1"
  top: "conv1"
}
layer {
  name: "pool1"
  type: "Pooling"
  bottom: "conv1"
  top: "pool1"
  pooling_param {
    pool: MAX
    kernel_size: 3
    stride: 2
  }
}
layer {
  name: "norm1"
  type: "LRN"
  bottom: "pool1"
  top: "norm1"
  lrn_param {
    local_size: 5
    alpha: 0.0001
    beta: 0.75
  }
}
layer {
  name: "conv2"
  type: "Convolution"
  bottom: "norm1"
  top: "conv2"
  param {
    lr_mult: 1
    decay_mult: 1
  }
  param {
    lr_mult: 2
    decay_mult: 0
  }
  convolution_param {
    num_output: 256
    pad: 2
    kernel_size: 5
    group: 2
    weight_filler {
      type: "gaussian"
      std: 0.01
    }
    bias_filler {
      type: "constant"
      value: 1
    }
  }
}
layer {
  name: "relu2"
  type: "ReLU"
  bottom: "conv2"
  top: "conv2"
}
layer {
  name: "pool2"
  type: "Pooling"
  bottom: "conv2"
  top: "pool2"
  pooling_param {
    pool: MAX
    kernel_size: 3
    stride: 2
  }
}
layer {
  name: "norm2"
  type: "LRN"
  bottom: "pool2"
  top: "norm2"
  lrn_param {
    local_size: 5
    alpha: 0.0001
    beta: 0.75
  }
}
layer {
  name: "conv3"
  type: "Convolution"
  bottom: "norm2"
  top: "conv3"
  param {
    lr_mult: 1
    decay_mult: 1
  }
  param {
    lr_mult: 2
    decay_mult: 0
  }
  convolution_param {
    num_output: 384
    pad: 1
    kernel_size: 3
    weight_filler {
      type: "gaussian"
      std: 0.01
    }
    bias_filler {
      type: "constant"
      value: 0
    }
  }
}
layer {
  name: "relu3"
  type: "ReLU"
  bottom: "conv3"
  top: "conv3"
}
layer {
  name: "conv4"
  type: "Convolution"
  bottom: "conv3"
  top: "conv4"
  param {
    lr_mult: 1
    decay_mult: 1
  }
  param {
    lr_mult: 2
    decay_mult: 0
  }
  convolution_param {
    num_output: 384
    pad: 1
    kernel_size: 3
    group: 2
    weight_filler {
      type: "gaussian"
      std: 0.01
    }
    bias_filler {
      type: "constant"
      value: 1
    }
  }
}
layer {
  name: "relu4"
  type: "ReLU"
  bottom: "conv4"
  top: "conv4"
}
layer {
  name: "conv5"
  type: "Convolution"
  bottom: "conv4"
  top: "conv5"
  param {
    lr_mult: 1
    decay_mult: 1
  }
  param {
    lr_mult: 2
    decay_mult: 0
  }
  convolution_param {
    num_output: 256
    pad: 1
    kernel_size: 3
    group: 2
    weight_filler {
      type: "gaussian"
      std: 0.01
    }
    bias_filler {
      type: "constant"
      value: 1
    }
  }
}
layer {
  name: "relu5"
  type: "ReLU"
  bottom: "conv5"
  top: "conv5"
}
layer {
  name: "pool5"
  type: "Pooling"
  bottom: "conv5"
  top: "pool5"
  pooling_param {
    pool: MAX
    kernel_size: 3
    stride: 2
  }
}
layer {
  name: "fc6"
  type: "InnerProduct"
  bottom: "pool5"
  top: "fc6"
  param {
    lr_mult: 1
    decay_mult: 1
  }
  param {
    lr_mult: 2
    decay_mult: 0
  }
  inner_product_param {
    num_output: 4096
    weight_filler {
      type: "gaussian"
      std: 0.005
    }
    bias_filler {
      type: "constant"
      value: 1
    }
  }
}
layer {
  name: "relu6"
  type: "ReLU"
  bottom: "fc6"
  top: "fc6"
}
layer {
  name: "drop6"
  type: "Dropout"
  bottom: "fc6"
  top: "fc6"
  dropout_param {
    dropout_ratio: 0.5
  }
}
layer {
  name: "fc7"
  type: "InnerProduct"
  bottom: "fc6"
  top: "fc7"
  param {
    lr_mult: 1
    decay_mult: 1
  }
  param {
    lr_mult: 2
    decay_mult: 0
  }
  inner_product_param {
    num_output: 4096
    weight_filler {
      type: "gaussian"
      std: 0.005
    }
    bias_filler {
      type: "constant"
      value: 1
    }
  }
}
layer {
  name: "relu7"
  type: "ReLU"
  bottom: "fc7"
  top: "fc7"
}
layer {
  name: "drop7"
  type: "Dropout"
  bottom: "fc7"
  top: "fc7"
  dropout_param {
    dropout_ratio: 0.5
  }
}
layer {
  name: "fc8"
  type: "InnerProduct"
  bottom: "fc7"
  top: "fc8"
  param {
    lr_mult: 1
    decay_mult: 1
  }
  param {
    lr_mult: 2
    decay_mult: 0
  }
  inner_product_param {
    num_output: 1000
    weight_filler {
      type: "gaussian"
      std: 0.01
    }
    bias_filler {
      type: "constant"
      value: 0
    }
  }
}
layer {
  name: "loss"
  type: "SoftmaxWithLoss"
  bottom: "fc8"
  bottom: "label"
  top: "loss"
}
I0212 22:13:57.962602  9690 layer_factory.hpp:77] Creating layer data
I0212 22:13:57.962730  9690 db_lmdb.cpp:35] Opened lmdb examples/imagenet/ilsvrc12_train_lmdb
I0212 22:13:57.962774  9690 net.cpp:86] Creating Layer data
I0212 22:13:57.962790  9690 net.cpp:382] data -> data
I0212 22:13:57.962826  9690 net.cpp:382] data -> label
I0212 22:13:57.962846  9690 data_transformer.cpp:25] Loading mean file from: data/ilsvrc12/imagenet_mean.binaryproto
I0212 22:13:57.965026  9690 data_layer.cpp:45] output data size: 256,3,227,227
I0212 22:13:58.075877  9690 net.cpp:124] Setting up data
I0212 22:13:58.075930  9690 net.cpp:131] Top shape: 256 3 227 227 (39574272)
I0212 22:13:58.075939  9690 net.cpp:131] Top shape: 256 (256)
I0212 22:13:58.075944  9690 net.cpp:139] Memory required for data: 158298112
I0212 22:13:58.075959  9690 layer_factory.hpp:77] Creating layer conv1
I0212 22:13:58.075990  9690 net.cpp:86] Creating Layer conv1
I0212 22:13:58.076000  9690 net.cpp:408] conv1 <- data
I0212 22:13:58.076020  9690 net.cpp:382] conv1 -> conv1
I0212 22:13:58.339850  9690 net.cpp:124] Setting up conv1
I0212 22:13:58.339900  9690 net.cpp:131] Top shape: 256 96 55 55 (74342400)
I0212 22:13:58.339907  9690 net.cpp:139] Memory required for data: 455667712
I0212 22:13:58.339941  9690 layer_factory.hpp:77] Creating layer relu1
I0212 22:13:58.339958  9690 net.cpp:86] Creating Layer relu1
I0212 22:13:58.339967  9690 net.cpp:408] relu1 <- conv1
I0212 22:13:58.339977  9690 net.cpp:369] relu1 -> conv1 (in-place)
I0212 22:13:58.340345  9690 net.cpp:124] Setting up relu1
I0212 22:13:58.340361  9690 net.cpp:131] Top shape: 256 96 55 55 (74342400)
I0212 22:13:58.340368  9690 net.cpp:139] Memory required for data: 753037312
I0212 22:13:58.340374  9690 layer_factory.hpp:77] Creating layer pool1
I0212 22:13:58.340385  9690 net.cpp:86] Creating Layer pool1
I0212 22:13:58.340391  9690 net.cpp:408] pool1 <- conv1
I0212 22:13:58.340400  9690 net.cpp:382] pool1 -> pool1
I0212 22:13:58.340423  9690 net.cpp:124] Setting up pool1
I0212 22:13:58.340432  9690 net.cpp:131] Top shape: 256 96 27 27 (17915904)
I0212 22:13:58.340438  9690 net.cpp:139] Memory required for data: 824700928
I0212 22:13:58.340443  9690 layer_factory.hpp:77] Creating layer norm1
I0212 22:13:58.340459  9690 net.cpp:86] Creating Layer norm1
I0212 22:13:58.340466  9690 net.cpp:408] norm1 <- pool1
I0212 22:13:58.340473  9690 net.cpp:382] norm1 -> norm1
I0212 22:13:58.340710  9690 net.cpp:124] Setting up norm1
I0212 22:13:58.340739  9690 net.cpp:131] Top shape: 256 96 27 27 (17915904)
I0212 22:13:58.340745  9690 net.cpp:139] Memory required for data: 896364544
I0212 22:13:58.340751  9690 layer_factory.hpp:77] Creating layer conv2
I0212 22:13:58.340772  9690 net.cpp:86] Creating Layer conv2
I0212 22:13:58.340780  9690 net.cpp:408] conv2 <- norm1
I0212 22:13:58.340790  9690 net.cpp:382] conv2 -> conv2
I0212 22:13:58.347738  9690 net.cpp:124] Setting up conv2
I0212 22:13:58.347787  9690 net.cpp:131] Top shape: 256 256 27 27 (47775744)
I0212 22:13:58.347793  9690 net.cpp:139] Memory required for data: 1087467520
I0212 22:13:58.347815  9690 layer_factory.hpp:77] Creating layer relu2
I0212 22:13:58.347832  9690 net.cpp:86] Creating Layer relu2
I0212 22:13:58.347839  9690 net.cpp:408] relu2 <- conv2
I0212 22:13:58.347851  9690 net.cpp:369] relu2 -> conv2 (in-place)
I0212 22:13:58.348070  9690 net.cpp:124] Setting up relu2
I0212 22:13:58.348084  9690 net.cpp:131] Top shape: 256 256 27 27 (47775744)
I0212 22:13:58.348090  9690 net.cpp:139] Memory required for data: 1278570496
I0212 22:13:58.348096  9690 layer_factory.hpp:77] Creating layer pool2
I0212 22:13:58.348106  9690 net.cpp:86] Creating Layer pool2
I0212 22:13:58.348112  9690 net.cpp:408] pool2 <- conv2
I0212 22:13:58.348124  9690 net.cpp:382] pool2 -> pool2
I0212 22:13:58.348140  9690 net.cpp:124] Setting up pool2
I0212 22:13:58.348148  9690 net.cpp:131] Top shape: 256 256 13 13 (11075584)
I0212 22:13:58.348153  9690 net.cpp:139] Memory required for data: 1322872832
I0212 22:13:58.348160  9690 layer_factory.hpp:77] Creating layer norm2
I0212 22:13:58.348173  9690 net.cpp:86] Creating Layer norm2
I0212 22:13:58.348181  9690 net.cpp:408] norm2 <- pool2
I0212 22:13:58.348189  9690 net.cpp:382] norm2 -> norm2
I0212 22:13:58.348563  9690 net.cpp:124] Setting up norm2
I0212 22:13:58.348579  9690 net.cpp:131] Top shape: 256 256 13 13 (11075584)
I0212 22:13:58.348585  9690 net.cpp:139] Memory required for data: 1367175168
I0212 22:13:58.348592  9690 layer_factory.hpp:77] Creating layer conv3
I0212 22:13:58.348613  9690 net.cpp:86] Creating Layer conv3
I0212 22:13:58.348620  9690 net.cpp:408] conv3 <- norm2
I0212 22:13:58.348633  9690 net.cpp:382] conv3 -> conv3
I0212 22:13:58.363106  9690 net.cpp:124] Setting up conv3
I0212 22:13:58.363157  9690 net.cpp:131] Top shape: 256 384 13 13 (16613376)
I0212 22:13:58.363162  9690 net.cpp:139] Memory required for data: 1433628672
I0212 22:13:58.363186  9690 layer_factory.hpp:77] Creating layer relu3
I0212 22:13:58.363201  9690 net.cpp:86] Creating Layer relu3
I0212 22:13:58.363209  9690 net.cpp:408] relu3 <- conv3
I0212 22:13:58.363219  9690 net.cpp:369] relu3 -> conv3 (in-place)
I0212 22:13:58.363428  9690 net.cpp:124] Setting up relu3
I0212 22:13:58.363443  9690 net.cpp:131] Top shape: 256 384 13 13 (16613376)
I0212 22:13:58.363448  9690 net.cpp:139] Memory required for data: 1500082176
I0212 22:13:58.363454  9690 layer_factory.hpp:77] Creating layer conv4
I0212 22:13:58.363473  9690 net.cpp:86] Creating Layer conv4
I0212 22:13:58.363479  9690 net.cpp:408] conv4 <- conv3
I0212 22:13:58.363489  9690 net.cpp:382] conv4 -> conv4
I0212 22:13:58.375936  9690 net.cpp:124] Setting up conv4
I0212 22:13:58.375978  9690 net.cpp:131] Top shape: 256 384 13 13 (16613376)
I0212 22:13:58.375984  9690 net.cpp:139] Memory required for data: 1566535680
I0212 22:13:58.375998  9690 layer_factory.hpp:77] Creating layer relu4
I0212 22:13:58.376011  9690 net.cpp:86] Creating Layer relu4
I0212 22:13:58.376019  9690 net.cpp:408] relu4 <- conv4
I0212 22:13:58.376031  9690 net.cpp:369] relu4 -> conv4 (in-place)
I0212 22:13:58.376240  9690 net.cpp:124] Setting up relu4
I0212 22:13:58.376255  9690 net.cpp:131] Top shape: 256 384 13 13 (16613376)
I0212 22:13:58.376260  9690 net.cpp:139] Memory required for data: 1632989184
I0212 22:13:58.376266  9690 layer_factory.hpp:77] Creating layer conv5
I0212 22:13:58.376282  9690 net.cpp:86] Creating Layer conv5
I0212 22:13:58.376289  9690 net.cpp:408] conv5 <- conv4
I0212 22:13:58.376313  9690 net.cpp:382] conv5 -> conv5
I0212 22:13:58.385234  9690 net.cpp:124] Setting up conv5
I0212 22:13:58.385255  9690 net.cpp:131] Top shape: 256 256 13 13 (11075584)
I0212 22:13:58.385262  9690 net.cpp:139] Memory required for data: 1677291520
I0212 22:13:58.385278  9690 layer_factory.hpp:77] Creating layer relu5
I0212 22:13:58.385288  9690 net.cpp:86] Creating Layer relu5
I0212 22:13:58.385294  9690 net.cpp:408] relu5 <- conv5
I0212 22:13:58.385308  9690 net.cpp:369] relu5 -> conv5 (in-place)
I0212 22:13:58.385519  9690 net.cpp:124] Setting up relu5
I0212 22:13:58.385534  9690 net.cpp:131] Top shape: 256 256 13 13 (11075584)
I0212 22:13:58.385540  9690 net.cpp:139] Memory required for data: 1721593856
I0212 22:13:58.385545  9690 layer_factory.hpp:77] Creating layer pool5
I0212 22:13:58.385555  9690 net.cpp:86] Creating Layer pool5
I0212 22:13:58.385561  9690 net.cpp:408] pool5 <- conv5
I0212 22:13:58.385572  9690 net.cpp:382] pool5 -> pool5
I0212 22:13:58.385587  9690 net.cpp:124] Setting up pool5
I0212 22:13:58.385596  9690 net.cpp:131] Top shape: 256 256 6 6 (2359296)
I0212 22:13:58.385601  9690 net.cpp:139] Memory required for data: 1731031040
I0212 22:13:58.385607  9690 layer_factory.hpp:77] Creating layer fc6
I0212 22:13:58.385622  9690 net.cpp:86] Creating Layer fc6
I0212 22:13:58.385629  9690 net.cpp:408] fc6 <- pool5
I0212 22:13:58.385639  9690 net.cpp:382] fc6 -> fc6
I0212 22:13:59.073324  9690 net.cpp:124] Setting up fc6
I0212 22:13:59.073374  9690 net.cpp:131] Top shape: 256 4096 (1048576)
I0212 22:13:59.073380  9690 net.cpp:139] Memory required for data: 1735225344
I0212 22:13:59.073396  9690 layer_factory.hpp:77] Creating layer relu6
I0212 22:13:59.073411  9690 net.cpp:86] Creating Layer relu6
I0212 22:13:59.073418  9690 net.cpp:408] relu6 <- fc6
I0212 22:13:59.073429  9690 net.cpp:369] relu6 -> fc6 (in-place)
I0212 22:13:59.073995  9690 net.cpp:124] Setting up relu6
I0212 22:13:59.074012  9690 net.cpp:131] Top shape: 256 4096 (1048576)
I0212 22:13:59.074018  9690 net.cpp:139] Memory required for data: 1739419648
I0212 22:13:59.074023  9690 layer_factory.hpp:77] Creating layer drop6
I0212 22:13:59.074036  9690 net.cpp:86] Creating Layer drop6
I0212 22:13:59.074043  9690 net.cpp:408] drop6 <- fc6
I0212 22:13:59.074054  9690 net.cpp:369] drop6 -> fc6 (in-place)
I0212 22:13:59.074071  9690 net.cpp:124] Setting up drop6
I0212 22:13:59.074079  9690 net.cpp:131] Top shape: 256 4096 (1048576)
I0212 22:13:59.074084  9690 net.cpp:139] Memory required for data: 1743613952
I0212 22:13:59.074090  9690 layer_factory.hpp:77] Creating layer fc7
I0212 22:13:59.074100  9690 net.cpp:86] Creating Layer fc7
I0212 22:13:59.074105  9690 net.cpp:408] fc7 <- fc6
I0212 22:13:59.074116  9690 net.cpp:382] fc7 -> fc7
I0212 22:13:59.439250  9690 net.cpp:124] Setting up fc7
I0212 22:13:59.439292  9690 net.cpp:131] Top shape: 256 4096 (1048576)
I0212 22:13:59.439298  9690 net.cpp:139] Memory required for data: 1747808256
I0212 22:13:59.439314  9690 layer_factory.hpp:77] Creating layer relu7
I0212 22:13:59.439328  9690 net.cpp:86] Creating Layer relu7
I0212 22:13:59.439337  9690 net.cpp:408] relu7 <- fc7
I0212 22:13:59.439347  9690 net.cpp:369] relu7 -> fc7 (in-place)
I0212 22:13:59.439671  9690 net.cpp:124] Setting up relu7
I0212 22:13:59.439684  9690 net.cpp:131] Top shape: 256 4096 (1048576)
I0212 22:13:59.439690  9690 net.cpp:139] Memory required for data: 1752002560
I0212 22:13:59.439695  9690 layer_factory.hpp:77] Creating layer drop7
I0212 22:13:59.439707  9690 net.cpp:86] Creating Layer drop7
I0212 22:13:59.439713  9690 net.cpp:408] drop7 <- fc7
I0212 22:13:59.439723  9690 net.cpp:369] drop7 -> fc7 (in-place)
I0212 22:13:59.439735  9690 net.cpp:124] Setting up drop7
I0212 22:13:59.439743  9690 net.cpp:131] Top shape: 256 4096 (1048576)
I0212 22:13:59.439748  9690 net.cpp:139] Memory required for data: 1756196864
I0212 22:13:59.439754  9690 layer_factory.hpp:77] Creating layer fc8
I0212 22:13:59.439764  9690 net.cpp:86] Creating Layer fc8
I0212 22:13:59.439769  9690 net.cpp:408] fc8 <- fc7
I0212 22:13:59.439790  9690 net.cpp:382] fc8 -> fc8
I0212 22:13:59.526960  9690 net.cpp:124] Setting up fc8
I0212 22:13:59.527009  9690 net.cpp:131] Top shape: 256 1000 (256000)
I0212 22:13:59.527014  9690 net.cpp:139] Memory required for data: 1757220864
I0212 22:13:59.527029  9690 layer_factory.hpp:77] Creating layer loss
I0212 22:13:59.527041  9690 net.cpp:86] Creating Layer loss
I0212 22:13:59.527050  9690 net.cpp:408] loss <- fc8
I0212 22:13:59.527058  9690 net.cpp:408] loss <- label
I0212 22:13:59.527073  9690 net.cpp:382] loss -> loss
I0212 22:13:59.527096  9690 layer_factory.hpp:77] Creating layer loss
…
I0212 22:13:59.528738  9690 net.cpp:296] The NetState phase (1) differed from the phase (0) specified by a rule in layer data
I0212 22:13:59.528978  9690 net.cpp:53] Initializing net from parameters: 
name: "CaffeNet"
state {
  phase: TEST
}
layer {
  name: "data"
  type: "Data"
  top: "data"
  top: "label"
  include {
    phase: TEST
  }
  transform_param {
    mirror: false
    crop_size: 227
    mean_file: "data/ilsvrc12/imagenet_mean.binaryproto"
  }
  data_param {
    source: "examples/imagenet/ilsvrc12_val_lmdb"
    batch_size: 50
    backend: LMDB
  }
}
layer {
  name: "conv1"
  type: "Convolution"
  bottom: "data"
  top: "conv1"
  param {
    lr_mult: 1
    decay_mult: 1
  }
  param {
    lr_mult: 2
    decay_mult: 0
  }
  convolution_param {
    num_output: 96
    kernel_size: 11
    stride: 4
    weight_filler {
      type: "gaussian"
      std: 0.01
    }
    bias_filler {
      type: "constant"
      value: 0
    }
  }
}
layer {
  name: "relu1"
  type: "ReLU"
  bottom: "conv1"
  top: "conv1"
}
layer {
  name: "pool1"
  type: "Pooling"
  bottom: "conv1"
  top: "pool1"
  pooling_param {
    pool: MAX
    kernel_size: 3
    stride: 2
  }
}
layer {
  name: "norm1"
  type: "LRN"
  bottom: "pool1"
  top: "norm1"
  lrn_param {
    local_size: 5
    alpha: 0.0001
    beta: 0.75
  }
}
layer {
  name: "conv2"
  type: "Convolution"
  bottom: "norm1"
  top: "conv2"
  param {
    lr_mult: 1
    decay_mult: 1
  }
  param {
    lr_mult: 2
    decay_mult: 0
  }
  convolution_param {
    num_output: 256
    pad: 2
    kernel_size: 5
    group: 2
    weight_filler {
      type: "gaussian"
      std: 0.01
    }
    bias_filler {
      type: "constant"
      value: 1
    }
  }
}
layer {
  name: "relu2"
  type: "ReLU"
  bottom: "conv2"
  top: "conv2"
}
layer {
  name: "pool2"
  type: "Pooling"
  bottom: "conv2"
  top: "pool2"
  pooling_param {
    pool: MAX
    kernel_size: 3
    stride: 2
  }
}
layer {
  name: "norm2"
  type: "LRN"
  bottom: "pool2"
  top: "norm2"
  lrn_param {
    local_size: 5
    alpha: 0.0001
    beta: 0.75
  }
}
layer {
  name: "conv3"
  type: "Convolution"
  bottom: "norm2"
  top: "conv3"
  param {
    lr_mult: 1
    decay_mult: 1
  }
  param {
    lr_mult: 2
    decay_mult: 0
  }
  convolution_param {
    num_output: 384
    pad: 1
    kernel_size: 3
    weight_filler {
      type: "gaussian"
      std: 0.01
    }
    bias_filler {
      type: "constant"
      value: 0
    }
  }
}
layer {
  name: "relu3"
  type: "ReLU"
  bottom: "conv3"
  top: "conv3"
}
layer {
  name: "conv4"
  type: "Convolution"
  bottom: "conv3"
  top: "conv4"
  param {
    lr_mult: 1
    decay_mult: 1
  }
  param {
    lr_mult: 2
    decay_mult: 0
  }
  convolution_param {
    num_output: 384
    pad: 1
    kernel_size: 3
    group: 2
    weight_filler {
      type: "gaussian"
      std: 0.01
    }
    bias_filler {
      type: "constant"
      value: 1
    }
  }
}
layer {
  name: "relu4"
  type: "ReLU"
  bottom: "conv4"
  top: "conv4"
}
layer {
  name: "conv5"
  type: "Convolution"
  bottom: "conv4"
  top: "conv5"
  param {
    lr_mult: 1
    decay_mult: 1
  }
  param {
    lr_mult: 2
    decay_mult: 0
  }
  convolution_param {
    num_output: 256
    pad: 1
    kernel_size: 3
    group: 2
    weight_filler {
      type: "gaussian"
      std: 0.01
    }
    bias_filler {
      type: "constant"
      value: 1
    }
  }
}
layer {
  name: "relu5"
  type: "ReLU"
  bottom: "conv5"
  top: "conv5"
}
layer {
  name: "pool5"
  type: "Pooling"
  bottom: "conv5"
  top: "pool5"
  pooling_param {
    pool: MAX
    kernel_size: 3
    stride: 2
  }
}
layer {
  name: "fc6"
  type: "InnerProduct"
  bottom: "pool5"
  top: "fc6"
  param {
    lr_mult: 1
    decay_mult: 1
  }
  param {
    lr_mult: 2
    decay_mult: 0
  }
  inner_product_param {
    num_output: 4096
    weight_filler {
      type: "gaussian"
      std: 0.005
    }
    bias_filler {
      type: "constant"
      value: 1
    }
  }
}
layer {
  name: "relu6"
  type: "ReLU"
  bottom: "fc6"
  top: "fc6"
}
layer {
  name: "drop6"
  type: "Dropout"
  bottom: "fc6"
  top: "fc6"
  dropout_param {
    dropout_ratio: 0.5
  }
}
layer {
  name: "fc7"
  type: "InnerProduct"
  bottom: "fc6"
  top: "fc7"
  param {
    lr_mult: 1
    decay_mult: 1
  }
  param {
    lr_mult: 2
    decay_mult: 0
  }
  inner_product_param {
    num_output: 4096
    weight_filler {
      type: "gaussian"
      std: 0.005
    }
    bias_filler {
      type: "constant"
      value: 1
    }
  }
}
layer {
  name: "relu7"
  type: "ReLU"
  bottom: "fc7"
  top: "fc7"
}
layer {
  name: "drop7"
  type: "Dropout"
  bottom: "fc7"
  top: "fc7"
  dropout_param {
    dropout_ratio: 0.5
  }
}
layer {
  name: "fc8"
  type: "InnerProduct"
  bottom: "fc7"
  top: "fc8"
  param {
    lr_mult: 1
    decay_mult: 1
  }
  param {
    lr_mult: 2
    decay_mult: 0
  }
  inner_product_param {
    num_output: 1000
    weight_filler {
      type: "gaussian"
      std: 0.01
    }
    bias_filler {
      type: "constant"
      value: 0
    }
  }
}
layer {
  name: "accuracy"
  type: "Accuracy"
  bottom: "fc8"
  bottom: "label"
  top: "accuracy"
  include {
    phase: TEST
  }
}
layer {
  name: "loss"
  type: "SoftmaxWithLoss"
  bottom: "fc8"
  bottom: "label"
  top: "loss"
}
I0212 22:13:59.529131  9690 layer_factory.hpp:77] Creating layer data
I0212 22:13:59.529222  9690 db_lmdb.cpp:35] Opened lmdb examples/imagenet/ilsvrc12_val_lmdb
I0212 22:13:59.529256  9690 net.cpp:86] Creating Layer data
I0212 22:13:59.529268  9690 net.cpp:382] data -> data
I0212 22:13:59.529283  9690 net.cpp:382] data -> label
I0212 22:13:59.529296  9690 data_transformer.cpp:25] Loading mean file from: data/ilsvrc12/imagenet_mean.binaryproto
I0212 22:13:59.531039  9690 data_layer.cpp:45] output data size: 50,3,227,227
I0212 22:13:59.753401  9690 net.cpp:124] Setting up data
I0212 22:13:59.753453  9690 net.cpp:131] Top shape: 50 3 227 227 (7729350)
I0212 22:13:59.753463  9690 net.cpp:131] Top shape: 50 (50)
I0212 22:13:59.753468  9690 net.cpp:139] Memory required for data: 30917600
I0212 22:13:59.753479  9690 layer_factory.hpp:77] Creating layer label_data_1_split
I0212 22:13:59.753496  9690 net.cpp:86] Creating Layer label_data_1_split
I0212 22:13:59.753504  9690 net.cpp:408] label_data_1_split <- label
I0212 22:13:59.753515  9690 net.cpp:382] label_data_1_split -> label_data_1_split_0
I0212 22:13:59.753531  9690 net.cpp:382] label_data_1_split -> label_data_1_split_1
I0212 22:13:59.753545  9690 net.cpp:124] Setting up label_data_1_split
I0212 22:13:59.753553  9690 net.cpp:131] Top shape: 50 (50)
I0212 22:13:59.753561  9690 net.cpp:131] Top shape: 50 (50)
I0212 22:13:59.753566  9690 net.cpp:139] Memory required for data: 30918000
I0212 22:13:59.753571  9690 layer_factory.hpp:77] Creating layer conv1
I0212 22:13:59.753588  9690 net.cpp:86] Creating Layer conv1
I0212 22:13:59.753594  9690 net.cpp:408] conv1 <- data
I0212 22:13:59.753604  9690 net.cpp:382] conv1 -> conv1
I0212 22:13:59.755261  9690 net.cpp:124] Setting up conv1
I0212 22:13:59.755281  9690 net.cpp:131] Top shape: 50 96 55 55 (14520000)
I0212 22:13:59.755287  9690 net.cpp:139] Memory required for data: 88998000
I0212 22:13:59.755305  9690 layer_factory.hpp:77] Creating layer relu1
I0212 22:13:59.755314  9690 net.cpp:86] Creating Layer relu1
I0212 22:13:59.755321  9690 net.cpp:408] relu1 <- conv1
I0212 22:13:59.755328  9690 net.cpp:369] relu1 -> conv1 (in-place)
I0212 22:13:59.755530  9690 net.cpp:124] Setting up relu1
I0212 22:13:59.755544  9690 net.cpp:131] Top shape: 50 96 55 55 (14520000)
I0212 22:13:59.755550  9690 net.cpp:139] Memory required for data: 147078000
I0212 22:13:59.755555  9690 layer_factory.hpp:77] Creating layer pool1
I0212 22:13:59.755568  9690 net.cpp:86] Creating Layer pool1
I0212 22:13:59.755574  9690 net.cpp:408] pool1 <- conv1
I0212 22:13:59.755584  9690 net.cpp:382] pool1 -> pool1
I0212 22:13:59.755599  9690 net.cpp:124] Setting up pool1
I0212 22:13:59.755606  9690 net.cpp:131] Top shape: 50 96 27 27 (3499200)
I0212 22:13:59.755612  9690 net.cpp:139] Memory required for data: 161074800
I0212 22:13:59.755617  9690 layer_factory.hpp:77] Creating layer norm1
I0212 22:13:59.755628  9690 net.cpp:86] Creating Layer norm1
I0212 22:13:59.755633  9690 net.cpp:408] norm1 <- pool1
I0212 22:13:59.755641  9690 net.cpp:382] norm1 -> norm1
I0212 22:13:59.755998  9690 net.cpp:124] Setting up norm1
I0212 22:13:59.756016  9690 net.cpp:131] Top shape: 50 96 27 27 (3499200)
I0212 22:13:59.756021  9690 net.cpp:139] Memory required for data: 175071600
I0212 22:13:59.756027  9690 layer_factory.hpp:77] Creating layer conv2
I0212 22:13:59.756042  9690 net.cpp:86] Creating Layer conv2
I0212 22:13:59.756048  9690 net.cpp:408] conv2 <- norm1
I0212 22:13:59.756058  9690 net.cpp:382] conv2 -> conv2
I0212 22:13:59.762944  9690 net.cpp:124] Setting up conv2
I0212 22:13:59.762995  9690 net.cpp:131] Top shape: 50 256 27 27 (9331200)
I0212 22:13:59.763001  9690 net.cpp:139] Memory required for data: 212396400
I0212 22:13:59.763021  9690 layer_factory.hpp:77] Creating layer relu2
I0212 22:13:59.763036  9690 net.cpp:86] Creating Layer relu2
I0212 22:13:59.763044  9690 net.cpp:408] relu2 <- conv2
I0212 22:13:59.763057  9690 net.cpp:369] relu2 -> conv2 (in-place)
I0212 22:13:59.763447  9690 net.cpp:124] Setting up relu2
I0212 22:13:59.763464  9690 net.cpp:131] Top shape: 50 256 27 27 (9331200)
I0212 22:13:59.763481  9690 net.cpp:139] Memory required for data: 249721200
I0212 22:13:59.763499  9690 layer_factory.hpp:77] Creating layer pool2
I0212 22:13:59.763515  9690 net.cpp:86] Creating Layer pool2
I0212 22:13:59.763522  9690 net.cpp:408] pool2 <- conv2
I0212 22:13:59.763531  9690 net.cpp:382] pool2 -> pool2
I0212 22:13:59.763552  9690 net.cpp:124] Setting up pool2
I0212 22:13:59.763562  9690 net.cpp:131] Top shape: 50 256 13 13 (2163200)
I0212 22:13:59.763567  9690 net.cpp:139] Memory required for data: 258374000
I0212 22:13:59.763572  9690 layer_factory.hpp:77] Creating layer norm2
I0212 22:13:59.763583  9690 net.cpp:86] Creating Layer norm2
I0212 22:13:59.763589  9690 net.cpp:408] norm2 <- pool2
I0212 22:13:59.763599  9690 net.cpp:382] norm2 -> norm2
I0212 22:13:59.763815  9690 net.cpp:124] Setting up norm2
I0212 22:13:59.763829  9690 net.cpp:131] Top shape: 50 256 13 13 (2163200)
I0212 22:13:59.763835  9690 net.cpp:139] Memory required for data: 267026800
I0212 22:13:59.763841  9690 layer_factory.hpp:77] Creating layer conv3
I0212 22:13:59.763861  9690 net.cpp:86] Creating Layer conv3
I0212 22:13:59.763867  9690 net.cpp:408] conv3 <- norm2
I0212 22:13:59.763877  9690 net.cpp:382] conv3 -> conv3
I0212 22:13:59.778647  9690 net.cpp:124] Setting up conv3
I0212 22:13:59.778697  9690 net.cpp:131] Top shape: 50 384 13 13 (3244800)
I0212 22:13:59.778703  9690 net.cpp:139] Memory required for data: 280006000
I0212 22:13:59.778723  9690 layer_factory.hpp:77] Creating layer relu3
I0212 22:13:59.778738  9690 net.cpp:86] Creating Layer relu3
I0212 22:13:59.778746  9690 net.cpp:408] relu3 <- conv3
I0212 22:13:59.778759  9690 net.cpp:369] relu3 -> conv3 (in-place)
I0212 22:13:59.779140  9690 net.cpp:124] Setting up relu3
I0212 22:13:59.779156  9690 net.cpp:131] Top shape: 50 384 13 13 (3244800)
I0212 22:13:59.779161  9690 net.cpp:139] Memory required for data: 292985200
I0212 22:13:59.779167  9690 layer_factory.hpp:77] Creating layer conv4
I0212 22:13:59.779187  9690 net.cpp:86] Creating Layer conv4
I0212 22:13:59.779194  9690 net.cpp:408] conv4 <- conv3
I0212 22:13:59.779206  9690 net.cpp:382] conv4 -> conv4
I0212 22:13:59.795145  9690 net.cpp:124] Setting up conv4
I0212 22:13:59.795194  9690 net.cpp:131] Top shape: 50 384 13 13 (3244800)
I0212 22:13:59.795200  9690 net.cpp:139] Memory required for data: 305964400
I0212 22:13:59.795215  9690 layer_factory.hpp:77] Creating layer relu4
I0212 22:13:59.795229  9690 net.cpp:86] Creating Layer relu4
I0212 22:13:59.795238  9690 net.cpp:408] relu4 <- conv4
I0212 22:13:59.795251  9690 net.cpp:369] relu4 -> conv4 (in-place)
I0212 22:13:59.795719  9690 net.cpp:124] Setting up relu4
I0212 22:13:59.795735  9690 net.cpp:131] Top shape: 50 384 13 13 (3244800)
I0212 22:13:59.795742  9690 net.cpp:139] Memory required for data: 318943600
I0212 22:13:59.795747  9690 layer_factory.hpp:77] Creating layer conv5
I0212 22:13:59.795766  9690 net.cpp:86] Creating Layer conv5
I0212 22:13:59.795773  9690 net.cpp:408] conv5 <- conv4
I0212 22:13:59.795785  9690 net.cpp:382] conv5 -> conv5
I0212 22:13:59.804913  9690 net.cpp:124] Setting up conv5
I0212 22:13:59.804962  9690 net.cpp:131] Top shape: 50 256 13 13 (2163200)
I0212 22:13:59.804970  9690 net.cpp:139] Memory required for data: 327596400
I0212 22:13:59.804991  9690 layer_factory.hpp:77] Creating layer relu5
I0212 22:13:59.805004  9690 net.cpp:86] Creating Layer relu5
I0212 22:13:59.805012  9690 net.cpp:408] relu5 <- conv5
I0212 22:13:59.805025  9690 net.cpp:369] relu5 -> conv5 (in-place)
I0212 22:13:59.805249  9690 net.cpp:124] Setting up relu5
I0212 22:13:59.805263  9690 net.cpp:131] Top shape: 50 256 13 13 (2163200)
I0212 22:13:59.805269  9690 net.cpp:139] Memory required for data: 336249200
I0212 22:13:59.805275  9690 layer_factory.hpp:77] Creating layer pool5
I0212 22:13:59.805291  9690 net.cpp:86] Creating Layer pool5
I0212 22:13:59.805299  9690 net.cpp:408] pool5 <- conv5
I0212 22:13:59.805307  9690 net.cpp:382] pool5 -> pool5
I0212 22:13:59.805325  9690 net.cpp:124] Setting up pool5
I0212 22:13:59.805335  9690 net.cpp:131] Top shape: 50 256 6 6 (460800)
I0212 22:13:59.805362  9690 net.cpp:139] Memory required for data: 338092400
I0212 22:13:59.805368  9690 layer_factory.hpp:77] Creating layer fc6
I0212 22:13:59.805382  9690 net.cpp:86] Creating Layer fc6
I0212 22:13:59.805387  9690 net.cpp:408] fc6 <- pool5
I0212 22:13:59.805397  9690 net.cpp:382] fc6 -> fc6
I0212 22:14:00.617847  9690 net.cpp:124] Setting up fc6
I0212 22:14:00.617899  9690 net.cpp:131] Top shape: 50 4096 (204800)
I0212 22:14:00.617907  9690 net.cpp:139] Memory required for data: 338911600
I0212 22:14:00.617921  9690 layer_factory.hpp:77] Creating layer relu6
I0212 22:14:00.617938  9690 net.cpp:86] Creating Layer relu6
I0212 22:14:00.617946  9690 net.cpp:408] relu6 <- fc6
I0212 22:14:00.617957  9690 net.cpp:369] relu6 -> fc6 (in-place)
I0212 22:14:00.618549  9690 net.cpp:124] Setting up relu6
I0212 22:14:00.618567  9690 net.cpp:131] Top shape: 50 4096 (204800)
I0212 22:14:00.618573  9690 net.cpp:139] Memory required for data: 339730800
I0212 22:14:00.618579  9690 layer_factory.hpp:77] Creating layer drop6
I0212 22:14:00.618590  9690 net.cpp:86] Creating Layer drop6
I0212 22:14:00.618597  9690 net.cpp:408] drop6 <- fc6
I0212 22:14:00.618605  9690 net.cpp:369] drop6 -> fc6 (in-place)
I0212 22:14:00.618618  9690 net.cpp:124] Setting up drop6
I0212 22:14:00.618625  9690 net.cpp:131] Top shape: 50 4096 (204800)
I0212 22:14:00.618630  9690 net.cpp:139] Memory required for data: 340550000
I0212 22:14:00.618635  9690 layer_factory.hpp:77] Creating layer fc7
I0212 22:14:00.618649  9690 net.cpp:86] Creating Layer fc7
I0212 22:14:00.618655  9690 net.cpp:408] fc7 <- fc6
I0212 22:14:00.618665  9690 net.cpp:382] fc7 -> fc7
I0212 22:14:00.976621  9690 net.cpp:124] Setting up fc7
I0212 22:14:00.976670  9690 net.cpp:131] Top shape: 50 4096 (204800)
I0212 22:14:00.976676  9690 net.cpp:139] Memory required for data: 341369200
I0212 22:14:00.976692  9690 layer_factory.hpp:77] Creating layer relu7
I0212 22:14:00.976706  9690 net.cpp:86] Creating Layer relu7
I0212 22:14:00.976714  9690 net.cpp:408] relu7 <- fc7
I0212 22:14:00.976727  9690 net.cpp:369] relu7 -> fc7 (in-place)
I0212 22:14:00.977069  9690 net.cpp:124] Setting up relu7
I0212 22:14:00.977084  9690 net.cpp:131] Top shape: 50 4096 (204800)
I0212 22:14:00.977089  9690 net.cpp:139] Memory required for data: 342188400
I0212 22:14:00.977095  9690 layer_factory.hpp:77] Creating layer drop7
I0212 22:14:00.977107  9690 net.cpp:86] Creating Layer drop7
I0212 22:14:00.977113  9690 net.cpp:408] drop7 <- fc7
I0212 22:14:00.977123  9690 net.cpp:369] drop7 -> fc7 (in-place)
I0212 22:14:00.977134  9690 net.cpp:124] Setting up drop7
I0212 22:14:00.977143  9690 net.cpp:131] Top shape: 50 4096 (204800)
I0212 22:14:00.977147  9690 net.cpp:139] Memory required for data: 343007600
I0212 22:14:00.977152  9690 layer_factory.hpp:77] Creating layer fc8
I0212 22:14:00.977165  9690 net.cpp:86] Creating Layer fc8
I0212 22:14:00.977172  9690 net.cpp:408] fc8 <- fc7
I0212 22:14:00.977181  9690 net.cpp:382] fc8 -> fc8
I0212 22:14:01.063223  9690 net.cpp:124] Setting up fc8
I0212 22:14:01.063275  9690 net.cpp:131] Top shape: 50 1000 (50000)
I0212 22:14:01.063282  9690 net.cpp:139] Memory required for data: 343207600
I0212 22:14:01.063295  9690 layer_factory.hpp:77] Creating layer fc8_fc8_0_split
I0212 22:14:01.063311  9690 net.cpp:86] Creating Layer fc8_fc8_0_split
I0212 22:14:01.063319  9690 net.cpp:408] fc8_fc8_0_split <- fc8
I0212 22:14:01.063331  9690 net.cpp:382] fc8_fc8_0_split -> fc8_fc8_0_split_0
I0212 22:14:01.063346  9690 net.cpp:382] fc8_fc8_0_split -> fc8_fc8_0_split_1
I0212 22:14:01.063357  9690 net.cpp:124] Setting up fc8_fc8_0_split
I0212 22:14:01.063365  9690 net.cpp:131] Top shape: 50 1000 (50000)
I0212 22:14:01.063371  9690 net.cpp:131] Top shape: 50 1000 (50000)
I0212 22:14:01.063376  9690 net.cpp:139] Memory required for data: 343607600
I0212 22:14:01.063381  9690 layer_factory.hpp:77] Creating layer accuracy
I0212 22:14:01.063393  9690 net.cpp:86] Creating Layer accuracy
I0212 22:14:01.063400  9690 net.cpp:408] accuracy <- fc8_fc8_0_split_0
I0212 22:14:01.063421  9690 net.cpp:408] accuracy <- label_data_1_split_0
I0212 22:14:01.063444  9690 net.cpp:382] accuracy -> accuracy
…
