…
I0320 14:51:42.309013 29408 net.cpp:296] The NetState phase (0) differed from the phase (1) specified by a rule in layer accuracy
I0320 14:51:42.309474 29408 net.cpp:53] Initializing net from parameters: 
name: "CaffeNet"
state {
  phase: TRAIN
  level: 0
  stage: ""
}
layer {
  name: "data"
  type: "Data"
  top: "data"
  top: "label"
  include {
    phase: TRAIN
  }
  transform_param {
    mirror: true
    crop_size: 227
    mean_file: "data/ilsvrc12/imagenet_mean.binaryproto"
  }
  data_param {
    source: "examples/imagenet/ilsvrc12_train_lmdb"
    batch_size: 256
    backend: LMDB
  }
}
layer {
  name: "conv1"
  type: "Convolution"
  bottom: "data"
  top: "conv1"
  param {
    lr_mult: 1
    decay_mult: 1
  }
  param {
    lr_mult: 2
    decay_mult: 0
  }
  convolution_param {
    num_output: 96
    kernel_size: 11
    stride: 4
    weight_filler {
      type: "gaussian"
      std: 0.01
    }
    bias_filler {
      type: "constant"
      value: 0
    }
  }
}
layer {
  name: "relu1"
  type: "ReLU"
  bottom: "conv1"
  top: "conv1"
}
layer {
  name: "pool1"
  type: "Pooling"
  bottom: "conv1"
  top: "pool1"
  pooling_param {
    pool: MAX
    kernel_size: 3
    stride: 2
  }
}
layer {
  name: "norm1"
  type: "LRN"
  bottom: "pool1"
  top: "norm1"
  lrn_param {
    local_size: 5
    alpha: 0.0001
    beta: 0.75
  }
}
layer {
  name: "conv2"
  type: "Convolution"
  bottom: "norm1"
  top: "conv2"
  param {
    lr_mult: 1
    decay_mult: 1
  }
  param {
    lr_mult: 2
    decay_mult: 0
  }
  convolution_param {
    num_output: 256
    pad: 2
    kernel_size: 5
    group: 2
    weight_filler {
      type: "gaussian"
      std: 0.01
    }
    bias_filler {
      type: "constant"
      value: 1
    }
  }
}
layer {
  name: "relu2"
  type: "ReLU"
  bottom: "conv2"
  top: "conv2"
}
layer {
  name: "pool2"
  type: "Pooling"
  bottom: "conv2"
  top: "pool2"
  pooling_param {
    pool: MAX
    kernel_size: 3
    stride: 2
  }
}
layer {
  name: "norm2"
  type: "LRN"
  bottom: "pool2"
  top: "norm2"
  lrn_param {
    local_size: 5
    alpha: 0.0001
    beta: 0.75
  }
}
layer {
  name: "conv3"
  type: "Convolution"
  bottom: "norm2"
  top: "conv3"
  param {
    lr_mult: 1
    decay_mult: 1
  }
  param {
    lr_mult: 2
    decay_mult: 0
  }
  convolution_param {
    num_output: 384
    pad: 1
    kernel_size: 3
    weight_filler {
      type: "gaussian"
      std: 0.01
    }
    bias_filler {
      type: "constant"
      value: 0
    }
  }
}
layer {
  name: "relu3"
  type: "ReLU"
  bottom: "conv3"
  top: "conv3"
}
layer {
  name: "conv4"
  type: "Convolution"
  bottom: "conv3"
  top: "conv4"
  param {
    lr_mult: 1
    decay_mult: 1
  }
  param {
    lr_mult: 2
    decay_mult: 0
  }
  convolution_param {
    num_output: 384
    pad: 1
    kernel_size: 3
    group: 2
    weight_filler {
      type: "gaussian"
      std: 0.01
    }
    bias_filler {
      type: "constant"
      value: 1
    }
  }
}
layer {
  name: "relu4"
  type: "ReLU"
  bottom: "conv4"
  top: "conv4"
}
layer {
  name: "conv5"
  type: "Convolution"
  bottom: "conv4"
  top: "conv5"
  param {
    lr_mult: 1
    decay_mult: 1
  }
  param {
    lr_mult: 2
    decay_mult: 0
  }
  convolution_param {
    num_output: 256
    pad: 1
    kernel_size: 3
    group: 2
    weight_filler {
      type: "gaussian"
      std: 0.01
    }
    bias_filler {
      type: "constant"
      value: 1
    }
  }
}
layer {
  name: "relu5"
  type: "ReLU"
  bottom: "conv5"
  top: "conv5"
}
layer {
  name: "pool5"
  type: "Pooling"
  bottom: "conv5"
  top: "pool5"
  pooling_param {
    pool: MAX
    kernel_size: 3
    stride: 2
  }
}
layer {
  name: "fc6"
  type: "InnerProduct"
  bottom: "pool5"
  top: "fc6"
  param {
    lr_mult: 1
    decay_mult: 1
  }
  param {
    lr_mult: 2
    decay_mult: 0
  }
  inner_product_param {
    num_output: 4096
    weight_filler {
      type: "gaussian"
      std: 0.005
    }
    bias_filler {
      type: "constant"
      value: 1
    }
  }
}
layer {
  name: "relu6"
  type: "ReLU"
  bottom: "fc6"
  top: "fc6"
}
layer {
  name: "drop6"
  type: "Dropout"
  bottom: "fc6"
  top: "fc6"
  dropout_param {
    dropout_ratio: 0.5
  }
}
layer {
  name: "fc7"
  type: "InnerProduct"
  bottom: "fc6"
  top: "fc7"
  param {
    lr_mult: 1
    decay_mult: 1
  }
  param {
    lr_mult: 2
    decay_mult: 0
  }
  inner_product_param {
    num_output: 4096
    weight_filler {
      type: "gaussian"
      std: 0.005
    }
    bias_filler {
      type: "constant"
      value: 1
    }
  }
}
layer {
  name: "relu7"
  type: "ReLU"
  bottom: "fc7"
  top: "fc7"
}
layer {
  name: "drop7"
  type: "Dropout"
  bottom: "fc7"
  top: "fc7"
  dropout_param {
    dropout_ratio: 0.5
  }
}
layer {
  name: "fc8"
  type: "InnerProduct"
  bottom: "fc7"
  top: "fc8"
  param {
    lr_mult: 1
    decay_mult: 1
  }
  param {
    lr_mult: 2
    decay_mult: 0
  }
  inner_product_param {
    num_output: 1000
    weight_filler {
      type: "gaussian"
      std: 0.01
    }
    bias_filler {
      type: "constant"
      value: 0
    }
  }
}
layer {
  name: "loss"
  type: "SoftmaxWithLoss"
  bottom: "fc8"
  bottom: "label"
  top: "loss"
}
I0320 14:51:42.309725 29408 layer_factory.hpp:77] Creating layer data
I0320 14:51:42.309957 29408 db_lmdb.cpp:35] Opened lmdb examples/imagenet/ilsvrc12_train_lmdb
I0320 14:51:42.337050 29408 net.cpp:86] Creating Layer data
I0320 14:51:42.337113 29408 net.cpp:382] data -> data
I0320 14:51:42.337177 29408 net.cpp:382] data -> label
I0320 14:51:42.337215 29408 data_transformer.cpp:25] Loading mean file from: data/ilsvrc12/imagenet_mean.binaryproto
I0320 14:51:42.398272 29408 data_layer.cpp:45] output data size: 256,3,227,227
I0320 14:51:43.020444 29408 net.cpp:124] Setting up data
I0320 14:51:43.020503 29408 net.cpp:131] Top shape: 256 3 227 227 (39574272)
I0320 14:51:43.020511 29408 net.cpp:131] Top shape: 256 (256)
I0320 14:51:43.020516 29408 net.cpp:139] Memory required for data: 158298112
I0320 14:51:43.020531 29408 layer_factory.hpp:77] Creating layer conv1
I0320 14:51:43.020563 29408 net.cpp:86] Creating Layer conv1
I0320 14:51:43.020573 29408 net.cpp:408] conv1 <- data
I0320 14:51:43.020593 29408 net.cpp:382] conv1 -> conv1
I0320 14:51:44.015938 29408 net.cpp:124] Setting up conv1
I0320 14:51:44.015990 29408 net.cpp:131] Top shape: 256 96 55 55 (74342400)
I0320 14:51:44.015996 29408 net.cpp:139] Memory required for data: 455667712
I0320 14:51:44.016028 29408 layer_factory.hpp:77] Creating layer relu1
I0320 14:51:44.016052 29408 net.cpp:86] Creating Layer relu1
I0320 14:51:44.016060 29408 net.cpp:408] relu1 <- conv1
I0320 14:51:44.016072 29408 net.cpp:369] relu1 -> conv1 (in-place)
I0320 14:51:44.016482 29408 net.cpp:124] Setting up relu1
I0320 14:51:44.016499 29408 net.cpp:131] Top shape: 256 96 55 55 (74342400)
I0320 14:51:44.016505 29408 net.cpp:139] Memory required for data: 753037312
I0320 14:51:44.016510 29408 layer_factory.hpp:77] Creating layer pool1
I0320 14:51:44.016523 29408 net.cpp:86] Creating Layer pool1
I0320 14:51:44.016530 29408 net.cpp:408] pool1 <- conv1
I0320 14:51:44.016540 29408 net.cpp:382] pool1 -> pool1
I0320 14:51:44.016604 29408 net.cpp:124] Setting up pool1
I0320 14:51:44.016618 29408 net.cpp:131] Top shape: 256 96 27 27 (17915904)
I0320 14:51:44.016623 29408 net.cpp:139] Memory required for data: 824700928
I0320 14:51:44.016628 29408 layer_factory.hpp:77] Creating layer norm1
I0320 14:51:44.016645 29408 net.cpp:86] Creating Layer norm1
I0320 14:51:44.016661 29408 net.cpp:408] norm1 <- pool1
I0320 14:51:44.016685 29408 net.cpp:382] norm1 -> norm1
I0320 14:51:44.016942 29408 net.cpp:124] Setting up norm1
I0320 14:51:44.016957 29408 net.cpp:131] Top shape: 256 96 27 27 (17915904)
I0320 14:51:44.016963 29408 net.cpp:139] Memory required for data: 896364544
I0320 14:51:44.016968 29408 layer_factory.hpp:77] Creating layer conv2
I0320 14:51:44.016989 29408 net.cpp:86] Creating Layer conv2
I0320 14:51:44.016996 29408 net.cpp:408] conv2 <- norm1
I0320 14:51:44.017006 29408 net.cpp:382] conv2 -> conv2
I0320 14:51:44.024617 29408 net.cpp:124] Setting up conv2
I0320 14:51:44.024643 29408 net.cpp:131] Top shape: 256 256 27 27 (47775744)
I0320 14:51:44.024651 29408 net.cpp:139] Memory required for data: 1087467520
I0320 14:51:44.024664 29408 layer_factory.hpp:77] Creating layer relu2
I0320 14:51:44.024674 29408 net.cpp:86] Creating Layer relu2
I0320 14:51:44.024682 29408 net.cpp:408] relu2 <- conv2
I0320 14:51:44.024690 29408 net.cpp:369] relu2 -> conv2 (in-place)
I0320 14:51:44.024915 29408 net.cpp:124] Setting up relu2
I0320 14:51:44.024930 29408 net.cpp:131] Top shape: 256 256 27 27 (47775744)
I0320 14:51:44.024935 29408 net.cpp:139] Memory required for data: 1278570496
I0320 14:51:44.024941 29408 layer_factory.hpp:77] Creating layer pool2
I0320 14:51:44.024950 29408 net.cpp:86] Creating Layer pool2
I0320 14:51:44.024956 29408 net.cpp:408] pool2 <- conv2
I0320 14:51:44.024971 29408 net.cpp:382] pool2 -> pool2
I0320 14:51:44.025024 29408 net.cpp:124] Setting up pool2
I0320 14:51:44.025038 29408 net.cpp:131] Top shape: 256 256 13 13 (11075584)
I0320 14:51:44.025044 29408 net.cpp:139] Memory required for data: 1322872832
I0320 14:51:44.025050 29408 layer_factory.hpp:77] Creating layer norm2
I0320 14:51:44.025063 29408 net.cpp:86] Creating Layer norm2
I0320 14:51:44.025069 29408 net.cpp:408] norm2 <- pool2
I0320 14:51:44.025079 29408 net.cpp:382] norm2 -> norm2
I0320 14:51:44.025501 29408 net.cpp:124] Setting up norm2
I0320 14:51:44.025516 29408 net.cpp:131] Top shape: 256 256 13 13 (11075584)
I0320 14:51:44.025521 29408 net.cpp:139] Memory required for data: 1367175168
I0320 14:51:44.025527 29408 layer_factory.hpp:77] Creating layer conv3
I0320 14:51:44.025543 29408 net.cpp:86] Creating Layer conv3
I0320 14:51:44.025550 29408 net.cpp:408] conv3 <- norm2
I0320 14:51:44.025563 29408 net.cpp:382] conv3 -> conv3
I0320 14:51:44.040861 29408 net.cpp:124] Setting up conv3
I0320 14:51:44.040905 29408 net.cpp:131] Top shape: 256 384 13 13 (16613376)
I0320 14:51:44.040911 29408 net.cpp:139] Memory required for data: 1433628672
I0320 14:51:44.040931 29408 layer_factory.hpp:77] Creating layer relu3
I0320 14:51:44.040944 29408 net.cpp:86] Creating Layer relu3
I0320 14:51:44.040952 29408 net.cpp:408] relu3 <- conv3
I0320 14:51:44.040966 29408 net.cpp:369] relu3 -> conv3 (in-place)
I0320 14:51:44.041187 29408 net.cpp:124] Setting up relu3
I0320 14:51:44.041200 29408 net.cpp:131] Top shape: 256 384 13 13 (16613376)
I0320 14:51:44.041205 29408 net.cpp:139] Memory required for data: 1500082176
I0320 14:51:44.041211 29408 layer_factory.hpp:77] Creating layer conv4
I0320 14:51:44.041232 29408 net.cpp:86] Creating Layer conv4
I0320 14:51:44.041239 29408 net.cpp:408] conv4 <- conv3
I0320 14:51:44.041251 29408 net.cpp:382] conv4 -> conv4
I0320 14:51:44.054147 29408 net.cpp:124] Setting up conv4
I0320 14:51:44.054191 29408 net.cpp:131] Top shape: 256 384 13 13 (16613376)
I0320 14:51:44.054198 29408 net.cpp:139] Memory required for data: 1566535680
I0320 14:51:44.054211 29408 layer_factory.hpp:77] Creating layer relu4
I0320 14:51:44.054225 29408 net.cpp:86] Creating Layer relu4
I0320 14:51:44.054232 29408 net.cpp:408] relu4 <- conv4
I0320 14:51:44.054244 29408 net.cpp:369] relu4 -> conv4 (in-place)
I0320 14:51:44.054481 29408 net.cpp:124] Setting up relu4
I0320 14:51:44.054496 29408 net.cpp:131] Top shape: 256 384 13 13 (16613376)
I0320 14:51:44.054502 29408 net.cpp:139] Memory required for data: 1632989184
I0320 14:51:44.054507 29408 layer_factory.hpp:77] Creating layer conv5
I0320 14:51:44.054534 29408 net.cpp:86] Creating Layer conv5
I0320 14:51:44.054553 29408 net.cpp:408] conv5 <- conv4
I0320 14:51:44.054565 29408 net.cpp:382] conv5 -> conv5
I0320 14:51:44.064126 29408 net.cpp:124] Setting up conv5
I0320 14:51:44.064160 29408 net.cpp:131] Top shape: 256 256 13 13 (11075584)
I0320 14:51:44.064167 29408 net.cpp:139] Memory required for data: 1677291520
I0320 14:51:44.064185 29408 layer_factory.hpp:77] Creating layer relu5
I0320 14:51:44.064199 29408 net.cpp:86] Creating Layer relu5
I0320 14:51:44.064206 29408 net.cpp:408] relu5 <- conv5
I0320 14:51:44.064216 29408 net.cpp:369] relu5 -> conv5 (in-place)
I0320 14:51:44.064435 29408 net.cpp:124] Setting up relu5
I0320 14:51:44.064448 29408 net.cpp:131] Top shape: 256 256 13 13 (11075584)
I0320 14:51:44.064453 29408 net.cpp:139] Memory required for data: 1721593856
I0320 14:51:44.064460 29408 layer_factory.hpp:77] Creating layer pool5
I0320 14:51:44.064472 29408 net.cpp:86] Creating Layer pool5
I0320 14:51:44.064479 29408 net.cpp:408] pool5 <- conv5
I0320 14:51:44.064488 29408 net.cpp:382] pool5 -> pool5
I0320 14:51:44.064550 29408 net.cpp:124] Setting up pool5
I0320 14:51:44.064563 29408 net.cpp:131] Top shape: 256 256 6 6 (2359296)
I0320 14:51:44.064568 29408 net.cpp:139] Memory required for data: 1731031040
I0320 14:51:44.064574 29408 layer_factory.hpp:77] Creating layer fc6
I0320 14:51:44.064594 29408 net.cpp:86] Creating Layer fc6
I0320 14:51:44.064601 29408 net.cpp:408] fc6 <- pool5
I0320 14:51:44.064612 29408 net.cpp:382] fc6 -> fc6
I0320 14:51:44.658463 29408 net.cpp:124] Setting up fc6
I0320 14:51:44.658509 29408 net.cpp:131] Top shape: 256 4096 (1048576)
I0320 14:51:44.658514 29408 net.cpp:139] Memory required for data: 1735225344
I0320 14:51:44.658530 29408 layer_factory.hpp:77] Creating layer relu6
I0320 14:51:44.658545 29408 net.cpp:86] Creating Layer relu6
I0320 14:51:44.658552 29408 net.cpp:408] relu6 <- fc6
I0320 14:51:44.658565 29408 net.cpp:369] relu6 -> fc6 (in-place)
I0320 14:51:44.659132 29408 net.cpp:124] Setting up relu6
I0320 14:51:44.659147 29408 net.cpp:131] Top shape: 256 4096 (1048576)
I0320 14:51:44.659152 29408 net.cpp:139] Memory required for data: 1739419648
I0320 14:51:44.659158 29408 layer_factory.hpp:77] Creating layer drop6
I0320 14:51:44.659178 29408 net.cpp:86] Creating Layer drop6
I0320 14:51:44.659184 29408 net.cpp:408] drop6 <- fc6
I0320 14:51:44.659196 29408 net.cpp:369] drop6 -> fc6 (in-place)
I0320 14:51:44.659235 29408 net.cpp:124] Setting up drop6
I0320 14:51:44.659245 29408 net.cpp:131] Top shape: 256 4096 (1048576)
I0320 14:51:44.659250 29408 net.cpp:139] Memory required for data: 1743613952
I0320 14:51:44.659256 29408 layer_factory.hpp:77] Creating layer fc7
I0320 14:51:44.659270 29408 net.cpp:86] Creating Layer fc7
I0320 14:51:44.659276 29408 net.cpp:408] fc7 <- fc6
I0320 14:51:44.659289 29408 net.cpp:382] fc7 -> fc7
I0320 14:51:44.923099 29408 net.cpp:124] Setting up fc7
I0320 14:51:44.923146 29408 net.cpp:131] Top shape: 256 4096 (1048576)
I0320 14:51:44.923152 29408 net.cpp:139] Memory required for data: 1747808256
I0320 14:51:44.923167 29408 layer_factory.hpp:77] Creating layer relu7
I0320 14:51:44.923182 29408 net.cpp:86] Creating Layer relu7
I0320 14:51:44.923189 29408 net.cpp:408] relu7 <- fc7
I0320 14:51:44.923199 29408 net.cpp:369] relu7 -> fc7 (in-place)
I0320 14:51:44.923493 29408 net.cpp:124] Setting up relu7
I0320 14:51:44.923508 29408 net.cpp:131] Top shape: 256 4096 (1048576)
I0320 14:51:44.923514 29408 net.cpp:139] Memory required for data: 1752002560
I0320 14:51:44.923521 29408 layer_factory.hpp:77] Creating layer drop7
I0320 14:51:44.923532 29408 net.cpp:86] Creating Layer drop7
I0320 14:51:44.923537 29408 net.cpp:408] drop7 <- fc7
I0320 14:51:44.923547 29408 net.cpp:369] drop7 -> fc7 (in-place)
I0320 14:51:44.923580 29408 net.cpp:124] Setting up drop7
I0320 14:51:44.923590 29408 net.cpp:131] Top shape: 256 4096 (1048576)
I0320 14:51:44.923596 29408 net.cpp:139] Memory required for data: 1756196864
I0320 14:51:44.923601 29408 layer_factory.hpp:77] Creating layer fc8
I0320 14:51:44.923614 29408 net.cpp:86] Creating Layer fc8
I0320 14:51:44.923630 29408 net.cpp:408] fc8 <- fc7
I0320 14:51:44.923652 29408 net.cpp:382] fc8 -> fc8
I0320 14:51:44.988519 29408 net.cpp:124] Setting up fc8
I0320 14:51:44.988562 29408 net.cpp:131] Top shape: 256 1000 (256000)
I0320 14:51:44.988569 29408 net.cpp:139] Memory required for data: 1757220864
I0320 14:51:44.988584 29408 layer_factory.hpp:77] Creating layer loss
I0320 14:51:44.988602 29408 net.cpp:86] Creating Layer loss
I0320 14:51:44.988610 29408 net.cpp:408] loss <- fc8
I0320 14:51:44.988620 29408 net.cpp:408] loss <- label
I0320 14:51:44.988632 29408 net.cpp:382] loss -> loss
I0320 14:51:44.988656 29408 layer_factory.hpp:77] Creating layer loss
…
I0320 14:51:44.991072 29408 net.cpp:296] The NetState phase (1) differed from the phase (0) specified by a rule in layer data
I0320 14:51:44.991313 29408 net.cpp:53] Initializing net from parameters: 
name: "CaffeNet"
state {
  phase: TEST
}
layer {
  name: "data"
  type: "Data"
  top: "data"
  top: "label"
  include {
    phase: TEST
  }
  transform_param {
    mirror: false
    crop_size: 227
    mean_file: "data/ilsvrc12/imagenet_mean.binaryproto"
  }
  data_param {
    source: "examples/imagenet/ilsvrc12_val_lmdb"
    batch_size: 50
    backend: LMDB
  }
}
layer {
  name: "conv1"
  type: "Convolution"
  bottom: "data"
  top: "conv1"
  param {
    lr_mult: 1
    decay_mult: 1
  }
  param {
    lr_mult: 2
    decay_mult: 0
  }
  convolution_param {
    num_output: 96
    kernel_size: 11
    stride: 4
    weight_filler {
      type: "gaussian"
      std: 0.01
    }
    bias_filler {
      type: "constant"
      value: 0
    }
  }
}
layer {
  name: "relu1"
  type: "ReLU"
  bottom: "conv1"
  top: "conv1"
}
layer {
  name: "pool1"
  type: "Pooling"
  bottom: "conv1"
  top: "pool1"
  pooling_param {
    pool: MAX
    kernel_size: 3
    stride: 2
  }
}
layer {
  name: "norm1"
  type: "LRN"
  bottom: "pool1"
  top: "norm1"
  lrn_param {
    local_size: 5
    alpha: 0.0001
    beta: 0.75
  }
}
layer {
  name: "conv2"
  type: "Convolution"
  bottom: "norm1"
  top: "conv2"
  param {
    lr_mult: 1
    decay_mult: 1
  }
  param {
    lr_mult: 2
    decay_mult: 0
  }
  convolution_param {
    num_output: 256
    pad: 2
    kernel_size: 5
    group: 2
    weight_filler {
      type: "gaussian"
      std: 0.01
    }
    bias_filler {
      type: "constant"
      value: 1
    }
  }
}
layer {
  name: "relu2"
  type: "ReLU"
  bottom: "conv2"
  top: "conv2"
}
layer {
  name: "pool2"
  type: "Pooling"
  bottom: "conv2"
  top: "pool2"
  pooling_param {
    pool: MAX
    kernel_size: 3
    stride: 2
  }
}
layer {
  name: "norm2"
  type: "LRN"
  bottom: "pool2"
  top: "norm2"
  lrn_param {
    local_size: 5
    alpha: 0.0001
    beta: 0.75
  }
}
layer {
  name: "conv3"
  type: "Convolution"
  bottom: "norm2"
  top: "conv3"
  param {
    lr_mult: 1
    decay_mult: 1
  }
  param {
    lr_mult: 2
    decay_mult: 0
  }
  convolution_param {
    num_output: 384
    pad: 1
    kernel_size: 3
    weight_filler {
      type: "gaussian"
      std: 0.01
    }
    bias_filler {
      type: "constant"
      value: 0
    }
  }
}
layer {
  name: "relu3"
  type: "ReLU"
  bottom: "conv3"
  top: "conv3"
}
layer {
  name: "conv4"
  type: "Convolution"
  bottom: "conv3"
  top: "conv4"
  param {
    lr_mult: 1
    decay_mult: 1
  }
  param {
    lr_mult: 2
    decay_mult: 0
  }
  convolution_param {
    num_output: 384
    pad: 1
    kernel_size: 3
    group: 2
    weight_filler {
      type: "gaussian"
      std: 0.01
    }
    bias_filler {
      type: "constant"
      value: 1
    }
  }
}
layer {
  name: "relu4"
  type: "ReLU"
  bottom: "conv4"
  top: "conv4"
}
layer {
  name: "conv5"
  type: "Convolution"
  bottom: "conv4"
  top: "conv5"
  param {
    lr_mult: 1
    decay_mult: 1
  }
  param {
    lr_mult: 2
    decay_mult: 0
  }
  convolution_param {
    num_output: 256
    pad: 1
    kernel_size: 3
    group: 2
    weight_filler {
      type: "gaussian"
      std: 0.01
    }
    bias_filler {
      type: "constant"
      value: 1
    }
  }
}
layer {
  name: "relu5"
  type: "ReLU"
  bottom: "conv5"
  top: "conv5"
}
layer {
  name: "pool5"
  type: "Pooling"
  bottom: "conv5"
  top: "pool5"
  pooling_param {
    pool: MAX
    kernel_size: 3
    stride: 2
  }
}
layer {
  name: "fc6"
  type: "InnerProduct"
  bottom: "pool5"
  top: "fc6"
  param {
    lr_mult: 1
    decay_mult: 1
  }
  param {
    lr_mult: 2
    decay_mult: 0
  }
  inner_product_param {
    num_output: 4096
    weight_filler {
      type: "gaussian"
      std: 0.005
    }
    bias_filler {
      type: "constant"
      value: 1
    }
  }
}
layer {
  name: "relu6"
  type: "ReLU"
  bottom: "fc6"
  top: "fc6"
}
layer {
  name: "drop6"
  type: "Dropout"
  bottom: "fc6"
  top: "fc6"
  dropout_param {
    dropout_ratio: 0.5
  }
}
layer {
  name: "fc7"
  type: "InnerProduct"
  bottom: "fc6"
  top: "fc7"
  param {
    lr_mult: 1
    decay_mult: 1
  }
  param {
    lr_mult: 2
    decay_mult: 0
  }
  inner_product_param {
    num_output: 4096
    weight_filler {
      type: "gaussian"
      std: 0.005
    }
    bias_filler {
      type: "constant"
      value: 1
    }
  }
}
layer {
  name: "relu7"
  type: "ReLU"
  bottom: "fc7"
  top: "fc7"
}
layer {
  name: "drop7"
  type: "Dropout"
  bottom: "fc7"
  top: "fc7"
  dropout_param {
    dropout_ratio: 0.5
  }
}
layer {
  name: "fc8"
  type: "InnerProduct"
  bottom: "fc7"
  top: "fc8"
  param {
    lr_mult: 1
    decay_mult: 1
  }
  param {
    lr_mult: 2
    decay_mult: 0
  }
  inner_product_param {
    num_output: 1000
    weight_filler {
      type: "gaussian"
      std: 0.01
    }
    bias_filler {
      type: "constant"
      value: 0
    }
  }
}
layer {
  name: "accuracy"
  type: "Accuracy"
  bottom: "fc8"
  bottom: "label"
  top: "accuracy"
  include {
    phase: TEST
  }
}
layer {
  name: "loss"
  type: "SoftmaxWithLoss"
  bottom: "fc8"
  bottom: "label"
  top: "loss"
}
I0320 14:51:44.991472 29408 layer_factory.hpp:77] Creating layer data
I0320 14:51:44.991554 29408 db_lmdb.cpp:35] Opened lmdb examples/imagenet/ilsvrc12_val_lmdb
I0320 14:51:44.991583 29408 net.cpp:86] Creating Layer data
I0320 14:51:44.991600 29408 net.cpp:382] data -> data
I0320 14:51:44.991613 29408 net.cpp:382] data -> label
I0320 14:51:44.991628 29408 data_transformer.cpp:25] Loading mean file from: data/ilsvrc12/imagenet_mean.binaryproto
I0320 14:51:45.193110 29408 data_layer.cpp:45] output data size: 50,3,227,227
I0320 14:51:45.274513 29408 net.cpp:124] Setting up data
I0320 14:51:45.274560 29408 net.cpp:131] Top shape: 50 3 227 227 (7729350)
I0320 14:51:45.274569 29408 net.cpp:131] Top shape: 50 (50)
I0320 14:51:45.274575 29408 net.cpp:139] Memory required for data: 30917600
I0320 14:51:45.274585 29408 layer_factory.hpp:77] Creating layer label_data_1_split
I0320 14:51:45.274602 29408 net.cpp:86] Creating Layer label_data_1_split
I0320 14:51:45.274610 29408 net.cpp:408] label_data_1_split <- label
I0320 14:51:45.274622 29408 net.cpp:382] label_data_1_split -> label_data_1_split_0
I0320 14:51:45.274638 29408 net.cpp:382] label_data_1_split -> label_data_1_split_1
I0320 14:51:45.274715 29408 net.cpp:124] Setting up label_data_1_split
I0320 14:51:45.274727 29408 net.cpp:131] Top shape: 50 (50)
I0320 14:51:45.274734 29408 net.cpp:131] Top shape: 50 (50)
I0320 14:51:45.274739 29408 net.cpp:139] Memory required for data: 30918000
I0320 14:51:45.274745 29408 layer_factory.hpp:77] Creating layer conv1
I0320 14:51:45.274765 29408 net.cpp:86] Creating Layer conv1
I0320 14:51:45.274770 29408 net.cpp:408] conv1 <- data
I0320 14:51:45.274780 29408 net.cpp:382] conv1 -> conv1
I0320 14:51:45.281708 29408 net.cpp:124] Setting up conv1
I0320 14:51:45.281750 29408 net.cpp:131] Top shape: 50 96 55 55 (14520000)
I0320 14:51:45.281756 29408 net.cpp:139] Memory required for data: 88998000
I0320 14:51:45.281777 29408 layer_factory.hpp:77] Creating layer relu1
I0320 14:51:45.281790 29408 net.cpp:86] Creating Layer relu1
I0320 14:51:45.281798 29408 net.cpp:408] relu1 <- conv1
I0320 14:51:45.281808 29408 net.cpp:369] relu1 -> conv1 (in-place)
I0320 14:51:45.282023 29408 net.cpp:124] Setting up relu1
I0320 14:51:45.282037 29408 net.cpp:131] Top shape: 50 96 55 55 (14520000)
I0320 14:51:45.282043 29408 net.cpp:139] Memory required for data: 147078000
I0320 14:51:45.282049 29408 layer_factory.hpp:77] Creating layer pool1
I0320 14:51:45.282063 29408 net.cpp:86] Creating Layer pool1
I0320 14:51:45.282068 29408 net.cpp:408] pool1 <- conv1
I0320 14:51:45.282078 29408 net.cpp:382] pool1 -> pool1
I0320 14:51:45.282136 29408 net.cpp:124] Setting up pool1
I0320 14:51:45.282148 29408 net.cpp:131] Top shape: 50 96 27 27 (3499200)
I0320 14:51:45.282153 29408 net.cpp:139] Memory required for data: 161074800
I0320 14:51:45.282160 29408 layer_factory.hpp:77] Creating layer norm1
I0320 14:51:45.282171 29408 net.cpp:86] Creating Layer norm1
I0320 14:51:45.282176 29408 net.cpp:408] norm1 <- pool1
I0320 14:51:45.282184 29408 net.cpp:382] norm1 -> norm1
I0320 14:51:45.282660 29408 net.cpp:124] Setting up norm1
I0320 14:51:45.282680 29408 net.cpp:131] Top shape: 50 96 27 27 (3499200)
I0320 14:51:45.282685 29408 net.cpp:139] Memory required for data: 175071600
I0320 14:51:45.282691 29408 layer_factory.hpp:77] Creating layer conv2
I0320 14:51:45.282709 29408 net.cpp:86] Creating Layer conv2
I0320 14:51:45.282716 29408 net.cpp:408] conv2 <- norm1
I0320 14:51:45.282727 29408 net.cpp:382] conv2 -> conv2
I0320 14:51:45.290262 29408 net.cpp:124] Setting up conv2
I0320 14:51:45.290310 29408 net.cpp:131] Top shape: 50 256 27 27 (9331200)
I0320 14:51:45.290318 29408 net.cpp:139] Memory required for data: 212396400
I0320 14:51:45.290338 29408 layer_factory.hpp:77] Creating layer relu2
I0320 14:51:45.290352 29408 net.cpp:86] Creating Layer relu2
I0320 14:51:45.290360 29408 net.cpp:408] relu2 <- conv2
I0320 14:51:45.290371 29408 net.cpp:369] relu2 -> conv2 (in-place)
I0320 14:51:45.290611 29408 net.cpp:124] Setting up relu2
I0320 14:51:45.290637 29408 net.cpp:131] Top shape: 50 256 27 27 (9331200)
I0320 14:51:45.290655 29408 net.cpp:139] Memory required for data: 249721200
I0320 14:51:45.290662 29408 layer_factory.hpp:77] Creating layer pool2
I0320 14:51:45.290675 29408 net.cpp:86] Creating Layer pool2
I0320 14:51:45.290683 29408 net.cpp:408] pool2 <- conv2
I0320 14:51:45.290691 29408 net.cpp:382] pool2 -> pool2
I0320 14:51:45.290752 29408 net.cpp:124] Setting up pool2
I0320 14:51:45.290766 29408 net.cpp:131] Top shape: 50 256 13 13 (2163200)
I0320 14:51:45.290771 29408 net.cpp:139] Memory required for data: 258374000
I0320 14:51:45.290776 29408 layer_factory.hpp:77] Creating layer norm2
I0320 14:51:45.290787 29408 net.cpp:86] Creating Layer norm2
I0320 14:51:45.290793 29408 net.cpp:408] norm2 <- pool2
I0320 14:51:45.290802 29408 net.cpp:382] norm2 -> norm2
I0320 14:51:45.291260 29408 net.cpp:124] Setting up norm2
I0320 14:51:45.291275 29408 net.cpp:131] Top shape: 50 256 13 13 (2163200)
I0320 14:51:45.291281 29408 net.cpp:139] Memory required for data: 267026800
I0320 14:51:45.291287 29408 layer_factory.hpp:77] Creating layer conv3
I0320 14:51:45.291304 29408 net.cpp:86] Creating Layer conv3
I0320 14:51:45.291311 29408 net.cpp:408] conv3 <- norm2
I0320 14:51:45.291321 29408 net.cpp:382] conv3 -> conv3
I0320 14:51:45.306682 29408 net.cpp:124] Setting up conv3
I0320 14:51:45.306730 29408 net.cpp:131] Top shape: 50 384 13 13 (3244800)
I0320 14:51:45.306737 29408 net.cpp:139] Memory required for data: 280006000
I0320 14:51:45.306757 29408 layer_factory.hpp:77] Creating layer relu3
I0320 14:51:45.306771 29408 net.cpp:86] Creating Layer relu3
I0320 14:51:45.306779 29408 net.cpp:408] relu3 <- conv3
I0320 14:51:45.306790 29408 net.cpp:369] relu3 -> conv3 (in-place)
I0320 14:51:45.307193 29408 net.cpp:124] Setting up relu3
I0320 14:51:45.307209 29408 net.cpp:131] Top shape: 50 384 13 13 (3244800)
I0320 14:51:45.307214 29408 net.cpp:139] Memory required for data: 292985200
I0320 14:51:45.307219 29408 layer_factory.hpp:77] Creating layer conv4
I0320 14:51:45.307235 29408 net.cpp:86] Creating Layer conv4
I0320 14:51:45.307242 29408 net.cpp:408] conv4 <- conv3
I0320 14:51:45.307253 29408 net.cpp:382] conv4 -> conv4
I0320 14:51:45.330303 29408 net.cpp:124] Setting up conv4
I0320 14:51:45.330358 29408 net.cpp:131] Top shape: 50 384 13 13 (3244800)
I0320 14:51:45.330364 29408 net.cpp:139] Memory required for data: 305964400
I0320 14:51:45.330379 29408 layer_factory.hpp:77] Creating layer relu4
I0320 14:51:45.330394 29408 net.cpp:86] Creating Layer relu4
I0320 14:51:45.330416 29408 net.cpp:408] relu4 <- conv4
I0320 14:51:45.330430 29408 net.cpp:369] relu4 -> conv4 (in-place)
I0320 14:51:45.330674 29408 net.cpp:124] Setting up relu4
I0320 14:51:45.330689 29408 net.cpp:131] Top shape: 50 384 13 13 (3244800)
I0320 14:51:45.330695 29408 net.cpp:139] Memory required for data: 318943600
I0320 14:51:45.330701 29408 layer_factory.hpp:77] Creating layer conv5
I0320 14:51:45.330718 29408 net.cpp:86] Creating Layer conv5
I0320 14:51:45.330725 29408 net.cpp:408] conv5 <- conv4
I0320 14:51:45.330735 29408 net.cpp:382] conv5 -> conv5
I0320 14:51:45.340441 29408 net.cpp:124] Setting up conv5
I0320 14:51:45.340489 29408 net.cpp:131] Top shape: 50 256 13 13 (2163200)
I0320 14:51:45.340497 29408 net.cpp:139] Memory required for data: 327596400
I0320 14:51:45.340518 29408 layer_factory.hpp:77] Creating layer relu5
I0320 14:51:45.340533 29408 net.cpp:86] Creating Layer relu5
I0320 14:51:45.340541 29408 net.cpp:408] relu5 <- conv5
I0320 14:51:45.340553 29408 net.cpp:369] relu5 -> conv5 (in-place)
I0320 14:51:45.340782 29408 net.cpp:124] Setting up relu5
I0320 14:51:45.340797 29408 net.cpp:131] Top shape: 50 256 13 13 (2163200)
I0320 14:51:45.340803 29408 net.cpp:139] Memory required for data: 336249200
I0320 14:51:45.340808 29408 layer_factory.hpp:77] Creating layer pool5
I0320 14:51:45.340823 29408 net.cpp:86] Creating Layer pool5
I0320 14:51:45.340831 29408 net.cpp:408] pool5 <- conv5
I0320 14:51:45.340839 29408 net.cpp:382] pool5 -> pool5
I0320 14:51:45.340915 29408 net.cpp:124] Setting up pool5
I0320 14:51:45.340939 29408 net.cpp:131] Top shape: 50 256 6 6 (460800)
I0320 14:51:45.340945 29408 net.cpp:139] Memory required for data: 338092400
I0320 14:51:45.340951 29408 layer_factory.hpp:77] Creating layer fc6
I0320 14:51:45.340963 29408 net.cpp:86] Creating Layer fc6
I0320 14:51:45.340970 29408 net.cpp:408] fc6 <- pool5
I0320 14:51:45.340979 29408 net.cpp:382] fc6 -> fc6
I0320 14:51:45.934478 29408 net.cpp:124] Setting up fc6
I0320 14:51:45.934531 29408 net.cpp:131] Top shape: 50 4096 (204800)
I0320 14:51:45.934537 29408 net.cpp:139] Memory required for data: 338911600
I0320 14:51:45.934552 29408 layer_factory.hpp:77] Creating layer relu6
I0320 14:51:45.934567 29408 net.cpp:86] Creating Layer relu6
I0320 14:51:45.934574 29408 net.cpp:408] relu6 <- fc6
I0320 14:51:45.934587 29408 net.cpp:369] relu6 -> fc6 (in-place)
I0320 14:51:45.935163 29408 net.cpp:124] Setting up relu6
I0320 14:51:45.935179 29408 net.cpp:131] Top shape: 50 4096 (204800)
I0320 14:51:45.935185 29408 net.cpp:139] Memory required for data: 339730800
I0320 14:51:45.935191 29408 layer_factory.hpp:77] Creating layer drop6
I0320 14:51:45.935202 29408 net.cpp:86] Creating Layer drop6
I0320 14:51:45.935209 29408 net.cpp:408] drop6 <- fc6
I0320 14:51:45.935217 29408 net.cpp:369] drop6 -> fc6 (in-place)
I0320 14:51:45.935261 29408 net.cpp:124] Setting up drop6
I0320 14:51:45.935271 29408 net.cpp:131] Top shape: 50 4096 (204800)
I0320 14:51:45.935276 29408 net.cpp:139] Memory required for data: 340550000
I0320 14:51:45.935282 29408 layer_factory.hpp:77] Creating layer fc7
I0320 14:51:45.935293 29408 net.cpp:86] Creating Layer fc7
I0320 14:51:45.935300 29408 net.cpp:408] fc7 <- fc6
I0320 14:51:45.935309 29408 net.cpp:382] fc7 -> fc7
I0320 14:51:46.197856 29408 net.cpp:124] Setting up fc7
I0320 14:51:46.197907 29408 net.cpp:131] Top shape: 50 4096 (204800)
I0320 14:51:46.197913 29408 net.cpp:139] Memory required for data: 341369200
I0320 14:51:46.197929 29408 layer_factory.hpp:77] Creating layer relu7
I0320 14:51:46.197943 29408 net.cpp:86] Creating Layer relu7
I0320 14:51:46.197950 29408 net.cpp:408] relu7 <- fc7
I0320 14:51:46.197962 29408 net.cpp:369] relu7 -> fc7 (in-place)
I0320 14:51:46.198261 29408 net.cpp:124] Setting up relu7
I0320 14:51:46.198274 29408 net.cpp:131] Top shape: 50 4096 (204800)
I0320 14:51:46.198281 29408 net.cpp:139] Memory required for data: 342188400
I0320 14:51:46.198285 29408 layer_factory.hpp:77] Creating layer drop7
I0320 14:51:46.198297 29408 net.cpp:86] Creating Layer drop7
I0320 14:51:46.198303 29408 net.cpp:408] drop7 <- fc7
I0320 14:51:46.198312 29408 net.cpp:369] drop7 -> fc7 (in-place)
I0320 14:51:46.198354 29408 net.cpp:124] Setting up drop7
I0320 14:51:46.198364 29408 net.cpp:131] Top shape: 50 4096 (204800)
I0320 14:51:46.198369 29408 net.cpp:139] Memory required for data: 343007600
I0320 14:51:46.198375 29408 layer_factory.hpp:77] Creating layer fc8
I0320 14:51:46.198387 29408 net.cpp:86] Creating Layer fc8
I0320 14:51:46.198393 29408 net.cpp:408] fc8 <- fc7
I0320 14:51:46.198411 29408 net.cpp:382] fc8 -> fc8
I0320 14:51:46.262881 29408 net.cpp:124] Setting up fc8
I0320 14:51:46.262931 29408 net.cpp:131] Top shape: 50 1000 (50000)
I0320 14:51:46.262938 29408 net.cpp:139] Memory required for data: 343207600
I0320 14:51:46.262953 29408 layer_factory.hpp:77] Creating layer fc8_fc8_0_split
I0320 14:51:46.262969 29408 net.cpp:86] Creating Layer fc8_fc8_0_split
I0320 14:51:46.262976 29408 net.cpp:408] fc8_fc8_0_split <- fc8
I0320 14:51:46.262989 29408 net.cpp:382] fc8_fc8_0_split -> fc8_fc8_0_split_0
I0320 14:51:46.263003 29408 net.cpp:382] fc8_fc8_0_split -> fc8_fc8_0_split_1
I0320 14:51:46.263062 29408 net.cpp:124] Setting up fc8_fc8_0_split
I0320 14:51:46.263073 29408 net.cpp:131] Top shape: 50 1000 (50000)
I0320 14:51:46.263079 29408 net.cpp:131] Top shape: 50 1000 (50000)
I0320 14:51:46.263084 29408 net.cpp:139] Memory required for data: 343607600
I0320 14:51:46.263090 29408 layer_factory.hpp:77] Creating layer accuracy
I0320 14:51:46.263101 29408 net.cpp:86] Creating Layer accuracy
I0320 14:51:46.263123 29408 net.cpp:408] accuracy <- fc8_fc8_0_split_0
I0320 14:51:46.263142 29408 net.cpp:408] accuracy <- label_data_1_split_0
I0320 14:51:46.263152 29408 net.cpp:382] accuracy -> accuracy
…
