…
I0303 09:05:32.226306  6606 net.cpp:296] The NetState phase (0) differed from the phase (1) specified by a rule in layer accuracy
I0303 09:05:32.226703  6606 net.cpp:53] Initializing net from parameters: 
name: "CaffeNet"
state {
  phase: TRAIN
  level: 0
  stage: ""
}
layer {
  name: "data"
  type: "Data"
  top: "data"
  top: "label"
  include {
    phase: TRAIN
  }
  transform_param {
    mirror: true
    crop_size: 227
    mean_file: "data/ilsvrc12/imagenet_mean.binaryproto"
  }
  data_param {
    source: "examples/imagenet/ilsvrc12_train_lmdb"
    batch_size: 256
    backend: LMDB
  }
}
layer {
  name: "conv1"
  type: "Convolution"
  bottom: "data"
  top: "conv1"
  param {
    lr_mult: 1
    decay_mult: 1
  }
  param {
    lr_mult: 2
    decay_mult: 0
  }
  convolution_param {
    num_output: 96
    kernel_size: 11
    stride: 4
    weight_filler {
      type: "gaussian"
      std: 0.01
    }
    bias_filler {
      type: "constant"
      value: 0
    }
  }
}
layer {
  name: "relu1"
  type: "ReLU"
  bottom: "conv1"
  top: "conv1"
}
layer {
  name: "pool1"
  type: "Pooling"
  bottom: "conv1"
  top: "pool1"
  pooling_param {
    pool: MAX
    kernel_size: 3
    stride: 2
  }
}
layer {
  name: "norm1"
  type: "LRN"
  bottom: "pool1"
  top: "norm1"
  lrn_param {
    local_size: 5
    alpha: 0.0001
    beta: 0.75
  }
}
layer {
  name: "conv2"
  type: "Convolution"
  bottom: "norm1"
  top: "conv2"
  param {
    lr_mult: 1
    decay_mult: 1
  }
  param {
    lr_mult: 2
    decay_mult: 0
  }
  convolution_param {
    num_output: 256
    pad: 2
    kernel_size: 5
    group: 2
    weight_filler {
      type: "gaussian"
      std: 0.01
    }
    bias_filler {
      type: "constant"
      value: 1
    }
  }
}
layer {
  name: "relu2"
  type: "ReLU"
  bottom: "conv2"
  top: "conv2"
}
layer {
  name: "pool2"
  type: "Pooling"
  bottom: "conv2"
  top: "pool2"
  pooling_param {
    pool: MAX
    kernel_size: 3
    stride: 2
  }
}
layer {
  name: "norm2"
  type: "LRN"
  bottom: "pool2"
  top: "norm2"
  lrn_param {
    local_size: 5
    alpha: 0.0001
    beta: 0.75
  }
}
layer {
  name: "conv3"
  type: "Convolution"
  bottom: "norm2"
  top: "conv3"
  param {
    lr_mult: 1
    decay_mult: 1
  }
  param {
    lr_mult: 2
    decay_mult: 0
  }
  convolution_param {
    num_output: 384
    pad: 1
    kernel_size: 3
    weight_filler {
      type: "gaussian"
      std: 0.01
    }
    bias_filler {
      type: "constant"
      value: 0
    }
  }
}
layer {
  name: "relu3"
  type: "ReLU"
  bottom: "conv3"
  top: "conv3"
}
layer {
  name: "conv4"
  type: "Convolution"
  bottom: "conv3"
  top: "conv4"
  param {
    lr_mult: 1
    decay_mult: 1
  }
  param {
    lr_mult: 2
    decay_mult: 0
  }
  convolution_param {
    num_output: 384
    pad: 1
    kernel_size: 3
    group: 2
    weight_filler {
      type: "gaussian"
      std: 0.01
    }
    bias_filler {
      type: "constant"
      value: 1
    }
  }
}
layer {
  name: "relu4"
  type: "ReLU"
  bottom: "conv4"
  top: "conv4"
}
layer {
  name: "conv5"
  type: "Convolution"
  bottom: "conv4"
  top: "conv5"
  param {
    lr_mult: 1
    decay_mult: 1
  }
  param {
    lr_mult: 2
    decay_mult: 0
  }
  convolution_param {
    num_output: 256
    pad: 1
    kernel_size: 3
    group: 2
    weight_filler {
      type: "gaussian"
      std: 0.01
    }
    bias_filler {
      type: "constant"
      value: 1
    }
  }
}
layer {
  name: "relu5"
  type: "ReLU"
  bottom: "conv5"
  top: "conv5"
}
layer {
  name: "pool5"
  type: "Pooling"
  bottom: "conv5"
  top: "pool5"
  pooling_param {
    pool: MAX
    kernel_size: 3
    stride: 2
  }
}
layer {
  name: "fc6"
  type: "InnerProduct"
  bottom: "pool5"
  top: "fc6"
  param {
    lr_mult: 1
    decay_mult: 1
  }
  param {
    lr_mult: 2
    decay_mult: 0
  }
  inner_product_param {
    num_output: 4096
    weight_filler {
      type: "gaussian"
      std: 0.005
    }
    bias_filler {
      type: "constant"
      value: 1
    }
  }
}
layer {
  name: "relu6"
  type: "ReLU"
  bottom: "fc6"
  top: "fc6"
}
layer {
  name: "drop6"
  type: "Dropout"
  bottom: "fc6"
  top: "fc6"
  dropout_param {
    dropout_ratio: 0.5
  }
}
layer {
  name: "fc7"
  type: "InnerProduct"
  bottom: "fc6"
  top: "fc7"
  param {
    lr_mult: 1
    decay_mult: 1
  }
  param {
    lr_mult: 2
    decay_mult: 0
  }
  inner_product_param {
    num_output: 4096
    weight_filler {
      type: "gaussian"
      std: 0.005
    }
    bias_filler {
      type: "constant"
      value: 1
    }
  }
}
layer {
  name: "relu7"
  type: "ReLU"
  bottom: "fc7"
  top: "fc7"
}
layer {
  name: "drop7"
  type: "Dropout"
  bottom: "fc7"
  top: "fc7"
  dropout_param {
    dropout_ratio: 0.5
  }
}
layer {
  name: "fc8"
  type: "InnerProduct"
  bottom: "fc7"
  top: "fc8"
  param {
    lr_mult: 1
    decay_mult: 1
  }
  param {
    lr_mult: 2
    decay_mult: 0
  }
  inner_product_param {
    num_output: 1000
    weight_filler {
      type: "gaussian"
      std: 0.01
    }
    bias_filler {
      type: "constant"
      value: 0
    }
  }
}
layer {
  name: "loss"
  type: "SoftmaxWithLoss"
  bottom: "fc8"
  bottom: "label"
  top: "loss"
}
I0303 09:05:32.226946  6606 layer_factory.hpp:77] Creating layer data
I0303 09:05:32.227180  6606 db_lmdb.cpp:35] Opened lmdb examples/imagenet/ilsvrc12_train_lmdb
I0303 09:05:32.254731  6606 net.cpp:86] Creating Layer data
I0303 09:05:32.254794  6606 net.cpp:382] data -> data
I0303 09:05:32.254855  6606 net.cpp:382] data -> label
I0303 09:05:32.254894  6606 data_transformer.cpp:25] Loading mean file from: data/ilsvrc12/imagenet_mean.binaryproto
I0303 09:05:32.315899  6606 data_layer.cpp:45] output data size: 256,3,227,227
I0303 09:05:32.735476  6606 net.cpp:124] Setting up data
I0303 09:05:32.735530  6606 net.cpp:131] Top shape: 256 3 227 227 (39574272)
I0303 09:05:32.735539  6606 net.cpp:131] Top shape: 256 (256)
I0303 09:05:32.735544  6606 net.cpp:139] Memory required for data: 158298112
I0303 09:05:32.735560  6606 layer_factory.hpp:77] Creating layer conv1
I0303 09:05:32.735592  6606 net.cpp:86] Creating Layer conv1
I0303 09:05:32.735602  6606 net.cpp:408] conv1 <- data
I0303 09:05:32.735622  6606 net.cpp:382] conv1 -> conv1
I0303 09:05:33.379319  6606 net.cpp:124] Setting up conv1
I0303 09:05:33.379370  6606 net.cpp:131] Top shape: 256 96 55 55 (74342400)
I0303 09:05:33.379377  6606 net.cpp:139] Memory required for data: 455667712
I0303 09:05:33.379410  6606 layer_factory.hpp:77] Creating layer relu1
I0303 09:05:33.379428  6606 net.cpp:86] Creating Layer relu1
I0303 09:05:33.379436  6606 net.cpp:408] relu1 <- conv1
I0303 09:05:33.379446  6606 net.cpp:369] relu1 -> conv1 (in-place)
I0303 09:05:33.379827  6606 net.cpp:124] Setting up relu1
I0303 09:05:33.379844  6606 net.cpp:131] Top shape: 256 96 55 55 (74342400)
I0303 09:05:33.379850  6606 net.cpp:139] Memory required for data: 753037312
I0303 09:05:33.379856  6606 layer_factory.hpp:77] Creating layer pool1
I0303 09:05:33.379868  6606 net.cpp:86] Creating Layer pool1
I0303 09:05:33.379873  6606 net.cpp:408] pool1 <- conv1
I0303 09:05:33.379883  6606 net.cpp:382] pool1 -> pool1
I0303 09:05:33.379945  6606 net.cpp:124] Setting up pool1
I0303 09:05:33.379956  6606 net.cpp:131] Top shape: 256 96 27 27 (17915904)
I0303 09:05:33.379961  6606 net.cpp:139] Memory required for data: 824700928
I0303 09:05:33.379967  6606 layer_factory.hpp:77] Creating layer norm1
I0303 09:05:33.379982  6606 net.cpp:86] Creating Layer norm1
I0303 09:05:33.379998  6606 net.cpp:408] norm1 <- pool1
I0303 09:05:33.380023  6606 net.cpp:382] norm1 -> norm1
I0303 09:05:33.380256  6606 net.cpp:124] Setting up norm1
I0303 09:05:33.380271  6606 net.cpp:131] Top shape: 256 96 27 27 (17915904)
I0303 09:05:33.380277  6606 net.cpp:139] Memory required for data: 896364544
I0303 09:05:33.380283  6606 layer_factory.hpp:77] Creating layer conv2
I0303 09:05:33.380300  6606 net.cpp:86] Creating Layer conv2
I0303 09:05:33.380307  6606 net.cpp:408] conv2 <- norm1
I0303 09:05:33.380316  6606 net.cpp:382] conv2 -> conv2
I0303 09:05:33.387814  6606 net.cpp:124] Setting up conv2
I0303 09:05:33.387848  6606 net.cpp:131] Top shape: 256 256 27 27 (47775744)
I0303 09:05:33.387856  6606 net.cpp:139] Memory required for data: 1087467520
I0303 09:05:33.387871  6606 layer_factory.hpp:77] Creating layer relu2
I0303 09:05:33.387883  6606 net.cpp:86] Creating Layer relu2
I0303 09:05:33.387890  6606 net.cpp:408] relu2 <- conv2
I0303 09:05:33.387900  6606 net.cpp:369] relu2 -> conv2 (in-place)
I0303 09:05:33.388108  6606 net.cpp:124] Setting up relu2
I0303 09:05:33.388121  6606 net.cpp:131] Top shape: 256 256 27 27 (47775744)
I0303 09:05:33.388128  6606 net.cpp:139] Memory required for data: 1278570496
I0303 09:05:33.388134  6606 layer_factory.hpp:77] Creating layer pool2
I0303 09:05:33.388144  6606 net.cpp:86] Creating Layer pool2
I0303 09:05:33.388149  6606 net.cpp:408] pool2 <- conv2
I0303 09:05:33.388159  6606 net.cpp:382] pool2 -> pool2
I0303 09:05:33.388211  6606 net.cpp:124] Setting up pool2
I0303 09:05:33.388224  6606 net.cpp:131] Top shape: 256 256 13 13 (11075584)
I0303 09:05:33.388231  6606 net.cpp:139] Memory required for data: 1322872832
I0303 09:05:33.388236  6606 layer_factory.hpp:77] Creating layer norm2
I0303 09:05:33.388248  6606 net.cpp:86] Creating Layer norm2
I0303 09:05:33.388254  6606 net.cpp:408] norm2 <- pool2
I0303 09:05:33.388265  6606 net.cpp:382] norm2 -> norm2
I0303 09:05:33.388687  6606 net.cpp:124] Setting up norm2
I0303 09:05:33.388705  6606 net.cpp:131] Top shape: 256 256 13 13 (11075584)
I0303 09:05:33.388711  6606 net.cpp:139] Memory required for data: 1367175168
I0303 09:05:33.388717  6606 layer_factory.hpp:77] Creating layer conv3
I0303 09:05:33.388734  6606 net.cpp:86] Creating Layer conv3
I0303 09:05:33.388741  6606 net.cpp:408] conv3 <- norm2
I0303 09:05:33.388753  6606 net.cpp:382] conv3 -> conv3
I0303 09:05:33.404012  6606 net.cpp:124] Setting up conv3
I0303 09:05:33.404060  6606 net.cpp:131] Top shape: 256 384 13 13 (16613376)
I0303 09:05:33.404067  6606 net.cpp:139] Memory required for data: 1433628672
I0303 09:05:33.404086  6606 layer_factory.hpp:77] Creating layer relu3
I0303 09:05:33.404101  6606 net.cpp:86] Creating Layer relu3
I0303 09:05:33.404109  6606 net.cpp:408] relu3 <- conv3
I0303 09:05:33.404121  6606 net.cpp:369] relu3 -> conv3 (in-place)
I0303 09:05:33.404338  6606 net.cpp:124] Setting up relu3
I0303 09:05:33.404353  6606 net.cpp:131] Top shape: 256 384 13 13 (16613376)
I0303 09:05:33.404358  6606 net.cpp:139] Memory required for data: 1500082176
I0303 09:05:33.404364  6606 layer_factory.hpp:77] Creating layer conv4
I0303 09:05:33.404382  6606 net.cpp:86] Creating Layer conv4
I0303 09:05:33.404389  6606 net.cpp:408] conv4 <- conv3
I0303 09:05:33.404400  6606 net.cpp:382] conv4 -> conv4
I0303 09:05:33.417098  6606 net.cpp:124] Setting up conv4
I0303 09:05:33.417135  6606 net.cpp:131] Top shape: 256 384 13 13 (16613376)
I0303 09:05:33.417142  6606 net.cpp:139] Memory required for data: 1566535680
I0303 09:05:33.417155  6606 layer_factory.hpp:77] Creating layer relu4
I0303 09:05:33.417168  6606 net.cpp:86] Creating Layer relu4
I0303 09:05:33.417176  6606 net.cpp:408] relu4 <- conv4
I0303 09:05:33.417186  6606 net.cpp:369] relu4 -> conv4 (in-place)
I0303 09:05:33.417407  6606 net.cpp:124] Setting up relu4
I0303 09:05:33.417423  6606 net.cpp:131] Top shape: 256 384 13 13 (16613376)
I0303 09:05:33.417428  6606 net.cpp:139] Memory required for data: 1632989184
I0303 09:05:33.417433  6606 layer_factory.hpp:77] Creating layer conv5
I0303 09:05:33.417459  6606 net.cpp:86] Creating Layer conv5
I0303 09:05:33.417479  6606 net.cpp:408] conv5 <- conv4
I0303 09:05:33.417490  6606 net.cpp:382] conv5 -> conv5
I0303 09:05:33.426993  6606 net.cpp:124] Setting up conv5
I0303 09:05:33.427032  6606 net.cpp:131] Top shape: 256 256 13 13 (11075584)
I0303 09:05:33.427039  6606 net.cpp:139] Memory required for data: 1677291520
I0303 09:05:33.427057  6606 layer_factory.hpp:77] Creating layer relu5
I0303 09:05:33.427070  6606 net.cpp:86] Creating Layer relu5
I0303 09:05:33.427078  6606 net.cpp:408] relu5 <- conv5
I0303 09:05:33.427088  6606 net.cpp:369] relu5 -> conv5 (in-place)
I0303 09:05:33.427301  6606 net.cpp:124] Setting up relu5
I0303 09:05:33.427315  6606 net.cpp:131] Top shape: 256 256 13 13 (11075584)
I0303 09:05:33.427321  6606 net.cpp:139] Memory required for data: 1721593856
I0303 09:05:33.427327  6606 layer_factory.hpp:77] Creating layer pool5
I0303 09:05:33.427337  6606 net.cpp:86] Creating Layer pool5
I0303 09:05:33.427345  6606 net.cpp:408] pool5 <- conv5
I0303 09:05:33.427356  6606 net.cpp:382] pool5 -> pool5
I0303 09:05:33.427413  6606 net.cpp:124] Setting up pool5
I0303 09:05:33.427424  6606 net.cpp:131] Top shape: 256 256 6 6 (2359296)
I0303 09:05:33.427430  6606 net.cpp:139] Memory required for data: 1731031040
I0303 09:05:33.427435  6606 layer_factory.hpp:77] Creating layer fc6
I0303 09:05:33.427454  6606 net.cpp:86] Creating Layer fc6
I0303 09:05:33.427460  6606 net.cpp:408] fc6 <- pool5
I0303 09:05:33.427470  6606 net.cpp:382] fc6 -> fc6
I0303 09:05:34.017328  6606 net.cpp:124] Setting up fc6
I0303 09:05:34.017375  6606 net.cpp:131] Top shape: 256 4096 (1048576)
I0303 09:05:34.017381  6606 net.cpp:139] Memory required for data: 1735225344
I0303 09:05:34.017397  6606 layer_factory.hpp:77] Creating layer relu6
I0303 09:05:34.017410  6606 net.cpp:86] Creating Layer relu6
I0303 09:05:34.017417  6606 net.cpp:408] relu6 <- fc6
I0303 09:05:34.017431  6606 net.cpp:369] relu6 -> fc6 (in-place)
I0303 09:05:34.017982  6606 net.cpp:124] Setting up relu6
I0303 09:05:34.017997  6606 net.cpp:131] Top shape: 256 4096 (1048576)
I0303 09:05:34.018003  6606 net.cpp:139] Memory required for data: 1739419648
I0303 09:05:34.018009  6606 layer_factory.hpp:77] Creating layer drop6
I0303 09:05:34.018028  6606 net.cpp:86] Creating Layer drop6
I0303 09:05:34.018035  6606 net.cpp:408] drop6 <- fc6
I0303 09:05:34.018046  6606 net.cpp:369] drop6 -> fc6 (in-place)
I0303 09:05:34.018084  6606 net.cpp:124] Setting up drop6
I0303 09:05:34.018095  6606 net.cpp:131] Top shape: 256 4096 (1048576)
I0303 09:05:34.018100  6606 net.cpp:139] Memory required for data: 1743613952
I0303 09:05:34.018105  6606 layer_factory.hpp:77] Creating layer fc7
I0303 09:05:34.018120  6606 net.cpp:86] Creating Layer fc7
I0303 09:05:34.018126  6606 net.cpp:408] fc7 <- fc6
I0303 09:05:34.018136  6606 net.cpp:382] fc7 -> fc7
I0303 09:05:34.281263  6606 net.cpp:124] Setting up fc7
I0303 09:05:34.281306  6606 net.cpp:131] Top shape: 256 4096 (1048576)
I0303 09:05:34.281311  6606 net.cpp:139] Memory required for data: 1747808256
I0303 09:05:34.281327  6606 layer_factory.hpp:77] Creating layer relu7
I0303 09:05:34.281343  6606 net.cpp:86] Creating Layer relu7
I0303 09:05:34.281352  6606 net.cpp:408] relu7 <- fc7
I0303 09:05:34.281363  6606 net.cpp:369] relu7 -> fc7 (in-place)
I0303 09:05:34.281658  6606 net.cpp:124] Setting up relu7
I0303 09:05:34.281673  6606 net.cpp:131] Top shape: 256 4096 (1048576)
I0303 09:05:34.281678  6606 net.cpp:139] Memory required for data: 1752002560
I0303 09:05:34.281684  6606 layer_factory.hpp:77] Creating layer drop7
I0303 09:05:34.281699  6606 net.cpp:86] Creating Layer drop7
I0303 09:05:34.281705  6606 net.cpp:408] drop7 <- fc7
I0303 09:05:34.281714  6606 net.cpp:369] drop7 -> fc7 (in-place)
I0303 09:05:34.281749  6606 net.cpp:124] Setting up drop7
I0303 09:05:34.281759  6606 net.cpp:131] Top shape: 256 4096 (1048576)
I0303 09:05:34.281764  6606 net.cpp:139] Memory required for data: 1756196864
I0303 09:05:34.281769  6606 layer_factory.hpp:77] Creating layer fc8
I0303 09:05:34.281781  6606 net.cpp:86] Creating Layer fc8
I0303 09:05:34.281796  6606 net.cpp:408] fc8 <- fc7
I0303 09:05:34.281821  6606 net.cpp:382] fc8 -> fc8
I0303 09:05:34.534075  6606 net.cpp:124] Setting up fc8
I0303 09:05:34.534133  6606 net.cpp:131] Top shape: 256 1000 (256000)
I0303 09:05:34.534139  6606 net.cpp:139] Memory required for data: 1757220864
I0303 09:05:34.534155  6606 layer_factory.hpp:77] Creating layer loss
I0303 09:05:34.534170  6606 net.cpp:86] Creating Layer loss
I0303 09:05:34.534178  6606 net.cpp:408] loss <- fc8
I0303 09:05:34.534188  6606 net.cpp:408] loss <- label
I0303 09:05:34.534204  6606 net.cpp:382] loss -> loss
I0303 09:05:34.534229  6606 layer_factory.hpp:77] Creating layer loss
…
I0303 09:05:34.536218  6606 net.cpp:296] The NetState phase (1) differed from the phase (0) specified by a rule in layer data
I0303 09:05:34.536459  6606 net.cpp:53] Initializing net from parameters: 
name: "CaffeNet"
state {
  phase: TEST
}
layer {
  name: "data"
  type: "Data"
  top: "data"
  top: "label"
  include {
    phase: TEST
  }
  transform_param {
    mirror: false
    crop_size: 227
    mean_file: "data/ilsvrc12/imagenet_mean.binaryproto"
  }
  data_param {
    source: "examples/imagenet/ilsvrc12_val_lmdb"
    batch_size: 50
    backend: LMDB
  }
}
layer {
  name: "conv1"
  type: "Convolution"
  bottom: "data"
  top: "conv1"
  param {
    lr_mult: 1
    decay_mult: 1
  }
  param {
    lr_mult: 2
    decay_mult: 0
  }
  convolution_param {
    num_output: 96
    kernel_size: 11
    stride: 4
    weight_filler {
      type: "gaussian"
      std: 0.01
    }
    bias_filler {
      type: "constant"
      value: 0
    }
  }
}
layer {
  name: "relu1"
  type: "ReLU"
  bottom: "conv1"
  top: "conv1"
}
layer {
  name: "pool1"
  type: "Pooling"
  bottom: "conv1"
  top: "pool1"
  pooling_param {
    pool: MAX
    kernel_size: 3
    stride: 2
  }
}
layer {
  name: "norm1"
  type: "LRN"
  bottom: "pool1"
  top: "norm1"
  lrn_param {
    local_size: 5
    alpha: 0.0001
    beta: 0.75
  }
}
layer {
  name: "conv2"
  type: "Convolution"
  bottom: "norm1"
  top: "conv2"
  param {
    lr_mult: 1
    decay_mult: 1
  }
  param {
    lr_mult: 2
    decay_mult: 0
  }
  convolution_param {
    num_output: 256
    pad: 2
    kernel_size: 5
    group: 2
    weight_filler {
      type: "gaussian"
      std: 0.01
    }
    bias_filler {
      type: "constant"
      value: 1
    }
  }
}
layer {
  name: "relu2"
  type: "ReLU"
  bottom: "conv2"
  top: "conv2"
}
layer {
  name: "pool2"
  type: "Pooling"
  bottom: "conv2"
  top: "pool2"
  pooling_param {
    pool: MAX
    kernel_size: 3
    stride: 2
  }
}
layer {
  name: "norm2"
  type: "LRN"
  bottom: "pool2"
  top: "norm2"
  lrn_param {
    local_size: 5
    alpha: 0.0001
    beta: 0.75
  }
}
layer {
  name: "conv3"
  type: "Convolution"
  bottom: "norm2"
  top: "conv3"
  param {
    lr_mult: 1
    decay_mult: 1
  }
  param {
    lr_mult: 2
    decay_mult: 0
  }
  convolution_param {
    num_output: 384
    pad: 1
    kernel_size: 3
    weight_filler {
      type: "gaussian"
      std: 0.01
    }
    bias_filler {
      type: "constant"
      value: 0
    }
  }
}
layer {
  name: "relu3"
  type: "ReLU"
  bottom: "conv3"
  top: "conv3"
}
layer {
  name: "conv4"
  type: "Convolution"
  bottom: "conv3"
  top: "conv4"
  param {
    lr_mult: 1
    decay_mult: 1
  }
  param {
    lr_mult: 2
    decay_mult: 0
  }
  convolution_param {
    num_output: 384
    pad: 1
    kernel_size: 3
    group: 2
    weight_filler {
      type: "gaussian"
      std: 0.01
    }
    bias_filler {
      type: "constant"
      value: 1
    }
  }
}
layer {
  name: "relu4"
  type: "ReLU"
  bottom: "conv4"
  top: "conv4"
}
layer {
  name: "conv5"
  type: "Convolution"
  bottom: "conv4"
  top: "conv5"
  param {
    lr_mult: 1
    decay_mult: 1
  }
  param {
    lr_mult: 2
    decay_mult: 0
  }
  convolution_param {
    num_output: 256
    pad: 1
    kernel_size: 3
    group: 2
    weight_filler {
      type: "gaussian"
      std: 0.01
    }
    bias_filler {
      type: "constant"
      value: 1
    }
  }
}
layer {
  name: "relu5"
  type: "ReLU"
  bottom: "conv5"
  top: "conv5"
}
layer {
  name: "pool5"
  type: "Pooling"
  bottom: "conv5"
  top: "pool5"
  pooling_param {
    pool: MAX
    kernel_size: 3
    stride: 2
  }
}
layer {
  name: "fc6"
  type: "InnerProduct"
  bottom: "pool5"
  top: "fc6"
  param {
    lr_mult: 1
    decay_mult: 1
  }
  param {
    lr_mult: 2
    decay_mult: 0
  }
  inner_product_param {
    num_output: 4096
    weight_filler {
      type: "gaussian"
      std: 0.005
    }
    bias_filler {
      type: "constant"
      value: 1
    }
  }
}
layer {
  name: "relu6"
  type: "ReLU"
  bottom: "fc6"
  top: "fc6"
}
layer {
  name: "drop6"
  type: "Dropout"
  bottom: "fc6"
  top: "fc6"
  dropout_param {
    dropout_ratio: 0.5
  }
}
layer {
  name: "fc7"
  type: "InnerProduct"
  bottom: "fc6"
  top: "fc7"
  param {
    lr_mult: 1
    decay_mult: 1
  }
  param {
    lr_mult: 2
    decay_mult: 0
  }
  inner_product_param {
    num_output: 4096
    weight_filler {
      type: "gaussian"
      std: 0.005
    }
    bias_filler {
      type: "constant"
      value: 1
    }
  }
}
layer {
  name: "relu7"
  type: "ReLU"
  bottom: "fc7"
  top: "fc7"
}
layer {
  name: "drop7"
  type: "Dropout"
  bottom: "fc7"
  top: "fc7"
  dropout_param {
    dropout_ratio: 0.5
  }
}
layer {
  name: "fc8"
  type: "InnerProduct"
  bottom: "fc7"
  top: "fc8"
  param {
    lr_mult: 1
    decay_mult: 1
  }
  param {
    lr_mult: 2
    decay_mult: 0
  }
  inner_product_param {
    num_output: 1000
    weight_filler {
      type: "gaussian"
      std: 0.01
    }
    bias_filler {
      type: "constant"
      value: 0
    }
  }
}
layer {
  name: "accuracy"
  type: "Accuracy"
  bottom: "fc8"
  bottom: "label"
  top: "accuracy"
  include {
    phase: TEST
  }
}
layer {
  name: "loss"
  type: "SoftmaxWithLoss"
  bottom: "fc8"
  bottom: "label"
  top: "loss"
}
I0303 09:05:34.536623  6606 layer_factory.hpp:77] Creating layer data
I0303 09:05:34.536705  6606 db_lmdb.cpp:35] Opened lmdb examples/imagenet/ilsvrc12_val_lmdb
I0303 09:05:34.536734  6606 net.cpp:86] Creating Layer data
I0303 09:05:34.536747  6606 net.cpp:382] data -> data
I0303 09:05:34.536762  6606 net.cpp:382] data -> label
I0303 09:05:34.536774  6606 data_transformer.cpp:25] Loading mean file from: data/ilsvrc12/imagenet_mean.binaryproto
I0303 09:05:34.539202  6606 data_layer.cpp:45] output data size: 50,3,227,227
I0303 09:05:34.620908  6606 net.cpp:124] Setting up data
I0303 09:05:34.620957  6606 net.cpp:131] Top shape: 50 3 227 227 (7729350)
I0303 09:05:34.620966  6606 net.cpp:131] Top shape: 50 (50)
I0303 09:05:34.620971  6606 net.cpp:139] Memory required for data: 30917600
I0303 09:05:34.620981  6606 layer_factory.hpp:77] Creating layer label_data_1_split
I0303 09:05:34.620998  6606 net.cpp:86] Creating Layer label_data_1_split
I0303 09:05:34.621006  6606 net.cpp:408] label_data_1_split <- label
I0303 09:05:34.621017  6606 net.cpp:382] label_data_1_split -> label_data_1_split_0
I0303 09:05:34.621034  6606 net.cpp:382] label_data_1_split -> label_data_1_split_1
I0303 09:05:34.621157  6606 net.cpp:124] Setting up label_data_1_split
I0303 09:05:34.621171  6606 net.cpp:131] Top shape: 50 (50)
I0303 09:05:34.621178  6606 net.cpp:131] Top shape: 50 (50)
I0303 09:05:34.621183  6606 net.cpp:139] Memory required for data: 30918000
I0303 09:05:34.621189  6606 layer_factory.hpp:77] Creating layer conv1
I0303 09:05:34.621208  6606 net.cpp:86] Creating Layer conv1
I0303 09:05:34.621214  6606 net.cpp:408] conv1 <- data
I0303 09:05:34.621224  6606 net.cpp:382] conv1 -> conv1
I0303 09:05:34.628326  6606 net.cpp:124] Setting up conv1
I0303 09:05:34.628374  6606 net.cpp:131] Top shape: 50 96 55 55 (14520000)
I0303 09:05:34.628381  6606 net.cpp:139] Memory required for data: 88998000
I0303 09:05:34.628402  6606 layer_factory.hpp:77] Creating layer relu1
I0303 09:05:34.628417  6606 net.cpp:86] Creating Layer relu1
I0303 09:05:34.628424  6606 net.cpp:408] relu1 <- conv1
I0303 09:05:34.628434  6606 net.cpp:369] relu1 -> conv1 (in-place)
I0303 09:05:34.628640  6606 net.cpp:124] Setting up relu1
I0303 09:05:34.628655  6606 net.cpp:131] Top shape: 50 96 55 55 (14520000)
I0303 09:05:34.628660  6606 net.cpp:139] Memory required for data: 147078000
I0303 09:05:34.628666  6606 layer_factory.hpp:77] Creating layer pool1
I0303 09:05:34.628680  6606 net.cpp:86] Creating Layer pool1
I0303 09:05:34.628686  6606 net.cpp:408] pool1 <- conv1
I0303 09:05:34.628695  6606 net.cpp:382] pool1 -> pool1
I0303 09:05:34.628754  6606 net.cpp:124] Setting up pool1
I0303 09:05:34.628765  6606 net.cpp:131] Top shape: 50 96 27 27 (3499200)
I0303 09:05:34.628772  6606 net.cpp:139] Memory required for data: 161074800
I0303 09:05:34.628777  6606 layer_factory.hpp:77] Creating layer norm1
I0303 09:05:34.628788  6606 net.cpp:86] Creating Layer norm1
I0303 09:05:34.628794  6606 net.cpp:408] norm1 <- pool1
I0303 09:05:34.628803  6606 net.cpp:382] norm1 -> norm1
I0303 09:05:34.629225  6606 net.cpp:124] Setting up norm1
I0303 09:05:34.629241  6606 net.cpp:131] Top shape: 50 96 27 27 (3499200)
I0303 09:05:34.629247  6606 net.cpp:139] Memory required for data: 175071600
I0303 09:05:34.629253  6606 layer_factory.hpp:77] Creating layer conv2
I0303 09:05:34.629271  6606 net.cpp:86] Creating Layer conv2
I0303 09:05:34.629276  6606 net.cpp:408] conv2 <- norm1
I0303 09:05:34.629287  6606 net.cpp:382] conv2 -> conv2
I0303 09:05:34.636821  6606 net.cpp:124] Setting up conv2
I0303 09:05:34.636869  6606 net.cpp:131] Top shape: 50 256 27 27 (9331200)
I0303 09:05:34.636876  6606 net.cpp:139] Memory required for data: 212396400
I0303 09:05:34.636898  6606 layer_factory.hpp:77] Creating layer relu2
I0303 09:05:34.636914  6606 net.cpp:86] Creating Layer relu2
I0303 09:05:34.636920  6606 net.cpp:408] relu2 <- conv2
I0303 09:05:34.636931  6606 net.cpp:369] relu2 -> conv2 (in-place)
I0303 09:05:34.637147  6606 net.cpp:124] Setting up relu2
I0303 09:05:34.637172  6606 net.cpp:131] Top shape: 50 256 27 27 (9331200)
I0303 09:05:34.637190  6606 net.cpp:139] Memory required for data: 249721200
I0303 09:05:34.637197  6606 layer_factory.hpp:77] Creating layer pool2
I0303 09:05:34.637212  6606 net.cpp:86] Creating Layer pool2
I0303 09:05:34.637217  6606 net.cpp:408] pool2 <- conv2
I0303 09:05:34.637226  6606 net.cpp:382] pool2 -> pool2
I0303 09:05:34.637289  6606 net.cpp:124] Setting up pool2
I0303 09:05:34.637300  6606 net.cpp:131] Top shape: 50 256 13 13 (2163200)
I0303 09:05:34.637306  6606 net.cpp:139] Memory required for data: 258374000
I0303 09:05:34.637311  6606 layer_factory.hpp:77] Creating layer norm2
I0303 09:05:34.637322  6606 net.cpp:86] Creating Layer norm2
I0303 09:05:34.637328  6606 net.cpp:408] norm2 <- pool2
I0303 09:05:34.637337  6606 net.cpp:382] norm2 -> norm2
I0303 09:05:34.637779  6606 net.cpp:124] Setting up norm2
I0303 09:05:34.637796  6606 net.cpp:131] Top shape: 50 256 13 13 (2163200)
I0303 09:05:34.637801  6606 net.cpp:139] Memory required for data: 267026800
I0303 09:05:34.637809  6606 layer_factory.hpp:77] Creating layer conv3
I0303 09:05:34.637826  6606 net.cpp:86] Creating Layer conv3
I0303 09:05:34.637832  6606 net.cpp:408] conv3 <- norm2
I0303 09:05:34.637843  6606 net.cpp:382] conv3 -> conv3
I0303 09:05:34.653350  6606 net.cpp:124] Setting up conv3
I0303 09:05:34.653404  6606 net.cpp:131] Top shape: 50 384 13 13 (3244800)
I0303 09:05:34.653411  6606 net.cpp:139] Memory required for data: 280006000
I0303 09:05:34.653434  6606 layer_factory.hpp:77] Creating layer relu3
I0303 09:05:34.653447  6606 net.cpp:86] Creating Layer relu3
I0303 09:05:34.653455  6606 net.cpp:408] relu3 <- conv3
I0303 09:05:34.653467  6606 net.cpp:369] relu3 -> conv3 (in-place)
I0303 09:05:34.653872  6606 net.cpp:124] Setting up relu3
I0303 09:05:34.653887  6606 net.cpp:131] Top shape: 50 384 13 13 (3244800)
I0303 09:05:34.653893  6606 net.cpp:139] Memory required for data: 292985200
I0303 09:05:34.653899  6606 layer_factory.hpp:77] Creating layer conv4
I0303 09:05:34.653918  6606 net.cpp:86] Creating Layer conv4
I0303 09:05:34.653923  6606 net.cpp:408] conv4 <- conv3
I0303 09:05:34.653934  6606 net.cpp:382] conv4 -> conv4
I0303 09:05:34.677631  6606 net.cpp:124] Setting up conv4
I0303 09:05:34.677686  6606 net.cpp:131] Top shape: 50 384 13 13 (3244800)
I0303 09:05:34.677692  6606 net.cpp:139] Memory required for data: 305964400
I0303 09:05:34.677709  6606 layer_factory.hpp:77] Creating layer relu4
I0303 09:05:34.677724  6606 net.cpp:86] Creating Layer relu4
I0303 09:05:34.677732  6606 net.cpp:408] relu4 <- conv4
I0303 09:05:34.677744  6606 net.cpp:369] relu4 -> conv4 (in-place)
I0303 09:05:34.677970  6606 net.cpp:124] Setting up relu4
I0303 09:05:34.677985  6606 net.cpp:131] Top shape: 50 384 13 13 (3244800)
I0303 09:05:34.677990  6606 net.cpp:139] Memory required for data: 318943600
I0303 09:05:34.677996  6606 layer_factory.hpp:77] Creating layer conv5
I0303 09:05:34.678014  6606 net.cpp:86] Creating Layer conv5
I0303 09:05:34.678021  6606 net.cpp:408] conv5 <- conv4
I0303 09:05:34.678031  6606 net.cpp:382] conv5 -> conv5
I0303 09:05:34.687902  6606 net.cpp:124] Setting up conv5
I0303 09:05:34.687952  6606 net.cpp:131] Top shape: 50 256 13 13 (2163200)
I0303 09:05:34.687959  6606 net.cpp:139] Memory required for data: 327596400
I0303 09:05:34.687983  6606 layer_factory.hpp:77] Creating layer relu5
I0303 09:05:34.687999  6606 net.cpp:86] Creating Layer relu5
I0303 09:05:34.688006  6606 net.cpp:408] relu5 <- conv5
I0303 09:05:34.688019  6606 net.cpp:369] relu5 -> conv5 (in-place)
I0303 09:05:34.688235  6606 net.cpp:124] Setting up relu5
I0303 09:05:34.688249  6606 net.cpp:131] Top shape: 50 256 13 13 (2163200)
I0303 09:05:34.688254  6606 net.cpp:139] Memory required for data: 336249200
I0303 09:05:34.688261  6606 layer_factory.hpp:77] Creating layer pool5
I0303 09:05:34.688275  6606 net.cpp:86] Creating Layer pool5
I0303 09:05:34.688282  6606 net.cpp:408] pool5 <- conv5
I0303 09:05:34.688290  6606 net.cpp:382] pool5 -> pool5
I0303 09:05:34.688369  6606 net.cpp:124] Setting up pool5
I0303 09:05:34.688395  6606 net.cpp:131] Top shape: 50 256 6 6 (460800)
I0303 09:05:34.688401  6606 net.cpp:139] Memory required for data: 338092400
I0303 09:05:34.688407  6606 layer_factory.hpp:77] Creating layer fc6
I0303 09:05:34.688421  6606 net.cpp:86] Creating Layer fc6
I0303 09:05:34.688426  6606 net.cpp:408] fc6 <- pool5
I0303 09:05:34.688436  6606 net.cpp:382] fc6 -> fc6
I0303 09:05:35.278321  6606 net.cpp:124] Setting up fc6
I0303 09:05:35.278374  6606 net.cpp:131] Top shape: 50 4096 (204800)
I0303 09:05:35.278380  6606 net.cpp:139] Memory required for data: 338911600
I0303 09:05:35.278396  6606 layer_factory.hpp:77] Creating layer relu6
I0303 09:05:35.278419  6606 net.cpp:86] Creating Layer relu6
I0303 09:05:35.278427  6606 net.cpp:408] relu6 <- fc6
I0303 09:05:35.278439  6606 net.cpp:369] relu6 -> fc6 (in-place)
I0303 09:05:35.279000  6606 net.cpp:124] Setting up relu6
I0303 09:05:35.279016  6606 net.cpp:131] Top shape: 50 4096 (204800)
I0303 09:05:35.279022  6606 net.cpp:139] Memory required for data: 339730800
I0303 09:05:35.279028  6606 layer_factory.hpp:77] Creating layer drop6
I0303 09:05:35.279039  6606 net.cpp:86] Creating Layer drop6
I0303 09:05:35.279047  6606 net.cpp:408] drop6 <- fc6
I0303 09:05:35.279054  6606 net.cpp:369] drop6 -> fc6 (in-place)
I0303 09:05:35.279098  6606 net.cpp:124] Setting up drop6
I0303 09:05:35.279108  6606 net.cpp:131] Top shape: 50 4096 (204800)
I0303 09:05:35.279114  6606 net.cpp:139] Memory required for data: 340550000
I0303 09:05:35.279119  6606 layer_factory.hpp:77] Creating layer fc7
I0303 09:05:35.279130  6606 net.cpp:86] Creating Layer fc7
I0303 09:05:35.279136  6606 net.cpp:408] fc7 <- fc6
I0303 09:05:35.279145  6606 net.cpp:382] fc7 -> fc7
I0303 09:05:35.540921  6606 net.cpp:124] Setting up fc7
I0303 09:05:35.540972  6606 net.cpp:131] Top shape: 50 4096 (204800)
I0303 09:05:35.540978  6606 net.cpp:139] Memory required for data: 341369200
I0303 09:05:35.540993  6606 layer_factory.hpp:77] Creating layer relu7
I0303 09:05:35.541007  6606 net.cpp:86] Creating Layer relu7
I0303 09:05:35.541015  6606 net.cpp:408] relu7 <- fc7
I0303 09:05:35.541026  6606 net.cpp:369] relu7 -> fc7 (in-place)
I0303 09:05:35.541316  6606 net.cpp:124] Setting up relu7
I0303 09:05:35.541329  6606 net.cpp:131] Top shape: 50 4096 (204800)
I0303 09:05:35.541334  6606 net.cpp:139] Memory required for data: 342188400
I0303 09:05:35.541340  6606 layer_factory.hpp:77] Creating layer drop7
I0303 09:05:35.541352  6606 net.cpp:86] Creating Layer drop7
I0303 09:05:35.541357  6606 net.cpp:408] drop7 <- fc7
I0303 09:05:35.541365  6606 net.cpp:369] drop7 -> fc7 (in-place)
I0303 09:05:35.541409  6606 net.cpp:124] Setting up drop7
I0303 09:05:35.541419  6606 net.cpp:131] Top shape: 50 4096 (204800)
I0303 09:05:35.541424  6606 net.cpp:139] Memory required for data: 343007600
I0303 09:05:35.541429  6606 layer_factory.hpp:77] Creating layer fc8
I0303 09:05:35.541441  6606 net.cpp:86] Creating Layer fc8
I0303 09:05:35.541447  6606 net.cpp:408] fc8 <- fc7
I0303 09:05:35.541456  6606 net.cpp:382] fc8 -> fc8
I0303 09:05:35.760895  6606 net.cpp:124] Setting up fc8
I0303 09:05:35.760951  6606 net.cpp:131] Top shape: 50 1000 (50000)
I0303 09:05:35.760957  6606 net.cpp:139] Memory required for data: 343207600
I0303 09:05:35.760973  6606 layer_factory.hpp:77] Creating layer fc8_fc8_0_split
I0303 09:05:35.760987  6606 net.cpp:86] Creating Layer fc8_fc8_0_split
I0303 09:05:35.760995  6606 net.cpp:408] fc8_fc8_0_split <- fc8
I0303 09:05:35.761008  6606 net.cpp:382] fc8_fc8_0_split -> fc8_fc8_0_split_0
I0303 09:05:35.761024  6606 net.cpp:382] fc8_fc8_0_split -> fc8_fc8_0_split_1
I0303 09:05:35.761082  6606 net.cpp:124] Setting up fc8_fc8_0_split
I0303 09:05:35.761093  6606 net.cpp:131] Top shape: 50 1000 (50000)
I0303 09:05:35.761099  6606 net.cpp:131] Top shape: 50 1000 (50000)
I0303 09:05:35.761104  6606 net.cpp:139] Memory required for data: 343607600
I0303 09:05:35.761111  6606 layer_factory.hpp:77] Creating layer accuracy
I0303 09:05:35.761121  6606 net.cpp:86] Creating Layer accuracy
I0303 09:05:35.761142  6606 net.cpp:408] accuracy <- fc8_fc8_0_split_0
I0303 09:05:35.761164  6606 net.cpp:408] accuracy <- label_data_1_split_0
I0303 09:05:35.761174  6606 net.cpp:382] accuracy -> accuracy
…
