…
I0320 17:34:17.098058 31213 net.cpp:296] The NetState phase (0) differed from the phase (1) specified by a rule in layer accuracy
I0320 17:34:17.098290 31213 net.cpp:53] Initializing net from parameters: 
name: "CaffeNet"
state {
  phase: TRAIN
  level: 0
  stage: ""
}
layer {
  name: "data"
  type: "Data"
  top: "data"
  top: "label"
  include {
    phase: TRAIN
  }
  transform_param {
    mirror: true
    crop_size: 227
    mean_file: "data/ilsvrc12/imagenet_mean.binaryproto"
  }
  data_param {
    source: "examples/imagenet/ilsvrc12_train_lmdb"
    batch_size: 256
    backend: LMDB
  }
}
layer {
  name: "conv1"
  type: "Convolution"
  bottom: "data"
  top: "conv1"
  param {
    lr_mult: 1
    decay_mult: 1
  }
  param {
    lr_mult: 2
    decay_mult: 0
  }
  convolution_param {
    num_output: 96
    kernel_size: 11
    stride: 4
    weight_filler {
      type: "gaussian"
      std: 0.01
    }
    bias_filler {
      type: "constant"
      value: 0
    }
  }
}
layer {
  name: "relu1"
  type: "ReLU"
  bottom: "conv1"
  top: "conv1"
}
layer {
  name: "pool1"
  type: "Pooling"
  bottom: "conv1"
  top: "pool1"
  pooling_param {
    pool: MAX
    kernel_size: 3
    stride: 2
  }
}
layer {
  name: "norm1"
  type: "LRN"
  bottom: "pool1"
  top: "norm1"
  lrn_param {
    local_size: 5
    alpha: 0.0001
    beta: 0.75
  }
}
layer {
  name: "conv2"
  type: "Convolution"
  bottom: "norm1"
  top: "conv2"
  param {
    lr_mult: 1
    decay_mult: 1
  }
  param {
    lr_mult: 2
    decay_mult: 0
  }
  convolution_param {
    num_output: 256
    pad: 2
    kernel_size: 5
    group: 2
    weight_filler {
      type: "gaussian"
      std: 0.01
    }
    bias_filler {
      type: "constant"
      value: 1
    }
  }
}
layer {
  name: "relu2"
  type: "ReLU"
  bottom: "conv2"
  top: "conv2"
}
layer {
  name: "pool2"
  type: "Pooling"
  bottom: "conv2"
  top: "pool2"
  pooling_param {
    pool: MAX
    kernel_size: 3
    stride: 2
  }
}
layer {
  name: "norm2"
  type: "LRN"
  bottom: "pool2"
  top: "norm2"
  lrn_param {
    local_size: 5
    alpha: 0.0001
    beta: 0.75
  }
}
layer {
  name: "conv3"
  type: "Convolution"
  bottom: "norm2"
  top: "conv3"
  param {
    lr_mult: 1
    decay_mult: 1
  }
  param {
    lr_mult: 2
    decay_mult: 0
  }
  convolution_param {
    num_output: 384
    pad: 1
    kernel_size: 3
    weight_filler {
      type: "gaussian"
      std: 0.01
    }
    bias_filler {
      type: "constant"
      value: 0
    }
  }
}
layer {
  name: "relu3"
  type: "ReLU"
  bottom: "conv3"
  top: "conv3"
}
layer {
  name: "conv4"
  type: "Convolution"
  bottom: "conv3"
  top: "conv4"
  param {
    lr_mult: 1
    decay_mult: 1
  }
  param {
    lr_mult: 2
    decay_mult: 0
  }
  convolution_param {
    num_output: 384
    pad: 1
    kernel_size: 3
    group: 2
    weight_filler {
      type: "gaussian"
      std: 0.01
    }
    bias_filler {
      type: "constant"
      value: 1
    }
  }
}
layer {
  name: "relu4"
  type: "ReLU"
  bottom: "conv4"
  top: "conv4"
}
layer {
  name: "conv5"
  type: "Convolution"
  bottom: "conv4"
  top: "conv5"
  param {
    lr_mult: 1
    decay_mult: 1
  }
  param {
    lr_mult: 2
    decay_mult: 0
  }
  convolution_param {
    num_output: 256
    pad: 1
    kernel_size: 3
    group: 2
    weight_filler {
      type: "gaussian"
      std: 0.01
    }
    bias_filler {
      type: "constant"
      value: 1
    }
  }
}
layer {
  name: "relu5"
  type: "ReLU"
  bottom: "conv5"
  top: "conv5"
}
layer {
  name: "pool5"
  type: "Pooling"
  bottom: "conv5"
  top: "pool5"
  pooling_param {
    pool: MAX
    kernel_size: 3
    stride: 2
  }
}
layer {
  name: "fc6"
  type: "InnerProduct"
  bottom: "pool5"
  top: "fc6"
  param {
    lr_mult: 1
    decay_mult: 1
  }
  param {
    lr_mult: 2
    decay_mult: 0
  }
  inner_product_param {
    num_output: 4096
    weight_filler {
      type: "gaussian"
      std: 0.005
    }
    bias_filler {
      type: "constant"
      value: 1
    }
  }
}
layer {
  name: "relu6"
  type: "ReLU"
  bottom: "fc6"
  top: "fc6"
}
layer {
  name: "drop6"
  type: "Dropout"
  bottom: "fc6"
  top: "fc6"
  dropout_param {
    dropout_ratio: 0.5
  }
}
layer {
  name: "fc7"
  type: "InnerProduct"
  bottom: "fc6"
  top: "fc7"
  param {
    lr_mult: 1
    decay_mult: 1
  }
  param {
    lr_mult: 2
    decay_mult: 0
  }
  inner_product_param {
    num_output: 4096
    weight_filler {
      type: "gaussian"
      std: 0.005
    }
    bias_filler {
      type: "constant"
      value: 1
    }
  }
}
layer {
  name: "relu7"
  type: "ReLU"
  bottom: "fc7"
  top: "fc7"
}
layer {
  name: "drop7"
  type: "Dropout"
  bottom: "fc7"
  top: "fc7"
  dropout_param {
    dropout_ratio: 0.5
  }
}
layer {
  name: "fc8"
  type: "InnerProduct"
  bottom: "fc7"
  top: "fc8"
  param {
    lr_mult: 1
    decay_mult: 1
  }
  param {
    lr_mult: 2
    decay_mult: 0
  }
  inner_product_param {
    num_output: 1000
    weight_filler {
      type: "gaussian"
      std: 0.01
    }
    bias_filler {
      type: "constant"
      value: 0
    }
  }
}
layer {
  name: "loss"
  type: "SoftmaxWithLoss"
  bottom: "fc8"
  bottom: "label"
  top: "loss"
}
I0320 17:34:17.098431 31213 layer_factory.hpp:77] Creating layer data
I0320 17:34:17.098565 31213 db_lmdb.cpp:35] Opened lmdb examples/imagenet/ilsvrc12_train_lmdb
I0320 17:34:17.149099 31213 net.cpp:86] Creating Layer data
I0320 17:34:17.149129 31213 net.cpp:382] data -> data
I0320 17:34:17.149166 31213 net.cpp:382] data -> label
I0320 17:34:17.149188 31213 data_transformer.cpp:25] Loading mean file from: data/ilsvrc12/imagenet_mean.binaryproto
I0320 17:34:17.152397 31213 data_layer.cpp:45] output data size: 256,3,227,227
I0320 17:34:17.653535 31213 net.cpp:124] Setting up data
I0320 17:34:17.653587 31213 net.cpp:131] Top shape: 256 3 227 227 (39574272)
I0320 17:34:17.653596 31213 net.cpp:131] Top shape: 256 (256)
I0320 17:34:17.653601 31213 net.cpp:139] Memory required for data: 158298112
I0320 17:34:17.653616 31213 layer_factory.hpp:77] Creating layer conv1
I0320 17:34:17.653647 31213 net.cpp:86] Creating Layer conv1
I0320 17:34:17.653657 31213 net.cpp:408] conv1 <- data
I0320 17:34:17.653676 31213 net.cpp:382] conv1 -> conv1
I0320 17:34:19.188491 31213 net.cpp:124] Setting up conv1
I0320 17:34:19.188561 31213 net.cpp:131] Top shape: 256 96 55 55 (74342400)
I0320 17:34:19.188573 31213 net.cpp:139] Memory required for data: 455667712
I0320 17:34:19.188621 31213 layer_factory.hpp:77] Creating layer relu1
I0320 17:34:19.188652 31213 net.cpp:86] Creating Layer relu1
I0320 17:34:19.188664 31213 net.cpp:408] relu1 <- conv1
I0320 17:34:19.188681 31213 net.cpp:369] relu1 -> conv1 (in-place)
I0320 17:34:19.189288 31213 net.cpp:124] Setting up relu1
I0320 17:34:19.189319 31213 net.cpp:131] Top shape: 256 96 55 55 (74342400)
I0320 17:34:19.189329 31213 net.cpp:139] Memory required for data: 753037312
I0320 17:34:19.189340 31213 layer_factory.hpp:77] Creating layer pool1
I0320 17:34:19.189358 31213 net.cpp:86] Creating Layer pool1
I0320 17:34:19.189369 31213 net.cpp:408] pool1 <- conv1
I0320 17:34:19.189384 31213 net.cpp:382] pool1 -> pool1
I0320 17:34:19.189420 31213 net.cpp:124] Setting up pool1
I0320 17:34:19.189436 31213 net.cpp:131] Top shape: 256 96 27 27 (17915904)
I0320 17:34:19.189445 31213 net.cpp:139] Memory required for data: 824700928
I0320 17:34:19.189455 31213 layer_factory.hpp:77] Creating layer norm1
I0320 17:34:19.189486 31213 net.cpp:86] Creating Layer norm1
I0320 17:34:19.189499 31213 net.cpp:408] norm1 <- pool1
I0320 17:34:19.189515 31213 net.cpp:382] norm1 -> norm1
I0320 17:34:19.189904 31213 net.cpp:124] Setting up norm1
I0320 17:34:19.189951 31213 net.cpp:131] Top shape: 256 96 27 27 (17915904)
I0320 17:34:19.189961 31213 net.cpp:139] Memory required for data: 896364544
I0320 17:34:19.189972 31213 layer_factory.hpp:77] Creating layer conv2
I0320 17:34:19.190001 31213 net.cpp:86] Creating Layer conv2
I0320 17:34:19.190013 31213 net.cpp:408] conv2 <- norm1
I0320 17:34:19.190031 31213 net.cpp:382] conv2 -> conv2
I0320 17:34:19.201004 31213 net.cpp:124] Setting up conv2
I0320 17:34:19.201035 31213 net.cpp:131] Top shape: 256 256 27 27 (47775744)
I0320 17:34:19.201045 31213 net.cpp:139] Memory required for data: 1087467520
I0320 17:34:19.201067 31213 layer_factory.hpp:77] Creating layer relu2
I0320 17:34:19.201083 31213 net.cpp:86] Creating Layer relu2
I0320 17:34:19.201093 31213 net.cpp:408] relu2 <- conv2
I0320 17:34:19.201110 31213 net.cpp:369] relu2 -> conv2 (in-place)
I0320 17:34:19.201450 31213 net.cpp:124] Setting up relu2
I0320 17:34:19.201473 31213 net.cpp:131] Top shape: 256 256 27 27 (47775744)
I0320 17:34:19.201483 31213 net.cpp:139] Memory required for data: 1278570496
I0320 17:34:19.201491 31213 layer_factory.hpp:77] Creating layer pool2
I0320 17:34:19.201508 31213 net.cpp:86] Creating Layer pool2
I0320 17:34:19.201519 31213 net.cpp:408] pool2 <- conv2
I0320 17:34:19.201534 31213 net.cpp:382] pool2 -> pool2
I0320 17:34:19.201555 31213 net.cpp:124] Setting up pool2
I0320 17:34:19.201571 31213 net.cpp:131] Top shape: 256 256 13 13 (11075584)
I0320 17:34:19.201581 31213 net.cpp:139] Memory required for data: 1322872832
I0320 17:34:19.201589 31213 layer_factory.hpp:77] Creating layer norm2
I0320 17:34:19.201606 31213 net.cpp:86] Creating Layer norm2
I0320 17:34:19.201617 31213 net.cpp:408] norm2 <- pool2
I0320 17:34:19.201632 31213 net.cpp:382] norm2 -> norm2
I0320 17:34:19.202179 31213 net.cpp:124] Setting up norm2
I0320 17:34:19.202204 31213 net.cpp:131] Top shape: 256 256 13 13 (11075584)
I0320 17:34:19.202214 31213 net.cpp:139] Memory required for data: 1367175168
I0320 17:34:19.202224 31213 layer_factory.hpp:77] Creating layer conv3
I0320 17:34:19.202247 31213 net.cpp:86] Creating Layer conv3
I0320 17:34:19.202258 31213 net.cpp:408] conv3 <- norm2
I0320 17:34:19.202276 31213 net.cpp:382] conv3 -> conv3
I0320 17:34:19.228166 31213 net.cpp:124] Setting up conv3
I0320 17:34:19.228222 31213 net.cpp:131] Top shape: 256 384 13 13 (16613376)
I0320 17:34:19.228232 31213 net.cpp:139] Memory required for data: 1433628672
I0320 17:34:19.228281 31213 layer_factory.hpp:77] Creating layer relu3
I0320 17:34:19.228302 31213 net.cpp:86] Creating Layer relu3
I0320 17:34:19.228313 31213 net.cpp:408] relu3 <- conv3
I0320 17:34:19.228332 31213 net.cpp:369] relu3 -> conv3 (in-place)
I0320 17:34:19.228657 31213 net.cpp:124] Setting up relu3
I0320 17:34:19.228677 31213 net.cpp:131] Top shape: 256 384 13 13 (16613376)
I0320 17:34:19.228685 31213 net.cpp:139] Memory required for data: 1500082176
I0320 17:34:19.228693 31213 layer_factory.hpp:77] Creating layer conv4
I0320 17:34:19.228718 31213 net.cpp:86] Creating Layer conv4
I0320 17:34:19.228726 31213 net.cpp:408] conv4 <- conv3
I0320 17:34:19.228744 31213 net.cpp:382] conv4 -> conv4
I0320 17:34:19.245273 31213 net.cpp:124] Setting up conv4
I0320 17:34:19.245321 31213 net.cpp:131] Top shape: 256 384 13 13 (16613376)
I0320 17:34:19.245328 31213 net.cpp:139] Memory required for data: 1566535680
I0320 17:34:19.245344 31213 layer_factory.hpp:77] Creating layer relu4
I0320 17:34:19.245362 31213 net.cpp:86] Creating Layer relu4
I0320 17:34:19.245370 31213 net.cpp:408] relu4 <- conv4
I0320 17:34:19.245383 31213 net.cpp:369] relu4 -> conv4 (in-place)
I0320 17:34:19.245692 31213 net.cpp:124] Setting up relu4
I0320 17:34:19.245710 31213 net.cpp:131] Top shape: 256 384 13 13 (16613376)
I0320 17:34:19.245718 31213 net.cpp:139] Memory required for data: 1632989184
I0320 17:34:19.245726 31213 layer_factory.hpp:77] Creating layer conv5
I0320 17:34:19.245754 31213 net.cpp:86] Creating Layer conv5
I0320 17:34:19.245764 31213 net.cpp:408] conv5 <- conv4
I0320 17:34:19.245787 31213 net.cpp:382] conv5 -> conv5
I0320 17:34:19.257148 31213 net.cpp:124] Setting up conv5
I0320 17:34:19.257190 31213 net.cpp:131] Top shape: 256 256 13 13 (11075584)
I0320 17:34:19.257197 31213 net.cpp:139] Memory required for data: 1677291520
I0320 17:34:19.257221 31213 layer_factory.hpp:77] Creating layer relu5
I0320 17:34:19.257236 31213 net.cpp:86] Creating Layer relu5
I0320 17:34:19.257244 31213 net.cpp:408] relu5 <- conv5
I0320 17:34:19.257256 31213 net.cpp:369] relu5 -> conv5 (in-place)
I0320 17:34:19.257532 31213 net.cpp:124] Setting up relu5
I0320 17:34:19.257552 31213 net.cpp:131] Top shape: 256 256 13 13 (11075584)
I0320 17:34:19.257560 31213 net.cpp:139] Memory required for data: 1721593856
I0320 17:34:19.257567 31213 layer_factory.hpp:77] Creating layer pool5
I0320 17:34:19.257580 31213 net.cpp:86] Creating Layer pool5
I0320 17:34:19.257588 31213 net.cpp:408] pool5 <- conv5
I0320 17:34:19.257599 31213 net.cpp:382] pool5 -> pool5
I0320 17:34:19.257618 31213 net.cpp:124] Setting up pool5
I0320 17:34:19.257629 31213 net.cpp:131] Top shape: 256 256 6 6 (2359296)
I0320 17:34:19.257635 31213 net.cpp:139] Memory required for data: 1731031040
I0320 17:34:19.257643 31213 layer_factory.hpp:77] Creating layer fc6
I0320 17:34:19.257664 31213 net.cpp:86] Creating Layer fc6
I0320 17:34:19.257673 31213 net.cpp:408] fc6 <- pool5
I0320 17:34:19.257684 31213 net.cpp:382] fc6 -> fc6
I0320 17:34:20.082489 31213 net.cpp:124] Setting up fc6
I0320 17:34:20.082540 31213 net.cpp:131] Top shape: 256 4096 (1048576)
I0320 17:34:20.082545 31213 net.cpp:139] Memory required for data: 1735225344
I0320 17:34:20.082561 31213 layer_factory.hpp:77] Creating layer relu6
I0320 17:34:20.082578 31213 net.cpp:86] Creating Layer relu6
I0320 17:34:20.082587 31213 net.cpp:408] relu6 <- fc6
I0320 17:34:20.082597 31213 net.cpp:369] relu6 -> fc6 (in-place)
I0320 17:34:20.083179 31213 net.cpp:124] Setting up relu6
I0320 17:34:20.083195 31213 net.cpp:131] Top shape: 256 4096 (1048576)
I0320 17:34:20.083201 31213 net.cpp:139] Memory required for data: 1739419648
I0320 17:34:20.083207 31213 layer_factory.hpp:77] Creating layer drop6
I0320 17:34:20.083219 31213 net.cpp:86] Creating Layer drop6
I0320 17:34:20.083225 31213 net.cpp:408] drop6 <- fc6
I0320 17:34:20.083235 31213 net.cpp:369] drop6 -> fc6 (in-place)
I0320 17:34:20.083253 31213 net.cpp:124] Setting up drop6
I0320 17:34:20.083261 31213 net.cpp:131] Top shape: 256 4096 (1048576)
I0320 17:34:20.083267 31213 net.cpp:139] Memory required for data: 1743613952
I0320 17:34:20.083272 31213 layer_factory.hpp:77] Creating layer fc7
I0320 17:34:20.083286 31213 net.cpp:86] Creating Layer fc7
I0320 17:34:20.083292 31213 net.cpp:408] fc7 <- fc6
I0320 17:34:20.083300 31213 net.cpp:382] fc7 -> fc7
I0320 17:34:20.456840 31213 net.cpp:124] Setting up fc7
I0320 17:34:20.456888 31213 net.cpp:131] Top shape: 256 4096 (1048576)
I0320 17:34:20.456894 31213 net.cpp:139] Memory required for data: 1747808256
I0320 17:34:20.456909 31213 layer_factory.hpp:77] Creating layer relu7
I0320 17:34:20.456926 31213 net.cpp:86] Creating Layer relu7
I0320 17:34:20.456934 31213 net.cpp:408] relu7 <- fc7
I0320 17:34:20.456945 31213 net.cpp:369] relu7 -> fc7 (in-place)
I0320 17:34:20.457265 31213 net.cpp:124] Setting up relu7
I0320 17:34:20.457278 31213 net.cpp:131] Top shape: 256 4096 (1048576)
I0320 17:34:20.457284 31213 net.cpp:139] Memory required for data: 1752002560
I0320 17:34:20.457290 31213 layer_factory.hpp:77] Creating layer drop7
I0320 17:34:20.457303 31213 net.cpp:86] Creating Layer drop7
I0320 17:34:20.457309 31213 net.cpp:408] drop7 <- fc7
I0320 17:34:20.457317 31213 net.cpp:369] drop7 -> fc7 (in-place)
I0320 17:34:20.457329 31213 net.cpp:124] Setting up drop7
I0320 17:34:20.457336 31213 net.cpp:131] Top shape: 256 4096 (1048576)
I0320 17:34:20.457341 31213 net.cpp:139] Memory required for data: 1756196864
I0320 17:34:20.457347 31213 layer_factory.hpp:77] Creating layer fc8
I0320 17:34:20.457360 31213 net.cpp:86] Creating Layer fc8
I0320 17:34:20.457366 31213 net.cpp:408] fc8 <- fc7
I0320 17:34:20.457386 31213 net.cpp:382] fc8 -> fc8
I0320 17:34:20.547130 31213 net.cpp:124] Setting up fc8
I0320 17:34:20.547178 31213 net.cpp:131] Top shape: 256 1000 (256000)
I0320 17:34:20.547184 31213 net.cpp:139] Memory required for data: 1757220864
I0320 17:34:20.547199 31213 layer_factory.hpp:77] Creating layer loss
I0320 17:34:20.547224 31213 net.cpp:86] Creating Layer loss
I0320 17:34:20.547232 31213 net.cpp:408] loss <- fc8
I0320 17:34:20.547242 31213 net.cpp:408] loss <- label
I0320 17:34:20.547255 31213 net.cpp:382] loss -> loss
I0320 17:34:20.547277 31213 layer_factory.hpp:77] Creating layer loss
…
I0320 17:34:20.548926 31213 net.cpp:296] The NetState phase (1) differed from the phase (0) specified by a rule in layer data
I0320 17:34:20.549166 31213 net.cpp:53] Initializing net from parameters: 
name: "CaffeNet"
state {
  phase: TEST
}
layer {
  name: "data"
  type: "Data"
  top: "data"
  top: "label"
  include {
    phase: TEST
  }
  transform_param {
    mirror: false
    crop_size: 227
    mean_file: "data/ilsvrc12/imagenet_mean.binaryproto"
  }
  data_param {
    source: "examples/imagenet/ilsvrc12_val_lmdb"
    batch_size: 50
    backend: LMDB
  }
}
layer {
  name: "conv1"
  type: "Convolution"
  bottom: "data"
  top: "conv1"
  param {
    lr_mult: 1
    decay_mult: 1
  }
  param {
    lr_mult: 2
    decay_mult: 0
  }
  convolution_param {
    num_output: 96
    kernel_size: 11
    stride: 4
    weight_filler {
      type: "gaussian"
      std: 0.01
    }
    bias_filler {
      type: "constant"
      value: 0
    }
  }
}
layer {
  name: "relu1"
  type: "ReLU"
  bottom: "conv1"
  top: "conv1"
}
layer {
  name: "pool1"
  type: "Pooling"
  bottom: "conv1"
  top: "pool1"
  pooling_param {
    pool: MAX
    kernel_size: 3
    stride: 2
  }
}
layer {
  name: "norm1"
  type: "LRN"
  bottom: "pool1"
  top: "norm1"
  lrn_param {
    local_size: 5
    alpha: 0.0001
    beta: 0.75
  }
}
layer {
  name: "conv2"
  type: "Convolution"
  bottom: "norm1"
  top: "conv2"
  param {
    lr_mult: 1
    decay_mult: 1
  }
  param {
    lr_mult: 2
    decay_mult: 0
  }
  convolution_param {
    num_output: 256
    pad: 2
    kernel_size: 5
    group: 2
    weight_filler {
      type: "gaussian"
      std: 0.01
    }
    bias_filler {
      type: "constant"
      value: 1
    }
  }
}
layer {
  name: "relu2"
  type: "ReLU"
  bottom: "conv2"
  top: "conv2"
}
layer {
  name: "pool2"
  type: "Pooling"
  bottom: "conv2"
  top: "pool2"
  pooling_param {
    pool: MAX
    kernel_size: 3
    stride: 2
  }
}
layer {
  name: "norm2"
  type: "LRN"
  bottom: "pool2"
  top: "norm2"
  lrn_param {
    local_size: 5
    alpha: 0.0001
    beta: 0.75
  }
}
layer {
  name: "conv3"
  type: "Convolution"
  bottom: "norm2"
  top: "conv3"
  param {
    lr_mult: 1
    decay_mult: 1
  }
  param {
    lr_mult: 2
    decay_mult: 0
  }
  convolution_param {
    num_output: 384
    pad: 1
    kernel_size: 3
    weight_filler {
      type: "gaussian"
      std: 0.01
    }
    bias_filler {
      type: "constant"
      value: 0
    }
  }
}
layer {
  name: "relu3"
  type: "ReLU"
  bottom: "conv3"
  top: "conv3"
}
layer {
  name: "conv4"
  type: "Convolution"
  bottom: "conv3"
  top: "conv4"
  param {
    lr_mult: 1
    decay_mult: 1
  }
  param {
    lr_mult: 2
    decay_mult: 0
  }
  convolution_param {
    num_output: 384
    pad: 1
    kernel_size: 3
    group: 2
    weight_filler {
      type: "gaussian"
      std: 0.01
    }
    bias_filler {
      type: "constant"
      value: 1
    }
  }
}
layer {
  name: "relu4"
  type: "ReLU"
  bottom: "conv4"
  top: "conv4"
}
layer {
  name: "conv5"
  type: "Convolution"
  bottom: "conv4"
  top: "conv5"
  param {
    lr_mult: 1
    decay_mult: 1
  }
  param {
    lr_mult: 2
    decay_mult: 0
  }
  convolution_param {
    num_output: 256
    pad: 1
    kernel_size: 3
    group: 2
    weight_filler {
      type: "gaussian"
      std: 0.01
    }
    bias_filler {
      type: "constant"
      value: 1
    }
  }
}
layer {
  name: "relu5"
  type: "ReLU"
  bottom: "conv5"
  top: "conv5"
}
layer {
  name: "pool5"
  type: "Pooling"
  bottom: "conv5"
  top: "pool5"
  pooling_param {
    pool: MAX
    kernel_size: 3
    stride: 2
  }
}
layer {
  name: "fc6"
  type: "InnerProduct"
  bottom: "pool5"
  top: "fc6"
  param {
    lr_mult: 1
    decay_mult: 1
  }
  param {
    lr_mult: 2
    decay_mult: 0
  }
  inner_product_param {
    num_output: 4096
    weight_filler {
      type: "gaussian"
      std: 0.005
    }
    bias_filler {
      type: "constant"
      value: 1
    }
  }
}
layer {
  name: "relu6"
  type: "ReLU"
  bottom: "fc6"
  top: "fc6"
}
layer {
  name: "drop6"
  type: "Dropout"
  bottom: "fc6"
  top: "fc6"
  dropout_param {
    dropout_ratio: 0.5
  }
}
layer {
  name: "fc7"
  type: "InnerProduct"
  bottom: "fc6"
  top: "fc7"
  param {
    lr_mult: 1
    decay_mult: 1
  }
  param {
    lr_mult: 2
    decay_mult: 0
  }
  inner_product_param {
    num_output: 4096
    weight_filler {
      type: "gaussian"
      std: 0.005
    }
    bias_filler {
      type: "constant"
      value: 1
    }
  }
}
layer {
  name: "relu7"
  type: "ReLU"
  bottom: "fc7"
  top: "fc7"
}
layer {
  name: "drop7"
  type: "Dropout"
  bottom: "fc7"
  top: "fc7"
  dropout_param {
    dropout_ratio: 0.5
  }
}
layer {
  name: "fc8"
  type: "InnerProduct"
  bottom: "fc7"
  top: "fc8"
  param {
    lr_mult: 1
    decay_mult: 1
  }
  param {
    lr_mult: 2
    decay_mult: 0
  }
  inner_product_param {
    num_output: 1000
    weight_filler {
      type: "gaussian"
      std: 0.01
    }
    bias_filler {
      type: "constant"
      value: 0
    }
  }
}
layer {
  name: "accuracy"
  type: "Accuracy"
  bottom: "fc8"
  bottom: "label"
  top: "accuracy"
  include {
    phase: TEST
  }
}
layer {
  name: "loss"
  type: "SoftmaxWithLoss"
  bottom: "fc8"
  bottom: "label"
  top: "loss"
}
I0320 17:34:20.549321 31213 layer_factory.hpp:77] Creating layer data
I0320 17:34:20.549413 31213 db_lmdb.cpp:35] Opened lmdb examples/imagenet/ilsvrc12_val_lmdb
I0320 17:34:20.549448 31213 net.cpp:86] Creating Layer data
I0320 17:34:20.549458 31213 net.cpp:382] data -> data
I0320 17:34:20.549475 31213 net.cpp:382] data -> label
I0320 17:34:20.549489 31213 data_transformer.cpp:25] Loading mean file from: data/ilsvrc12/imagenet_mean.binaryproto
I0320 17:34:20.551280 31213 data_layer.cpp:45] output data size: 50,3,227,227
I0320 17:34:20.801447 31213 net.cpp:124] Setting up data
I0320 17:34:20.801499 31213 net.cpp:131] Top shape: 50 3 227 227 (7729350)
I0320 17:34:20.801508 31213 net.cpp:131] Top shape: 50 (50)
I0320 17:34:20.801513 31213 net.cpp:139] Memory required for data: 30917600
I0320 17:34:20.801523 31213 layer_factory.hpp:77] Creating layer label_data_1_split
I0320 17:34:20.801542 31213 net.cpp:86] Creating Layer label_data_1_split
I0320 17:34:20.801548 31213 net.cpp:408] label_data_1_split <- label
I0320 17:34:20.801560 31213 net.cpp:382] label_data_1_split -> label_data_1_split_0
I0320 17:34:20.801578 31213 net.cpp:382] label_data_1_split -> label_data_1_split_1
I0320 17:34:20.801592 31213 net.cpp:124] Setting up label_data_1_split
I0320 17:34:20.801600 31213 net.cpp:131] Top shape: 50 (50)
I0320 17:34:20.801606 31213 net.cpp:131] Top shape: 50 (50)
I0320 17:34:20.801611 31213 net.cpp:139] Memory required for data: 30918000
I0320 17:34:20.801617 31213 layer_factory.hpp:77] Creating layer conv1
I0320 17:34:20.801635 31213 net.cpp:86] Creating Layer conv1
I0320 17:34:20.801640 31213 net.cpp:408] conv1 <- data
I0320 17:34:20.801651 31213 net.cpp:382] conv1 -> conv1
I0320 17:34:20.803261 31213 net.cpp:124] Setting up conv1
I0320 17:34:20.803280 31213 net.cpp:131] Top shape: 50 96 55 55 (14520000)
I0320 17:34:20.803287 31213 net.cpp:139] Memory required for data: 88998000
I0320 17:34:20.803303 31213 layer_factory.hpp:77] Creating layer relu1
I0320 17:34:20.803313 31213 net.cpp:86] Creating Layer relu1
I0320 17:34:20.803320 31213 net.cpp:408] relu1 <- conv1
I0320 17:34:20.803328 31213 net.cpp:369] relu1 -> conv1 (in-place)
I0320 17:34:20.803526 31213 net.cpp:124] Setting up relu1
I0320 17:34:20.803540 31213 net.cpp:131] Top shape: 50 96 55 55 (14520000)
I0320 17:34:20.803546 31213 net.cpp:139] Memory required for data: 147078000
I0320 17:34:20.803552 31213 layer_factory.hpp:77] Creating layer pool1
I0320 17:34:20.803565 31213 net.cpp:86] Creating Layer pool1
I0320 17:34:20.803570 31213 net.cpp:408] pool1 <- conv1
I0320 17:34:20.803578 31213 net.cpp:382] pool1 -> pool1
I0320 17:34:20.803593 31213 net.cpp:124] Setting up pool1
I0320 17:34:20.803601 31213 net.cpp:131] Top shape: 50 96 27 27 (3499200)
I0320 17:34:20.803607 31213 net.cpp:139] Memory required for data: 161074800
I0320 17:34:20.803612 31213 layer_factory.hpp:77] Creating layer norm1
I0320 17:34:20.803622 31213 net.cpp:86] Creating Layer norm1
I0320 17:34:20.803628 31213 net.cpp:408] norm1 <- pool1
I0320 17:34:20.803637 31213 net.cpp:382] norm1 -> norm1
I0320 17:34:20.803992 31213 net.cpp:124] Setting up norm1
I0320 17:34:20.804008 31213 net.cpp:131] Top shape: 50 96 27 27 (3499200)
I0320 17:34:20.804014 31213 net.cpp:139] Memory required for data: 175071600
I0320 17:34:20.804020 31213 layer_factory.hpp:77] Creating layer conv2
I0320 17:34:20.804033 31213 net.cpp:86] Creating Layer conv2
I0320 17:34:20.804040 31213 net.cpp:408] conv2 <- norm1
I0320 17:34:20.804050 31213 net.cpp:382] conv2 -> conv2
I0320 17:34:20.810624 31213 net.cpp:124] Setting up conv2
I0320 17:34:20.810672 31213 net.cpp:131] Top shape: 50 256 27 27 (9331200)
I0320 17:34:20.810678 31213 net.cpp:139] Memory required for data: 212396400
I0320 17:34:20.810698 31213 layer_factory.hpp:77] Creating layer relu2
I0320 17:34:20.810715 31213 net.cpp:86] Creating Layer relu2
I0320 17:34:20.810724 31213 net.cpp:408] relu2 <- conv2
I0320 17:34:20.810734 31213 net.cpp:369] relu2 -> conv2 (in-place)
I0320 17:34:20.811123 31213 net.cpp:124] Setting up relu2
I0320 17:34:20.811141 31213 net.cpp:131] Top shape: 50 256 27 27 (9331200)
I0320 17:34:20.811158 31213 net.cpp:139] Memory required for data: 249721200
I0320 17:34:20.811177 31213 layer_factory.hpp:77] Creating layer pool2
I0320 17:34:20.811192 31213 net.cpp:86] Creating Layer pool2
I0320 17:34:20.811197 31213 net.cpp:408] pool2 <- conv2
I0320 17:34:20.811206 31213 net.cpp:382] pool2 -> pool2
I0320 17:34:20.811228 31213 net.cpp:124] Setting up pool2
I0320 17:34:20.811236 31213 net.cpp:131] Top shape: 50 256 13 13 (2163200)
I0320 17:34:20.811242 31213 net.cpp:139] Memory required for data: 258374000
I0320 17:34:20.811247 31213 layer_factory.hpp:77] Creating layer norm2
I0320 17:34:20.811260 31213 net.cpp:86] Creating Layer norm2
I0320 17:34:20.811266 31213 net.cpp:408] norm2 <- pool2
I0320 17:34:20.811275 31213 net.cpp:382] norm2 -> norm2
I0320 17:34:20.811491 31213 net.cpp:124] Setting up norm2
I0320 17:34:20.811506 31213 net.cpp:131] Top shape: 50 256 13 13 (2163200)
I0320 17:34:20.811511 31213 net.cpp:139] Memory required for data: 267026800
I0320 17:34:20.811517 31213 layer_factory.hpp:77] Creating layer conv3
I0320 17:34:20.811535 31213 net.cpp:86] Creating Layer conv3
I0320 17:34:20.811542 31213 net.cpp:408] conv3 <- norm2
I0320 17:34:20.811554 31213 net.cpp:382] conv3 -> conv3
I0320 17:34:20.830358 31213 net.cpp:124] Setting up conv3
I0320 17:34:20.830420 31213 net.cpp:131] Top shape: 50 384 13 13 (3244800)
I0320 17:34:20.830427 31213 net.cpp:139] Memory required for data: 280006000
I0320 17:34:20.830449 31213 layer_factory.hpp:77] Creating layer relu3
I0320 17:34:20.830466 31213 net.cpp:86] Creating Layer relu3
I0320 17:34:20.830474 31213 net.cpp:408] relu3 <- conv3
I0320 17:34:20.830485 31213 net.cpp:369] relu3 -> conv3 (in-place)
I0320 17:34:20.830862 31213 net.cpp:124] Setting up relu3
I0320 17:34:20.830878 31213 net.cpp:131] Top shape: 50 384 13 13 (3244800)
I0320 17:34:20.830884 31213 net.cpp:139] Memory required for data: 292985200
I0320 17:34:20.830890 31213 layer_factory.hpp:77] Creating layer conv4
I0320 17:34:20.830909 31213 net.cpp:86] Creating Layer conv4
I0320 17:34:20.830916 31213 net.cpp:408] conv4 <- conv3
I0320 17:34:20.830929 31213 net.cpp:382] conv4 -> conv4
I0320 17:34:20.847043 31213 net.cpp:124] Setting up conv4
I0320 17:34:20.847093 31213 net.cpp:131] Top shape: 50 384 13 13 (3244800)
I0320 17:34:20.847100 31213 net.cpp:139] Memory required for data: 305964400
I0320 17:34:20.847115 31213 layer_factory.hpp:77] Creating layer relu4
I0320 17:34:20.847131 31213 net.cpp:86] Creating Layer relu4
I0320 17:34:20.847138 31213 net.cpp:408] relu4 <- conv4
I0320 17:34:20.847149 31213 net.cpp:369] relu4 -> conv4 (in-place)
I0320 17:34:20.847543 31213 net.cpp:124] Setting up relu4
I0320 17:34:20.847558 31213 net.cpp:131] Top shape: 50 384 13 13 (3244800)
I0320 17:34:20.847564 31213 net.cpp:139] Memory required for data: 318943600
I0320 17:34:20.847570 31213 layer_factory.hpp:77] Creating layer conv5
I0320 17:34:20.847595 31213 net.cpp:86] Creating Layer conv5
I0320 17:34:20.847604 31213 net.cpp:408] conv5 <- conv4
I0320 17:34:20.847615 31213 net.cpp:382] conv5 -> conv5
I0320 17:34:20.856621 31213 net.cpp:124] Setting up conv5
I0320 17:34:20.856669 31213 net.cpp:131] Top shape: 50 256 13 13 (2163200)
I0320 17:34:20.856675 31213 net.cpp:139] Memory required for data: 327596400
I0320 17:34:20.856696 31213 layer_factory.hpp:77] Creating layer relu5
I0320 17:34:20.856714 31213 net.cpp:86] Creating Layer relu5
I0320 17:34:20.856721 31213 net.cpp:408] relu5 <- conv5
I0320 17:34:20.856732 31213 net.cpp:369] relu5 -> conv5 (in-place)
I0320 17:34:20.856959 31213 net.cpp:124] Setting up relu5
I0320 17:34:20.856976 31213 net.cpp:131] Top shape: 50 256 13 13 (2163200)
I0320 17:34:20.856981 31213 net.cpp:139] Memory required for data: 336249200
I0320 17:34:20.856987 31213 layer_factory.hpp:77] Creating layer pool5
I0320 17:34:20.857002 31213 net.cpp:86] Creating Layer pool5
I0320 17:34:20.857009 31213 net.cpp:408] pool5 <- conv5
I0320 17:34:20.857018 31213 net.cpp:382] pool5 -> pool5
I0320 17:34:20.857034 31213 net.cpp:124] Setting up pool5
I0320 17:34:20.857043 31213 net.cpp:131] Top shape: 50 256 6 6 (460800)
I0320 17:34:20.857071 31213 net.cpp:139] Memory required for data: 338092400
I0320 17:34:20.857079 31213 layer_factory.hpp:77] Creating layer fc6
I0320 17:34:20.857092 31213 net.cpp:86] Creating Layer fc6
I0320 17:34:20.857098 31213 net.cpp:408] fc6 <- pool5
I0320 17:34:20.857107 31213 net.cpp:382] fc6 -> fc6
I0320 17:34:21.686826 31213 net.cpp:124] Setting up fc6
I0320 17:34:21.686880 31213 net.cpp:131] Top shape: 50 4096 (204800)
I0320 17:34:21.686887 31213 net.cpp:139] Memory required for data: 338911600
I0320 17:34:21.686905 31213 layer_factory.hpp:77] Creating layer relu6
I0320 17:34:21.686925 31213 net.cpp:86] Creating Layer relu6
I0320 17:34:21.686934 31213 net.cpp:408] relu6 <- fc6
I0320 17:34:21.686947 31213 net.cpp:369] relu6 -> fc6 (in-place)
I0320 17:34:21.687567 31213 net.cpp:124] Setting up relu6
I0320 17:34:21.687583 31213 net.cpp:131] Top shape: 50 4096 (204800)
I0320 17:34:21.687590 31213 net.cpp:139] Memory required for data: 339730800
I0320 17:34:21.687597 31213 layer_factory.hpp:77] Creating layer drop6
I0320 17:34:21.687608 31213 net.cpp:86] Creating Layer drop6
I0320 17:34:21.687613 31213 net.cpp:408] drop6 <- fc6
I0320 17:34:21.687623 31213 net.cpp:369] drop6 -> fc6 (in-place)
I0320 17:34:21.687636 31213 net.cpp:124] Setting up drop6
I0320 17:34:21.687644 31213 net.cpp:131] Top shape: 50 4096 (204800)
I0320 17:34:21.687649 31213 net.cpp:139] Memory required for data: 340550000
I0320 17:34:21.687655 31213 layer_factory.hpp:77] Creating layer fc7
I0320 17:34:21.687666 31213 net.cpp:86] Creating Layer fc7
I0320 17:34:21.687671 31213 net.cpp:408] fc7 <- fc6
I0320 17:34:21.687682 31213 net.cpp:382] fc7 -> fc7
I0320 17:34:22.047735 31213 net.cpp:124] Setting up fc7
I0320 17:34:22.047773 31213 net.cpp:131] Top shape: 50 4096 (204800)
I0320 17:34:22.047780 31213 net.cpp:139] Memory required for data: 341369200
I0320 17:34:22.047796 31213 layer_factory.hpp:77] Creating layer relu7
I0320 17:34:22.047811 31213 net.cpp:86] Creating Layer relu7
I0320 17:34:22.047818 31213 net.cpp:408] relu7 <- fc7
I0320 17:34:22.047829 31213 net.cpp:369] relu7 -> fc7 (in-place)
I0320 17:34:22.048172 31213 net.cpp:124] Setting up relu7
I0320 17:34:22.048187 31213 net.cpp:131] Top shape: 50 4096 (204800)
I0320 17:34:22.048192 31213 net.cpp:139] Memory required for data: 342188400
I0320 17:34:22.048198 31213 layer_factory.hpp:77] Creating layer drop7
I0320 17:34:22.048208 31213 net.cpp:86] Creating Layer drop7
I0320 17:34:22.048215 31213 net.cpp:408] drop7 <- fc7
I0320 17:34:22.048223 31213 net.cpp:369] drop7 -> fc7 (in-place)
I0320 17:34:22.048238 31213 net.cpp:124] Setting up drop7
I0320 17:34:22.048245 31213 net.cpp:131] Top shape: 50 4096 (204800)
I0320 17:34:22.048250 31213 net.cpp:139] Memory required for data: 343007600
I0320 17:34:22.048256 31213 layer_factory.hpp:77] Creating layer fc8
I0320 17:34:22.048267 31213 net.cpp:86] Creating Layer fc8
I0320 17:34:22.048274 31213 net.cpp:408] fc8 <- fc7
I0320 17:34:22.048283 31213 net.cpp:382] fc8 -> fc8
I0320 17:34:22.127609 31213 net.cpp:124] Setting up fc8
I0320 17:34:22.127648 31213 net.cpp:131] Top shape: 50 1000 (50000)
I0320 17:34:22.127653 31213 net.cpp:139] Memory required for data: 343207600
I0320 17:34:22.127670 31213 layer_factory.hpp:77] Creating layer fc8_fc8_0_split
I0320 17:34:22.127682 31213 net.cpp:86] Creating Layer fc8_fc8_0_split
I0320 17:34:22.127691 31213 net.cpp:408] fc8_fc8_0_split <- fc8
I0320 17:34:22.127703 31213 net.cpp:382] fc8_fc8_0_split -> fc8_fc8_0_split_0
I0320 17:34:22.127719 31213 net.cpp:382] fc8_fc8_0_split -> fc8_fc8_0_split_1
I0320 17:34:22.127732 31213 net.cpp:124] Setting up fc8_fc8_0_split
I0320 17:34:22.127739 31213 net.cpp:131] Top shape: 50 1000 (50000)
I0320 17:34:22.127745 31213 net.cpp:131] Top shape: 50 1000 (50000)
I0320 17:34:22.127750 31213 net.cpp:139] Memory required for data: 343607600
I0320 17:34:22.127756 31213 layer_factory.hpp:77] Creating layer accuracy
I0320 17:34:22.127766 31213 net.cpp:86] Creating Layer accuracy
I0320 17:34:22.127773 31213 net.cpp:408] accuracy <- fc8_fc8_0_split_0
I0320 17:34:22.127790 31213 net.cpp:408] accuracy <- label_data_1_split_0
I0320 17:34:22.127817 31213 net.cpp:382] accuracy -> accuracy
…
