…
I0406 15:35:26.918875   947 net.cpp:296] The NetState phase (0) differed from the phase (1) specified by a rule in layer accuracy
I0406 15:35:26.919114   947 net.cpp:53] Initializing net from parameters: 
name: "CaffeNet"
state {
  phase: TRAIN
  level: 0
  stage: ""
}
layer {
  name: "data"
  type: "Data"
  top: "data"
  top: "label"
  include {
    phase: TRAIN
  }
  transform_param {
    mirror: true
    crop_size: 227
    mean_file: "data/ilsvrc12/imagenet_mean.binaryproto"
  }
  data_param {
    source: "examples/imagenet/ilsvrc12_train_lmdb"
    batch_size: 256
    backend: LMDB
  }
}
layer {
  name: "conv1"
  type: "Convolution"
  bottom: "data"
  top: "conv1"
  param {
    lr_mult: 1
    decay_mult: 1
  }
  param {
    lr_mult: 2
    decay_mult: 0
  }
  convolution_param {
    num_output: 96
    kernel_size: 11
    stride: 4
    weight_filler {
      type: "gaussian"
      std: 0.01
    }
    bias_filler {
      type: "constant"
      value: 0
    }
  }
}
layer {
  name: "relu1"
  type: "ReLU"
  bottom: "conv1"
  top: "conv1"
}
layer {
  name: "pool1"
  type: "Pooling"
  bottom: "conv1"
  top: "pool1"
  pooling_param {
    pool: MAX
    kernel_size: 3
    stride: 2
  }
}
layer {
  name: "norm1"
  type: "LRN"
  bottom: "pool1"
  top: "norm1"
  lrn_param {
    local_size: 5
    alpha: 0.0001
    beta: 0.75
  }
}
layer {
  name: "conv2"
  type: "Convolution"
  bottom: "norm1"
  top: "conv2"
  param {
    lr_mult: 1
    decay_mult: 1
  }
  param {
    lr_mult: 2
    decay_mult: 0
  }
  convolution_param {
    num_output: 256
    pad: 2
    kernel_size: 5
    group: 2
    weight_filler {
      type: "gaussian"
      std: 0.01
    }
    bias_filler {
      type: "constant"
      value: 1
    }
  }
}
layer {
  name: "relu2"
  type: "ReLU"
  bottom: "conv2"
  top: "conv2"
}
layer {
  name: "pool2"
  type: "Pooling"
  bottom: "conv2"
  top: "pool2"
  pooling_param {
    pool: MAX
    kernel_size: 3
    stride: 2
  }
}
layer {
  name: "norm2"
  type: "LRN"
  bottom: "pool2"
  top: "norm2"
  lrn_param {
    local_size: 5
    alpha: 0.0001
    beta: 0.75
  }
}
layer {
  name: "conv3"
  type: "Convolution"
  bottom: "norm2"
  top: "conv3"
  param {
    lr_mult: 1
    decay_mult: 1
  }
  param {
    lr_mult: 2
    decay_mult: 0
  }
  convolution_param {
    num_output: 384
    pad: 1
    kernel_size: 3
    weight_filler {
      type: "gaussian"
      std: 0.01
    }
    bias_filler {
      type: "constant"
      value: 0
    }
  }
}
layer {
  name: "relu3"
  type: "ReLU"
  bottom: "conv3"
  top: "conv3"
}
layer {
  name: "conv4"
  type: "Convolution"
  bottom: "conv3"
  top: "conv4"
  param {
    lr_mult: 1
    decay_mult: 1
  }
  param {
    lr_mult: 2
    decay_mult: 0
  }
  convolution_param {
    num_output: 384
    pad: 1
    kernel_size: 3
    group: 2
    weight_filler {
      type: "gaussian"
      std: 0.01
    }
    bias_filler {
      type: "constant"
      value: 1
    }
  }
}
layer {
  name: "relu4"
  type: "ReLU"
  bottom: "conv4"
  top: "conv4"
}
layer {
  name: "conv5"
  type: "Convolution"
  bottom: "conv4"
  top: "conv5"
  param {
    lr_mult: 1
    decay_mult: 1
  }
  param {
    lr_mult: 2
    decay_mult: 0
  }
  convolution_param {
    num_output: 256
    pad: 1
    kernel_size: 3
    group: 2
    weight_filler {
      type: "gaussian"
      std: 0.01
    }
    bias_filler {
      type: "constant"
      value: 1
    }
  }
}
layer {
  name: "relu5"
  type: "ReLU"
  bottom: "conv5"
  top: "conv5"
}
layer {
  name: "pool5"
  type: "Pooling"
  bottom: "conv5"
  top: "pool5"
  pooling_param {
    pool: MAX
    kernel_size: 3
    stride: 2
  }
}
layer {
  name: "fc6"
  type: "InnerProduct"
  bottom: "pool5"
  top: "fc6"
  param {
    lr_mult: 1
    decay_mult: 1
  }
  param {
    lr_mult: 2
    decay_mult: 0
  }
  inner_product_param {
    num_output: 4096
    weight_filler {
      type: "gaussian"
      std: 0.005
    }
    bias_filler {
      type: "constant"
      value: 1
    }
  }
}
layer {
  name: "relu6"
  type: "ReLU"
  bottom: "fc6"
  top: "fc6"
}
layer {
  name: "drop6"
  type: "Dropout"
  bottom: "fc6"
  top: "fc6"
  dropout_param {
    dropout_ratio: 0.5
  }
}
layer {
  name: "fc7"
  type: "InnerProduct"
  bottom: "fc6"
  top: "fc7"
  param {
    lr_mult: 1
    decay_mult: 1
  }
  param {
    lr_mult: 2
    decay_mult: 0
  }
  inner_product_param {
    num_output: 4096
    weight_filler {
      type: "gaussian"
      std: 0.005
    }
    bias_filler {
      type: "constant"
      value: 1
    }
  }
}
layer {
  name: "relu7"
  type: "ReLU"
  bottom: "fc7"
  top: "fc7"
}
layer {
  name: "drop7"
  type: "Dropout"
  bottom: "fc7"
  top: "fc7"
  dropout_param {
    dropout_ratio: 0.5
  }
}
layer {
  name: "fc8"
  type: "InnerProduct"
  bottom: "fc7"
  top: "fc8"
  param {
    lr_mult: 1
    decay_mult: 1
  }
  param {
    lr_mult: 2
    decay_mult: 0
  }
  inner_product_param {
    num_output: 1000
    weight_filler {
      type: "gaussian"
      std: 0.01
    }
    bias_filler {
      type: "constant"
      value: 0
    }
  }
}
layer {
  name: "loss"
  type: "SoftmaxWithLoss"
  bottom: "fc8"
  bottom: "label"
  top: "loss"
}
I0406 15:35:26.919250   947 layer_factory.hpp:77] Creating layer data
I0406 15:35:26.938123   947 db_lmdb.cpp:35] Opened lmdb examples/imagenet/ilsvrc12_train_lmdb
I0406 15:35:26.972482   947 net.cpp:86] Creating Layer data
I0406 15:35:26.972513   947 net.cpp:382] data -> data
I0406 15:35:26.972545   947 net.cpp:382] data -> label
I0406 15:35:26.972570   947 data_transformer.cpp:25] Loading mean file from: data/ilsvrc12/imagenet_mean.binaryproto
I0406 15:35:27.197688   947 data_layer.cpp:45] output data size: 256,3,227,227
I0406 15:35:27.620992   947 net.cpp:124] Setting up data
I0406 15:35:27.621047   947 net.cpp:131] Top shape: 256 3 227 227 (39574272)
I0406 15:35:27.621055   947 net.cpp:131] Top shape: 256 (256)
I0406 15:35:27.621060   947 net.cpp:139] Memory required for data: 158298112
I0406 15:35:27.621075   947 layer_factory.hpp:77] Creating layer conv1
I0406 15:35:27.647428   947 net.cpp:86] Creating Layer conv1
I0406 15:35:27.647454   947 net.cpp:408] conv1 <- data
I0406 15:35:27.647475   947 net.cpp:382] conv1 -> conv1
I0406 15:35:28.455377   947 net.cpp:124] Setting up conv1
I0406 15:35:28.455430   947 net.cpp:131] Top shape: 256 96 55 55 (74342400)
I0406 15:35:28.455437   947 net.cpp:139] Memory required for data: 455667712
I0406 15:35:28.455504   947 layer_factory.hpp:77] Creating layer relu1
I0406 15:35:28.455539   947 net.cpp:86] Creating Layer relu1
I0406 15:35:28.455565   947 net.cpp:408] relu1 <- conv1
I0406 15:35:28.455576   947 net.cpp:369] relu1 -> conv1 (in-place)
I0406 15:35:28.456136   947 net.cpp:124] Setting up relu1
I0406 15:35:28.456168   947 net.cpp:131] Top shape: 256 96 55 55 (74342400)
I0406 15:35:28.456182   947 net.cpp:139] Memory required for data: 753037312
I0406 15:35:28.456194   947 layer_factory.hpp:77] Creating layer pool1
I0406 15:35:28.456215   947 net.cpp:86] Creating Layer pool1
I0406 15:35:28.456228   947 net.cpp:408] pool1 <- conv1
I0406 15:35:28.456246   947 net.cpp:382] pool1 -> pool1
I0406 15:35:28.456404   947 net.cpp:124] Setting up pool1
I0406 15:35:28.456418   947 net.cpp:131] Top shape: 256 96 27 27 (17915904)
I0406 15:35:28.456424   947 net.cpp:139] Memory required for data: 824700928
I0406 15:35:28.456430   947 layer_factory.hpp:77] Creating layer norm1
I0406 15:35:28.456445   947 net.cpp:86] Creating Layer norm1
I0406 15:35:28.456461   947 net.cpp:408] norm1 <- pool1
I0406 15:35:28.456483   947 net.cpp:382] norm1 -> norm1
I0406 15:35:28.456758   947 net.cpp:124] Setting up norm1
I0406 15:35:28.456800   947 net.cpp:131] Top shape: 256 96 27 27 (17915904)
I0406 15:35:28.456812   947 net.cpp:139] Memory required for data: 896364544
I0406 15:35:28.456825   947 layer_factory.hpp:77] Creating layer conv2
I0406 15:35:28.456866   947 net.cpp:86] Creating Layer conv2
I0406 15:35:28.456881   947 net.cpp:408] conv2 <- norm1
I0406 15:35:28.456903   947 net.cpp:382] conv2 -> conv2
I0406 15:35:28.467540   947 net.cpp:124] Setting up conv2
I0406 15:35:28.467587   947 net.cpp:131] Top shape: 256 256 27 27 (47775744)
I0406 15:35:28.467595   947 net.cpp:139] Memory required for data: 1087467520
I0406 15:35:28.467617   947 layer_factory.hpp:77] Creating layer relu2
I0406 15:35:28.467631   947 net.cpp:86] Creating Layer relu2
I0406 15:35:28.467638   947 net.cpp:408] relu2 <- conv2
I0406 15:35:28.467651   947 net.cpp:369] relu2 -> conv2 (in-place)
I0406 15:35:28.467911   947 net.cpp:124] Setting up relu2
I0406 15:35:28.467929   947 net.cpp:131] Top shape: 256 256 27 27 (47775744)
I0406 15:35:28.467936   947 net.cpp:139] Memory required for data: 1278570496
I0406 15:35:28.467944   947 layer_factory.hpp:77] Creating layer pool2
I0406 15:35:28.467959   947 net.cpp:86] Creating Layer pool2
I0406 15:35:28.467967   947 net.cpp:408] pool2 <- conv2
I0406 15:35:28.467978   947 net.cpp:382] pool2 -> pool2
I0406 15:35:28.468047   947 net.cpp:124] Setting up pool2
I0406 15:35:28.468061   947 net.cpp:131] Top shape: 256 256 13 13 (11075584)
I0406 15:35:28.468068   947 net.cpp:139] Memory required for data: 1322872832
I0406 15:35:28.468075   947 layer_factory.hpp:77] Creating layer norm2
I0406 15:35:28.468093   947 net.cpp:86] Creating Layer norm2
I0406 15:35:28.468101   947 net.cpp:408] norm2 <- pool2
I0406 15:35:28.468112   947 net.cpp:382] norm2 -> norm2
I0406 15:35:28.468653   947 net.cpp:124] Setting up norm2
I0406 15:35:28.468669   947 net.cpp:131] Top shape: 256 256 13 13 (11075584)
I0406 15:35:28.468675   947 net.cpp:139] Memory required for data: 1367175168
I0406 15:35:28.468683   947 layer_factory.hpp:77] Creating layer conv3
I0406 15:35:28.468700   947 net.cpp:86] Creating Layer conv3
I0406 15:35:28.468708   947 net.cpp:408] conv3 <- norm2
I0406 15:35:28.468720   947 net.cpp:382] conv3 -> conv3
I0406 15:35:28.486223   947 net.cpp:124] Setting up conv3
I0406 15:35:28.486273   947 net.cpp:131] Top shape: 256 384 13 13 (16613376)
I0406 15:35:28.486279   947 net.cpp:139] Memory required for data: 1433628672
I0406 15:35:28.486300   947 layer_factory.hpp:77] Creating layer relu3
I0406 15:35:28.486317   947 net.cpp:86] Creating Layer relu3
I0406 15:35:28.486326   947 net.cpp:408] relu3 <- conv3
I0406 15:35:28.486338   947 net.cpp:369] relu3 -> conv3 (in-place)
I0406 15:35:28.486603   947 net.cpp:124] Setting up relu3
I0406 15:35:28.486620   947 net.cpp:131] Top shape: 256 384 13 13 (16613376)
I0406 15:35:28.486626   947 net.cpp:139] Memory required for data: 1500082176
I0406 15:35:28.486632   947 layer_factory.hpp:77] Creating layer conv4
I0406 15:35:28.486651   947 net.cpp:86] Creating Layer conv4
I0406 15:35:28.486675   947 net.cpp:408] conv4 <- conv3
I0406 15:35:28.486690   947 net.cpp:382] conv4 -> conv4
I0406 15:35:28.500316   947 net.cpp:124] Setting up conv4
I0406 15:35:28.500358   947 net.cpp:131] Top shape: 256 384 13 13 (16613376)
I0406 15:35:28.500365   947 net.cpp:139] Memory required for data: 1566535680
I0406 15:35:28.500380   947 layer_factory.hpp:77] Creating layer relu4
I0406 15:35:28.500391   947 net.cpp:86] Creating Layer relu4
I0406 15:35:28.500399   947 net.cpp:408] relu4 <- conv4
I0406 15:35:28.500412   947 net.cpp:369] relu4 -> conv4 (in-place)
I0406 15:35:28.500636   947 net.cpp:124] Setting up relu4
I0406 15:35:28.500650   947 net.cpp:131] Top shape: 256 384 13 13 (16613376)
I0406 15:35:28.500656   947 net.cpp:139] Memory required for data: 1632989184
I0406 15:35:28.500663   947 layer_factory.hpp:77] Creating layer conv5
I0406 15:35:28.500689   947 net.cpp:86] Creating Layer conv5
I0406 15:35:28.500708   947 net.cpp:408] conv5 <- conv4
I0406 15:35:28.500720   947 net.cpp:382] conv5 -> conv5
I0406 15:35:28.510152   947 net.cpp:124] Setting up conv5
I0406 15:35:28.510172   947 net.cpp:131] Top shape: 256 256 13 13 (11075584)
I0406 15:35:28.510179   947 net.cpp:139] Memory required for data: 1677291520
I0406 15:35:28.510195   947 layer_factory.hpp:77] Creating layer relu5
I0406 15:35:28.510207   947 net.cpp:86] Creating Layer relu5
I0406 15:35:28.510215   947 net.cpp:408] relu5 <- conv5
I0406 15:35:28.510223   947 net.cpp:369] relu5 -> conv5 (in-place)
I0406 15:35:28.510452   947 net.cpp:124] Setting up relu5
I0406 15:35:28.510466   947 net.cpp:131] Top shape: 256 256 13 13 (11075584)
I0406 15:35:28.510473   947 net.cpp:139] Memory required for data: 1721593856
I0406 15:35:28.510478   947 layer_factory.hpp:77] Creating layer pool5
I0406 15:35:28.510493   947 net.cpp:86] Creating Layer pool5
I0406 15:35:28.510499   947 net.cpp:408] pool5 <- conv5
I0406 15:35:28.510509   947 net.cpp:382] pool5 -> pool5
I0406 15:35:28.510567   947 net.cpp:124] Setting up pool5
I0406 15:35:28.510579   947 net.cpp:131] Top shape: 256 256 6 6 (2359296)
I0406 15:35:28.510586   947 net.cpp:139] Memory required for data: 1731031040
I0406 15:35:28.510591   947 layer_factory.hpp:77] Creating layer fc6
I0406 15:35:28.510607   947 net.cpp:86] Creating Layer fc6
I0406 15:35:28.510614   947 net.cpp:408] fc6 <- pool5
I0406 15:35:28.510625   947 net.cpp:382] fc6 -> fc6
I0406 15:35:29.102892   947 net.cpp:124] Setting up fc6
I0406 15:35:29.102942   947 net.cpp:131] Top shape: 256 4096 (1048576)
I0406 15:35:29.102949   947 net.cpp:139] Memory required for data: 1735225344
I0406 15:35:29.102965   947 layer_factory.hpp:77] Creating layer relu6
I0406 15:35:29.102979   947 net.cpp:86] Creating Layer relu6
I0406 15:35:29.102988   947 net.cpp:408] relu6 <- fc6
I0406 15:35:29.102998   947 net.cpp:369] relu6 -> fc6 (in-place)
I0406 15:35:29.103593   947 net.cpp:124] Setting up relu6
I0406 15:35:29.103610   947 net.cpp:131] Top shape: 256 4096 (1048576)
I0406 15:35:29.103616   947 net.cpp:139] Memory required for data: 1739419648
I0406 15:35:29.103622   947 layer_factory.hpp:77] Creating layer drop6
I0406 15:35:29.103636   947 net.cpp:86] Creating Layer drop6
I0406 15:35:29.103643   947 net.cpp:408] drop6 <- fc6
I0406 15:35:29.103654   947 net.cpp:369] drop6 -> fc6 (in-place)
I0406 15:35:29.103693   947 net.cpp:124] Setting up drop6
I0406 15:35:29.103718   947 net.cpp:131] Top shape: 256 4096 (1048576)
I0406 15:35:29.103725   947 net.cpp:139] Memory required for data: 1743613952
I0406 15:35:29.103731   947 layer_factory.hpp:77] Creating layer fc7
I0406 15:35:29.103744   947 net.cpp:86] Creating Layer fc7
I0406 15:35:29.103749   947 net.cpp:408] fc7 <- fc6
I0406 15:35:29.103760   947 net.cpp:382] fc7 -> fc7
I0406 15:35:29.367123   947 net.cpp:124] Setting up fc7
I0406 15:35:29.367172   947 net.cpp:131] Top shape: 256 4096 (1048576)
I0406 15:35:29.367182   947 net.cpp:139] Memory required for data: 1747808256
I0406 15:35:29.367197   947 layer_factory.hpp:77] Creating layer relu7
I0406 15:35:29.367213   947 net.cpp:86] Creating Layer relu7
I0406 15:35:29.367220   947 net.cpp:408] relu7 <- fc7
I0406 15:35:29.367234   947 net.cpp:369] relu7 -> fc7 (in-place)
I0406 15:35:29.367523   947 net.cpp:124] Setting up relu7
I0406 15:35:29.367540   947 net.cpp:131] Top shape: 256 4096 (1048576)
I0406 15:35:29.367545   947 net.cpp:139] Memory required for data: 1752002560
I0406 15:35:29.367552   947 layer_factory.hpp:77] Creating layer drop7
I0406 15:35:29.367564   947 net.cpp:86] Creating Layer drop7
I0406 15:35:29.367570   947 net.cpp:408] drop7 <- fc7
I0406 15:35:29.367583   947 net.cpp:369] drop7 -> fc7 (in-place)
I0406 15:35:29.367616   947 net.cpp:124] Setting up drop7
I0406 15:35:29.367627   947 net.cpp:131] Top shape: 256 4096 (1048576)
I0406 15:35:29.367632   947 net.cpp:139] Memory required for data: 1756196864
I0406 15:35:29.367638   947 layer_factory.hpp:77] Creating layer fc8
I0406 15:35:29.367652   947 net.cpp:86] Creating Layer fc8
I0406 15:35:29.367668   947 net.cpp:408] fc8 <- fc7
I0406 15:35:29.367691   947 net.cpp:382] fc8 -> fc8
I0406 15:35:29.447506   947 net.cpp:124] Setting up fc8
I0406 15:35:29.447551   947 net.cpp:131] Top shape: 256 1000 (256000)
I0406 15:35:29.447558   947 net.cpp:139] Memory required for data: 1757220864
I0406 15:35:29.447574   947 layer_factory.hpp:77] Creating layer loss
I0406 15:35:29.447600   947 net.cpp:86] Creating Layer loss
I0406 15:35:29.447609   947 net.cpp:408] loss <- fc8
I0406 15:35:29.447620   947 net.cpp:408] loss <- label
I0406 15:35:29.447633   947 net.cpp:382] loss -> loss
I0406 15:35:29.447656   947 layer_factory.hpp:77] Creating layer loss
…
I0406 15:35:29.624354   947 net.cpp:296] The NetState phase (1) differed from the phase (0) specified by a rule in layer data
I0406 15:35:29.624594   947 net.cpp:53] Initializing net from parameters: 
name: "CaffeNet"
state {
  phase: TEST
}
layer {
  name: "data"
  type: "Data"
  top: "data"
  top: "label"
  include {
    phase: TEST
  }
  transform_param {
    mirror: false
    crop_size: 227
    mean_file: "data/ilsvrc12/imagenet_mean.binaryproto"
  }
  data_param {
    source: "examples/imagenet/ilsvrc12_val_lmdb"
    batch_size: 50
    backend: LMDB
  }
}
layer {
  name: "conv1"
  type: "Convolution"
  bottom: "data"
  top: "conv1"
  param {
    lr_mult: 1
    decay_mult: 1
  }
  param {
    lr_mult: 2
    decay_mult: 0
  }
  convolution_param {
    num_output: 96
    kernel_size: 11
    stride: 4
    weight_filler {
      type: "gaussian"
      std: 0.01
    }
    bias_filler {
      type: "constant"
      value: 0
    }
  }
}
layer {
  name: "relu1"
  type: "ReLU"
  bottom: "conv1"
  top: "conv1"
}
layer {
  name: "pool1"
  type: "Pooling"
  bottom: "conv1"
  top: "pool1"
  pooling_param {
    pool: MAX
    kernel_size: 3
    stride: 2
  }
}
layer {
  name: "norm1"
  type: "LRN"
  bottom: "pool1"
  top: "norm1"
  lrn_param {
    local_size: 5
    alpha: 0.0001
    beta: 0.75
  }
}
layer {
  name: "conv2"
  type: "Convolution"
  bottom: "norm1"
  top: "conv2"
  param {
    lr_mult: 1
    decay_mult: 1
  }
  param {
    lr_mult: 2
    decay_mult: 0
  }
  convolution_param {
    num_output: 256
    pad: 2
    kernel_size: 5
    group: 2
    weight_filler {
      type: "gaussian"
      std: 0.01
    }
    bias_filler {
      type: "constant"
      value: 1
    }
  }
}
layer {
  name: "relu2"
  type: "ReLU"
  bottom: "conv2"
  top: "conv2"
}
layer {
  name: "pool2"
  type: "Pooling"
  bottom: "conv2"
  top: "pool2"
  pooling_param {
    pool: MAX
    kernel_size: 3
    stride: 2
  }
}
layer {
  name: "norm2"
  type: "LRN"
  bottom: "pool2"
  top: "norm2"
  lrn_param {
    local_size: 5
    alpha: 0.0001
    beta: 0.75
  }
}
layer {
  name: "conv3"
  type: "Convolution"
  bottom: "norm2"
  top: "conv3"
  param {
    lr_mult: 1
    decay_mult: 1
  }
  param {
    lr_mult: 2
    decay_mult: 0
  }
  convolution_param {
    num_output: 384
    pad: 1
    kernel_size: 3
    weight_filler {
      type: "gaussian"
      std: 0.01
    }
    bias_filler {
      type: "constant"
      value: 0
    }
  }
}
layer {
  name: "relu3"
  type: "ReLU"
  bottom: "conv3"
  top: "conv3"
}
layer {
  name: "conv4"
  type: "Convolution"
  bottom: "conv3"
  top: "conv4"
  param {
    lr_mult: 1
    decay_mult: 1
  }
  param {
    lr_mult: 2
    decay_mult: 0
  }
  convolution_param {
    num_output: 384
    pad: 1
    kernel_size: 3
    group: 2
    weight_filler {
      type: "gaussian"
      std: 0.01
    }
    bias_filler {
      type: "constant"
      value: 1
    }
  }
}
layer {
  name: "relu4"
  type: "ReLU"
  bottom: "conv4"
  top: "conv4"
}
layer {
  name: "conv5"
  type: "Convolution"
  bottom: "conv4"
  top: "conv5"
  param {
    lr_mult: 1
    decay_mult: 1
  }
  param {
    lr_mult: 2
    decay_mult: 0
  }
  convolution_param {
    num_output: 256
    pad: 1
    kernel_size: 3
    group: 2
    weight_filler {
      type: "gaussian"
      std: 0.01
    }
    bias_filler {
      type: "constant"
      value: 1
    }
  }
}
layer {
  name: "relu5"
  type: "ReLU"
  bottom: "conv5"
  top: "conv5"
}
layer {
  name: "pool5"
  type: "Pooling"
  bottom: "conv5"
  top: "pool5"
  pooling_param {
    pool: MAX
    kernel_size: 3
    stride: 2
  }
}
layer {
  name: "fc6"
  type: "InnerProduct"
  bottom: "pool5"
  top: "fc6"
  param {
    lr_mult: 1
    decay_mult: 1
  }
  param {
    lr_mult: 2
    decay_mult: 0
  }
  inner_product_param {
    num_output: 4096
    weight_filler {
      type: "gaussian"
      std: 0.005
    }
    bias_filler {
      type: "constant"
      value: 1
    }
  }
}
layer {
  name: "relu6"
  type: "ReLU"
  bottom: "fc6"
  top: "fc6"
}
layer {
  name: "drop6"
  type: "Dropout"
  bottom: "fc6"
  top: "fc6"
  dropout_param {
    dropout_ratio: 0.5
  }
}
layer {
  name: "fc7"
  type: "InnerProduct"
  bottom: "fc6"
  top: "fc7"
  param {
    lr_mult: 1
    decay_mult: 1
  }
  param {
    lr_mult: 2
    decay_mult: 0
  }
  inner_product_param {
    num_output: 4096
    weight_filler {
      type: "gaussian"
      std: 0.005
    }
    bias_filler {
      type: "constant"
      value: 1
    }
  }
}
layer {
  name: "relu7"
  type: "ReLU"
  bottom: "fc7"
  top: "fc7"
}
layer {
  name: "drop7"
  type: "Dropout"
  bottom: "fc7"
  top: "fc7"
  dropout_param {
    dropout_ratio: 0.5
  }
}
layer {
  name: "fc8"
  type: "InnerProduct"
  bottom: "fc7"
  top: "fc8"
  param {
    lr_mult: 1
    decay_mult: 1
  }
  param {
    lr_mult: 2
    decay_mult: 0
  }
  inner_product_param {
    num_output: 1000
    weight_filler {
      type: "gaussian"
      std: 0.01
    }
    bias_filler {
      type: "constant"
      value: 0
    }
  }
}
layer {
  name: "accuracy"
  type: "Accuracy"
  bottom: "fc8"
  bottom: "label"
  top: "accuracy"
  include {
    phase: TEST
  }
}
layer {
  name: "loss"
  type: "SoftmaxWithLoss"
  bottom: "fc8"
  bottom: "label"
  top: "loss"
}
I0406 15:35:29.624785   947 layer_factory.hpp:77] Creating layer data
I0406 15:35:29.624879   947 db_lmdb.cpp:35] Opened lmdb examples/imagenet/ilsvrc12_val_lmdb
I0406 15:35:29.624913   947 net.cpp:86] Creating Layer data
I0406 15:35:29.624924   947 net.cpp:382] data -> data
I0406 15:35:29.624939   947 net.cpp:382] data -> label
I0406 15:35:29.624954   947 data_transformer.cpp:25] Loading mean file from: data/ilsvrc12/imagenet_mean.binaryproto
I0406 15:35:29.627481   947 data_layer.cpp:45] output data size: 50,3,227,227
I0406 15:35:29.752348   947 net.cpp:124] Setting up data
I0406 15:35:29.752398   947 net.cpp:131] Top shape: 50 3 227 227 (7729350)
I0406 15:35:29.752406   947 net.cpp:131] Top shape: 50 (50)
I0406 15:35:29.752413   947 net.cpp:139] Memory required for data: 30917600
I0406 15:35:29.752423   947 layer_factory.hpp:77] Creating layer label_data_1_split
I0406 15:35:29.752440   947 net.cpp:86] Creating Layer label_data_1_split
I0406 15:35:29.752447   947 net.cpp:408] label_data_1_split <- label
I0406 15:35:29.752460   947 net.cpp:382] label_data_1_split -> label_data_1_split_0
I0406 15:35:29.752476   947 net.cpp:382] label_data_1_split -> label_data_1_split_1
I0406 15:35:29.752569   947 net.cpp:124] Setting up label_data_1_split
I0406 15:35:29.752581   947 net.cpp:131] Top shape: 50 (50)
I0406 15:35:29.752588   947 net.cpp:131] Top shape: 50 (50)
I0406 15:35:29.752593   947 net.cpp:139] Memory required for data: 30918000
I0406 15:35:29.752599   947 layer_factory.hpp:77] Creating layer conv1
I0406 15:35:29.752619   947 net.cpp:86] Creating Layer conv1
I0406 15:35:29.752625   947 net.cpp:408] conv1 <- data
I0406 15:35:29.752635   947 net.cpp:382] conv1 -> conv1
I0406 15:35:29.760054   947 net.cpp:124] Setting up conv1
I0406 15:35:29.760098   947 net.cpp:131] Top shape: 50 96 55 55 (14520000)
I0406 15:35:29.760104   947 net.cpp:139] Memory required for data: 88998000
I0406 15:35:29.760124   947 layer_factory.hpp:77] Creating layer relu1
I0406 15:35:29.760138   947 net.cpp:86] Creating Layer relu1
I0406 15:35:29.760145   947 net.cpp:408] relu1 <- conv1
I0406 15:35:29.760155   947 net.cpp:369] relu1 -> conv1 (in-place)
I0406 15:35:29.760370   947 net.cpp:124] Setting up relu1
I0406 15:35:29.760385   947 net.cpp:131] Top shape: 50 96 55 55 (14520000)
I0406 15:35:29.760391   947 net.cpp:139] Memory required for data: 147078000
I0406 15:35:29.760397   947 layer_factory.hpp:77] Creating layer pool1
I0406 15:35:29.760411   947 net.cpp:86] Creating Layer pool1
I0406 15:35:29.760418   947 net.cpp:408] pool1 <- conv1
I0406 15:35:29.760427   947 net.cpp:382] pool1 -> pool1
I0406 15:35:29.760485   947 net.cpp:124] Setting up pool1
I0406 15:35:29.760498   947 net.cpp:131] Top shape: 50 96 27 27 (3499200)
I0406 15:35:29.760504   947 net.cpp:139] Memory required for data: 161074800
I0406 15:35:29.760509   947 layer_factory.hpp:77] Creating layer norm1
I0406 15:35:29.760520   947 net.cpp:86] Creating Layer norm1
I0406 15:35:29.760526   947 net.cpp:408] norm1 <- pool1
I0406 15:35:29.760535   947 net.cpp:382] norm1 -> norm1
I0406 15:35:29.761037   947 net.cpp:124] Setting up norm1
I0406 15:35:29.761054   947 net.cpp:131] Top shape: 50 96 27 27 (3499200)
I0406 15:35:29.761061   947 net.cpp:139] Memory required for data: 175071600
I0406 15:35:29.761067   947 layer_factory.hpp:77] Creating layer conv2
I0406 15:35:29.761085   947 net.cpp:86] Creating Layer conv2
I0406 15:35:29.761092   947 net.cpp:408] conv2 <- norm1
I0406 15:35:29.761102   947 net.cpp:382] conv2 -> conv2
I0406 15:35:29.768925   947 net.cpp:124] Setting up conv2
I0406 15:35:29.768972   947 net.cpp:131] Top shape: 50 256 27 27 (9331200)
I0406 15:35:29.768980   947 net.cpp:139] Memory required for data: 212396400
I0406 15:35:29.769001   947 layer_factory.hpp:77] Creating layer relu2
I0406 15:35:29.769016   947 net.cpp:86] Creating Layer relu2
I0406 15:35:29.769023   947 net.cpp:408] relu2 <- conv2
I0406 15:35:29.769035   947 net.cpp:369] relu2 -> conv2 (in-place)
I0406 15:35:29.769256   947 net.cpp:124] Setting up relu2
I0406 15:35:29.769300   947 net.cpp:131] Top shape: 50 256 27 27 (9331200)
I0406 15:35:29.769320   947 net.cpp:139] Memory required for data: 249721200
I0406 15:35:29.769326   947 layer_factory.hpp:77] Creating layer pool2
I0406 15:35:29.769340   947 net.cpp:86] Creating Layer pool2
I0406 15:35:29.769347   947 net.cpp:408] pool2 <- conv2
I0406 15:35:29.769356   947 net.cpp:382] pool2 -> pool2
I0406 15:35:29.769418   947 net.cpp:124] Setting up pool2
I0406 15:35:29.769431   947 net.cpp:131] Top shape: 50 256 13 13 (2163200)
I0406 15:35:29.769438   947 net.cpp:139] Memory required for data: 258374000
I0406 15:35:29.769443   947 layer_factory.hpp:77] Creating layer norm2
I0406 15:35:29.769454   947 net.cpp:86] Creating Layer norm2
I0406 15:35:29.769460   947 net.cpp:408] norm2 <- pool2
I0406 15:35:29.769469   947 net.cpp:382] norm2 -> norm2
I0406 15:35:29.769946   947 net.cpp:124] Setting up norm2
I0406 15:35:29.769963   947 net.cpp:131] Top shape: 50 256 13 13 (2163200)
I0406 15:35:29.769969   947 net.cpp:139] Memory required for data: 267026800
I0406 15:35:29.769975   947 layer_factory.hpp:77] Creating layer conv3
I0406 15:35:29.769994   947 net.cpp:86] Creating Layer conv3
I0406 15:35:29.770000   947 net.cpp:408] conv3 <- norm2
I0406 15:35:29.770010   947 net.cpp:382] conv3 -> conv3
I0406 15:35:29.785929   947 net.cpp:124] Setting up conv3
I0406 15:35:29.785979   947 net.cpp:131] Top shape: 50 384 13 13 (3244800)
I0406 15:35:29.785986   947 net.cpp:139] Memory required for data: 280006000
I0406 15:35:29.786006   947 layer_factory.hpp:77] Creating layer relu3
I0406 15:35:29.786020   947 net.cpp:86] Creating Layer relu3
I0406 15:35:29.786028   947 net.cpp:408] relu3 <- conv3
I0406 15:35:29.786039   947 net.cpp:369] relu3 -> conv3 (in-place)
I0406 15:35:29.786479   947 net.cpp:124] Setting up relu3
I0406 15:35:29.786497   947 net.cpp:131] Top shape: 50 384 13 13 (3244800)
I0406 15:35:29.786504   947 net.cpp:139] Memory required for data: 292985200
I0406 15:35:29.786509   947 layer_factory.hpp:77] Creating layer conv4
I0406 15:35:29.786528   947 net.cpp:86] Creating Layer conv4
I0406 15:35:29.786535   947 net.cpp:408] conv4 <- conv3
I0406 15:35:29.786545   947 net.cpp:382] conv4 -> conv4
I0406 15:35:29.810053   947 net.cpp:124] Setting up conv4
I0406 15:35:29.810107   947 net.cpp:131] Top shape: 50 384 13 13 (3244800)
I0406 15:35:29.810114   947 net.cpp:139] Memory required for data: 305964400
I0406 15:35:29.810130   947 layer_factory.hpp:77] Creating layer relu4
I0406 15:35:29.810144   947 net.cpp:86] Creating Layer relu4
I0406 15:35:29.810153   947 net.cpp:408] relu4 <- conv4
I0406 15:35:29.810164   947 net.cpp:369] relu4 -> conv4 (in-place)
I0406 15:35:29.810446   947 net.cpp:124] Setting up relu4
I0406 15:35:29.810462   947 net.cpp:131] Top shape: 50 384 13 13 (3244800)
I0406 15:35:29.810468   947 net.cpp:139] Memory required for data: 318943600
I0406 15:35:29.810475   947 layer_factory.hpp:77] Creating layer conv5
I0406 15:35:29.810494   947 net.cpp:86] Creating Layer conv5
I0406 15:35:29.810501   947 net.cpp:408] conv5 <- conv4
I0406 15:35:29.810511   947 net.cpp:382] conv5 -> conv5
I0406 15:35:29.820680   947 net.cpp:124] Setting up conv5
I0406 15:35:29.820731   947 net.cpp:131] Top shape: 50 256 13 13 (2163200)
I0406 15:35:29.820739   947 net.cpp:139] Memory required for data: 327596400
I0406 15:35:29.820760   947 layer_factory.hpp:77] Creating layer relu5
I0406 15:35:29.820775   947 net.cpp:86] Creating Layer relu5
I0406 15:35:29.820782   947 net.cpp:408] relu5 <- conv5
I0406 15:35:29.820793   947 net.cpp:369] relu5 -> conv5 (in-place)
I0406 15:35:29.821036   947 net.cpp:124] Setting up relu5
I0406 15:35:29.821051   947 net.cpp:131] Top shape: 50 256 13 13 (2163200)
I0406 15:35:29.821058   947 net.cpp:139] Memory required for data: 336249200
I0406 15:35:29.821063   947 layer_factory.hpp:77] Creating layer pool5
I0406 15:35:29.821079   947 net.cpp:86] Creating Layer pool5
I0406 15:35:29.821084   947 net.cpp:408] pool5 <- conv5
I0406 15:35:29.821094   947 net.cpp:382] pool5 -> pool5
I0406 15:35:29.821172   947 net.cpp:124] Setting up pool5
I0406 15:35:29.821198   947 net.cpp:131] Top shape: 50 256 6 6 (460800)
I0406 15:35:29.821204   947 net.cpp:139] Memory required for data: 338092400
I0406 15:35:29.821210   947 layer_factory.hpp:77] Creating layer fc6
I0406 15:35:29.821223   947 net.cpp:86] Creating Layer fc6
I0406 15:35:29.821229   947 net.cpp:408] fc6 <- pool5
I0406 15:35:29.821238   947 net.cpp:382] fc6 -> fc6
I0406 15:35:30.411329   947 net.cpp:124] Setting up fc6
I0406 15:35:30.411382   947 net.cpp:131] Top shape: 50 4096 (204800)
I0406 15:35:30.411388   947 net.cpp:139] Memory required for data: 338911600
I0406 15:35:30.411403   947 layer_factory.hpp:77] Creating layer relu6
I0406 15:35:30.411418   947 net.cpp:86] Creating Layer relu6
I0406 15:35:30.411425   947 net.cpp:408] relu6 <- fc6
I0406 15:35:30.411437   947 net.cpp:369] relu6 -> fc6 (in-place)
I0406 15:35:30.412029   947 net.cpp:124] Setting up relu6
I0406 15:35:30.412045   947 net.cpp:131] Top shape: 50 4096 (204800)
I0406 15:35:30.412050   947 net.cpp:139] Memory required for data: 339730800
I0406 15:35:30.412057   947 layer_factory.hpp:77] Creating layer drop6
I0406 15:35:30.412067   947 net.cpp:86] Creating Layer drop6
I0406 15:35:30.412075   947 net.cpp:408] drop6 <- fc6
I0406 15:35:30.412083   947 net.cpp:369] drop6 -> fc6 (in-place)
I0406 15:35:30.412127   947 net.cpp:124] Setting up drop6
I0406 15:35:30.412137   947 net.cpp:131] Top shape: 50 4096 (204800)
I0406 15:35:30.412142   947 net.cpp:139] Memory required for data: 340550000
I0406 15:35:30.412148   947 layer_factory.hpp:77] Creating layer fc7
I0406 15:35:30.412160   947 net.cpp:86] Creating Layer fc7
I0406 15:35:30.412166   947 net.cpp:408] fc7 <- fc6
I0406 15:35:30.412176   947 net.cpp:382] fc7 -> fc7
I0406 15:35:30.674067   947 net.cpp:124] Setting up fc7
I0406 15:35:30.674115   947 net.cpp:131] Top shape: 50 4096 (204800)
I0406 15:35:30.674121   947 net.cpp:139] Memory required for data: 341369200
I0406 15:35:30.674137   947 layer_factory.hpp:77] Creating layer relu7
I0406 15:35:30.674152   947 net.cpp:86] Creating Layer relu7
I0406 15:35:30.674160   947 net.cpp:408] relu7 <- fc7
I0406 15:35:30.674172   947 net.cpp:369] relu7 -> fc7 (in-place)
I0406 15:35:30.674475   947 net.cpp:124] Setting up relu7
I0406 15:35:30.674490   947 net.cpp:131] Top shape: 50 4096 (204800)
I0406 15:35:30.674496   947 net.cpp:139] Memory required for data: 342188400
I0406 15:35:30.674502   947 layer_factory.hpp:77] Creating layer drop7
I0406 15:35:30.674513   947 net.cpp:86] Creating Layer drop7
I0406 15:35:30.674520   947 net.cpp:408] drop7 <- fc7
I0406 15:35:30.674528   947 net.cpp:369] drop7 -> fc7 (in-place)
I0406 15:35:30.674571   947 net.cpp:124] Setting up drop7
I0406 15:35:30.674582   947 net.cpp:131] Top shape: 50 4096 (204800)
I0406 15:35:30.674587   947 net.cpp:139] Memory required for data: 343007600
I0406 15:35:30.674593   947 layer_factory.hpp:77] Creating layer fc8
I0406 15:35:30.674605   947 net.cpp:86] Creating Layer fc8
I0406 15:35:30.674612   947 net.cpp:408] fc8 <- fc7
I0406 15:35:30.674620   947 net.cpp:382] fc8 -> fc8
I0406 15:35:30.892659   947 net.cpp:124] Setting up fc8
I0406 15:35:30.892719   947 net.cpp:131] Top shape: 50 1000 (50000)
I0406 15:35:30.892725   947 net.cpp:139] Memory required for data: 343207600
I0406 15:35:30.892741   947 layer_factory.hpp:77] Creating layer fc8_fc8_0_split
I0406 15:35:30.892756   947 net.cpp:86] Creating Layer fc8_fc8_0_split
I0406 15:35:30.892765   947 net.cpp:408] fc8_fc8_0_split <- fc8
I0406 15:35:30.892777   947 net.cpp:382] fc8_fc8_0_split -> fc8_fc8_0_split_0
I0406 15:35:30.892793   947 net.cpp:382] fc8_fc8_0_split -> fc8_fc8_0_split_1
I0406 15:35:30.892853   947 net.cpp:124] Setting up fc8_fc8_0_split
I0406 15:35:30.892863   947 net.cpp:131] Top shape: 50 1000 (50000)
I0406 15:35:30.892870   947 net.cpp:131] Top shape: 50 1000 (50000)
I0406 15:35:30.892876   947 net.cpp:139] Memory required for data: 343607600
I0406 15:35:30.892882   947 layer_factory.hpp:77] Creating layer accuracy
I0406 15:35:30.892894   947 net.cpp:86] Creating Layer accuracy
I0406 15:35:30.892915   947 net.cpp:408] accuracy <- fc8_fc8_0_split_0
I0406 15:35:30.892936   947 net.cpp:408] accuracy <- label_data_1_split_0
I0406 15:35:30.892946   947 net.cpp:382] accuracy -> accuracy
…
