…
I0406 01:09:37.078935 31936 net.cpp:296] The NetState phase (0) differed from the phase (1) specified by a rule in layer accuracy
I0406 01:09:37.079284 31936 net.cpp:53] Initializing net from parameters: 
name: "CaffeNet"
state {
  phase: TRAIN
  level: 0
  stage: ""
}
layer {
  name: "data"
  type: "Data"
  top: "data"
  top: "label"
  include {
    phase: TRAIN
  }
  transform_param {
    mirror: true
    crop_size: 227
    mean_file: "data/ilsvrc12/imagenet_mean.binaryproto"
  }
  data_param {
    source: "examples/imagenet/ilsvrc12_train_lmdb"
    batch_size: 256
    backend: LMDB
  }
}
layer {
  name: "conv1"
  type: "Convolution"
  bottom: "data"
  top: "conv1"
  param {
    lr_mult: 1
    decay_mult: 1
  }
  param {
    lr_mult: 2
    decay_mult: 0
  }
  convolution_param {
    num_output: 96
    kernel_size: 11
    stride: 4
    weight_filler {
      type: "gaussian"
      std: 0.01
    }
    bias_filler {
      type: "constant"
      value: 0
    }
  }
}
layer {
  name: "relu1"
  type: "ReLU"
  bottom: "conv1"
  top: "conv1"
}
layer {
  name: "pool1"
  type: "Pooling"
  bottom: "conv1"
  top: "pool1"
  pooling_param {
    pool: MAX
    kernel_size: 3
    stride: 2
  }
}
layer {
  name: "norm1"
  type: "LRN"
  bottom: "pool1"
  top: "norm1"
  lrn_param {
    local_size: 5
    alpha: 0.0001
    beta: 0.75
  }
}
layer {
  name: "conv2"
  type: "Convolution"
  bottom: "norm1"
  top: "conv2"
  param {
    lr_mult: 1
    decay_mult: 1
  }
  param {
    lr_mult: 2
    decay_mult: 0
  }
  convolution_param {
    num_output: 256
    pad: 2
    kernel_size: 5
    group: 2
    weight_filler {
      type: "gaussian"
      std: 0.01
    }
    bias_filler {
      type: "constant"
      value: 1
    }
  }
}
layer {
  name: "relu2"
  type: "ReLU"
  bottom: "conv2"
  top: "conv2"
}
layer {
  name: "pool2"
  type: "Pooling"
  bottom: "conv2"
  top: "pool2"
  pooling_param {
    pool: MAX
    kernel_size: 3
    stride: 2
  }
}
layer {
  name: "norm2"
  type: "LRN"
  bottom: "pool2"
  top: "norm2"
  lrn_param {
    local_size: 5
    alpha: 0.0001
    beta: 0.75
  }
}
layer {
  name: "conv3"
  type: "Convolution"
  bottom: "norm2"
  top: "conv3"
  param {
    lr_mult: 1
    decay_mult: 1
  }
  param {
    lr_mult: 2
    decay_mult: 0
  }
  convolution_param {
    num_output: 384
    pad: 1
    kernel_size: 3
    weight_filler {
      type: "gaussian"
      std: 0.01
    }
    bias_filler {
      type: "constant"
      value: 0
    }
  }
}
layer {
  name: "relu3"
  type: "ReLU"
  bottom: "conv3"
  top: "conv3"
}
layer {
  name: "conv4"
  type: "Convolution"
  bottom: "conv3"
  top: "conv4"
  param {
    lr_mult: 1
    decay_mult: 1
  }
  param {
    lr_mult: 2
    decay_mult: 0
  }
  convolution_param {
    num_output: 384
    pad: 1
    kernel_size: 3
    group: 2
    weight_filler {
      type: "gaussian"
      std: 0.01
    }
    bias_filler {
      type: "constant"
      value: 1
    }
  }
}
layer {
  name: "relu4"
  type: "ReLU"
  bottom: "conv4"
  top: "conv4"
}
layer {
  name: "conv5"
  type: "Convolution"
  bottom: "conv4"
  top: "conv5"
  param {
    lr_mult: 1
    decay_mult: 1
  }
  param {
    lr_mult: 2
    decay_mult: 0
  }
  convolution_param {
    num_output: 256
    pad: 1
    kernel_size: 3
    group: 2
    weight_filler {
      type: "gaussian"
      std: 0.01
    }
    bias_filler {
      type: "constant"
      value: 1
    }
  }
}
layer {
  name: "relu5"
  type: "ReLU"
  bottom: "conv5"
  top: "conv5"
}
layer {
  name: "pool5"
  type: "Pooling"
  bottom: "conv5"
  top: "pool5"
  pooling_param {
    pool: MAX
    kernel_size: 3
    stride: 2
  }
}
layer {
  name: "fc6"
  type: "InnerProduct"
  bottom: "pool5"
  top: "fc6"
  param {
    lr_mult: 1
    decay_mult: 1
  }
  param {
    lr_mult: 2
    decay_mult: 0
  }
  inner_product_param {
    num_output: 4096
    weight_filler {
      type: "gaussian"
      std: 0.005
    }
    bias_filler {
      type: "constant"
      value: 1
    }
  }
}
layer {
  name: "relu6"
  type: "ReLU"
  bottom: "fc6"
  top: "fc6"
}
layer {
  name: "drop6"
  type: "Dropout"
  bottom: "fc6"
  top: "fc6"
  dropout_param {
    dropout_ratio: 0.5
  }
}
layer {
  name: "fc7"
  type: "InnerProduct"
  bottom: "fc6"
  top: "fc7"
  param {
    lr_mult: 1
    decay_mult: 1
  }
  param {
    lr_mult: 2
    decay_mult: 0
  }
  inner_product_param {
    num_output: 4096
    weight_filler {
      type: "gaussian"
      std: 0.005
    }
    bias_filler {
      type: "constant"
      value: 1
    }
  }
}
layer {
  name: "relu7"
  type: "ReLU"
  bottom: "fc7"
  top: "fc7"
}
layer {
  name: "drop7"
  type: "Dropout"
  bottom: "fc7"
  top: "fc7"
  dropout_param {
    dropout_ratio: 0.5
  }
}
layer {
  name: "fc8"
  type: "InnerProduct"
  bottom: "fc7"
  top: "fc8"
  param {
    lr_mult: 1
    decay_mult: 1
  }
  param {
    lr_mult: 2
    decay_mult: 0
  }
  inner_product_param {
    num_output: 1000
    weight_filler {
      type: "gaussian"
      std: 0.01
    }
    bias_filler {
      type: "constant"
      value: 0
    }
  }
}
layer {
  name: "loss"
  type: "SoftmaxWithLoss"
  bottom: "fc8"
  bottom: "label"
  top: "loss"
}
I0406 01:09:37.079465 31936 layer_factory.hpp:77] Creating layer data
I0406 01:09:37.079650 31936 db_lmdb.cpp:35] Opened lmdb examples/imagenet/ilsvrc12_train_lmdb
I0406 01:09:37.079712 31936 net.cpp:86] Creating Layer data
I0406 01:09:37.079736 31936 net.cpp:382] data -> data
I0406 01:09:37.079777 31936 net.cpp:382] data -> label
I0406 01:09:37.079804 31936 data_transformer.cpp:25] Loading mean file from: data/ilsvrc12/imagenet_mean.binaryproto
I0406 01:09:37.101584 31936 data_layer.cpp:45] output data size: 256,3,227,227
I0406 01:09:37.514580 31936 net.cpp:124] Setting up data
I0406 01:09:37.514636 31936 net.cpp:131] Top shape: 256 3 227 227 (39574272)
I0406 01:09:37.514644 31936 net.cpp:131] Top shape: 256 (256)
I0406 01:09:37.514650 31936 net.cpp:139] Memory required for data: 158298112
I0406 01:09:37.514664 31936 layer_factory.hpp:77] Creating layer conv1
I0406 01:09:37.514696 31936 net.cpp:86] Creating Layer conv1
I0406 01:09:37.514708 31936 net.cpp:408] conv1 <- data
I0406 01:09:37.514726 31936 net.cpp:382] conv1 -> conv1
I0406 01:09:38.079169 31936 net.cpp:124] Setting up conv1
I0406 01:09:38.079222 31936 net.cpp:131] Top shape: 256 96 55 55 (74342400)
I0406 01:09:38.079229 31936 net.cpp:139] Memory required for data: 455667712
I0406 01:09:38.079262 31936 layer_factory.hpp:77] Creating layer relu1
I0406 01:09:38.079280 31936 net.cpp:86] Creating Layer relu1
I0406 01:09:38.079288 31936 net.cpp:408] relu1 <- conv1
I0406 01:09:38.079298 31936 net.cpp:369] relu1 -> conv1 (in-place)
I0406 01:09:38.079726 31936 net.cpp:124] Setting up relu1
I0406 01:09:38.079743 31936 net.cpp:131] Top shape: 256 96 55 55 (74342400)
I0406 01:09:38.079749 31936 net.cpp:139] Memory required for data: 753037312
I0406 01:09:38.079756 31936 layer_factory.hpp:77] Creating layer pool1
I0406 01:09:38.079766 31936 net.cpp:86] Creating Layer pool1
I0406 01:09:38.079772 31936 net.cpp:408] pool1 <- conv1
I0406 01:09:38.079782 31936 net.cpp:382] pool1 -> pool1
I0406 01:09:38.079849 31936 net.cpp:124] Setting up pool1
I0406 01:09:38.079861 31936 net.cpp:131] Top shape: 256 96 27 27 (17915904)
I0406 01:09:38.079867 31936 net.cpp:139] Memory required for data: 824700928
I0406 01:09:38.079874 31936 layer_factory.hpp:77] Creating layer norm1
I0406 01:09:38.079888 31936 net.cpp:86] Creating Layer norm1
I0406 01:09:38.079906 31936 net.cpp:408] norm1 <- pool1
I0406 01:09:38.079929 31936 net.cpp:382] norm1 -> norm1
I0406 01:09:38.080193 31936 net.cpp:124] Setting up norm1
I0406 01:09:38.080209 31936 net.cpp:131] Top shape: 256 96 27 27 (17915904)
I0406 01:09:38.080214 31936 net.cpp:139] Memory required for data: 896364544
I0406 01:09:38.080220 31936 layer_factory.hpp:77] Creating layer conv2
I0406 01:09:38.080238 31936 net.cpp:86] Creating Layer conv2
I0406 01:09:38.080245 31936 net.cpp:408] conv2 <- norm1
I0406 01:09:38.080258 31936 net.cpp:382] conv2 -> conv2
I0406 01:09:38.088349 31936 net.cpp:124] Setting up conv2
I0406 01:09:38.088399 31936 net.cpp:131] Top shape: 256 256 27 27 (47775744)
I0406 01:09:38.088407 31936 net.cpp:139] Memory required for data: 1087467520
I0406 01:09:38.088429 31936 layer_factory.hpp:77] Creating layer relu2
I0406 01:09:38.088445 31936 net.cpp:86] Creating Layer relu2
I0406 01:09:38.088454 31936 net.cpp:408] relu2 <- conv2
I0406 01:09:38.088464 31936 net.cpp:369] relu2 -> conv2 (in-place)
I0406 01:09:38.088708 31936 net.cpp:124] Setting up relu2
I0406 01:09:38.088722 31936 net.cpp:131] Top shape: 256 256 27 27 (47775744)
I0406 01:09:38.088728 31936 net.cpp:139] Memory required for data: 1278570496
I0406 01:09:38.088734 31936 layer_factory.hpp:77] Creating layer pool2
I0406 01:09:38.088744 31936 net.cpp:86] Creating Layer pool2
I0406 01:09:38.088750 31936 net.cpp:408] pool2 <- conv2
I0406 01:09:38.088762 31936 net.cpp:382] pool2 -> pool2
I0406 01:09:38.088819 31936 net.cpp:124] Setting up pool2
I0406 01:09:38.088832 31936 net.cpp:131] Top shape: 256 256 13 13 (11075584)
I0406 01:09:38.088838 31936 net.cpp:139] Memory required for data: 1322872832
I0406 01:09:38.088845 31936 layer_factory.hpp:77] Creating layer norm2
I0406 01:09:38.088860 31936 net.cpp:86] Creating Layer norm2
I0406 01:09:38.088867 31936 net.cpp:408] norm2 <- pool2
I0406 01:09:38.088876 31936 net.cpp:382] norm2 -> norm2
I0406 01:09:38.089319 31936 net.cpp:124] Setting up norm2
I0406 01:09:38.089336 31936 net.cpp:131] Top shape: 256 256 13 13 (11075584)
I0406 01:09:38.089342 31936 net.cpp:139] Memory required for data: 1367175168
I0406 01:09:38.089349 31936 layer_factory.hpp:77] Creating layer conv3
I0406 01:09:38.089368 31936 net.cpp:86] Creating Layer conv3
I0406 01:09:38.089376 31936 net.cpp:408] conv3 <- norm2
I0406 01:09:38.089388 31936 net.cpp:382] conv3 -> conv3
I0406 01:09:38.147243 31936 net.cpp:124] Setting up conv3
I0406 01:09:38.147302 31936 net.cpp:131] Top shape: 256 384 13 13 (16613376)
I0406 01:09:38.147310 31936 net.cpp:139] Memory required for data: 1433628672
I0406 01:09:38.147330 31936 layer_factory.hpp:77] Creating layer relu3
I0406 01:09:38.147346 31936 net.cpp:86] Creating Layer relu3
I0406 01:09:38.147353 31936 net.cpp:408] relu3 <- conv3
I0406 01:09:38.147367 31936 net.cpp:369] relu3 -> conv3 (in-place)
I0406 01:09:38.147598 31936 net.cpp:124] Setting up relu3
I0406 01:09:38.147613 31936 net.cpp:131] Top shape: 256 384 13 13 (16613376)
I0406 01:09:38.147619 31936 net.cpp:139] Memory required for data: 1500082176
I0406 01:09:38.147624 31936 layer_factory.hpp:77] Creating layer conv4
I0406 01:09:38.147642 31936 net.cpp:86] Creating Layer conv4
I0406 01:09:38.147650 31936 net.cpp:408] conv4 <- conv3
I0406 01:09:38.147665 31936 net.cpp:382] conv4 -> conv4
I0406 01:09:38.161026 31936 net.cpp:124] Setting up conv4
I0406 01:09:38.161078 31936 net.cpp:131] Top shape: 256 384 13 13 (16613376)
I0406 01:09:38.161084 31936 net.cpp:139] Memory required for data: 1566535680
I0406 01:09:38.161099 31936 layer_factory.hpp:77] Creating layer relu4
I0406 01:09:38.161114 31936 net.cpp:86] Creating Layer relu4
I0406 01:09:38.161121 31936 net.cpp:408] relu4 <- conv4
I0406 01:09:38.161134 31936 net.cpp:369] relu4 -> conv4 (in-place)
I0406 01:09:38.161365 31936 net.cpp:124] Setting up relu4
I0406 01:09:38.161381 31936 net.cpp:131] Top shape: 256 384 13 13 (16613376)
I0406 01:09:38.161386 31936 net.cpp:139] Memory required for data: 1632989184
I0406 01:09:38.161392 31936 layer_factory.hpp:77] Creating layer conv5
I0406 01:09:38.161422 31936 net.cpp:86] Creating Layer conv5
I0406 01:09:38.161442 31936 net.cpp:408] conv5 <- conv4
I0406 01:09:38.161455 31936 net.cpp:382] conv5 -> conv5
I0406 01:09:38.171406 31936 net.cpp:124] Setting up conv5
I0406 01:09:38.171455 31936 net.cpp:131] Top shape: 256 256 13 13 (11075584)
I0406 01:09:38.171463 31936 net.cpp:139] Memory required for data: 1677291520
I0406 01:09:38.171483 31936 layer_factory.hpp:77] Creating layer relu5
I0406 01:09:38.171499 31936 net.cpp:86] Creating Layer relu5
I0406 01:09:38.171506 31936 net.cpp:408] relu5 <- conv5
I0406 01:09:38.171520 31936 net.cpp:369] relu5 -> conv5 (in-place)
I0406 01:09:38.171742 31936 net.cpp:124] Setting up relu5
I0406 01:09:38.171757 31936 net.cpp:131] Top shape: 256 256 13 13 (11075584)
I0406 01:09:38.171762 31936 net.cpp:139] Memory required for data: 1721593856
I0406 01:09:38.171768 31936 layer_factory.hpp:77] Creating layer pool5
I0406 01:09:38.171782 31936 net.cpp:86] Creating Layer pool5
I0406 01:09:38.171788 31936 net.cpp:408] pool5 <- conv5
I0406 01:09:38.171797 31936 net.cpp:382] pool5 -> pool5
I0406 01:09:38.171862 31936 net.cpp:124] Setting up pool5
I0406 01:09:38.171875 31936 net.cpp:131] Top shape: 256 256 6 6 (2359296)
I0406 01:09:38.171880 31936 net.cpp:139] Memory required for data: 1731031040
I0406 01:09:38.171885 31936 layer_factory.hpp:77] Creating layer fc6
I0406 01:09:38.171902 31936 net.cpp:86] Creating Layer fc6
I0406 01:09:38.171910 31936 net.cpp:408] fc6 <- pool5
I0406 01:09:38.171918 31936 net.cpp:382] fc6 -> fc6
I0406 01:09:38.763793 31936 net.cpp:124] Setting up fc6
I0406 01:09:38.763847 31936 net.cpp:131] Top shape: 256 4096 (1048576)
I0406 01:09:38.763854 31936 net.cpp:139] Memory required for data: 1735225344
I0406 01:09:38.763870 31936 layer_factory.hpp:77] Creating layer relu6
I0406 01:09:38.763883 31936 net.cpp:86] Creating Layer relu6
I0406 01:09:38.763891 31936 net.cpp:408] relu6 <- fc6
I0406 01:09:38.763906 31936 net.cpp:369] relu6 -> fc6 (in-place)
I0406 01:09:38.764475 31936 net.cpp:124] Setting up relu6
I0406 01:09:38.764492 31936 net.cpp:131] Top shape: 256 4096 (1048576)
I0406 01:09:38.764497 31936 net.cpp:139] Memory required for data: 1739419648
I0406 01:09:38.764503 31936 layer_factory.hpp:77] Creating layer drop6
I0406 01:09:38.764514 31936 net.cpp:86] Creating Layer drop6
I0406 01:09:38.764521 31936 net.cpp:408] drop6 <- fc6
I0406 01:09:38.764531 31936 net.cpp:369] drop6 -> fc6 (in-place)
I0406 01:09:38.764570 31936 net.cpp:124] Setting up drop6
I0406 01:09:38.764581 31936 net.cpp:131] Top shape: 256 4096 (1048576)
I0406 01:09:38.764586 31936 net.cpp:139] Memory required for data: 1743613952
I0406 01:09:38.764592 31936 layer_factory.hpp:77] Creating layer fc7
I0406 01:09:38.764606 31936 net.cpp:86] Creating Layer fc7
I0406 01:09:38.764612 31936 net.cpp:408] fc7 <- fc6
I0406 01:09:38.764621 31936 net.cpp:382] fc7 -> fc7
I0406 01:09:39.025925 31936 net.cpp:124] Setting up fc7
I0406 01:09:39.025971 31936 net.cpp:131] Top shape: 256 4096 (1048576)
I0406 01:09:39.025977 31936 net.cpp:139] Memory required for data: 1747808256
I0406 01:09:39.025992 31936 layer_factory.hpp:77] Creating layer relu7
I0406 01:09:39.026010 31936 net.cpp:86] Creating Layer relu7
I0406 01:09:39.026017 31936 net.cpp:408] relu7 <- fc7
I0406 01:09:39.026028 31936 net.cpp:369] relu7 -> fc7 (in-place)
I0406 01:09:39.026326 31936 net.cpp:124] Setting up relu7
I0406 01:09:39.026341 31936 net.cpp:131] Top shape: 256 4096 (1048576)
I0406 01:09:39.026346 31936 net.cpp:139] Memory required for data: 1752002560
I0406 01:09:39.026352 31936 layer_factory.hpp:77] Creating layer drop7
I0406 01:09:39.026367 31936 net.cpp:86] Creating Layer drop7
I0406 01:09:39.026373 31936 net.cpp:408] drop7 <- fc7
I0406 01:09:39.026382 31936 net.cpp:369] drop7 -> fc7 (in-place)
I0406 01:09:39.026423 31936 net.cpp:124] Setting up drop7
I0406 01:09:39.026437 31936 net.cpp:131] Top shape: 256 4096 (1048576)
I0406 01:09:39.026442 31936 net.cpp:139] Memory required for data: 1756196864
I0406 01:09:39.026448 31936 layer_factory.hpp:77] Creating layer fc8
I0406 01:09:39.026458 31936 net.cpp:86] Creating Layer fc8
I0406 01:09:39.026476 31936 net.cpp:408] fc8 <- fc7
I0406 01:09:39.026499 31936 net.cpp:382] fc8 -> fc8
I0406 01:09:39.262543 31936 net.cpp:124] Setting up fc8
I0406 01:09:39.262603 31936 net.cpp:131] Top shape: 256 1000 (256000)
I0406 01:09:39.262609 31936 net.cpp:139] Memory required for data: 1757220864
I0406 01:09:39.262625 31936 layer_factory.hpp:77] Creating layer loss
I0406 01:09:39.262642 31936 net.cpp:86] Creating Layer loss
I0406 01:09:39.262650 31936 net.cpp:408] loss <- fc8
I0406 01:09:39.262661 31936 net.cpp:408] loss <- label
I0406 01:09:39.262675 31936 net.cpp:382] loss -> loss
I0406 01:09:39.262697 31936 layer_factory.hpp:77] Creating layer loss
…
I0406 01:09:39.264670 31936 net.cpp:296] The NetState phase (1) differed from the phase (0) specified by a rule in layer data
I0406 01:09:39.264914 31936 net.cpp:53] Initializing net from parameters: 
name: "CaffeNet"
state {
  phase: TEST
}
layer {
  name: "data"
  type: "Data"
  top: "data"
  top: "label"
  include {
    phase: TEST
  }
  transform_param {
    mirror: false
    crop_size: 227
    mean_file: "data/ilsvrc12/imagenet_mean.binaryproto"
  }
  data_param {
    source: "examples/imagenet/ilsvrc12_val_lmdb"
    batch_size: 50
    backend: LMDB
  }
}
layer {
  name: "conv1"
  type: "Convolution"
  bottom: "data"
  top: "conv1"
  param {
    lr_mult: 1
    decay_mult: 1
  }
  param {
    lr_mult: 2
    decay_mult: 0
  }
  convolution_param {
    num_output: 96
    kernel_size: 11
    stride: 4
    weight_filler {
      type: "gaussian"
      std: 0.01
    }
    bias_filler {
      type: "constant"
      value: 0
    }
  }
}
layer {
  name: "relu1"
  type: "ReLU"
  bottom: "conv1"
  top: "conv1"
}
layer {
  name: "pool1"
  type: "Pooling"
  bottom: "conv1"
  top: "pool1"
  pooling_param {
    pool: MAX
    kernel_size: 3
    stride: 2
  }
}
layer {
  name: "norm1"
  type: "LRN"
  bottom: "pool1"
  top: "norm1"
  lrn_param {
    local_size: 5
    alpha: 0.0001
    beta: 0.75
  }
}
layer {
  name: "conv2"
  type: "Convolution"
  bottom: "norm1"
  top: "conv2"
  param {
    lr_mult: 1
    decay_mult: 1
  }
  param {
    lr_mult: 2
    decay_mult: 0
  }
  convolution_param {
    num_output: 256
    pad: 2
    kernel_size: 5
    group: 2
    weight_filler {
      type: "gaussian"
      std: 0.01
    }
    bias_filler {
      type: "constant"
      value: 1
    }
  }
}
layer {
  name: "relu2"
  type: "ReLU"
  bottom: "conv2"
  top: "conv2"
}
layer {
  name: "pool2"
  type: "Pooling"
  bottom: "conv2"
  top: "pool2"
  pooling_param {
    pool: MAX
    kernel_size: 3
    stride: 2
  }
}
layer {
  name: "norm2"
  type: "LRN"
  bottom: "pool2"
  top: "norm2"
  lrn_param {
    local_size: 5
    alpha: 0.0001
    beta: 0.75
  }
}
layer {
  name: "conv3"
  type: "Convolution"
  bottom: "norm2"
  top: "conv3"
  param {
    lr_mult: 1
    decay_mult: 1
  }
  param {
    lr_mult: 2
    decay_mult: 0
  }
  convolution_param {
    num_output: 384
    pad: 1
    kernel_size: 3
    weight_filler {
      type: "gaussian"
      std: 0.01
    }
    bias_filler {
      type: "constant"
      value: 0
    }
  }
}
layer {
  name: "relu3"
  type: "ReLU"
  bottom: "conv3"
  top: "conv3"
}
layer {
  name: "conv4"
  type: "Convolution"
  bottom: "conv3"
  top: "conv4"
  param {
    lr_mult: 1
    decay_mult: 1
  }
  param {
    lr_mult: 2
    decay_mult: 0
  }
  convolution_param {
    num_output: 384
    pad: 1
    kernel_size: 3
    group: 2
    weight_filler {
      type: "gaussian"
      std: 0.01
    }
    bias_filler {
      type: "constant"
      value: 1
    }
  }
}
layer {
  name: "relu4"
  type: "ReLU"
  bottom: "conv4"
  top: "conv4"
}
layer {
  name: "conv5"
  type: "Convolution"
  bottom: "conv4"
  top: "conv5"
  param {
    lr_mult: 1
    decay_mult: 1
  }
  param {
    lr_mult: 2
    decay_mult: 0
  }
  convolution_param {
    num_output: 256
    pad: 1
    kernel_size: 3
    group: 2
    weight_filler {
      type: "gaussian"
      std: 0.01
    }
    bias_filler {
      type: "constant"
      value: 1
    }
  }
}
layer {
  name: "relu5"
  type: "ReLU"
  bottom: "conv5"
  top: "conv5"
}
layer {
  name: "pool5"
  type: "Pooling"
  bottom: "conv5"
  top: "pool5"
  pooling_param {
    pool: MAX
    kernel_size: 3
    stride: 2
  }
}
layer {
  name: "fc6"
  type: "InnerProduct"
  bottom: "pool5"
  top: "fc6"
  param {
    lr_mult: 1
    decay_mult: 1
  }
  param {
    lr_mult: 2
    decay_mult: 0
  }
  inner_product_param {
    num_output: 4096
    weight_filler {
      type: "gaussian"
      std: 0.005
    }
    bias_filler {
      type: "constant"
      value: 1
    }
  }
}
layer {
  name: "relu6"
  type: "ReLU"
  bottom: "fc6"
  top: "fc6"
}
layer {
  name: "drop6"
  type: "Dropout"
  bottom: "fc6"
  top: "fc6"
  dropout_param {
    dropout_ratio: 0.5
  }
}
layer {
  name: "fc7"
  type: "InnerProduct"
  bottom: "fc6"
  top: "fc7"
  param {
    lr_mult: 1
    decay_mult: 1
  }
  param {
    lr_mult: 2
    decay_mult: 0
  }
  inner_product_param {
    num_output: 4096
    weight_filler {
      type: "gaussian"
      std: 0.005
    }
    bias_filler {
      type: "constant"
      value: 1
    }
  }
}
layer {
  name: "relu7"
  type: "ReLU"
  bottom: "fc7"
  top: "fc7"
}
layer {
  name: "drop7"
  type: "Dropout"
  bottom: "fc7"
  top: "fc7"
  dropout_param {
    dropout_ratio: 0.5
  }
}
layer {
  name: "fc8"
  type: "InnerProduct"
  bottom: "fc7"
  top: "fc8"
  param {
    lr_mult: 1
    decay_mult: 1
  }
  param {
    lr_mult: 2
    decay_mult: 0
  }
  inner_product_param {
    num_output: 1000
    weight_filler {
      type: "gaussian"
      std: 0.01
    }
    bias_filler {
      type: "constant"
      value: 0
    }
  }
}
layer {
  name: "accuracy"
  type: "Accuracy"
  bottom: "fc8"
  bottom: "label"
  top: "accuracy"
  include {
    phase: TEST
  }
}
layer {
  name: "loss"
  type: "SoftmaxWithLoss"
  bottom: "fc8"
  bottom: "label"
  top: "loss"
}
I0406 01:09:39.265074 31936 layer_factory.hpp:77] Creating layer data
I0406 01:09:39.265156 31936 db_lmdb.cpp:35] Opened lmdb examples/imagenet/ilsvrc12_val_lmdb
I0406 01:09:39.265187 31936 net.cpp:86] Creating Layer data
I0406 01:09:39.265197 31936 net.cpp:382] data -> data
I0406 01:09:39.265210 31936 net.cpp:382] data -> label
I0406 01:09:39.265223 31936 data_transformer.cpp:25] Loading mean file from: data/ilsvrc12/imagenet_mean.binaryproto
I0406 01:09:39.267648 31936 data_layer.cpp:45] output data size: 50,3,227,227
I0406 01:09:39.347126 31936 net.cpp:124] Setting up data
I0406 01:09:39.347180 31936 net.cpp:131] Top shape: 50 3 227 227 (7729350)
I0406 01:09:39.347188 31936 net.cpp:131] Top shape: 50 (50)
I0406 01:09:39.347193 31936 net.cpp:139] Memory required for data: 30917600
I0406 01:09:39.347203 31936 layer_factory.hpp:77] Creating layer label_data_1_split
I0406 01:09:39.347221 31936 net.cpp:86] Creating Layer label_data_1_split
I0406 01:09:39.347229 31936 net.cpp:408] label_data_1_split <- label
I0406 01:09:39.347240 31936 net.cpp:382] label_data_1_split -> label_data_1_split_0
I0406 01:09:39.347256 31936 net.cpp:382] label_data_1_split -> label_data_1_split_1
I0406 01:09:39.347331 31936 net.cpp:124] Setting up label_data_1_split
I0406 01:09:39.347342 31936 net.cpp:131] Top shape: 50 (50)
I0406 01:09:39.347349 31936 net.cpp:131] Top shape: 50 (50)
I0406 01:09:39.347354 31936 net.cpp:139] Memory required for data: 30918000
I0406 01:09:39.347360 31936 layer_factory.hpp:77] Creating layer conv1
I0406 01:09:39.347378 31936 net.cpp:86] Creating Layer conv1
I0406 01:09:39.347385 31936 net.cpp:408] conv1 <- data
I0406 01:09:39.347395 31936 net.cpp:382] conv1 -> conv1
I0406 01:09:39.354444 31936 net.cpp:124] Setting up conv1
I0406 01:09:39.354470 31936 net.cpp:131] Top shape: 50 96 55 55 (14520000)
I0406 01:09:39.354476 31936 net.cpp:139] Memory required for data: 88998000
I0406 01:09:39.354495 31936 layer_factory.hpp:77] Creating layer relu1
I0406 01:09:39.354506 31936 net.cpp:86] Creating Layer relu1
I0406 01:09:39.354512 31936 net.cpp:408] relu1 <- conv1
I0406 01:09:39.354521 31936 net.cpp:369] relu1 -> conv1 (in-place)
I0406 01:09:39.354821 31936 net.cpp:124] Setting up relu1
I0406 01:09:39.354836 31936 net.cpp:131] Top shape: 50 96 55 55 (14520000)
I0406 01:09:39.354841 31936 net.cpp:139] Memory required for data: 147078000
I0406 01:09:39.354847 31936 layer_factory.hpp:77] Creating layer pool1
I0406 01:09:39.354861 31936 net.cpp:86] Creating Layer pool1
I0406 01:09:39.354867 31936 net.cpp:408] pool1 <- conv1
I0406 01:09:39.354876 31936 net.cpp:382] pool1 -> pool1
I0406 01:09:39.354936 31936 net.cpp:124] Setting up pool1
I0406 01:09:39.354948 31936 net.cpp:131] Top shape: 50 96 27 27 (3499200)
I0406 01:09:39.354954 31936 net.cpp:139] Memory required for data: 161074800
I0406 01:09:39.354959 31936 layer_factory.hpp:77] Creating layer norm1
I0406 01:09:39.354969 31936 net.cpp:86] Creating Layer norm1
I0406 01:09:39.354976 31936 net.cpp:408] norm1 <- pool1
I0406 01:09:39.354984 31936 net.cpp:382] norm1 -> norm1
I0406 01:09:39.355425 31936 net.cpp:124] Setting up norm1
I0406 01:09:39.355443 31936 net.cpp:131] Top shape: 50 96 27 27 (3499200)
I0406 01:09:39.355448 31936 net.cpp:139] Memory required for data: 175071600
I0406 01:09:39.355454 31936 layer_factory.hpp:77] Creating layer conv2
I0406 01:09:39.355469 31936 net.cpp:86] Creating Layer conv2
I0406 01:09:39.355476 31936 net.cpp:408] conv2 <- norm1
I0406 01:09:39.355486 31936 net.cpp:382] conv2 -> conv2
I0406 01:09:39.363049 31936 net.cpp:124] Setting up conv2
I0406 01:09:39.363099 31936 net.cpp:131] Top shape: 50 256 27 27 (9331200)
I0406 01:09:39.363106 31936 net.cpp:139] Memory required for data: 212396400
I0406 01:09:39.363128 31936 layer_factory.hpp:77] Creating layer relu2
I0406 01:09:39.363143 31936 net.cpp:86] Creating Layer relu2
I0406 01:09:39.363152 31936 net.cpp:408] relu2 <- conv2
I0406 01:09:39.363162 31936 net.cpp:369] relu2 -> conv2 (in-place)
I0406 01:09:39.363380 31936 net.cpp:124] Setting up relu2
I0406 01:09:39.363409 31936 net.cpp:131] Top shape: 50 256 27 27 (9331200)
I0406 01:09:39.363426 31936 net.cpp:139] Memory required for data: 249721200
I0406 01:09:39.363433 31936 layer_factory.hpp:77] Creating layer pool2
I0406 01:09:39.363446 31936 net.cpp:86] Creating Layer pool2
I0406 01:09:39.363453 31936 net.cpp:408] pool2 <- conv2
I0406 01:09:39.363462 31936 net.cpp:382] pool2 -> pool2
I0406 01:09:39.363525 31936 net.cpp:124] Setting up pool2
I0406 01:09:39.363538 31936 net.cpp:131] Top shape: 50 256 13 13 (2163200)
I0406 01:09:39.363543 31936 net.cpp:139] Memory required for data: 258374000
I0406 01:09:39.363549 31936 layer_factory.hpp:77] Creating layer norm2
I0406 01:09:39.363560 31936 net.cpp:86] Creating Layer norm2
I0406 01:09:39.363566 31936 net.cpp:408] norm2 <- pool2
I0406 01:09:39.363575 31936 net.cpp:382] norm2 -> norm2
I0406 01:09:39.364014 31936 net.cpp:124] Setting up norm2
I0406 01:09:39.364032 31936 net.cpp:131] Top shape: 50 256 13 13 (2163200)
I0406 01:09:39.364037 31936 net.cpp:139] Memory required for data: 267026800
I0406 01:09:39.364042 31936 layer_factory.hpp:77] Creating layer conv3
I0406 01:09:39.364059 31936 net.cpp:86] Creating Layer conv3
I0406 01:09:39.364066 31936 net.cpp:408] conv3 <- norm2
I0406 01:09:39.364076 31936 net.cpp:382] conv3 -> conv3
I0406 01:09:39.379413 31936 net.cpp:124] Setting up conv3
I0406 01:09:39.379463 31936 net.cpp:131] Top shape: 50 384 13 13 (3244800)
I0406 01:09:39.379470 31936 net.cpp:139] Memory required for data: 280006000
I0406 01:09:39.379490 31936 layer_factory.hpp:77] Creating layer relu3
I0406 01:09:39.379505 31936 net.cpp:86] Creating Layer relu3
I0406 01:09:39.379513 31936 net.cpp:408] relu3 <- conv3
I0406 01:09:39.379524 31936 net.cpp:369] relu3 -> conv3 (in-place)
I0406 01:09:39.379915 31936 net.cpp:124] Setting up relu3
I0406 01:09:39.379931 31936 net.cpp:131] Top shape: 50 384 13 13 (3244800)
I0406 01:09:39.379937 31936 net.cpp:139] Memory required for data: 292985200
I0406 01:09:39.379943 31936 layer_factory.hpp:77] Creating layer conv4
I0406 01:09:39.379961 31936 net.cpp:86] Creating Layer conv4
I0406 01:09:39.379967 31936 net.cpp:408] conv4 <- conv3
I0406 01:09:39.379977 31936 net.cpp:382] conv4 -> conv4
I0406 01:09:39.403615 31936 net.cpp:124] Setting up conv4
I0406 01:09:39.403671 31936 net.cpp:131] Top shape: 50 384 13 13 (3244800)
I0406 01:09:39.403677 31936 net.cpp:139] Memory required for data: 305964400
I0406 01:09:39.403692 31936 layer_factory.hpp:77] Creating layer relu4
I0406 01:09:39.403707 31936 net.cpp:86] Creating Layer relu4
I0406 01:09:39.403715 31936 net.cpp:408] relu4 <- conv4
I0406 01:09:39.403726 31936 net.cpp:369] relu4 -> conv4 (in-place)
I0406 01:09:39.403959 31936 net.cpp:124] Setting up relu4
I0406 01:09:39.403973 31936 net.cpp:131] Top shape: 50 384 13 13 (3244800)
I0406 01:09:39.403980 31936 net.cpp:139] Memory required for data: 318943600
I0406 01:09:39.403985 31936 layer_factory.hpp:77] Creating layer conv5
I0406 01:09:39.404002 31936 net.cpp:86] Creating Layer conv5
I0406 01:09:39.404009 31936 net.cpp:408] conv5 <- conv4
I0406 01:09:39.404019 31936 net.cpp:382] conv5 -> conv5
I0406 01:09:39.414090 31936 net.cpp:124] Setting up conv5
I0406 01:09:39.414141 31936 net.cpp:131] Top shape: 50 256 13 13 (2163200)
I0406 01:09:39.414147 31936 net.cpp:139] Memory required for data: 327596400
I0406 01:09:39.414170 31936 layer_factory.hpp:77] Creating layer relu5
I0406 01:09:39.414186 31936 net.cpp:86] Creating Layer relu5
I0406 01:09:39.414193 31936 net.cpp:408] relu5 <- conv5
I0406 01:09:39.414204 31936 net.cpp:369] relu5 -> conv5 (in-place)
I0406 01:09:39.414438 31936 net.cpp:124] Setting up relu5
I0406 01:09:39.414453 31936 net.cpp:131] Top shape: 50 256 13 13 (2163200)
I0406 01:09:39.414458 31936 net.cpp:139] Memory required for data: 336249200
I0406 01:09:39.414464 31936 layer_factory.hpp:77] Creating layer pool5
I0406 01:09:39.414479 31936 net.cpp:86] Creating Layer pool5
I0406 01:09:39.414485 31936 net.cpp:408] pool5 <- conv5
I0406 01:09:39.414494 31936 net.cpp:382] pool5 -> pool5
I0406 01:09:39.414575 31936 net.cpp:124] Setting up pool5
I0406 01:09:39.414602 31936 net.cpp:131] Top shape: 50 256 6 6 (460800)
I0406 01:09:39.414608 31936 net.cpp:139] Memory required for data: 338092400
I0406 01:09:39.414613 31936 layer_factory.hpp:77] Creating layer fc6
I0406 01:09:39.414625 31936 net.cpp:86] Creating Layer fc6
I0406 01:09:39.414631 31936 net.cpp:408] fc6 <- pool5
I0406 01:09:39.414640 31936 net.cpp:382] fc6 -> fc6
I0406 01:09:40.077949 31936 net.cpp:124] Setting up fc6
I0406 01:09:40.078003 31936 net.cpp:131] Top shape: 50 4096 (204800)
I0406 01:09:40.078009 31936 net.cpp:139] Memory required for data: 338911600
I0406 01:09:40.078025 31936 layer_factory.hpp:77] Creating layer relu6
I0406 01:09:40.078040 31936 net.cpp:86] Creating Layer relu6
I0406 01:09:40.078048 31936 net.cpp:408] relu6 <- fc6
I0406 01:09:40.078059 31936 net.cpp:369] relu6 -> fc6 (in-place)
I0406 01:09:40.078654 31936 net.cpp:124] Setting up relu6
I0406 01:09:40.078670 31936 net.cpp:131] Top shape: 50 4096 (204800)
I0406 01:09:40.078676 31936 net.cpp:139] Memory required for data: 339730800
I0406 01:09:40.078682 31936 layer_factory.hpp:77] Creating layer drop6
I0406 01:09:40.078693 31936 net.cpp:86] Creating Layer drop6
I0406 01:09:40.078699 31936 net.cpp:408] drop6 <- fc6
I0406 01:09:40.078707 31936 net.cpp:369] drop6 -> fc6 (in-place)
I0406 01:09:40.078752 31936 net.cpp:124] Setting up drop6
I0406 01:09:40.078763 31936 net.cpp:131] Top shape: 50 4096 (204800)
I0406 01:09:40.078768 31936 net.cpp:139] Memory required for data: 340550000
I0406 01:09:40.078774 31936 layer_factory.hpp:77] Creating layer fc7
I0406 01:09:40.078785 31936 net.cpp:86] Creating Layer fc7
I0406 01:09:40.078791 31936 net.cpp:408] fc7 <- fc6
I0406 01:09:40.078800 31936 net.cpp:382] fc7 -> fc7
I0406 01:09:40.372659 31936 net.cpp:124] Setting up fc7
I0406 01:09:40.372711 31936 net.cpp:131] Top shape: 50 4096 (204800)
I0406 01:09:40.372719 31936 net.cpp:139] Memory required for data: 341369200
I0406 01:09:40.372733 31936 layer_factory.hpp:77] Creating layer relu7
I0406 01:09:40.372747 31936 net.cpp:86] Creating Layer relu7
I0406 01:09:40.372756 31936 net.cpp:408] relu7 <- fc7
I0406 01:09:40.372766 31936 net.cpp:369] relu7 -> fc7 (in-place)
I0406 01:09:40.373059 31936 net.cpp:124] Setting up relu7
I0406 01:09:40.373073 31936 net.cpp:131] Top shape: 50 4096 (204800)
I0406 01:09:40.373078 31936 net.cpp:139] Memory required for data: 342188400
I0406 01:09:40.373085 31936 layer_factory.hpp:77] Creating layer drop7
I0406 01:09:40.373095 31936 net.cpp:86] Creating Layer drop7
I0406 01:09:40.373101 31936 net.cpp:408] drop7 <- fc7
I0406 01:09:40.373109 31936 net.cpp:369] drop7 -> fc7 (in-place)
I0406 01:09:40.373153 31936 net.cpp:124] Setting up drop7
I0406 01:09:40.373163 31936 net.cpp:131] Top shape: 50 4096 (204800)
I0406 01:09:40.373169 31936 net.cpp:139] Memory required for data: 343007600
I0406 01:09:40.373174 31936 layer_factory.hpp:77] Creating layer fc8
I0406 01:09:40.373186 31936 net.cpp:86] Creating Layer fc8
I0406 01:09:40.373193 31936 net.cpp:408] fc8 <- fc7
I0406 01:09:40.373201 31936 net.cpp:382] fc8 -> fc8
I0406 01:09:40.493188 31936 net.cpp:124] Setting up fc8
I0406 01:09:40.493248 31936 net.cpp:131] Top shape: 50 1000 (50000)
I0406 01:09:40.493254 31936 net.cpp:139] Memory required for data: 343207600
I0406 01:09:40.493271 31936 layer_factory.hpp:77] Creating layer fc8_fc8_0_split
I0406 01:09:40.493286 31936 net.cpp:86] Creating Layer fc8_fc8_0_split
I0406 01:09:40.493294 31936 net.cpp:408] fc8_fc8_0_split <- fc8
I0406 01:09:40.493307 31936 net.cpp:382] fc8_fc8_0_split -> fc8_fc8_0_split_0
I0406 01:09:40.493324 31936 net.cpp:382] fc8_fc8_0_split -> fc8_fc8_0_split_1
I0406 01:09:40.493383 31936 net.cpp:124] Setting up fc8_fc8_0_split
I0406 01:09:40.493394 31936 net.cpp:131] Top shape: 50 1000 (50000)
I0406 01:09:40.493401 31936 net.cpp:131] Top shape: 50 1000 (50000)
I0406 01:09:40.493405 31936 net.cpp:139] Memory required for data: 343607600
I0406 01:09:40.493412 31936 layer_factory.hpp:77] Creating layer accuracy
I0406 01:09:40.493422 31936 net.cpp:86] Creating Layer accuracy
I0406 01:09:40.493444 31936 net.cpp:408] accuracy <- fc8_fc8_0_split_0
I0406 01:09:40.493468 31936 net.cpp:408] accuracy <- label_data_1_split_0
I0406 01:09:40.493479 31936 net.cpp:382] accuracy -> accuracy
…
