…
I0406 20:03:01.595383  6685 net.cpp:296] The NetState phase (0) differed from the phase (1) specified by a rule in layer accuracy
I0406 20:03:01.595640  6685 net.cpp:53] Initializing net from parameters: 
name: "CaffeNet"
state {
  phase: TRAIN
  level: 0
  stage: ""
}
layer {
  name: "data"
  type: "Data"
  top: "data"
  top: "label"
  include {
    phase: TRAIN
  }
  transform_param {
    mirror: true
    crop_size: 227
    mean_file: "data/ilsvrc12/imagenet_mean.binaryproto"
  }
  data_param {
    source: "examples/imagenet/ilsvrc12_train_lmdb"
    batch_size: 256
    backend: LMDB
  }
}
layer {
  name: "conv1"
  type: "Convolution"
  bottom: "data"
  top: "conv1"
  param {
    lr_mult: 1
    decay_mult: 1
  }
  param {
    lr_mult: 2
    decay_mult: 0
  }
  convolution_param {
    num_output: 96
    kernel_size: 11
    stride: 4
    weight_filler {
      type: "gaussian"
      std: 0.01
    }
    bias_filler {
      type: "constant"
      value: 0
    }
  }
}
layer {
  name: "relu1"
  type: "ReLU"
  bottom: "conv1"
  top: "conv1"
}
layer {
  name: "pool1"
  type: "Pooling"
  bottom: "conv1"
  top: "pool1"
  pooling_param {
    pool: MAX
    kernel_size: 3
    stride: 2
  }
}
layer {
  name: "norm1"
  type: "LRN"
  bottom: "pool1"
  top: "norm1"
  lrn_param {
    local_size: 5
    alpha: 0.0001
    beta: 0.75
  }
}
layer {
  name: "conv2"
  type: "Convolution"
  bottom: "norm1"
  top: "conv2"
  param {
    lr_mult: 1
    decay_mult: 1
  }
  param {
    lr_mult: 2
    decay_mult: 0
  }
  convolution_param {
    num_output: 256
    pad: 2
    kernel_size: 5
    group: 2
    weight_filler {
      type: "gaussian"
      std: 0.01
    }
    bias_filler {
      type: "constant"
      value: 1
    }
  }
}
layer {
  name: "relu2"
  type: "ReLU"
  bottom: "conv2"
  top: "conv2"
}
layer {
  name: "pool2"
  type: "Pooling"
  bottom: "conv2"
  top: "pool2"
  pooling_param {
    pool: MAX
    kernel_size: 3
    stride: 2
  }
}
layer {
  name: "norm2"
  type: "LRN"
  bottom: "pool2"
  top: "norm2"
  lrn_param {
    local_size: 5
    alpha: 0.0001
    beta: 0.75
  }
}
layer {
  name: "conv3"
  type: "Convolution"
  bottom: "norm2"
  top: "conv3"
  param {
    lr_mult: 1
    decay_mult: 1
  }
  param {
    lr_mult: 2
    decay_mult: 0
  }
  convolution_param {
    num_output: 384
    pad: 1
    kernel_size: 3
    weight_filler {
      type: "gaussian"
      std: 0.01
    }
    bias_filler {
      type: "constant"
      value: 0
    }
  }
}
layer {
  name: "relu3"
  type: "ReLU"
  bottom: "conv3"
  top: "conv3"
}
layer {
  name: "conv4"
  type: "Convolution"
  bottom: "conv3"
  top: "conv4"
  param {
    lr_mult: 1
    decay_mult: 1
  }
  param {
    lr_mult: 2
    decay_mult: 0
  }
  convolution_param {
    num_output: 384
    pad: 1
    kernel_size: 3
    group: 2
    weight_filler {
      type: "gaussian"
      std: 0.01
    }
    bias_filler {
      type: "constant"
      value: 1
    }
  }
}
layer {
  name: "relu4"
  type: "ReLU"
  bottom: "conv4"
  top: "conv4"
}
layer {
  name: "conv5"
  type: "Convolution"
  bottom: "conv4"
  top: "conv5"
  param {
    lr_mult: 1
    decay_mult: 1
  }
  param {
    lr_mult: 2
    decay_mult: 0
  }
  convolution_param {
    num_output: 256
    pad: 1
    kernel_size: 3
    group: 2
    weight_filler {
      type: "gaussian"
      std: 0.01
    }
    bias_filler {
      type: "constant"
      value: 1
    }
  }
}
layer {
  name: "relu5"
  type: "ReLU"
  bottom: "conv5"
  top: "conv5"
}
layer {
  name: "pool5"
  type: "Pooling"
  bottom: "conv5"
  top: "pool5"
  pooling_param {
    pool: MAX
    kernel_size: 3
    stride: 2
  }
}
layer {
  name: "fc6"
  type: "InnerProduct"
  bottom: "pool5"
  top: "fc6"
  param {
    lr_mult: 1
    decay_mult: 1
  }
  param {
    lr_mult: 2
    decay_mult: 0
  }
  inner_product_param {
    num_output: 4096
    weight_filler {
      type: "gaussian"
      std: 0.005
    }
    bias_filler {
      type: "constant"
      value: 1
    }
  }
}
layer {
  name: "relu6"
  type: "ReLU"
  bottom: "fc6"
  top: "fc6"
}
layer {
  name: "drop6"
  type: "Dropout"
  bottom: "fc6"
  top: "fc6"
  dropout_param {
    dropout_ratio: 0.5
  }
}
layer {
  name: "fc7"
  type: "InnerProduct"
  bottom: "fc6"
  top: "fc7"
  param {
    lr_mult: 1
    decay_mult: 1
  }
  param {
    lr_mult: 2
    decay_mult: 0
  }
  inner_product_param {
    num_output: 4096
    weight_filler {
      type: "gaussian"
      std: 0.005
    }
    bias_filler {
      type: "constant"
      value: 1
    }
  }
}
layer {
  name: "relu7"
  type: "ReLU"
  bottom: "fc7"
  top: "fc7"
}
layer {
  name: "drop7"
  type: "Dropout"
  bottom: "fc7"
  top: "fc7"
  dropout_param {
    dropout_ratio: 0.5
  }
}
layer {
  name: "fc8"
  type: "InnerProduct"
  bottom: "fc7"
  top: "fc8"
  param {
    lr_mult: 1
    decay_mult: 1
  }
  param {
    lr_mult: 2
    decay_mult: 0
  }
  inner_product_param {
    num_output: 1000
    weight_filler {
      type: "gaussian"
      std: 0.01
    }
    bias_filler {
      type: "constant"
      value: 0
    }
  }
}
layer {
  name: "loss"
  type: "SoftmaxWithLoss"
  bottom: "fc8"
  bottom: "label"
  top: "loss"
}
I0406 20:03:01.606278  6685 layer_factory.hpp:77] Creating layer data
I0406 20:03:01.631249  6685 db_lmdb.cpp:35] Opened lmdb examples/imagenet/ilsvrc12_train_lmdb
I0406 20:03:01.673987  6685 net.cpp:86] Creating Layer data
I0406 20:03:01.674041  6685 net.cpp:382] data -> data
I0406 20:03:01.674085  6685 net.cpp:382] data -> label
I0406 20:03:01.674118  6685 data_transformer.cpp:25] Loading mean file from: data/ilsvrc12/imagenet_mean.binaryproto
I0406 20:03:01.740806  6685 data_layer.cpp:45] output data size: 256,3,227,227
I0406 20:03:02.169764  6685 net.cpp:124] Setting up data
I0406 20:03:02.169818  6685 net.cpp:131] Top shape: 256 3 227 227 (39574272)
I0406 20:03:02.169828  6685 net.cpp:131] Top shape: 256 (256)
I0406 20:03:02.169833  6685 net.cpp:139] Memory required for data: 158298112
I0406 20:03:02.169848  6685 layer_factory.hpp:77] Creating layer conv1
I0406 20:03:02.169880  6685 net.cpp:86] Creating Layer conv1
I0406 20:03:02.169890  6685 net.cpp:408] conv1 <- data
I0406 20:03:02.169911  6685 net.cpp:382] conv1 -> conv1
I0406 20:03:03.270608  6685 net.cpp:124] Setting up conv1
I0406 20:03:03.270664  6685 net.cpp:131] Top shape: 256 96 55 55 (74342400)
I0406 20:03:03.270673  6685 net.cpp:139] Memory required for data: 455667712
I0406 20:03:03.270707  6685 layer_factory.hpp:77] Creating layer relu1
I0406 20:03:03.270726  6685 net.cpp:86] Creating Layer relu1
I0406 20:03:03.270735  6685 net.cpp:408] relu1 <- conv1
I0406 20:03:03.270748  6685 net.cpp:369] relu1 -> conv1 (in-place)
I0406 20:03:03.271198  6685 net.cpp:124] Setting up relu1
I0406 20:03:03.271214  6685 net.cpp:131] Top shape: 256 96 55 55 (74342400)
I0406 20:03:03.271221  6685 net.cpp:139] Memory required for data: 753037312
I0406 20:03:03.271227  6685 layer_factory.hpp:77] Creating layer pool1
I0406 20:03:03.271240  6685 net.cpp:86] Creating Layer pool1
I0406 20:03:03.271247  6685 net.cpp:408] pool1 <- conv1
I0406 20:03:03.271260  6685 net.cpp:382] pool1 -> pool1
I0406 20:03:03.271329  6685 net.cpp:124] Setting up pool1
I0406 20:03:03.271342  6685 net.cpp:131] Top shape: 256 96 27 27 (17915904)
I0406 20:03:03.271349  6685 net.cpp:139] Memory required for data: 824700928
I0406 20:03:03.271355  6685 layer_factory.hpp:77] Creating layer norm1
I0406 20:03:03.271374  6685 net.cpp:86] Creating Layer norm1
I0406 20:03:03.271392  6685 net.cpp:408] norm1 <- pool1
I0406 20:03:03.271416  6685 net.cpp:382] norm1 -> norm1
I0406 20:03:03.271703  6685 net.cpp:124] Setting up norm1
I0406 20:03:03.271719  6685 net.cpp:131] Top shape: 256 96 27 27 (17915904)
I0406 20:03:03.271725  6685 net.cpp:139] Memory required for data: 896364544
I0406 20:03:03.271733  6685 layer_factory.hpp:77] Creating layer conv2
I0406 20:03:03.271754  6685 net.cpp:86] Creating Layer conv2
I0406 20:03:03.271761  6685 net.cpp:408] conv2 <- norm1
I0406 20:03:03.271773  6685 net.cpp:382] conv2 -> conv2
I0406 20:03:03.280318  6685 net.cpp:124] Setting up conv2
I0406 20:03:03.280351  6685 net.cpp:131] Top shape: 256 256 27 27 (47775744)
I0406 20:03:03.280359  6685 net.cpp:139] Memory required for data: 1087467520
I0406 20:03:03.280376  6685 layer_factory.hpp:77] Creating layer relu2
I0406 20:03:03.280392  6685 net.cpp:86] Creating Layer relu2
I0406 20:03:03.280400  6685 net.cpp:408] relu2 <- conv2
I0406 20:03:03.280411  6685 net.cpp:369] relu2 -> conv2 (in-place)
I0406 20:03:03.280642  6685 net.cpp:124] Setting up relu2
I0406 20:03:03.280658  6685 net.cpp:131] Top shape: 256 256 27 27 (47775744)
I0406 20:03:03.280663  6685 net.cpp:139] Memory required for data: 1278570496
I0406 20:03:03.280670  6685 layer_factory.hpp:77] Creating layer pool2
I0406 20:03:03.280683  6685 net.cpp:86] Creating Layer pool2
I0406 20:03:03.280690  6685 net.cpp:408] pool2 <- conv2
I0406 20:03:03.280704  6685 net.cpp:382] pool2 -> pool2
I0406 20:03:03.280761  6685 net.cpp:124] Setting up pool2
I0406 20:03:03.280772  6685 net.cpp:131] Top shape: 256 256 13 13 (11075584)
I0406 20:03:03.280778  6685 net.cpp:139] Memory required for data: 1322872832
I0406 20:03:03.280784  6685 layer_factory.hpp:77] Creating layer norm2
I0406 20:03:03.280799  6685 net.cpp:86] Creating Layer norm2
I0406 20:03:03.280807  6685 net.cpp:408] norm2 <- pool2
I0406 20:03:03.280818  6685 net.cpp:382] norm2 -> norm2
I0406 20:03:03.281253  6685 net.cpp:124] Setting up norm2
I0406 20:03:03.281271  6685 net.cpp:131] Top shape: 256 256 13 13 (11075584)
I0406 20:03:03.281278  6685 net.cpp:139] Memory required for data: 1367175168
I0406 20:03:03.281285  6685 layer_factory.hpp:77] Creating layer conv3
I0406 20:03:03.281302  6685 net.cpp:86] Creating Layer conv3
I0406 20:03:03.281309  6685 net.cpp:408] conv3 <- norm2
I0406 20:03:03.281321  6685 net.cpp:382] conv3 -> conv3
I0406 20:03:03.297024  6685 net.cpp:124] Setting up conv3
I0406 20:03:03.297071  6685 net.cpp:131] Top shape: 256 384 13 13 (16613376)
I0406 20:03:03.297078  6685 net.cpp:139] Memory required for data: 1433628672
I0406 20:03:03.297098  6685 layer_factory.hpp:77] Creating layer relu3
I0406 20:03:03.297112  6685 net.cpp:86] Creating Layer relu3
I0406 20:03:03.297121  6685 net.cpp:408] relu3 <- conv3
I0406 20:03:03.297132  6685 net.cpp:369] relu3 -> conv3 (in-place)
I0406 20:03:03.297353  6685 net.cpp:124] Setting up relu3
I0406 20:03:03.297366  6685 net.cpp:131] Top shape: 256 384 13 13 (16613376)
I0406 20:03:03.297372  6685 net.cpp:139] Memory required for data: 1500082176
I0406 20:03:03.297379  6685 layer_factory.hpp:77] Creating layer conv4
I0406 20:03:03.297396  6685 net.cpp:86] Creating Layer conv4
I0406 20:03:03.297404  6685 net.cpp:408] conv4 <- conv3
I0406 20:03:03.297415  6685 net.cpp:382] conv4 -> conv4
I0406 20:03:03.310326  6685 net.cpp:124] Setting up conv4
I0406 20:03:03.310371  6685 net.cpp:131] Top shape: 256 384 13 13 (16613376)
I0406 20:03:03.310377  6685 net.cpp:139] Memory required for data: 1566535680
I0406 20:03:03.310392  6685 layer_factory.hpp:77] Creating layer relu4
I0406 20:03:03.310413  6685 net.cpp:86] Creating Layer relu4
I0406 20:03:03.310422  6685 net.cpp:408] relu4 <- conv4
I0406 20:03:03.310433  6685 net.cpp:369] relu4 -> conv4 (in-place)
I0406 20:03:03.310655  6685 net.cpp:124] Setting up relu4
I0406 20:03:03.310672  6685 net.cpp:131] Top shape: 256 384 13 13 (16613376)
I0406 20:03:03.310678  6685 net.cpp:139] Memory required for data: 1632989184
I0406 20:03:03.310684  6685 layer_factory.hpp:77] Creating layer conv5
I0406 20:03:03.310709  6685 net.cpp:86] Creating Layer conv5
I0406 20:03:03.310729  6685 net.cpp:408] conv5 <- conv4
I0406 20:03:03.310739  6685 net.cpp:382] conv5 -> conv5
I0406 20:03:03.320288  6685 net.cpp:124] Setting up conv5
I0406 20:03:03.320325  6685 net.cpp:131] Top shape: 256 256 13 13 (11075584)
I0406 20:03:03.320333  6685 net.cpp:139] Memory required for data: 1677291520
I0406 20:03:03.320351  6685 layer_factory.hpp:77] Creating layer relu5
I0406 20:03:03.320364  6685 net.cpp:86] Creating Layer relu5
I0406 20:03:03.320372  6685 net.cpp:408] relu5 <- conv5
I0406 20:03:03.320384  6685 net.cpp:369] relu5 -> conv5 (in-place)
I0406 20:03:03.320602  6685 net.cpp:124] Setting up relu5
I0406 20:03:03.320616  6685 net.cpp:131] Top shape: 256 256 13 13 (11075584)
I0406 20:03:03.320622  6685 net.cpp:139] Memory required for data: 1721593856
I0406 20:03:03.320628  6685 layer_factory.hpp:77] Creating layer pool5
I0406 20:03:03.320639  6685 net.cpp:86] Creating Layer pool5
I0406 20:03:03.320646  6685 net.cpp:408] pool5 <- conv5
I0406 20:03:03.320657  6685 net.cpp:382] pool5 -> pool5
I0406 20:03:03.320715  6685 net.cpp:124] Setting up pool5
I0406 20:03:03.320727  6685 net.cpp:131] Top shape: 256 256 6 6 (2359296)
I0406 20:03:03.320734  6685 net.cpp:139] Memory required for data: 1731031040
I0406 20:03:03.320739  6685 layer_factory.hpp:77] Creating layer fc6
I0406 20:03:03.320756  6685 net.cpp:86] Creating Layer fc6
I0406 20:03:03.320763  6685 net.cpp:408] fc6 <- pool5
I0406 20:03:03.320773  6685 net.cpp:382] fc6 -> fc6
I0406 20:03:03.909147  6685 net.cpp:124] Setting up fc6
I0406 20:03:03.909200  6685 net.cpp:131] Top shape: 256 4096 (1048576)
I0406 20:03:03.909206  6685 net.cpp:139] Memory required for data: 1735225344
I0406 20:03:03.909224  6685 layer_factory.hpp:77] Creating layer relu6
I0406 20:03:03.909238  6685 net.cpp:86] Creating Layer relu6
I0406 20:03:03.909246  6685 net.cpp:408] relu6 <- fc6
I0406 20:03:03.909260  6685 net.cpp:369] relu6 -> fc6 (in-place)
I0406 20:03:03.909862  6685 net.cpp:124] Setting up relu6
I0406 20:03:03.909879  6685 net.cpp:131] Top shape: 256 4096 (1048576)
I0406 20:03:03.909885  6685 net.cpp:139] Memory required for data: 1739419648
I0406 20:03:03.909891  6685 layer_factory.hpp:77] Creating layer drop6
I0406 20:03:03.909903  6685 net.cpp:86] Creating Layer drop6
I0406 20:03:03.909909  6685 net.cpp:408] drop6 <- fc6
I0406 20:03:03.909920  6685 net.cpp:369] drop6 -> fc6 (in-place)
I0406 20:03:03.909960  6685 net.cpp:124] Setting up drop6
I0406 20:03:03.909970  6685 net.cpp:131] Top shape: 256 4096 (1048576)
I0406 20:03:03.909976  6685 net.cpp:139] Memory required for data: 1743613952
I0406 20:03:03.909981  6685 layer_factory.hpp:77] Creating layer fc7
I0406 20:03:03.909996  6685 net.cpp:86] Creating Layer fc7
I0406 20:03:03.910002  6685 net.cpp:408] fc7 <- fc6
I0406 20:03:03.910012  6685 net.cpp:382] fc7 -> fc7
I0406 20:03:04.174278  6685 net.cpp:124] Setting up fc7
I0406 20:03:04.174327  6685 net.cpp:131] Top shape: 256 4096 (1048576)
I0406 20:03:04.174334  6685 net.cpp:139] Memory required for data: 1747808256
I0406 20:03:04.174362  6685 layer_factory.hpp:77] Creating layer relu7
I0406 20:03:04.174381  6685 net.cpp:86] Creating Layer relu7
I0406 20:03:04.174388  6685 net.cpp:408] relu7 <- fc7
I0406 20:03:04.174407  6685 net.cpp:369] relu7 -> fc7 (in-place)
I0406 20:03:04.174705  6685 net.cpp:124] Setting up relu7
I0406 20:03:04.174720  6685 net.cpp:131] Top shape: 256 4096 (1048576)
I0406 20:03:04.174724  6685 net.cpp:139] Memory required for data: 1752002560
I0406 20:03:04.174731  6685 layer_factory.hpp:77] Creating layer drop7
I0406 20:03:04.174746  6685 net.cpp:86] Creating Layer drop7
I0406 20:03:04.174751  6685 net.cpp:408] drop7 <- fc7
I0406 20:03:04.174760  6685 net.cpp:369] drop7 -> fc7 (in-place)
I0406 20:03:04.174793  6685 net.cpp:124] Setting up drop7
I0406 20:03:04.174804  6685 net.cpp:131] Top shape: 256 4096 (1048576)
I0406 20:03:04.174809  6685 net.cpp:139] Memory required for data: 1756196864
I0406 20:03:04.174815  6685 layer_factory.hpp:77] Creating layer fc8
I0406 20:03:04.174826  6685 net.cpp:86] Creating Layer fc8
I0406 20:03:04.174842  6685 net.cpp:408] fc8 <- fc7
I0406 20:03:04.174870  6685 net.cpp:382] fc8 -> fc8
I0406 20:03:04.240115  6685 net.cpp:124] Setting up fc8
I0406 20:03:04.240164  6685 net.cpp:131] Top shape: 256 1000 (256000)
I0406 20:03:04.240170  6685 net.cpp:139] Memory required for data: 1757220864
I0406 20:03:04.240186  6685 layer_factory.hpp:77] Creating layer loss
I0406 20:03:04.240200  6685 net.cpp:86] Creating Layer loss
I0406 20:03:04.240208  6685 net.cpp:408] loss <- fc8
I0406 20:03:04.240218  6685 net.cpp:408] loss <- label
I0406 20:03:04.240233  6685 net.cpp:382] loss -> loss
I0406 20:03:04.240257  6685 layer_factory.hpp:77] Creating layer loss
…
I0406 20:03:04.242272  6685 net.cpp:296] The NetState phase (1) differed from the phase (0) specified by a rule in layer data
I0406 20:03:04.242529  6685 net.cpp:53] Initializing net from parameters: 
name: "CaffeNet"
state {
  phase: TEST
}
layer {
  name: "data"
  type: "Data"
  top: "data"
  top: "label"
  include {
    phase: TEST
  }
  transform_param {
    mirror: false
    crop_size: 227
    mean_file: "data/ilsvrc12/imagenet_mean.binaryproto"
  }
  data_param {
    source: "examples/imagenet/ilsvrc12_val_lmdb"
    batch_size: 50
    backend: LMDB
  }
}
layer {
  name: "conv1"
  type: "Convolution"
  bottom: "data"
  top: "conv1"
  param {
    lr_mult: 1
    decay_mult: 1
  }
  param {
    lr_mult: 2
    decay_mult: 0
  }
  convolution_param {
    num_output: 96
    kernel_size: 11
    stride: 4
    weight_filler {
      type: "gaussian"
      std: 0.01
    }
    bias_filler {
      type: "constant"
      value: 0
    }
  }
}
layer {
  name: "relu1"
  type: "ReLU"
  bottom: "conv1"
  top: "conv1"
}
layer {
  name: "pool1"
  type: "Pooling"
  bottom: "conv1"
  top: "pool1"
  pooling_param {
    pool: MAX
    kernel_size: 3
    stride: 2
  }
}
layer {
  name: "norm1"
  type: "LRN"
  bottom: "pool1"
  top: "norm1"
  lrn_param {
    local_size: 5
    alpha: 0.0001
    beta: 0.75
  }
}
layer {
  name: "conv2"
  type: "Convolution"
  bottom: "norm1"
  top: "conv2"
  param {
    lr_mult: 1
    decay_mult: 1
  }
  param {
    lr_mult: 2
    decay_mult: 0
  }
  convolution_param {
    num_output: 256
    pad: 2
    kernel_size: 5
    group: 2
    weight_filler {
      type: "gaussian"
      std: 0.01
    }
    bias_filler {
      type: "constant"
      value: 1
    }
  }
}
layer {
  name: "relu2"
  type: "ReLU"
  bottom: "conv2"
  top: "conv2"
}
layer {
  name: "pool2"
  type: "Pooling"
  bottom: "conv2"
  top: "pool2"
  pooling_param {
    pool: MAX
    kernel_size: 3
    stride: 2
  }
}
layer {
  name: "norm2"
  type: "LRN"
  bottom: "pool2"
  top: "norm2"
  lrn_param {
    local_size: 5
    alpha: 0.0001
    beta: 0.75
  }
}
layer {
  name: "conv3"
  type: "Convolution"
  bottom: "norm2"
  top: "conv3"
  param {
    lr_mult: 1
    decay_mult: 1
  }
  param {
    lr_mult: 2
    decay_mult: 0
  }
  convolution_param {
    num_output: 384
    pad: 1
    kernel_size: 3
    weight_filler {
      type: "gaussian"
      std: 0.01
    }
    bias_filler {
      type: "constant"
      value: 0
    }
  }
}
layer {
  name: "relu3"
  type: "ReLU"
  bottom: "conv3"
  top: "conv3"
}
layer {
  name: "conv4"
  type: "Convolution"
  bottom: "conv3"
  top: "conv4"
  param {
    lr_mult: 1
    decay_mult: 1
  }
  param {
    lr_mult: 2
    decay_mult: 0
  }
  convolution_param {
    num_output: 384
    pad: 1
    kernel_size: 3
    group: 2
    weight_filler {
      type: "gaussian"
      std: 0.01
    }
    bias_filler {
      type: "constant"
      value: 1
    }
  }
}
layer {
  name: "relu4"
  type: "ReLU"
  bottom: "conv4"
  top: "conv4"
}
layer {
  name: "conv5"
  type: "Convolution"
  bottom: "conv4"
  top: "conv5"
  param {
    lr_mult: 1
    decay_mult: 1
  }
  param {
    lr_mult: 2
    decay_mult: 0
  }
  convolution_param {
    num_output: 256
    pad: 1
    kernel_size: 3
    group: 2
    weight_filler {
      type: "gaussian"
      std: 0.01
    }
    bias_filler {
      type: "constant"
      value: 1
    }
  }
}
layer {
  name: "relu5"
  type: "ReLU"
  bottom: "conv5"
  top: "conv5"
}
layer {
  name: "pool5"
  type: "Pooling"
  bottom: "conv5"
  top: "pool5"
  pooling_param {
    pool: MAX
    kernel_size: 3
    stride: 2
  }
}
layer {
  name: "fc6"
  type: "InnerProduct"
  bottom: "pool5"
  top: "fc6"
  param {
    lr_mult: 1
    decay_mult: 1
  }
  param {
    lr_mult: 2
    decay_mult: 0
  }
  inner_product_param {
    num_output: 4096
    weight_filler {
      type: "gaussian"
      std: 0.005
    }
    bias_filler {
      type: "constant"
      value: 1
    }
  }
}
layer {
  name: "relu6"
  type: "ReLU"
  bottom: "fc6"
  top: "fc6"
}
layer {
  name: "drop6"
  type: "Dropout"
  bottom: "fc6"
  top: "fc6"
  dropout_param {
    dropout_ratio: 0.5
  }
}
layer {
  name: "fc7"
  type: "InnerProduct"
  bottom: "fc6"
  top: "fc7"
  param {
    lr_mult: 1
    decay_mult: 1
  }
  param {
    lr_mult: 2
    decay_mult: 0
  }
  inner_product_param {
    num_output: 4096
    weight_filler {
      type: "gaussian"
      std: 0.005
    }
    bias_filler {
      type: "constant"
      value: 1
    }
  }
}
layer {
  name: "relu7"
  type: "ReLU"
  bottom: "fc7"
  top: "fc7"
}
layer {
  name: "drop7"
  type: "Dropout"
  bottom: "fc7"
  top: "fc7"
  dropout_param {
    dropout_ratio: 0.5
  }
}
layer {
  name: "fc8"
  type: "InnerProduct"
  bottom: "fc7"
  top: "fc8"
  param {
    lr_mult: 1
    decay_mult: 1
  }
  param {
    lr_mult: 2
    decay_mult: 0
  }
  inner_product_param {
    num_output: 1000
    weight_filler {
      type: "gaussian"
      std: 0.01
    }
    bias_filler {
      type: "constant"
      value: 0
    }
  }
}
layer {
  name: "accuracy"
  type: "Accuracy"
  bottom: "fc8"
  bottom: "label"
  top: "accuracy"
  include {
    phase: TEST
  }
}
layer {
  name: "loss"
  type: "SoftmaxWithLoss"
  bottom: "fc8"
  bottom: "label"
  top: "loss"
}
I0406 20:03:04.242707  6685 layer_factory.hpp:77] Creating layer data
I0406 20:03:04.471616  6685 db_lmdb.cpp:35] Opened lmdb examples/imagenet/ilsvrc12_val_lmdb
I0406 20:03:04.471711  6685 net.cpp:86] Creating Layer data
I0406 20:03:04.471756  6685 net.cpp:382] data -> data
I0406 20:03:04.471794  6685 net.cpp:382] data -> label
I0406 20:03:04.471820  6685 data_transformer.cpp:25] Loading mean file from: data/ilsvrc12/imagenet_mean.binaryproto
I0406 20:03:04.476351  6685 data_layer.cpp:45] output data size: 50,3,227,227
I0406 20:03:04.576622  6685 net.cpp:124] Setting up data
I0406 20:03:04.576674  6685 net.cpp:131] Top shape: 50 3 227 227 (7729350)
I0406 20:03:04.576684  6685 net.cpp:131] Top shape: 50 (50)
I0406 20:03:04.576690  6685 net.cpp:139] Memory required for data: 30917600
I0406 20:03:04.576702  6685 layer_factory.hpp:77] Creating layer label_data_1_split
I0406 20:03:04.576721  6685 net.cpp:86] Creating Layer label_data_1_split
I0406 20:03:04.576730  6685 net.cpp:408] label_data_1_split <- label
I0406 20:03:04.576743  6685 net.cpp:382] label_data_1_split -> label_data_1_split_0
I0406 20:03:04.576761  6685 net.cpp:382] label_data_1_split -> label_data_1_split_1
I0406 20:03:04.576874  6685 net.cpp:124] Setting up label_data_1_split
I0406 20:03:04.576889  6685 net.cpp:131] Top shape: 50 (50)
I0406 20:03:04.576897  6685 net.cpp:131] Top shape: 50 (50)
I0406 20:03:04.576903  6685 net.cpp:139] Memory required for data: 30918000
I0406 20:03:04.576910  6685 layer_factory.hpp:77] Creating layer conv1
I0406 20:03:04.576931  6685 net.cpp:86] Creating Layer conv1
I0406 20:03:04.576939  6685 net.cpp:408] conv1 <- data
I0406 20:03:04.576951  6685 net.cpp:382] conv1 -> conv1
I0406 20:03:04.584470  6685 net.cpp:124] Setting up conv1
I0406 20:03:04.584513  6685 net.cpp:131] Top shape: 50 96 55 55 (14520000)
I0406 20:03:04.584522  6685 net.cpp:139] Memory required for data: 88998000
I0406 20:03:04.584545  6685 layer_factory.hpp:77] Creating layer relu1
I0406 20:03:04.584559  6685 net.cpp:86] Creating Layer relu1
I0406 20:03:04.584568  6685 net.cpp:408] relu1 <- conv1
I0406 20:03:04.584578  6685 net.cpp:369] relu1 -> conv1 (in-place)
I0406 20:03:04.584823  6685 net.cpp:124] Setting up relu1
I0406 20:03:04.584841  6685 net.cpp:131] Top shape: 50 96 55 55 (14520000)
I0406 20:03:04.584847  6685 net.cpp:139] Memory required for data: 147078000
I0406 20:03:04.584854  6685 layer_factory.hpp:77] Creating layer pool1
I0406 20:03:04.584872  6685 net.cpp:86] Creating Layer pool1
I0406 20:03:04.584878  6685 net.cpp:408] pool1 <- conv1
I0406 20:03:04.584888  6685 net.cpp:382] pool1 -> pool1
I0406 20:03:04.584959  6685 net.cpp:124] Setting up pool1
I0406 20:03:04.584971  6685 net.cpp:131] Top shape: 50 96 27 27 (3499200)
I0406 20:03:04.584977  6685 net.cpp:139] Memory required for data: 161074800
I0406 20:03:04.584985  6685 layer_factory.hpp:77] Creating layer norm1
I0406 20:03:04.584997  6685 net.cpp:86] Creating Layer norm1
I0406 20:03:04.585005  6685 net.cpp:408] norm1 <- pool1
I0406 20:03:04.585013  6685 net.cpp:382] norm1 -> norm1
I0406 20:03:04.610720  6685 net.cpp:124] Setting up norm1
I0406 20:03:04.610741  6685 net.cpp:131] Top shape: 50 96 27 27 (3499200)
I0406 20:03:04.610747  6685 net.cpp:139] Memory required for data: 175071600
I0406 20:03:04.610754  6685 layer_factory.hpp:77] Creating layer conv2
I0406 20:03:04.610774  6685 net.cpp:86] Creating Layer conv2
I0406 20:03:04.610780  6685 net.cpp:408] conv2 <- norm1
I0406 20:03:04.610791  6685 net.cpp:382] conv2 -> conv2
I0406 20:03:04.618235  6685 net.cpp:124] Setting up conv2
I0406 20:03:04.618257  6685 net.cpp:131] Top shape: 50 256 27 27 (9331200)
I0406 20:03:04.618263  6685 net.cpp:139] Memory required for data: 212396400
I0406 20:03:04.618280  6685 layer_factory.hpp:77] Creating layer relu2
I0406 20:03:04.618291  6685 net.cpp:86] Creating Layer relu2
I0406 20:03:04.618299  6685 net.cpp:408] relu2 <- conv2
I0406 20:03:04.618307  6685 net.cpp:369] relu2 -> conv2 (in-place)
I0406 20:03:04.618538  6685 net.cpp:124] Setting up relu2
I0406 20:03:04.618564  6685 net.cpp:131] Top shape: 50 256 27 27 (9331200)
I0406 20:03:04.618583  6685 net.cpp:139] Memory required for data: 249721200
I0406 20:03:04.618589  6685 layer_factory.hpp:77] Creating layer pool2
I0406 20:03:04.618602  6685 net.cpp:86] Creating Layer pool2
I0406 20:03:04.618609  6685 net.cpp:408] pool2 <- conv2
I0406 20:03:04.618618  6685 net.cpp:382] pool2 -> pool2
I0406 20:03:04.618681  6685 net.cpp:124] Setting up pool2
I0406 20:03:04.618693  6685 net.cpp:131] Top shape: 50 256 13 13 (2163200)
I0406 20:03:04.618700  6685 net.cpp:139] Memory required for data: 258374000
I0406 20:03:04.618705  6685 layer_factory.hpp:77] Creating layer norm2
I0406 20:03:04.618716  6685 net.cpp:86] Creating Layer norm2
I0406 20:03:04.618722  6685 net.cpp:408] norm2 <- pool2
I0406 20:03:04.618731  6685 net.cpp:382] norm2 -> norm2
I0406 20:03:04.619165  6685 net.cpp:124] Setting up norm2
I0406 20:03:04.619182  6685 net.cpp:131] Top shape: 50 256 13 13 (2163200)
I0406 20:03:04.619189  6685 net.cpp:139] Memory required for data: 267026800
I0406 20:03:04.619194  6685 layer_factory.hpp:77] Creating layer conv3
I0406 20:03:04.619209  6685 net.cpp:86] Creating Layer conv3
I0406 20:03:04.619215  6685 net.cpp:408] conv3 <- norm2
I0406 20:03:04.619225  6685 net.cpp:382] conv3 -> conv3
I0406 20:03:04.634222  6685 net.cpp:124] Setting up conv3
I0406 20:03:04.634250  6685 net.cpp:131] Top shape: 50 384 13 13 (3244800)
I0406 20:03:04.634258  6685 net.cpp:139] Memory required for data: 280006000
I0406 20:03:04.634274  6685 layer_factory.hpp:77] Creating layer relu3
I0406 20:03:04.634286  6685 net.cpp:86] Creating Layer relu3
I0406 20:03:04.634294  6685 net.cpp:408] relu3 <- conv3
I0406 20:03:04.634302  6685 net.cpp:369] relu3 -> conv3 (in-place)
I0406 20:03:04.634699  6685 net.cpp:124] Setting up relu3
I0406 20:03:04.634716  6685 net.cpp:131] Top shape: 50 384 13 13 (3244800)
I0406 20:03:04.634722  6685 net.cpp:139] Memory required for data: 292985200
I0406 20:03:04.634729  6685 layer_factory.hpp:77] Creating layer conv4
I0406 20:03:04.634743  6685 net.cpp:86] Creating Layer conv4
I0406 20:03:04.634750  6685 net.cpp:408] conv4 <- conv3
I0406 20:03:04.634760  6685 net.cpp:382] conv4 -> conv4
I0406 20:03:04.647544  6685 net.cpp:124] Setting up conv4
I0406 20:03:04.647567  6685 net.cpp:131] Top shape: 50 384 13 13 (3244800)
I0406 20:03:04.647573  6685 net.cpp:139] Memory required for data: 305964400
I0406 20:03:04.647584  6685 layer_factory.hpp:77] Creating layer relu4
I0406 20:03:04.647594  6685 net.cpp:86] Creating Layer relu4
I0406 20:03:04.647601  6685 net.cpp:408] relu4 <- conv4
I0406 20:03:04.647609  6685 net.cpp:369] relu4 -> conv4 (in-place)
I0406 20:03:04.647830  6685 net.cpp:124] Setting up relu4
I0406 20:03:04.647845  6685 net.cpp:131] Top shape: 50 384 13 13 (3244800)
I0406 20:03:04.647850  6685 net.cpp:139] Memory required for data: 318943600
I0406 20:03:04.647856  6685 layer_factory.hpp:77] Creating layer conv5
I0406 20:03:04.647869  6685 net.cpp:86] Creating Layer conv5
I0406 20:03:04.647876  6685 net.cpp:408] conv5 <- conv4
I0406 20:03:04.647886  6685 net.cpp:382] conv5 -> conv5
I0406 20:03:04.657153  6685 net.cpp:124] Setting up conv5
I0406 20:03:04.657172  6685 net.cpp:131] Top shape: 50 256 13 13 (2163200)
I0406 20:03:04.657178  6685 net.cpp:139] Memory required for data: 327596400
I0406 20:03:04.657193  6685 layer_factory.hpp:77] Creating layer relu5
I0406 20:03:04.657204  6685 net.cpp:86] Creating Layer relu5
I0406 20:03:04.657210  6685 net.cpp:408] relu5 <- conv5
I0406 20:03:04.657219  6685 net.cpp:369] relu5 -> conv5 (in-place)
I0406 20:03:04.657425  6685 net.cpp:124] Setting up relu5
I0406 20:03:04.657440  6685 net.cpp:131] Top shape: 50 256 13 13 (2163200)
I0406 20:03:04.657445  6685 net.cpp:139] Memory required for data: 336249200
I0406 20:03:04.657452  6685 layer_factory.hpp:77] Creating layer pool5
I0406 20:03:04.657466  6685 net.cpp:86] Creating Layer pool5
I0406 20:03:04.657472  6685 net.cpp:408] pool5 <- conv5
I0406 20:03:04.657481  6685 net.cpp:382] pool5 -> pool5
I0406 20:03:04.657553  6685 net.cpp:124] Setting up pool5
I0406 20:03:04.657577  6685 net.cpp:131] Top shape: 50 256 6 6 (460800)
I0406 20:03:04.657582  6685 net.cpp:139] Memory required for data: 338092400
I0406 20:03:04.657588  6685 layer_factory.hpp:77] Creating layer fc6
I0406 20:03:04.657600  6685 net.cpp:86] Creating Layer fc6
I0406 20:03:04.657606  6685 net.cpp:408] fc6 <- pool5
I0406 20:03:04.657615  6685 net.cpp:382] fc6 -> fc6
I0406 20:03:05.244253  6685 net.cpp:124] Setting up fc6
I0406 20:03:05.244302  6685 net.cpp:131] Top shape: 50 4096 (204800)
I0406 20:03:05.244308  6685 net.cpp:139] Memory required for data: 338911600
I0406 20:03:05.244324  6685 layer_factory.hpp:77] Creating layer relu6
I0406 20:03:05.244339  6685 net.cpp:86] Creating Layer relu6
I0406 20:03:05.244348  6685 net.cpp:408] relu6 <- fc6
I0406 20:03:05.244359  6685 net.cpp:369] relu6 -> fc6 (in-place)
I0406 20:03:05.244943  6685 net.cpp:124] Setting up relu6
I0406 20:03:05.244959  6685 net.cpp:131] Top shape: 50 4096 (204800)
I0406 20:03:05.244966  6685 net.cpp:139] Memory required for data: 339730800
I0406 20:03:05.244971  6685 layer_factory.hpp:77] Creating layer drop6
I0406 20:03:05.244982  6685 net.cpp:86] Creating Layer drop6
I0406 20:03:05.244989  6685 net.cpp:408] drop6 <- fc6
I0406 20:03:05.244997  6685 net.cpp:369] drop6 -> fc6 (in-place)
I0406 20:03:05.245041  6685 net.cpp:124] Setting up drop6
I0406 20:03:05.245052  6685 net.cpp:131] Top shape: 50 4096 (204800)
I0406 20:03:05.245057  6685 net.cpp:139] Memory required for data: 340550000
I0406 20:03:05.245064  6685 layer_factory.hpp:77] Creating layer fc7
I0406 20:03:05.245075  6685 net.cpp:86] Creating Layer fc7
I0406 20:03:05.245081  6685 net.cpp:408] fc7 <- fc6
I0406 20:03:05.245090  6685 net.cpp:382] fc7 -> fc7
I0406 20:03:05.505264  6685 net.cpp:124] Setting up fc7
I0406 20:03:05.505319  6685 net.cpp:131] Top shape: 50 4096 (204800)
I0406 20:03:05.505326  6685 net.cpp:139] Memory required for data: 341369200
I0406 20:03:05.505350  6685 layer_factory.hpp:77] Creating layer relu7
I0406 20:03:05.505365  6685 net.cpp:86] Creating Layer relu7
I0406 20:03:05.505374  6685 net.cpp:408] relu7 <- fc7
I0406 20:03:05.505386  6685 net.cpp:369] relu7 -> fc7 (in-place)
I0406 20:03:05.505681  6685 net.cpp:124] Setting up relu7
I0406 20:03:05.505697  6685 net.cpp:131] Top shape: 50 4096 (204800)
I0406 20:03:05.505702  6685 net.cpp:139] Memory required for data: 342188400
I0406 20:03:05.505708  6685 layer_factory.hpp:77] Creating layer drop7
I0406 20:03:05.505741  6685 net.cpp:86] Creating Layer drop7
I0406 20:03:05.505749  6685 net.cpp:408] drop7 <- fc7
I0406 20:03:05.505759  6685 net.cpp:369] drop7 -> fc7 (in-place)
I0406 20:03:05.505802  6685 net.cpp:124] Setting up drop7
I0406 20:03:05.505813  6685 net.cpp:131] Top shape: 50 4096 (204800)
I0406 20:03:05.505820  6685 net.cpp:139] Memory required for data: 343007600
I0406 20:03:05.505825  6685 layer_factory.hpp:77] Creating layer fc8
I0406 20:03:05.505836  6685 net.cpp:86] Creating Layer fc8
I0406 20:03:05.505843  6685 net.cpp:408] fc8 <- fc7
I0406 20:03:05.505852  6685 net.cpp:382] fc8 -> fc8
I0406 20:03:05.569875  6685 net.cpp:124] Setting up fc8
I0406 20:03:05.569927  6685 net.cpp:131] Top shape: 50 1000 (50000)
I0406 20:03:05.569933  6685 net.cpp:139] Memory required for data: 343207600
I0406 20:03:05.569949  6685 layer_factory.hpp:77] Creating layer fc8_fc8_0_split
I0406 20:03:05.569964  6685 net.cpp:86] Creating Layer fc8_fc8_0_split
I0406 20:03:05.569972  6685 net.cpp:408] fc8_fc8_0_split <- fc8
I0406 20:03:05.569985  6685 net.cpp:382] fc8_fc8_0_split -> fc8_fc8_0_split_0
I0406 20:03:05.570000  6685 net.cpp:382] fc8_fc8_0_split -> fc8_fc8_0_split_1
I0406 20:03:05.570061  6685 net.cpp:124] Setting up fc8_fc8_0_split
I0406 20:03:05.570071  6685 net.cpp:131] Top shape: 50 1000 (50000)
I0406 20:03:05.570078  6685 net.cpp:131] Top shape: 50 1000 (50000)
I0406 20:03:05.570083  6685 net.cpp:139] Memory required for data: 343607600
I0406 20:03:05.570089  6685 layer_factory.hpp:77] Creating layer accuracy
I0406 20:03:05.570101  6685 net.cpp:86] Creating Layer accuracy
I0406 20:03:05.570122  6685 net.cpp:408] accuracy <- fc8_fc8_0_split_0
I0406 20:03:05.570142  6685 net.cpp:408] accuracy <- label_data_1_split_0
I0406 20:03:05.570152  6685 net.cpp:382] accuracy -> accuracy
…
