…
I0404 23:36:20.895542 14153 net.cpp:296] The NetState phase (0) differed from the phase (1) specified by a rule in layer accuracy
I0404 23:36:20.895776 14153 net.cpp:53] Initializing net from parameters: 
name: "CaffeNet"
state {
  phase: TRAIN
  level: 0
  stage: ""
}
layer {
  name: "data"
  type: "Data"
  top: "data"
  top: "label"
  include {
    phase: TRAIN
  }
  transform_param {
    mirror: true
    crop_size: 227
    mean_file: "data/ilsvrc12/imagenet_mean.binaryproto"
  }
  data_param {
    source: "examples/imagenet/ilsvrc12_train_lmdb"
    batch_size: 256
    backend: LMDB
  }
}
layer {
  name: "conv1"
  type: "Convolution"
  bottom: "data"
  top: "conv1"
  param {
    lr_mult: 1
    decay_mult: 1
  }
  param {
    lr_mult: 2
    decay_mult: 0
  }
  convolution_param {
    num_output: 96
    kernel_size: 11
    stride: 4
    weight_filler {
      type: "gaussian"
      std: 0.01
    }
    bias_filler {
      type: "constant"
      value: 0
    }
  }
}
layer {
  name: "relu1"
  type: "ReLU"
  bottom: "conv1"
  top: "conv1"
}
layer {
  name: "pool1"
  type: "Pooling"
  bottom: "conv1"
  top: "pool1"
  pooling_param {
    pool: MAX
    kernel_size: 3
    stride: 2
  }
}
layer {
  name: "norm1"
  type: "LRN"
  bottom: "pool1"
  top: "norm1"
  lrn_param {
    local_size: 5
    alpha: 0.0001
    beta: 0.75
  }
}
layer {
  name: "conv2"
  type: "Convolution"
  bottom: "norm1"
  top: "conv2"
  param {
    lr_mult: 1
    decay_mult: 1
  }
  param {
    lr_mult: 2
    decay_mult: 0
  }
  convolution_param {
    num_output: 256
    pad: 2
    kernel_size: 5
    group: 2
    weight_filler {
      type: "gaussian"
      std: 0.01
    }
    bias_filler {
      type: "constant"
      value: 1
    }
  }
}
layer {
  name: "relu2"
  type: "ReLU"
  bottom: "conv2"
  top: "conv2"
}
layer {
  name: "pool2"
  type: "Pooling"
  bottom: "conv2"
  top: "pool2"
  pooling_param {
    pool: MAX
    kernel_size: 3
    stride: 2
  }
}
layer {
  name: "norm2"
  type: "LRN"
  bottom: "pool2"
  top: "norm2"
  lrn_param {
    local_size: 5
    alpha: 0.0001
    beta: 0.75
  }
}
layer {
  name: "conv3"
  type: "Convolution"
  bottom: "norm2"
  top: "conv3"
  param {
    lr_mult: 1
    decay_mult: 1
  }
  param {
    lr_mult: 2
    decay_mult: 0
  }
  convolution_param {
    num_output: 384
    pad: 1
    kernel_size: 3
    weight_filler {
      type: "gaussian"
      std: 0.01
    }
    bias_filler {
      type: "constant"
      value: 0
    }
  }
}
layer {
  name: "relu3"
  type: "ReLU"
  bottom: "conv3"
  top: "conv3"
}
layer {
  name: "conv4"
  type: "Convolution"
  bottom: "conv3"
  top: "conv4"
  param {
    lr_mult: 1
    decay_mult: 1
  }
  param {
    lr_mult: 2
    decay_mult: 0
  }
  convolution_param {
    num_output: 384
    pad: 1
    kernel_size: 3
    group: 2
    weight_filler {
      type: "gaussian"
      std: 0.01
    }
    bias_filler {
      type: "constant"
      value: 1
    }
  }
}
layer {
  name: "relu4"
  type: "ReLU"
  bottom: "conv4"
  top: "conv4"
}
layer {
  name: "conv5"
  type: "Convolution"
  bottom: "conv4"
  top: "conv5"
  param {
    lr_mult: 1
    decay_mult: 1
  }
  param {
    lr_mult: 2
    decay_mult: 0
  }
  convolution_param {
    num_output: 256
    pad: 1
    kernel_size: 3
    group: 2
    weight_filler {
      type: "gaussian"
      std: 0.01
    }
    bias_filler {
      type: "constant"
      value: 1
    }
  }
}
layer {
  name: "relu5"
  type: "ReLU"
  bottom: "conv5"
  top: "conv5"
}
layer {
  name: "pool5"
  type: "Pooling"
  bottom: "conv5"
  top: "pool5"
  pooling_param {
    pool: MAX
    kernel_size: 3
    stride: 2
  }
}
layer {
  name: "fc6"
  type: "InnerProduct"
  bottom: "pool5"
  top: "fc6"
  param {
    lr_mult: 1
    decay_mult: 1
  }
  param {
    lr_mult: 2
    decay_mult: 0
  }
  inner_product_param {
    num_output: 4096
    weight_filler {
      type: "gaussian"
      std: 0.005
    }
    bias_filler {
      type: "constant"
      value: 1
    }
  }
}
layer {
  name: "relu6"
  type: "ReLU"
  bottom: "fc6"
  top: "fc6"
}
layer {
  name: "drop6"
  type: "Dropout"
  bottom: "fc6"
  top: "fc6"
  dropout_param {
    dropout_ratio: 0.5
  }
}
layer {
  name: "fc7"
  type: "InnerProduct"
  bottom: "fc6"
  top: "fc7"
  param {
    lr_mult: 1
    decay_mult: 1
  }
  param {
    lr_mult: 2
    decay_mult: 0
  }
  inner_product_param {
    num_output: 4096
    weight_filler {
      type: "gaussian"
      std: 0.005
    }
    bias_filler {
      type: "constant"
      value: 1
    }
  }
}
layer {
  name: "relu7"
  type: "ReLU"
  bottom: "fc7"
  top: "fc7"
}
layer {
  name: "drop7"
  type: "Dropout"
  bottom: "fc7"
  top: "fc7"
  dropout_param {
    dropout_ratio: 0.5
  }
}
layer {
  name: "fc8"
  type: "InnerProduct"
  bottom: "fc7"
  top: "fc8"
  param {
    lr_mult: 1
    decay_mult: 1
  }
  param {
    lr_mult: 2
    decay_mult: 0
  }
  inner_product_param {
    num_output: 1000
    weight_filler {
      type: "gaussian"
      std: 0.01
    }
    bias_filler {
      type: "constant"
      value: 0
    }
  }
}
layer {
  name: "loss"
  type: "SoftmaxWithLoss"
  bottom: "fc8"
  bottom: "label"
  top: "loss"
}
I0404 23:36:20.895902 14153 layer_factory.hpp:77] Creating layer data
I0404 23:36:20.896034 14153 db_lmdb.cpp:35] Opened lmdb examples/imagenet/ilsvrc12_train_lmdb
I0404 23:36:20.896076 14153 net.cpp:86] Creating Layer data
I0404 23:36:20.896093 14153 net.cpp:382] data -> data
I0404 23:36:20.896128 14153 net.cpp:382] data -> label
I0404 23:36:20.896148 14153 data_transformer.cpp:25] Loading mean file from: data/ilsvrc12/imagenet_mean.binaryproto
I0404 23:36:20.899489 14153 data_layer.cpp:45] output data size: 256,3,227,227
I0404 23:36:21.299242 14153 net.cpp:124] Setting up data
I0404 23:36:21.299284 14153 net.cpp:131] Top shape: 256 3 227 227 (39574272)
I0404 23:36:21.299293 14153 net.cpp:131] Top shape: 256 (256)
I0404 23:36:21.299299 14153 net.cpp:139] Memory required for data: 158298112
I0404 23:36:21.299314 14153 layer_factory.hpp:77] Creating layer conv1
I0404 23:36:21.299343 14153 net.cpp:86] Creating Layer conv1
I0404 23:36:21.299353 14153 net.cpp:408] conv1 <- data
I0404 23:36:21.299372 14153 net.cpp:382] conv1 -> conv1
I0404 23:36:21.939878 14153 net.cpp:124] Setting up conv1
I0404 23:36:21.939932 14153 net.cpp:131] Top shape: 256 96 55 55 (74342400)
I0404 23:36:21.939939 14153 net.cpp:139] Memory required for data: 455667712
I0404 23:36:21.939973 14153 layer_factory.hpp:77] Creating layer relu1
I0404 23:36:21.939991 14153 net.cpp:86] Creating Layer relu1
I0404 23:36:21.939999 14153 net.cpp:408] relu1 <- conv1
I0404 23:36:21.940009 14153 net.cpp:369] relu1 -> conv1 (in-place)
I0404 23:36:21.940433 14153 net.cpp:124] Setting up relu1
I0404 23:36:21.940449 14153 net.cpp:131] Top shape: 256 96 55 55 (74342400)
I0404 23:36:21.940455 14153 net.cpp:139] Memory required for data: 753037312
I0404 23:36:21.940461 14153 layer_factory.hpp:77] Creating layer pool1
I0404 23:36:21.940472 14153 net.cpp:86] Creating Layer pool1
I0404 23:36:21.940479 14153 net.cpp:408] pool1 <- conv1
I0404 23:36:21.940487 14153 net.cpp:382] pool1 -> pool1
I0404 23:36:21.940556 14153 net.cpp:124] Setting up pool1
I0404 23:36:21.940567 14153 net.cpp:131] Top shape: 256 96 27 27 (17915904)
I0404 23:36:21.940572 14153 net.cpp:139] Memory required for data: 824700928
I0404 23:36:21.940577 14153 layer_factory.hpp:77] Creating layer norm1
I0404 23:36:21.940593 14153 net.cpp:86] Creating Layer norm1
I0404 23:36:21.940611 14153 net.cpp:408] norm1 <- pool1
I0404 23:36:21.940639 14153 net.cpp:382] norm1 -> norm1
I0404 23:36:21.940892 14153 net.cpp:124] Setting up norm1
I0404 23:36:21.940908 14153 net.cpp:131] Top shape: 256 96 27 27 (17915904)
I0404 23:36:21.940914 14153 net.cpp:139] Memory required for data: 896364544
I0404 23:36:21.940920 14153 layer_factory.hpp:77] Creating layer conv2
I0404 23:36:21.940938 14153 net.cpp:86] Creating Layer conv2
I0404 23:36:21.940945 14153 net.cpp:408] conv2 <- norm1
I0404 23:36:21.940955 14153 net.cpp:382] conv2 -> conv2
I0404 23:36:21.948930 14153 net.cpp:124] Setting up conv2
I0404 23:36:21.948978 14153 net.cpp:131] Top shape: 256 256 27 27 (47775744)
I0404 23:36:21.948985 14153 net.cpp:139] Memory required for data: 1087467520
I0404 23:36:21.949007 14153 layer_factory.hpp:77] Creating layer relu2
I0404 23:36:21.949021 14153 net.cpp:86] Creating Layer relu2
I0404 23:36:21.949028 14153 net.cpp:408] relu2 <- conv2
I0404 23:36:21.949039 14153 net.cpp:369] relu2 -> conv2 (in-place)
I0404 23:36:21.949268 14153 net.cpp:124] Setting up relu2
I0404 23:36:21.949282 14153 net.cpp:131] Top shape: 256 256 27 27 (47775744)
I0404 23:36:21.949288 14153 net.cpp:139] Memory required for data: 1278570496
I0404 23:36:21.949295 14153 layer_factory.hpp:77] Creating layer pool2
I0404 23:36:21.949306 14153 net.cpp:86] Creating Layer pool2
I0404 23:36:21.949311 14153 net.cpp:408] pool2 <- conv2
I0404 23:36:21.949321 14153 net.cpp:382] pool2 -> pool2
I0404 23:36:21.949375 14153 net.cpp:124] Setting up pool2
I0404 23:36:21.949385 14153 net.cpp:131] Top shape: 256 256 13 13 (11075584)
I0404 23:36:21.949391 14153 net.cpp:139] Memory required for data: 1322872832
I0404 23:36:21.949396 14153 layer_factory.hpp:77] Creating layer norm2
I0404 23:36:21.949411 14153 net.cpp:86] Creating Layer norm2
I0404 23:36:21.949417 14153 net.cpp:408] norm2 <- pool2
I0404 23:36:21.949425 14153 net.cpp:382] norm2 -> norm2
I0404 23:36:21.949852 14153 net.cpp:124] Setting up norm2
I0404 23:36:21.949868 14153 net.cpp:131] Top shape: 256 256 13 13 (11075584)
I0404 23:36:21.949874 14153 net.cpp:139] Memory required for data: 1367175168
I0404 23:36:21.949880 14153 layer_factory.hpp:77] Creating layer conv3
I0404 23:36:21.949898 14153 net.cpp:86] Creating Layer conv3
I0404 23:36:21.949904 14153 net.cpp:408] conv3 <- norm2
I0404 23:36:21.949914 14153 net.cpp:382] conv3 -> conv3
I0404 23:36:21.965735 14153 net.cpp:124] Setting up conv3
I0404 23:36:21.965785 14153 net.cpp:131] Top shape: 256 384 13 13 (16613376)
I0404 23:36:21.965792 14153 net.cpp:139] Memory required for data: 1433628672
I0404 23:36:21.965812 14153 layer_factory.hpp:77] Creating layer relu3
I0404 23:36:21.965827 14153 net.cpp:86] Creating Layer relu3
I0404 23:36:21.965834 14153 net.cpp:408] relu3 <- conv3
I0404 23:36:21.965845 14153 net.cpp:369] relu3 -> conv3 (in-place)
I0404 23:36:21.966073 14153 net.cpp:124] Setting up relu3
I0404 23:36:21.966086 14153 net.cpp:131] Top shape: 256 384 13 13 (16613376)
I0404 23:36:21.966092 14153 net.cpp:139] Memory required for data: 1500082176
I0404 23:36:21.966099 14153 layer_factory.hpp:77] Creating layer conv4
I0404 23:36:21.966117 14153 net.cpp:86] Creating Layer conv4
I0404 23:36:21.966123 14153 net.cpp:408] conv4 <- conv3
I0404 23:36:21.966135 14153 net.cpp:382] conv4 -> conv4
I0404 23:36:21.979555 14153 net.cpp:124] Setting up conv4
I0404 23:36:21.979602 14153 net.cpp:131] Top shape: 256 384 13 13 (16613376)
I0404 23:36:21.979609 14153 net.cpp:139] Memory required for data: 1566535680
I0404 23:36:21.979624 14153 layer_factory.hpp:77] Creating layer relu4
I0404 23:36:21.979640 14153 net.cpp:86] Creating Layer relu4
I0404 23:36:21.979647 14153 net.cpp:408] relu4 <- conv4
I0404 23:36:21.979660 14153 net.cpp:369] relu4 -> conv4 (in-place)
I0404 23:36:21.979893 14153 net.cpp:124] Setting up relu4
I0404 23:36:21.979907 14153 net.cpp:131] Top shape: 256 384 13 13 (16613376)
I0404 23:36:21.979913 14153 net.cpp:139] Memory required for data: 1632989184
I0404 23:36:21.979919 14153 layer_factory.hpp:77] Creating layer conv5
I0404 23:36:21.979949 14153 net.cpp:86] Creating Layer conv5
I0404 23:36:21.979969 14153 net.cpp:408] conv5 <- conv4
I0404 23:36:21.979982 14153 net.cpp:382] conv5 -> conv5
I0404 23:36:21.990345 14153 net.cpp:124] Setting up conv5
I0404 23:36:21.990393 14153 net.cpp:131] Top shape: 256 256 13 13 (11075584)
I0404 23:36:21.990416 14153 net.cpp:139] Memory required for data: 1677291520
I0404 23:36:21.990438 14153 layer_factory.hpp:77] Creating layer relu5
I0404 23:36:21.990455 14153 net.cpp:86] Creating Layer relu5
I0404 23:36:21.990463 14153 net.cpp:408] relu5 <- conv5
I0404 23:36:21.990474 14153 net.cpp:369] relu5 -> conv5 (in-place)
I0404 23:36:21.990707 14153 net.cpp:124] Setting up relu5
I0404 23:36:21.990722 14153 net.cpp:131] Top shape: 256 256 13 13 (11075584)
I0404 23:36:21.990728 14153 net.cpp:139] Memory required for data: 1721593856
I0404 23:36:21.990733 14153 layer_factory.hpp:77] Creating layer pool5
I0404 23:36:21.990747 14153 net.cpp:86] Creating Layer pool5
I0404 23:36:21.990754 14153 net.cpp:408] pool5 <- conv5
I0404 23:36:21.990763 14153 net.cpp:382] pool5 -> pool5
I0404 23:36:21.990826 14153 net.cpp:124] Setting up pool5
I0404 23:36:21.990839 14153 net.cpp:131] Top shape: 256 256 6 6 (2359296)
I0404 23:36:21.990844 14153 net.cpp:139] Memory required for data: 1731031040
I0404 23:36:21.990849 14153 layer_factory.hpp:77] Creating layer fc6
I0404 23:36:21.990866 14153 net.cpp:86] Creating Layer fc6
I0404 23:36:21.990873 14153 net.cpp:408] fc6 <- pool5
I0404 23:36:21.990885 14153 net.cpp:382] fc6 -> fc6
I0404 23:36:22.578774 14153 net.cpp:124] Setting up fc6
I0404 23:36:22.578829 14153 net.cpp:131] Top shape: 256 4096 (1048576)
I0404 23:36:22.578835 14153 net.cpp:139] Memory required for data: 1735225344
I0404 23:36:22.578850 14153 layer_factory.hpp:77] Creating layer relu6
I0404 23:36:22.578865 14153 net.cpp:86] Creating Layer relu6
I0404 23:36:22.578872 14153 net.cpp:408] relu6 <- fc6
I0404 23:36:22.578883 14153 net.cpp:369] relu6 -> fc6 (in-place)
I0404 23:36:22.579463 14153 net.cpp:124] Setting up relu6
I0404 23:36:22.579479 14153 net.cpp:131] Top shape: 256 4096 (1048576)
I0404 23:36:22.579485 14153 net.cpp:139] Memory required for data: 1739419648
I0404 23:36:22.579491 14153 layer_factory.hpp:77] Creating layer drop6
I0404 23:36:22.579502 14153 net.cpp:86] Creating Layer drop6
I0404 23:36:22.579509 14153 net.cpp:408] drop6 <- fc6
I0404 23:36:22.579519 14153 net.cpp:369] drop6 -> fc6 (in-place)
I0404 23:36:22.579557 14153 net.cpp:124] Setting up drop6
I0404 23:36:22.579571 14153 net.cpp:131] Top shape: 256 4096 (1048576)
I0404 23:36:22.579576 14153 net.cpp:139] Memory required for data: 1743613952
I0404 23:36:22.579581 14153 layer_factory.hpp:77] Creating layer fc7
I0404 23:36:22.579593 14153 net.cpp:86] Creating Layer fc7
I0404 23:36:22.579599 14153 net.cpp:408] fc7 <- fc6
I0404 23:36:22.579610 14153 net.cpp:382] fc7 -> fc7
I0404 23:36:22.840394 14153 net.cpp:124] Setting up fc7
I0404 23:36:22.840445 14153 net.cpp:131] Top shape: 256 4096 (1048576)
I0404 23:36:22.840451 14153 net.cpp:139] Memory required for data: 1747808256
I0404 23:36:22.840466 14153 layer_factory.hpp:77] Creating layer relu7
I0404 23:36:22.840481 14153 net.cpp:86] Creating Layer relu7
I0404 23:36:22.840488 14153 net.cpp:408] relu7 <- fc7
I0404 23:36:22.840502 14153 net.cpp:369] relu7 -> fc7 (in-place)
I0404 23:36:22.840803 14153 net.cpp:124] Setting up relu7
I0404 23:36:22.840817 14153 net.cpp:131] Top shape: 256 4096 (1048576)
I0404 23:36:22.840823 14153 net.cpp:139] Memory required for data: 1752002560
I0404 23:36:22.840829 14153 layer_factory.hpp:77] Creating layer drop7
I0404 23:36:22.840840 14153 net.cpp:86] Creating Layer drop7
I0404 23:36:22.840847 14153 net.cpp:408] drop7 <- fc7
I0404 23:36:22.840858 14153 net.cpp:369] drop7 -> fc7 (in-place)
I0404 23:36:22.840891 14153 net.cpp:124] Setting up drop7
I0404 23:36:22.840901 14153 net.cpp:131] Top shape: 256 4096 (1048576)
I0404 23:36:22.840906 14153 net.cpp:139] Memory required for data: 1756196864
I0404 23:36:22.840912 14153 layer_factory.hpp:77] Creating layer fc8
I0404 23:36:22.840926 14153 net.cpp:86] Creating Layer fc8
I0404 23:36:22.840945 14153 net.cpp:408] fc8 <- fc7
I0404 23:36:22.840966 14153 net.cpp:382] fc8 -> fc8
I0404 23:36:23.040982 14153 net.cpp:124] Setting up fc8
I0404 23:36:23.041039 14153 net.cpp:131] Top shape: 256 1000 (256000)
I0404 23:36:23.041048 14153 net.cpp:139] Memory required for data: 1757220864
I0404 23:36:23.041064 14153 layer_factory.hpp:77] Creating layer loss
I0404 23:36:23.041079 14153 net.cpp:86] Creating Layer loss
I0404 23:36:23.041086 14153 net.cpp:408] loss <- fc8
I0404 23:36:23.041097 14153 net.cpp:408] loss <- label
I0404 23:36:23.041112 14153 net.cpp:382] loss -> loss
I0404 23:36:23.041136 14153 layer_factory.hpp:77] Creating layer loss
…
I0404 23:36:23.043227 14153 net.cpp:296] The NetState phase (1) differed from the phase (0) specified by a rule in layer data
I0404 23:36:23.043478 14153 net.cpp:53] Initializing net from parameters: 
name: "CaffeNet"
state {
  phase: TEST
}
layer {
  name: "data"
  type: "Data"
  top: "data"
  top: "label"
  include {
    phase: TEST
  }
  transform_param {
    mirror: false
    crop_size: 227
    mean_file: "data/ilsvrc12/imagenet_mean.binaryproto"
  }
  data_param {
    source: "examples/imagenet/ilsvrc12_val_lmdb"
    batch_size: 50
    backend: LMDB
  }
}
layer {
  name: "conv1"
  type: "Convolution"
  bottom: "data"
  top: "conv1"
  param {
    lr_mult: 1
    decay_mult: 1
  }
  param {
    lr_mult: 2
    decay_mult: 0
  }
  convolution_param {
    num_output: 96
    kernel_size: 11
    stride: 4
    weight_filler {
      type: "gaussian"
      std: 0.01
    }
    bias_filler {
      type: "constant"
      value: 0
    }
  }
}
layer {
  name: "relu1"
  type: "ReLU"
  bottom: "conv1"
  top: "conv1"
}
layer {
  name: "pool1"
  type: "Pooling"
  bottom: "conv1"
  top: "pool1"
  pooling_param {
    pool: MAX
    kernel_size: 3
    stride: 2
  }
}
layer {
  name: "norm1"
  type: "LRN"
  bottom: "pool1"
  top: "norm1"
  lrn_param {
    local_size: 5
    alpha: 0.0001
    beta: 0.75
  }
}
layer {
  name: "conv2"
  type: "Convolution"
  bottom: "norm1"
  top: "conv2"
  param {
    lr_mult: 1
    decay_mult: 1
  }
  param {
    lr_mult: 2
    decay_mult: 0
  }
  convolution_param {
    num_output: 256
    pad: 2
    kernel_size: 5
    group: 2
    weight_filler {
      type: "gaussian"
      std: 0.01
    }
    bias_filler {
      type: "constant"
      value: 1
    }
  }
}
layer {
  name: "relu2"
  type: "ReLU"
  bottom: "conv2"
  top: "conv2"
}
layer {
  name: "pool2"
  type: "Pooling"
  bottom: "conv2"
  top: "pool2"
  pooling_param {
    pool: MAX
    kernel_size: 3
    stride: 2
  }
}
layer {
  name: "norm2"
  type: "LRN"
  bottom: "pool2"
  top: "norm2"
  lrn_param {
    local_size: 5
    alpha: 0.0001
    beta: 0.75
  }
}
layer {
  name: "conv3"
  type: "Convolution"
  bottom: "norm2"
  top: "conv3"
  param {
    lr_mult: 1
    decay_mult: 1
  }
  param {
    lr_mult: 2
    decay_mult: 0
  }
  convolution_param {
    num_output: 384
    pad: 1
    kernel_size: 3
    weight_filler {
      type: "gaussian"
      std: 0.01
    }
    bias_filler {
      type: "constant"
      value: 0
    }
  }
}
layer {
  name: "relu3"
  type: "ReLU"
  bottom: "conv3"
  top: "conv3"
}
layer {
  name: "conv4"
  type: "Convolution"
  bottom: "conv3"
  top: "conv4"
  param {
    lr_mult: 1
    decay_mult: 1
  }
  param {
    lr_mult: 2
    decay_mult: 0
  }
  convolution_param {
    num_output: 384
    pad: 1
    kernel_size: 3
    group: 2
    weight_filler {
      type: "gaussian"
      std: 0.01
    }
    bias_filler {
      type: "constant"
      value: 1
    }
  }
}
layer {
  name: "relu4"
  type: "ReLU"
  bottom: "conv4"
  top: "conv4"
}
layer {
  name: "conv5"
  type: "Convolution"
  bottom: "conv4"
  top: "conv5"
  param {
    lr_mult: 1
    decay_mult: 1
  }
  param {
    lr_mult: 2
    decay_mult: 0
  }
  convolution_param {
    num_output: 256
    pad: 1
    kernel_size: 3
    group: 2
    weight_filler {
      type: "gaussian"
      std: 0.01
    }
    bias_filler {
      type: "constant"
      value: 1
    }
  }
}
layer {
  name: "relu5"
  type: "ReLU"
  bottom: "conv5"
  top: "conv5"
}
layer {
  name: "pool5"
  type: "Pooling"
  bottom: "conv5"
  top: "pool5"
  pooling_param {
    pool: MAX
    kernel_size: 3
    stride: 2
  }
}
layer {
  name: "fc6"
  type: "InnerProduct"
  bottom: "pool5"
  top: "fc6"
  param {
    lr_mult: 1
    decay_mult: 1
  }
  param {
    lr_mult: 2
    decay_mult: 0
  }
  inner_product_param {
    num_output: 4096
    weight_filler {
      type: "gaussian"
      std: 0.005
    }
    bias_filler {
      type: "constant"
      value: 1
    }
  }
}
layer {
  name: "relu6"
  type: "ReLU"
  bottom: "fc6"
  top: "fc6"
}
layer {
  name: "drop6"
  type: "Dropout"
  bottom: "fc6"
  top: "fc6"
  dropout_param {
    dropout_ratio: 0.5
  }
}
layer {
  name: "fc7"
  type: "InnerProduct"
  bottom: "fc6"
  top: "fc7"
  param {
    lr_mult: 1
    decay_mult: 1
  }
  param {
    lr_mult: 2
    decay_mult: 0
  }
  inner_product_param {
    num_output: 4096
    weight_filler {
      type: "gaussian"
      std: 0.005
    }
    bias_filler {
      type: "constant"
      value: 1
    }
  }
}
layer {
  name: "relu7"
  type: "ReLU"
  bottom: "fc7"
  top: "fc7"
}
layer {
  name: "drop7"
  type: "Dropout"
  bottom: "fc7"
  top: "fc7"
  dropout_param {
    dropout_ratio: 0.5
  }
}
layer {
  name: "fc8"
  type: "InnerProduct"
  bottom: "fc7"
  top: "fc8"
  param {
    lr_mult: 1
    decay_mult: 1
  }
  param {
    lr_mult: 2
    decay_mult: 0
  }
  inner_product_param {
    num_output: 1000
    weight_filler {
      type: "gaussian"
      std: 0.01
    }
    bias_filler {
      type: "constant"
      value: 0
    }
  }
}
layer {
  name: "accuracy"
  type: "Accuracy"
  bottom: "fc8"
  bottom: "label"
  top: "accuracy"
  include {
    phase: TEST
  }
}
layer {
  name: "loss"
  type: "SoftmaxWithLoss"
  bottom: "fc8"
  bottom: "label"
  top: "loss"
}
I0404 23:36:23.043647 14153 layer_factory.hpp:77] Creating layer data
I0404 23:36:23.043730 14153 db_lmdb.cpp:35] Opened lmdb examples/imagenet/ilsvrc12_val_lmdb
I0404 23:36:23.043762 14153 net.cpp:86] Creating Layer data
I0404 23:36:23.043774 14153 net.cpp:382] data -> data
I0404 23:36:23.043788 14153 net.cpp:382] data -> label
I0404 23:36:23.043803 14153 data_transformer.cpp:25] Loading mean file from: data/ilsvrc12/imagenet_mean.binaryproto
I0404 23:36:23.046262 14153 data_layer.cpp:45] output data size: 50,3,227,227
I0404 23:36:23.125214 14153 net.cpp:124] Setting up data
I0404 23:36:23.125267 14153 net.cpp:131] Top shape: 50 3 227 227 (7729350)
I0404 23:36:23.125275 14153 net.cpp:131] Top shape: 50 (50)
I0404 23:36:23.125280 14153 net.cpp:139] Memory required for data: 30917600
I0404 23:36:23.125290 14153 layer_factory.hpp:77] Creating layer label_data_1_split
I0404 23:36:23.125308 14153 net.cpp:86] Creating Layer label_data_1_split
I0404 23:36:23.125316 14153 net.cpp:408] label_data_1_split <- label
I0404 23:36:23.125327 14153 net.cpp:382] label_data_1_split -> label_data_1_split_0
I0404 23:36:23.125344 14153 net.cpp:382] label_data_1_split -> label_data_1_split_1
I0404 23:36:23.125417 14153 net.cpp:124] Setting up label_data_1_split
I0404 23:36:23.125429 14153 net.cpp:131] Top shape: 50 (50)
I0404 23:36:23.125435 14153 net.cpp:131] Top shape: 50 (50)
I0404 23:36:23.125440 14153 net.cpp:139] Memory required for data: 30918000
I0404 23:36:23.125447 14153 layer_factory.hpp:77] Creating layer conv1
I0404 23:36:23.125465 14153 net.cpp:86] Creating Layer conv1
I0404 23:36:23.125473 14153 net.cpp:408] conv1 <- data
I0404 23:36:23.125483 14153 net.cpp:382] conv1 -> conv1
I0404 23:36:23.132431 14153 net.cpp:124] Setting up conv1
I0404 23:36:23.132463 14153 net.cpp:131] Top shape: 50 96 55 55 (14520000)
I0404 23:36:23.132469 14153 net.cpp:139] Memory required for data: 88998000
I0404 23:36:23.132488 14153 layer_factory.hpp:77] Creating layer relu1
I0404 23:36:23.132498 14153 net.cpp:86] Creating Layer relu1
I0404 23:36:23.132505 14153 net.cpp:408] relu1 <- conv1
I0404 23:36:23.132514 14153 net.cpp:369] relu1 -> conv1 (in-place)
I0404 23:36:23.132725 14153 net.cpp:124] Setting up relu1
I0404 23:36:23.132740 14153 net.cpp:131] Top shape: 50 96 55 55 (14520000)
I0404 23:36:23.132745 14153 net.cpp:139] Memory required for data: 147078000
I0404 23:36:23.132750 14153 layer_factory.hpp:77] Creating layer pool1
I0404 23:36:23.132763 14153 net.cpp:86] Creating Layer pool1
I0404 23:36:23.132769 14153 net.cpp:408] pool1 <- conv1
I0404 23:36:23.132778 14153 net.cpp:382] pool1 -> pool1
I0404 23:36:23.132836 14153 net.cpp:124] Setting up pool1
I0404 23:36:23.132848 14153 net.cpp:131] Top shape: 50 96 27 27 (3499200)
I0404 23:36:23.132853 14153 net.cpp:139] Memory required for data: 161074800
I0404 23:36:23.132859 14153 layer_factory.hpp:77] Creating layer norm1
I0404 23:36:23.132869 14153 net.cpp:86] Creating Layer norm1
I0404 23:36:23.132876 14153 net.cpp:408] norm1 <- pool1
I0404 23:36:23.132884 14153 net.cpp:382] norm1 -> norm1
I0404 23:36:23.133321 14153 net.cpp:124] Setting up norm1
I0404 23:36:23.133338 14153 net.cpp:131] Top shape: 50 96 27 27 (3499200)
I0404 23:36:23.133343 14153 net.cpp:139] Memory required for data: 175071600
I0404 23:36:23.133349 14153 layer_factory.hpp:77] Creating layer conv2
I0404 23:36:23.133364 14153 net.cpp:86] Creating Layer conv2
I0404 23:36:23.133371 14153 net.cpp:408] conv2 <- norm1
I0404 23:36:23.133381 14153 net.cpp:382] conv2 -> conv2
I0404 23:36:23.141111 14153 net.cpp:124] Setting up conv2
I0404 23:36:23.141162 14153 net.cpp:131] Top shape: 50 256 27 27 (9331200)
I0404 23:36:23.141170 14153 net.cpp:139] Memory required for data: 212396400
I0404 23:36:23.141189 14153 layer_factory.hpp:77] Creating layer relu2
I0404 23:36:23.141206 14153 net.cpp:86] Creating Layer relu2
I0404 23:36:23.141214 14153 net.cpp:408] relu2 <- conv2
I0404 23:36:23.141224 14153 net.cpp:369] relu2 -> conv2 (in-place)
I0404 23:36:23.141448 14153 net.cpp:124] Setting up relu2
I0404 23:36:23.141474 14153 net.cpp:131] Top shape: 50 256 27 27 (9331200)
I0404 23:36:23.141494 14153 net.cpp:139] Memory required for data: 249721200
I0404 23:36:23.141499 14153 layer_factory.hpp:77] Creating layer pool2
I0404 23:36:23.141513 14153 net.cpp:86] Creating Layer pool2
I0404 23:36:23.141520 14153 net.cpp:408] pool2 <- conv2
I0404 23:36:23.141528 14153 net.cpp:382] pool2 -> pool2
I0404 23:36:23.141592 14153 net.cpp:124] Setting up pool2
I0404 23:36:23.141605 14153 net.cpp:131] Top shape: 50 256 13 13 (2163200)
I0404 23:36:23.141610 14153 net.cpp:139] Memory required for data: 258374000
I0404 23:36:23.141615 14153 layer_factory.hpp:77] Creating layer norm2
I0404 23:36:23.141628 14153 net.cpp:86] Creating Layer norm2
I0404 23:36:23.141633 14153 net.cpp:408] norm2 <- pool2
I0404 23:36:23.141641 14153 net.cpp:382] norm2 -> norm2
I0404 23:36:23.142089 14153 net.cpp:124] Setting up norm2
I0404 23:36:23.142105 14153 net.cpp:131] Top shape: 50 256 13 13 (2163200)
I0404 23:36:23.142112 14153 net.cpp:139] Memory required for data: 267026800
I0404 23:36:23.142117 14153 layer_factory.hpp:77] Creating layer conv3
I0404 23:36:23.142134 14153 net.cpp:86] Creating Layer conv3
I0404 23:36:23.142141 14153 net.cpp:408] conv3 <- norm2
I0404 23:36:23.142151 14153 net.cpp:382] conv3 -> conv3
I0404 23:36:23.157706 14153 net.cpp:124] Setting up conv3
I0404 23:36:23.157755 14153 net.cpp:131] Top shape: 50 384 13 13 (3244800)
I0404 23:36:23.157762 14153 net.cpp:139] Memory required for data: 280006000
I0404 23:36:23.157783 14153 layer_factory.hpp:77] Creating layer relu3
I0404 23:36:23.157797 14153 net.cpp:86] Creating Layer relu3
I0404 23:36:23.157804 14153 net.cpp:408] relu3 <- conv3
I0404 23:36:23.157815 14153 net.cpp:369] relu3 -> conv3 (in-place)
I0404 23:36:23.158211 14153 net.cpp:124] Setting up relu3
I0404 23:36:23.158227 14153 net.cpp:131] Top shape: 50 384 13 13 (3244800)
I0404 23:36:23.158233 14153 net.cpp:139] Memory required for data: 292985200
I0404 23:36:23.158239 14153 layer_factory.hpp:77] Creating layer conv4
I0404 23:36:23.158255 14153 net.cpp:86] Creating Layer conv4
I0404 23:36:23.158262 14153 net.cpp:408] conv4 <- conv3
I0404 23:36:23.158272 14153 net.cpp:382] conv4 -> conv4
I0404 23:36:23.181288 14153 net.cpp:124] Setting up conv4
I0404 23:36:23.181341 14153 net.cpp:131] Top shape: 50 384 13 13 (3244800)
I0404 23:36:23.181349 14153 net.cpp:139] Memory required for data: 305964400
I0404 23:36:23.181363 14153 layer_factory.hpp:77] Creating layer relu4
I0404 23:36:23.181377 14153 net.cpp:86] Creating Layer relu4
I0404 23:36:23.181385 14153 net.cpp:408] relu4 <- conv4
I0404 23:36:23.181396 14153 net.cpp:369] relu4 -> conv4 (in-place)
I0404 23:36:23.181632 14153 net.cpp:124] Setting up relu4
I0404 23:36:23.181648 14153 net.cpp:131] Top shape: 50 384 13 13 (3244800)
I0404 23:36:23.181653 14153 net.cpp:139] Memory required for data: 318943600
I0404 23:36:23.181658 14153 layer_factory.hpp:77] Creating layer conv5
I0404 23:36:23.181675 14153 net.cpp:86] Creating Layer conv5
I0404 23:36:23.181682 14153 net.cpp:408] conv5 <- conv4
I0404 23:36:23.181692 14153 net.cpp:382] conv5 -> conv5
I0404 23:36:23.191576 14153 net.cpp:124] Setting up conv5
I0404 23:36:23.191627 14153 net.cpp:131] Top shape: 50 256 13 13 (2163200)
I0404 23:36:23.191632 14153 net.cpp:139] Memory required for data: 327596400
I0404 23:36:23.191654 14153 layer_factory.hpp:77] Creating layer relu5
I0404 23:36:23.191669 14153 net.cpp:86] Creating Layer relu5
I0404 23:36:23.191678 14153 net.cpp:408] relu5 <- conv5
I0404 23:36:23.191689 14153 net.cpp:369] relu5 -> conv5 (in-place)
I0404 23:36:23.191906 14153 net.cpp:124] Setting up relu5
I0404 23:36:23.191921 14153 net.cpp:131] Top shape: 50 256 13 13 (2163200)
I0404 23:36:23.191926 14153 net.cpp:139] Memory required for data: 336249200
I0404 23:36:23.191932 14153 layer_factory.hpp:77] Creating layer pool5
I0404 23:36:23.191946 14153 net.cpp:86] Creating Layer pool5
I0404 23:36:23.191953 14153 net.cpp:408] pool5 <- conv5
I0404 23:36:23.191962 14153 net.cpp:382] pool5 -> pool5
I0404 23:36:23.192044 14153 net.cpp:124] Setting up pool5
I0404 23:36:23.192070 14153 net.cpp:131] Top shape: 50 256 6 6 (460800)
I0404 23:36:23.192076 14153 net.cpp:139] Memory required for data: 338092400
I0404 23:36:23.192081 14153 layer_factory.hpp:77] Creating layer fc6
I0404 23:36:23.192095 14153 net.cpp:86] Creating Layer fc6
I0404 23:36:23.192101 14153 net.cpp:408] fc6 <- pool5
I0404 23:36:23.192109 14153 net.cpp:382] fc6 -> fc6
I0404 23:36:23.778415 14153 net.cpp:124] Setting up fc6
I0404 23:36:23.778468 14153 net.cpp:131] Top shape: 50 4096 (204800)
I0404 23:36:23.778475 14153 net.cpp:139] Memory required for data: 338911600
I0404 23:36:23.778489 14153 layer_factory.hpp:77] Creating layer relu6
I0404 23:36:23.778504 14153 net.cpp:86] Creating Layer relu6
I0404 23:36:23.778512 14153 net.cpp:408] relu6 <- fc6
I0404 23:36:23.778523 14153 net.cpp:369] relu6 -> fc6 (in-place)
I0404 23:36:23.779098 14153 net.cpp:124] Setting up relu6
I0404 23:36:23.779115 14153 net.cpp:131] Top shape: 50 4096 (204800)
I0404 23:36:23.779120 14153 net.cpp:139] Memory required for data: 339730800
I0404 23:36:23.779127 14153 layer_factory.hpp:77] Creating layer drop6
I0404 23:36:23.779139 14153 net.cpp:86] Creating Layer drop6
I0404 23:36:23.779145 14153 net.cpp:408] drop6 <- fc6
I0404 23:36:23.779152 14153 net.cpp:369] drop6 -> fc6 (in-place)
I0404 23:36:23.779196 14153 net.cpp:124] Setting up drop6
I0404 23:36:23.779206 14153 net.cpp:131] Top shape: 50 4096 (204800)
I0404 23:36:23.779212 14153 net.cpp:139] Memory required for data: 340550000
I0404 23:36:23.779217 14153 layer_factory.hpp:77] Creating layer fc7
I0404 23:36:23.779229 14153 net.cpp:86] Creating Layer fc7
I0404 23:36:23.779235 14153 net.cpp:408] fc7 <- fc6
I0404 23:36:23.779244 14153 net.cpp:382] fc7 -> fc7
I0404 23:36:24.039378 14153 net.cpp:124] Setting up fc7
I0404 23:36:24.039430 14153 net.cpp:131] Top shape: 50 4096 (204800)
I0404 23:36:24.039436 14153 net.cpp:139] Memory required for data: 341369200
I0404 23:36:24.039451 14153 layer_factory.hpp:77] Creating layer relu7
I0404 23:36:24.039466 14153 net.cpp:86] Creating Layer relu7
I0404 23:36:24.039474 14153 net.cpp:408] relu7 <- fc7
I0404 23:36:24.039485 14153 net.cpp:369] relu7 -> fc7 (in-place)
I0404 23:36:24.039782 14153 net.cpp:124] Setting up relu7
I0404 23:36:24.039795 14153 net.cpp:131] Top shape: 50 4096 (204800)
I0404 23:36:24.039800 14153 net.cpp:139] Memory required for data: 342188400
I0404 23:36:24.039806 14153 layer_factory.hpp:77] Creating layer drop7
I0404 23:36:24.039818 14153 net.cpp:86] Creating Layer drop7
I0404 23:36:24.039824 14153 net.cpp:408] drop7 <- fc7
I0404 23:36:24.039831 14153 net.cpp:369] drop7 -> fc7 (in-place)
I0404 23:36:24.039873 14153 net.cpp:124] Setting up drop7
I0404 23:36:24.039885 14153 net.cpp:131] Top shape: 50 4096 (204800)
I0404 23:36:24.039890 14153 net.cpp:139] Memory required for data: 343007600
I0404 23:36:24.039896 14153 layer_factory.hpp:77] Creating layer fc8
I0404 23:36:24.039906 14153 net.cpp:86] Creating Layer fc8
I0404 23:36:24.039912 14153 net.cpp:408] fc8 <- fc7
I0404 23:36:24.039921 14153 net.cpp:382] fc8 -> fc8
I0404 23:36:24.254117 14153 net.cpp:124] Setting up fc8
I0404 23:36:24.254166 14153 net.cpp:131] Top shape: 50 1000 (50000)
I0404 23:36:24.254173 14153 net.cpp:139] Memory required for data: 343207600
I0404 23:36:24.254189 14153 layer_factory.hpp:77] Creating layer fc8_fc8_0_split
I0404 23:36:24.254204 14153 net.cpp:86] Creating Layer fc8_fc8_0_split
I0404 23:36:24.254212 14153 net.cpp:408] fc8_fc8_0_split <- fc8
I0404 23:36:24.254225 14153 net.cpp:382] fc8_fc8_0_split -> fc8_fc8_0_split_0
I0404 23:36:24.254240 14153 net.cpp:382] fc8_fc8_0_split -> fc8_fc8_0_split_1
I0404 23:36:24.254298 14153 net.cpp:124] Setting up fc8_fc8_0_split
I0404 23:36:24.254309 14153 net.cpp:131] Top shape: 50 1000 (50000)
I0404 23:36:24.254315 14153 net.cpp:131] Top shape: 50 1000 (50000)
I0404 23:36:24.254320 14153 net.cpp:139] Memory required for data: 343607600
I0404 23:36:24.254326 14153 layer_factory.hpp:77] Creating layer accuracy
I0404 23:36:24.254338 14153 net.cpp:86] Creating Layer accuracy
I0404 23:36:24.254359 14153 net.cpp:408] accuracy <- fc8_fc8_0_split_0
I0404 23:36:24.254379 14153 net.cpp:408] accuracy <- label_data_1_split_0
I0404 23:36:24.254390 14153 net.cpp:382] accuracy -> accuracy
…
