…
I0407 15:39:24.698510 10031 net.cpp:296] The NetState phase (0) differed from the phase (1) specified by a rule in layer accuracy
I0407 15:39:24.698746 10031 net.cpp:53] Initializing net from parameters: 
name: "CaffeNet"
state {
  phase: TRAIN
  level: 0
  stage: ""
}
layer {
  name: "data"
  type: "Data"
  top: "data"
  top: "label"
  include {
    phase: TRAIN
  }
  transform_param {
    mirror: true
    crop_size: 227
    mean_file: "data/ilsvrc12/imagenet_mean.binaryproto"
  }
  data_param {
    source: "examples/imagenet/ilsvrc12_train_lmdb"
    batch_size: 256
    backend: LMDB
  }
}
layer {
  name: "conv1"
  type: "Convolution"
  bottom: "data"
  top: "conv1"
  param {
    lr_mult: 1
    decay_mult: 1
  }
  param {
    lr_mult: 2
    decay_mult: 0
  }
  convolution_param {
    num_output: 96
    kernel_size: 11
    stride: 4
    weight_filler {
      type: "gaussian"
      std: 0.01
    }
    bias_filler {
      type: "constant"
      value: 0
    }
  }
}
layer {
  name: "relu1"
  type: "ReLU"
  bottom: "conv1"
  top: "conv1"
}
layer {
  name: "pool1"
  type: "Pooling"
  bottom: "conv1"
  top: "pool1"
  pooling_param {
    pool: MAX
    kernel_size: 3
    stride: 2
  }
}
layer {
  name: "norm1"
  type: "LRN"
  bottom: "pool1"
  top: "norm1"
  lrn_param {
    local_size: 5
    alpha: 0.0001
    beta: 0.75
  }
}
layer {
  name: "conv2"
  type: "Convolution"
  bottom: "norm1"
  top: "conv2"
  param {
    lr_mult: 1
    decay_mult: 1
  }
  param {
    lr_mult: 2
    decay_mult: 0
  }
  convolution_param {
    num_output: 256
    pad: 2
    kernel_size: 5
    group: 2
    weight_filler {
      type: "gaussian"
      std: 0.01
    }
    bias_filler {
      type: "constant"
      value: 1
    }
  }
}
layer {
  name: "relu2"
  type: "ReLU"
  bottom: "conv2"
  top: "conv2"
}
layer {
  name: "pool2"
  type: "Pooling"
  bottom: "conv2"
  top: "pool2"
  pooling_param {
    pool: MAX
    kernel_size: 3
    stride: 2
  }
}
layer {
  name: "norm2"
  type: "LRN"
  bottom: "pool2"
  top: "norm2"
  lrn_param {
    local_size: 5
    alpha: 0.0001
    beta: 0.75
  }
}
layer {
  name: "conv3"
  type: "Convolution"
  bottom: "norm2"
  top: "conv3"
  param {
    lr_mult: 1
    decay_mult: 1
  }
  param {
    lr_mult: 2
    decay_mult: 0
  }
  convolution_param {
    num_output: 384
    pad: 1
    kernel_size: 3
    weight_filler {
      type: "gaussian"
      std: 0.01
    }
    bias_filler {
      type: "constant"
      value: 0
    }
  }
}
layer {
  name: "relu3"
  type: "ReLU"
  bottom: "conv3"
  top: "conv3"
}
layer {
  name: "conv4"
  type: "Convolution"
  bottom: "conv3"
  top: "conv4"
  param {
    lr_mult: 1
    decay_mult: 1
  }
  param {
    lr_mult: 2
    decay_mult: 0
  }
  convolution_param {
    num_output: 384
    pad: 1
    kernel_size: 3
    group: 2
    weight_filler {
      type: "gaussian"
      std: 0.01
    }
    bias_filler {
      type: "constant"
      value: 1
    }
  }
}
layer {
  name: "relu4"
  type: "ReLU"
  bottom: "conv4"
  top: "conv4"
}
layer {
  name: "conv5"
  type: "Convolution"
  bottom: "conv4"
  top: "conv5"
  param {
    lr_mult: 1
    decay_mult: 1
  }
  param {
    lr_mult: 2
    decay_mult: 0
  }
  convolution_param {
    num_output: 256
    pad: 1
    kernel_size: 3
    group: 2
    weight_filler {
      type: "gaussian"
      std: 0.01
    }
    bias_filler {
      type: "constant"
      value: 1
    }
  }
}
layer {
  name: "relu5"
  type: "ReLU"
  bottom: "conv5"
  top: "conv5"
}
layer {
  name: "pool5"
  type: "Pooling"
  bottom: "conv5"
  top: "pool5"
  pooling_param {
    pool: MAX
    kernel_size: 3
    stride: 2
  }
}
layer {
  name: "fc6"
  type: "InnerProduct"
  bottom: "pool5"
  top: "fc6"
  param {
    lr_mult: 1
    decay_mult: 1
  }
  param {
    lr_mult: 2
    decay_mult: 0
  }
  inner_product_param {
    num_output: 4096
    weight_filler {
      type: "gaussian"
      std: 0.005
    }
    bias_filler {
      type: "constant"
      value: 1
    }
  }
}
layer {
  name: "relu6"
  type: "ReLU"
  bottom: "fc6"
  top: "fc6"
}
layer {
  name: "drop6"
  type: "Dropout"
  bottom: "fc6"
  top: "fc6"
  dropout_param {
    dropout_ratio: 0.5
  }
}
layer {
  name: "fc7"
  type: "InnerProduct"
  bottom: "fc6"
  top: "fc7"
  param {
    lr_mult: 1
    decay_mult: 1
  }
  param {
    lr_mult: 2
    decay_mult: 0
  }
  inner_product_param {
    num_output: 4096
    weight_filler {
      type: "gaussian"
      std: 0.005
    }
    bias_filler {
      type: "constant"
      value: 1
    }
  }
}
layer {
  name: "relu7"
  type: "ReLU"
  bottom: "fc7"
  top: "fc7"
}
layer {
  name: "drop7"
  type: "Dropout"
  bottom: "fc7"
  top: "fc7"
  dropout_param {
    dropout_ratio: 0.5
  }
}
layer {
  name: "fc8"
  type: "InnerProduct"
  bottom: "fc7"
  top: "fc8"
  param {
    lr_mult: 1
    decay_mult: 1
  }
  param {
    lr_mult: 2
    decay_mult: 0
  }
  inner_product_param {
    num_output: 1000
    weight_filler {
      type: "gaussian"
      std: 0.01
    }
    bias_filler {
      type: "constant"
      value: 0
    }
  }
}
layer {
  name: "loss"
  type: "SoftmaxWithLoss"
  bottom: "fc8"
  bottom: "label"
  top: "loss"
}
I0407 15:39:24.698878 10031 layer_factory.hpp:77] Creating layer data
I0407 15:39:24.699009 10031 db_lmdb.cpp:35] Opened lmdb examples/imagenet/ilsvrc12_train_lmdb
I0407 15:39:24.776877 10031 net.cpp:86] Creating Layer data
I0407 15:39:24.776933 10031 net.cpp:382] data -> data
I0407 15:39:24.777001 10031 net.cpp:382] data -> label
I0407 15:39:24.777050 10031 data_transformer.cpp:25] Loading mean file from: data/ilsvrc12/imagenet_mean.binaryproto
I0407 15:39:24.793273 10031 data_layer.cpp:45] output data size: 256,3,227,227
I0407 15:39:25.370460 10031 net.cpp:124] Setting up data
I0407 15:39:25.370517 10031 net.cpp:131] Top shape: 256 3 227 227 (39574272)
I0407 15:39:25.370527 10031 net.cpp:131] Top shape: 256 (256)
I0407 15:39:25.370532 10031 net.cpp:139] Memory required for data: 158298112
I0407 15:39:25.370548 10031 layer_factory.hpp:77] Creating layer conv1
I0407 15:39:25.370579 10031 net.cpp:86] Creating Layer conv1
I0407 15:39:25.370589 10031 net.cpp:408] conv1 <- data
I0407 15:39:25.370609 10031 net.cpp:382] conv1 -> conv1
I0407 15:39:26.471957 10031 net.cpp:124] Setting up conv1
I0407 15:39:26.472008 10031 net.cpp:131] Top shape: 256 96 55 55 (74342400)
I0407 15:39:26.472015 10031 net.cpp:139] Memory required for data: 455667712
I0407 15:39:26.472048 10031 layer_factory.hpp:77] Creating layer relu1
I0407 15:39:26.472066 10031 net.cpp:86] Creating Layer relu1
I0407 15:39:26.472074 10031 net.cpp:408] relu1 <- conv1
I0407 15:39:26.472085 10031 net.cpp:369] relu1 -> conv1 (in-place)
I0407 15:39:26.472466 10031 net.cpp:124] Setting up relu1
I0407 15:39:26.472483 10031 net.cpp:131] Top shape: 256 96 55 55 (74342400)
I0407 15:39:26.472489 10031 net.cpp:139] Memory required for data: 753037312
I0407 15:39:26.472496 10031 layer_factory.hpp:77] Creating layer pool1
I0407 15:39:26.472507 10031 net.cpp:86] Creating Layer pool1
I0407 15:39:26.472513 10031 net.cpp:408] pool1 <- conv1
I0407 15:39:26.472522 10031 net.cpp:382] pool1 -> pool1
I0407 15:39:26.472582 10031 net.cpp:124] Setting up pool1
I0407 15:39:26.472594 10031 net.cpp:131] Top shape: 256 96 27 27 (17915904)
I0407 15:39:26.472600 10031 net.cpp:139] Memory required for data: 824700928
I0407 15:39:26.472606 10031 layer_factory.hpp:77] Creating layer norm1
I0407 15:39:26.472622 10031 net.cpp:86] Creating Layer norm1
I0407 15:39:26.472638 10031 net.cpp:408] norm1 <- pool1
I0407 15:39:26.472661 10031 net.cpp:382] norm1 -> norm1
I0407 15:39:26.472892 10031 net.cpp:124] Setting up norm1
I0407 15:39:26.472905 10031 net.cpp:131] Top shape: 256 96 27 27 (17915904)
I0407 15:39:26.472911 10031 net.cpp:139] Memory required for data: 896364544
I0407 15:39:26.472918 10031 layer_factory.hpp:77] Creating layer conv2
I0407 15:39:26.472934 10031 net.cpp:86] Creating Layer conv2
I0407 15:39:26.472940 10031 net.cpp:408] conv2 <- norm1
I0407 15:39:26.472950 10031 net.cpp:382] conv2 -> conv2
I0407 15:39:26.480396 10031 net.cpp:124] Setting up conv2
I0407 15:39:26.480432 10031 net.cpp:131] Top shape: 256 256 27 27 (47775744)
I0407 15:39:26.480437 10031 net.cpp:139] Memory required for data: 1087467520
I0407 15:39:26.480455 10031 layer_factory.hpp:77] Creating layer relu2
I0407 15:39:26.480468 10031 net.cpp:86] Creating Layer relu2
I0407 15:39:26.480475 10031 net.cpp:408] relu2 <- conv2
I0407 15:39:26.480484 10031 net.cpp:369] relu2 -> conv2 (in-place)
I0407 15:39:26.480687 10031 net.cpp:124] Setting up relu2
I0407 15:39:26.480701 10031 net.cpp:131] Top shape: 256 256 27 27 (47775744)
I0407 15:39:26.480707 10031 net.cpp:139] Memory required for data: 1278570496
I0407 15:39:26.480713 10031 layer_factory.hpp:77] Creating layer pool2
I0407 15:39:26.480725 10031 net.cpp:86] Creating Layer pool2
I0407 15:39:26.480731 10031 net.cpp:408] pool2 <- conv2
I0407 15:39:26.480738 10031 net.cpp:382] pool2 -> pool2
I0407 15:39:26.480790 10031 net.cpp:124] Setting up pool2
I0407 15:39:26.480801 10031 net.cpp:131] Top shape: 256 256 13 13 (11075584)
I0407 15:39:26.480808 10031 net.cpp:139] Memory required for data: 1322872832
I0407 15:39:26.480813 10031 layer_factory.hpp:77] Creating layer norm2
I0407 15:39:26.480826 10031 net.cpp:86] Creating Layer norm2
I0407 15:39:26.480832 10031 net.cpp:408] norm2 <- pool2
I0407 15:39:26.480841 10031 net.cpp:382] norm2 -> norm2
I0407 15:39:26.481240 10031 net.cpp:124] Setting up norm2
I0407 15:39:26.481256 10031 net.cpp:131] Top shape: 256 256 13 13 (11075584)
I0407 15:39:26.481262 10031 net.cpp:139] Memory required for data: 1367175168
I0407 15:39:26.481268 10031 layer_factory.hpp:77] Creating layer conv3
I0407 15:39:26.481283 10031 net.cpp:86] Creating Layer conv3
I0407 15:39:26.481290 10031 net.cpp:408] conv3 <- norm2
I0407 15:39:26.481300 10031 net.cpp:382] conv3 -> conv3
I0407 15:39:26.496397 10031 net.cpp:124] Setting up conv3
I0407 15:39:26.496443 10031 net.cpp:131] Top shape: 256 384 13 13 (16613376)
I0407 15:39:26.496448 10031 net.cpp:139] Memory required for data: 1433628672
I0407 15:39:26.496469 10031 layer_factory.hpp:77] Creating layer relu3
I0407 15:39:26.496481 10031 net.cpp:86] Creating Layer relu3
I0407 15:39:26.496489 10031 net.cpp:408] relu3 <- conv3
I0407 15:39:26.496501 10031 net.cpp:369] relu3 -> conv3 (in-place)
I0407 15:39:26.496721 10031 net.cpp:124] Setting up relu3
I0407 15:39:26.496736 10031 net.cpp:131] Top shape: 256 384 13 13 (16613376)
I0407 15:39:26.496742 10031 net.cpp:139] Memory required for data: 1500082176
I0407 15:39:26.496747 10031 layer_factory.hpp:77] Creating layer conv4
I0407 15:39:26.496764 10031 net.cpp:86] Creating Layer conv4
I0407 15:39:26.496773 10031 net.cpp:408] conv4 <- conv3
I0407 15:39:26.496783 10031 net.cpp:382] conv4 -> conv4
I0407 15:39:26.509459 10031 net.cpp:124] Setting up conv4
I0407 15:39:26.509502 10031 net.cpp:131] Top shape: 256 384 13 13 (16613376)
I0407 15:39:26.509510 10031 net.cpp:139] Memory required for data: 1566535680
I0407 15:39:26.509523 10031 layer_factory.hpp:77] Creating layer relu4
I0407 15:39:26.509536 10031 net.cpp:86] Creating Layer relu4
I0407 15:39:26.509543 10031 net.cpp:408] relu4 <- conv4
I0407 15:39:26.509557 10031 net.cpp:369] relu4 -> conv4 (in-place)
I0407 15:39:26.509773 10031 net.cpp:124] Setting up relu4
I0407 15:39:26.509786 10031 net.cpp:131] Top shape: 256 384 13 13 (16613376)
I0407 15:39:26.509793 10031 net.cpp:139] Memory required for data: 1632989184
I0407 15:39:26.509799 10031 layer_factory.hpp:77] Creating layer conv5
I0407 15:39:26.509825 10031 net.cpp:86] Creating Layer conv5
I0407 15:39:26.509845 10031 net.cpp:408] conv5 <- conv4
I0407 15:39:26.509857 10031 net.cpp:382] conv5 -> conv5
I0407 15:39:26.519388 10031 net.cpp:124] Setting up conv5
I0407 15:39:26.519423 10031 net.cpp:131] Top shape: 256 256 13 13 (11075584)
I0407 15:39:26.519428 10031 net.cpp:139] Memory required for data: 1677291520
I0407 15:39:26.519446 10031 layer_factory.hpp:77] Creating layer relu5
I0407 15:39:26.519461 10031 net.cpp:86] Creating Layer relu5
I0407 15:39:26.519469 10031 net.cpp:408] relu5 <- conv5
I0407 15:39:26.519479 10031 net.cpp:369] relu5 -> conv5 (in-place)
I0407 15:39:26.519690 10031 net.cpp:124] Setting up relu5
I0407 15:39:26.519704 10031 net.cpp:131] Top shape: 256 256 13 13 (11075584)
I0407 15:39:26.519711 10031 net.cpp:139] Memory required for data: 1721593856
I0407 15:39:26.519716 10031 layer_factory.hpp:77] Creating layer pool5
I0407 15:39:26.519728 10031 net.cpp:86] Creating Layer pool5
I0407 15:39:26.519734 10031 net.cpp:408] pool5 <- conv5
I0407 15:39:26.519743 10031 net.cpp:382] pool5 -> pool5
I0407 15:39:26.519804 10031 net.cpp:124] Setting up pool5
I0407 15:39:26.519815 10031 net.cpp:131] Top shape: 256 256 6 6 (2359296)
I0407 15:39:26.519821 10031 net.cpp:139] Memory required for data: 1731031040
I0407 15:39:26.519826 10031 layer_factory.hpp:77] Creating layer fc6
I0407 15:39:26.519842 10031 net.cpp:86] Creating Layer fc6
I0407 15:39:26.519850 10031 net.cpp:408] fc6 <- pool5
I0407 15:39:26.519860 10031 net.cpp:382] fc6 -> fc6
I0407 15:39:27.104478 10031 net.cpp:124] Setting up fc6
I0407 15:39:27.104523 10031 net.cpp:131] Top shape: 256 4096 (1048576)
I0407 15:39:27.104531 10031 net.cpp:139] Memory required for data: 1735225344
I0407 15:39:27.104545 10031 layer_factory.hpp:77] Creating layer relu6
I0407 15:39:27.104559 10031 net.cpp:86] Creating Layer relu6
I0407 15:39:27.104567 10031 net.cpp:408] relu6 <- fc6
I0407 15:39:27.104579 10031 net.cpp:369] relu6 -> fc6 (in-place)
I0407 15:39:27.105154 10031 net.cpp:124] Setting up relu6
I0407 15:39:27.105171 10031 net.cpp:131] Top shape: 256 4096 (1048576)
I0407 15:39:27.105177 10031 net.cpp:139] Memory required for data: 1739419648
I0407 15:39:27.105183 10031 layer_factory.hpp:77] Creating layer drop6
I0407 15:39:27.105195 10031 net.cpp:86] Creating Layer drop6
I0407 15:39:27.105201 10031 net.cpp:408] drop6 <- fc6
I0407 15:39:27.105211 10031 net.cpp:369] drop6 -> fc6 (in-place)
I0407 15:39:27.105248 10031 net.cpp:124] Setting up drop6
I0407 15:39:27.105259 10031 net.cpp:131] Top shape: 256 4096 (1048576)
I0407 15:39:27.105265 10031 net.cpp:139] Memory required for data: 1743613952
I0407 15:39:27.105270 10031 layer_factory.hpp:77] Creating layer fc7
I0407 15:39:27.105286 10031 net.cpp:86] Creating Layer fc7
I0407 15:39:27.105293 10031 net.cpp:408] fc7 <- fc6
I0407 15:39:27.105304 10031 net.cpp:382] fc7 -> fc7
I0407 15:39:27.365229 10031 net.cpp:124] Setting up fc7
I0407 15:39:27.365274 10031 net.cpp:131] Top shape: 256 4096 (1048576)
I0407 15:39:27.365280 10031 net.cpp:139] Memory required for data: 1747808256
I0407 15:39:27.365295 10031 layer_factory.hpp:77] Creating layer relu7
I0407 15:39:27.365309 10031 net.cpp:86] Creating Layer relu7
I0407 15:39:27.365316 10031 net.cpp:408] relu7 <- fc7
I0407 15:39:27.365327 10031 net.cpp:369] relu7 -> fc7 (in-place)
I0407 15:39:27.365619 10031 net.cpp:124] Setting up relu7
I0407 15:39:27.365633 10031 net.cpp:131] Top shape: 256 4096 (1048576)
I0407 15:39:27.365639 10031 net.cpp:139] Memory required for data: 1752002560
I0407 15:39:27.365645 10031 layer_factory.hpp:77] Creating layer drop7
I0407 15:39:27.365655 10031 net.cpp:86] Creating Layer drop7
I0407 15:39:27.365661 10031 net.cpp:408] drop7 <- fc7
I0407 15:39:27.365669 10031 net.cpp:369] drop7 -> fc7 (in-place)
I0407 15:39:27.365702 10031 net.cpp:124] Setting up drop7
I0407 15:39:27.365713 10031 net.cpp:131] Top shape: 256 4096 (1048576)
I0407 15:39:27.365718 10031 net.cpp:139] Memory required for data: 1756196864
I0407 15:39:27.365723 10031 layer_factory.hpp:77] Creating layer fc8
I0407 15:39:27.365737 10031 net.cpp:86] Creating Layer fc8
I0407 15:39:27.365754 10031 net.cpp:408] fc8 <- fc7
I0407 15:39:27.365777 10031 net.cpp:382] fc8 -> fc8
I0407 15:39:27.429533 10031 net.cpp:124] Setting up fc8
I0407 15:39:27.429577 10031 net.cpp:131] Top shape: 256 1000 (256000)
I0407 15:39:27.429584 10031 net.cpp:139] Memory required for data: 1757220864
I0407 15:39:27.429600 10031 layer_factory.hpp:77] Creating layer loss
I0407 15:39:27.429616 10031 net.cpp:86] Creating Layer loss
I0407 15:39:27.429625 10031 net.cpp:408] loss <- fc8
I0407 15:39:27.429635 10031 net.cpp:408] loss <- label
I0407 15:39:27.429647 10031 net.cpp:382] loss -> loss
I0407 15:39:27.429671 10031 layer_factory.hpp:77] Creating layer loss
…
I0407 15:39:27.431645 10031 net.cpp:296] The NetState phase (1) differed from the phase (0) specified by a rule in layer data
I0407 15:39:27.431885 10031 net.cpp:53] Initializing net from parameters: 
name: "CaffeNet"
state {
  phase: TEST
}
layer {
  name: "data"
  type: "Data"
  top: "data"
  top: "label"
  include {
    phase: TEST
  }
  transform_param {
    mirror: false
    crop_size: 227
    mean_file: "data/ilsvrc12/imagenet_mean.binaryproto"
  }
  data_param {
    source: "examples/imagenet/ilsvrc12_val_lmdb"
    batch_size: 50
    backend: LMDB
  }
}
layer {
  name: "conv1"
  type: "Convolution"
  bottom: "data"
  top: "conv1"
  param {
    lr_mult: 1
    decay_mult: 1
  }
  param {
    lr_mult: 2
    decay_mult: 0
  }
  convolution_param {
    num_output: 96
    kernel_size: 11
    stride: 4
    weight_filler {
      type: "gaussian"
      std: 0.01
    }
    bias_filler {
      type: "constant"
      value: 0
    }
  }
}
layer {
  name: "relu1"
  type: "ReLU"
  bottom: "conv1"
  top: "conv1"
}
layer {
  name: "pool1"
  type: "Pooling"
  bottom: "conv1"
  top: "pool1"
  pooling_param {
    pool: MAX
    kernel_size: 3
    stride: 2
  }
}
layer {
  name: "norm1"
  type: "LRN"
  bottom: "pool1"
  top: "norm1"
  lrn_param {
    local_size: 5
    alpha: 0.0001
    beta: 0.75
  }
}
layer {
  name: "conv2"
  type: "Convolution"
  bottom: "norm1"
  top: "conv2"
  param {
    lr_mult: 1
    decay_mult: 1
  }
  param {
    lr_mult: 2
    decay_mult: 0
  }
  convolution_param {
    num_output: 256
    pad: 2
    kernel_size: 5
    group: 2
    weight_filler {
      type: "gaussian"
      std: 0.01
    }
    bias_filler {
      type: "constant"
      value: 1
    }
  }
}
layer {
  name: "relu2"
  type: "ReLU"
  bottom: "conv2"
  top: "conv2"
}
layer {
  name: "pool2"
  type: "Pooling"
  bottom: "conv2"
  top: "pool2"
  pooling_param {
    pool: MAX
    kernel_size: 3
    stride: 2
  }
}
layer {
  name: "norm2"
  type: "LRN"
  bottom: "pool2"
  top: "norm2"
  lrn_param {
    local_size: 5
    alpha: 0.0001
    beta: 0.75
  }
}
layer {
  name: "conv3"
  type: "Convolution"
  bottom: "norm2"
  top: "conv3"
  param {
    lr_mult: 1
    decay_mult: 1
  }
  param {
    lr_mult: 2
    decay_mult: 0
  }
  convolution_param {
    num_output: 384
    pad: 1
    kernel_size: 3
    weight_filler {
      type: "gaussian"
      std: 0.01
    }
    bias_filler {
      type: "constant"
      value: 0
    }
  }
}
layer {
  name: "relu3"
  type: "ReLU"
  bottom: "conv3"
  top: "conv3"
}
layer {
  name: "conv4"
  type: "Convolution"
  bottom: "conv3"
  top: "conv4"
  param {
    lr_mult: 1
    decay_mult: 1
  }
  param {
    lr_mult: 2
    decay_mult: 0
  }
  convolution_param {
    num_output: 384
    pad: 1
    kernel_size: 3
    group: 2
    weight_filler {
      type: "gaussian"
      std: 0.01
    }
    bias_filler {
      type: "constant"
      value: 1
    }
  }
}
layer {
  name: "relu4"
  type: "ReLU"
  bottom: "conv4"
  top: "conv4"
}
layer {
  name: "conv5"
  type: "Convolution"
  bottom: "conv4"
  top: "conv5"
  param {
    lr_mult: 1
    decay_mult: 1
  }
  param {
    lr_mult: 2
    decay_mult: 0
  }
  convolution_param {
    num_output: 256
    pad: 1
    kernel_size: 3
    group: 2
    weight_filler {
      type: "gaussian"
      std: 0.01
    }
    bias_filler {
      type: "constant"
      value: 1
    }
  }
}
layer {
  name: "relu5"
  type: "ReLU"
  bottom: "conv5"
  top: "conv5"
}
layer {
  name: "pool5"
  type: "Pooling"
  bottom: "conv5"
  top: "pool5"
  pooling_param {
    pool: MAX
    kernel_size: 3
    stride: 2
  }
}
layer {
  name: "fc6"
  type: "InnerProduct"
  bottom: "pool5"
  top: "fc6"
  param {
    lr_mult: 1
    decay_mult: 1
  }
  param {
    lr_mult: 2
    decay_mult: 0
  }
  inner_product_param {
    num_output: 4096
    weight_filler {
      type: "gaussian"
      std: 0.005
    }
    bias_filler {
      type: "constant"
      value: 1
    }
  }
}
layer {
  name: "relu6"
  type: "ReLU"
  bottom: "fc6"
  top: "fc6"
}
layer {
  name: "drop6"
  type: "Dropout"
  bottom: "fc6"
  top: "fc6"
  dropout_param {
    dropout_ratio: 0.5
  }
}
layer {
  name: "fc7"
  type: "InnerProduct"
  bottom: "fc6"
  top: "fc7"
  param {
    lr_mult: 1
    decay_mult: 1
  }
  param {
    lr_mult: 2
    decay_mult: 0
  }
  inner_product_param {
    num_output: 4096
    weight_filler {
      type: "gaussian"
      std: 0.005
    }
    bias_filler {
      type: "constant"
      value: 1
    }
  }
}
layer {
  name: "relu7"
  type: "ReLU"
  bottom: "fc7"
  top: "fc7"
}
layer {
  name: "drop7"
  type: "Dropout"
  bottom: "fc7"
  top: "fc7"
  dropout_param {
    dropout_ratio: 0.5
  }
}
layer {
  name: "fc8"
  type: "InnerProduct"
  bottom: "fc7"
  top: "fc8"
  param {
    lr_mult: 1
    decay_mult: 1
  }
  param {
    lr_mult: 2
    decay_mult: 0
  }
  inner_product_param {
    num_output: 1000
    weight_filler {
      type: "gaussian"
      std: 0.01
    }
    bias_filler {
      type: "constant"
      value: 0
    }
  }
}
layer {
  name: "accuracy"
  type: "Accuracy"
  bottom: "fc8"
  bottom: "label"
  top: "accuracy"
  include {
    phase: TEST
  }
}
layer {
  name: "loss"
  type: "SoftmaxWithLoss"
  bottom: "fc8"
  bottom: "label"
  top: "loss"
}
I0407 15:39:27.432046 10031 layer_factory.hpp:77] Creating layer data
I0407 15:39:27.432128 10031 db_lmdb.cpp:35] Opened lmdb examples/imagenet/ilsvrc12_val_lmdb
I0407 15:39:27.624603 10031 net.cpp:86] Creating Layer data
I0407 15:39:27.624667 10031 net.cpp:382] data -> data
I0407 15:39:27.624691 10031 net.cpp:382] data -> label
I0407 15:39:27.624709 10031 data_transformer.cpp:25] Loading mean file from: data/ilsvrc12/imagenet_mean.binaryproto
I0407 15:39:27.851547 10031 data_layer.cpp:45] output data size: 50,3,227,227
I0407 15:39:27.954592 10031 net.cpp:124] Setting up data
I0407 15:39:27.954650 10031 net.cpp:131] Top shape: 50 3 227 227 (7729350)
I0407 15:39:27.954660 10031 net.cpp:131] Top shape: 50 (50)
I0407 15:39:27.954668 10031 net.cpp:139] Memory required for data: 30917600
I0407 15:39:27.954679 10031 layer_factory.hpp:77] Creating layer label_data_1_split
I0407 15:39:27.954699 10031 net.cpp:86] Creating Layer label_data_1_split
I0407 15:39:27.954708 10031 net.cpp:408] label_data_1_split <- label
I0407 15:39:27.954721 10031 net.cpp:382] label_data_1_split -> label_data_1_split_0
I0407 15:39:27.954741 10031 net.cpp:382] label_data_1_split -> label_data_1_split_1
I0407 15:39:27.954849 10031 net.cpp:124] Setting up label_data_1_split
I0407 15:39:27.954865 10031 net.cpp:131] Top shape: 50 (50)
I0407 15:39:27.954874 10031 net.cpp:131] Top shape: 50 (50)
I0407 15:39:27.954879 10031 net.cpp:139] Memory required for data: 30918000
I0407 15:39:27.954885 10031 layer_factory.hpp:77] Creating layer conv1
I0407 15:39:27.954907 10031 net.cpp:86] Creating Layer conv1
I0407 15:39:27.954916 10031 net.cpp:408] conv1 <- data
I0407 15:39:27.954928 10031 net.cpp:382] conv1 -> conv1
I0407 15:39:27.962092 10031 net.cpp:124] Setting up conv1
I0407 15:39:27.962123 10031 net.cpp:131] Top shape: 50 96 55 55 (14520000)
I0407 15:39:27.962131 10031 net.cpp:139] Memory required for data: 88998000
I0407 15:39:27.962152 10031 layer_factory.hpp:77] Creating layer relu1
I0407 15:39:27.962164 10031 net.cpp:86] Creating Layer relu1
I0407 15:39:27.962172 10031 net.cpp:408] relu1 <- conv1
I0407 15:39:27.962182 10031 net.cpp:369] relu1 -> conv1 (in-place)
I0407 15:39:27.962492 10031 net.cpp:124] Setting up relu1
I0407 15:39:27.962510 10031 net.cpp:131] Top shape: 50 96 55 55 (14520000)
I0407 15:39:27.962517 10031 net.cpp:139] Memory required for data: 147078000
I0407 15:39:27.962523 10031 layer_factory.hpp:77] Creating layer pool1
I0407 15:39:27.962538 10031 net.cpp:86] Creating Layer pool1
I0407 15:39:27.962545 10031 net.cpp:408] pool1 <- conv1
I0407 15:39:27.962555 10031 net.cpp:382] pool1 -> pool1
I0407 15:39:27.962620 10031 net.cpp:124] Setting up pool1
I0407 15:39:27.962631 10031 net.cpp:131] Top shape: 50 96 27 27 (3499200)
I0407 15:39:27.962656 10031 net.cpp:139] Memory required for data: 161074800
I0407 15:39:27.962662 10031 layer_factory.hpp:77] Creating layer norm1
I0407 15:39:27.962676 10031 net.cpp:86] Creating Layer norm1
I0407 15:39:27.962682 10031 net.cpp:408] norm1 <- pool1
I0407 15:39:27.962692 10031 net.cpp:382] norm1 -> norm1
I0407 15:39:27.963191 10031 net.cpp:124] Setting up norm1
I0407 15:39:27.963208 10031 net.cpp:131] Top shape: 50 96 27 27 (3499200)
I0407 15:39:27.963215 10031 net.cpp:139] Memory required for data: 175071600
I0407 15:39:27.963222 10031 layer_factory.hpp:77] Creating layer conv2
I0407 15:39:27.963238 10031 net.cpp:86] Creating Layer conv2
I0407 15:39:27.963245 10031 net.cpp:408] conv2 <- norm1
I0407 15:39:27.963256 10031 net.cpp:382] conv2 -> conv2
I0407 15:39:27.971403 10031 net.cpp:124] Setting up conv2
I0407 15:39:27.971431 10031 net.cpp:131] Top shape: 50 256 27 27 (9331200)
I0407 15:39:27.971437 10031 net.cpp:139] Memory required for data: 212396400
I0407 15:39:27.971453 10031 layer_factory.hpp:77] Creating layer relu2
I0407 15:39:27.971467 10031 net.cpp:86] Creating Layer relu2
I0407 15:39:27.971473 10031 net.cpp:408] relu2 <- conv2
I0407 15:39:27.971483 10031 net.cpp:369] relu2 -> conv2 (in-place)
I0407 15:39:27.971719 10031 net.cpp:124] Setting up relu2
I0407 15:39:27.971745 10031 net.cpp:131] Top shape: 50 256 27 27 (9331200)
I0407 15:39:27.971765 10031 net.cpp:139] Memory required for data: 249721200
I0407 15:39:27.971772 10031 layer_factory.hpp:77] Creating layer pool2
I0407 15:39:27.971786 10031 net.cpp:86] Creating Layer pool2
I0407 15:39:27.971792 10031 net.cpp:408] pool2 <- conv2
I0407 15:39:27.971802 10031 net.cpp:382] pool2 -> pool2
I0407 15:39:27.971868 10031 net.cpp:124] Setting up pool2
I0407 15:39:27.971881 10031 net.cpp:131] Top shape: 50 256 13 13 (2163200)
I0407 15:39:27.971887 10031 net.cpp:139] Memory required for data: 258374000
I0407 15:39:27.971894 10031 layer_factory.hpp:77] Creating layer norm2
I0407 15:39:27.971904 10031 net.cpp:86] Creating Layer norm2
I0407 15:39:27.971911 10031 net.cpp:408] norm2 <- pool2
I0407 15:39:27.971920 10031 net.cpp:382] norm2 -> norm2
I0407 15:39:27.972384 10031 net.cpp:124] Setting up norm2
I0407 15:39:27.972403 10031 net.cpp:131] Top shape: 50 256 13 13 (2163200)
I0407 15:39:27.972409 10031 net.cpp:139] Memory required for data: 267026800
I0407 15:39:27.972416 10031 layer_factory.hpp:77] Creating layer conv3
I0407 15:39:27.972431 10031 net.cpp:86] Creating Layer conv3
I0407 15:39:27.972439 10031 net.cpp:408] conv3 <- norm2
I0407 15:39:27.972450 10031 net.cpp:382] conv3 -> conv3
I0407 15:39:27.988955 10031 net.cpp:124] Setting up conv3
I0407 15:39:27.989001 10031 net.cpp:131] Top shape: 50 384 13 13 (3244800)
I0407 15:39:27.989007 10031 net.cpp:139] Memory required for data: 280006000
I0407 15:39:27.989027 10031 layer_factory.hpp:77] Creating layer relu3
I0407 15:39:27.989042 10031 net.cpp:86] Creating Layer relu3
I0407 15:39:27.989050 10031 net.cpp:408] relu3 <- conv3
I0407 15:39:27.989061 10031 net.cpp:369] relu3 -> conv3 (in-place)
I0407 15:39:27.989465 10031 net.cpp:124] Setting up relu3
I0407 15:39:27.989481 10031 net.cpp:131] Top shape: 50 384 13 13 (3244800)
I0407 15:39:27.989487 10031 net.cpp:139] Memory required for data: 292985200
I0407 15:39:27.989495 10031 layer_factory.hpp:77] Creating layer conv4
I0407 15:39:27.989511 10031 net.cpp:86] Creating Layer conv4
I0407 15:39:27.989517 10031 net.cpp:408] conv4 <- conv3
I0407 15:39:27.989527 10031 net.cpp:382] conv4 -> conv4
I0407 15:39:28.002926 10031 net.cpp:124] Setting up conv4
I0407 15:39:28.002964 10031 net.cpp:131] Top shape: 50 384 13 13 (3244800)
I0407 15:39:28.002969 10031 net.cpp:139] Memory required for data: 305964400
I0407 15:39:28.002982 10031 layer_factory.hpp:77] Creating layer relu4
I0407 15:39:28.002995 10031 net.cpp:86] Creating Layer relu4
I0407 15:39:28.003003 10031 net.cpp:408] relu4 <- conv4
I0407 15:39:28.003013 10031 net.cpp:369] relu4 -> conv4 (in-place)
I0407 15:39:28.003234 10031 net.cpp:124] Setting up relu4
I0407 15:39:28.003249 10031 net.cpp:131] Top shape: 50 384 13 13 (3244800)
I0407 15:39:28.003254 10031 net.cpp:139] Memory required for data: 318943600
I0407 15:39:28.003260 10031 layer_factory.hpp:77] Creating layer conv5
I0407 15:39:28.003275 10031 net.cpp:86] Creating Layer conv5
I0407 15:39:28.003283 10031 net.cpp:408] conv5 <- conv4
I0407 15:39:28.003293 10031 net.cpp:382] conv5 -> conv5
I0407 15:39:28.013219 10031 net.cpp:124] Setting up conv5
I0407 15:39:28.013247 10031 net.cpp:131] Top shape: 50 256 13 13 (2163200)
I0407 15:39:28.013253 10031 net.cpp:139] Memory required for data: 327596400
I0407 15:39:28.013270 10031 layer_factory.hpp:77] Creating layer relu5
I0407 15:39:28.013283 10031 net.cpp:86] Creating Layer relu5
I0407 15:39:28.013290 10031 net.cpp:408] relu5 <- conv5
I0407 15:39:28.013299 10031 net.cpp:369] relu5 -> conv5 (in-place)
I0407 15:39:28.013502 10031 net.cpp:124] Setting up relu5
I0407 15:39:28.013516 10031 net.cpp:131] Top shape: 50 256 13 13 (2163200)
I0407 15:39:28.013522 10031 net.cpp:139] Memory required for data: 336249200
I0407 15:39:28.013528 10031 layer_factory.hpp:77] Creating layer pool5
I0407 15:39:28.013542 10031 net.cpp:86] Creating Layer pool5
I0407 15:39:28.013548 10031 net.cpp:408] pool5 <- conv5
I0407 15:39:28.013557 10031 net.cpp:382] pool5 -> pool5
I0407 15:39:28.013628 10031 net.cpp:124] Setting up pool5
I0407 15:39:28.013653 10031 net.cpp:131] Top shape: 50 256 6 6 (460800)
I0407 15:39:28.013658 10031 net.cpp:139] Memory required for data: 338092400
I0407 15:39:28.013664 10031 layer_factory.hpp:77] Creating layer fc6
I0407 15:39:28.013674 10031 net.cpp:86] Creating Layer fc6
I0407 15:39:28.013680 10031 net.cpp:408] fc6 <- pool5
I0407 15:39:28.013690 10031 net.cpp:382] fc6 -> fc6
I0407 15:39:28.600888 10031 net.cpp:124] Setting up fc6
I0407 15:39:28.600942 10031 net.cpp:131] Top shape: 50 4096 (204800)
I0407 15:39:28.600949 10031 net.cpp:139] Memory required for data: 338911600
I0407 15:39:28.600965 10031 layer_factory.hpp:77] Creating layer relu6
I0407 15:39:28.600980 10031 net.cpp:86] Creating Layer relu6
I0407 15:39:28.600987 10031 net.cpp:408] relu6 <- fc6
I0407 15:39:28.600998 10031 net.cpp:369] relu6 -> fc6 (in-place)
I0407 15:39:28.601578 10031 net.cpp:124] Setting up relu6
I0407 15:39:28.601594 10031 net.cpp:131] Top shape: 50 4096 (204800)
I0407 15:39:28.601600 10031 net.cpp:139] Memory required for data: 339730800
I0407 15:39:28.601606 10031 layer_factory.hpp:77] Creating layer drop6
I0407 15:39:28.601618 10031 net.cpp:86] Creating Layer drop6
I0407 15:39:28.601624 10031 net.cpp:408] drop6 <- fc6
I0407 15:39:28.601632 10031 net.cpp:369] drop6 -> fc6 (in-place)
I0407 15:39:28.601675 10031 net.cpp:124] Setting up drop6
I0407 15:39:28.601686 10031 net.cpp:131] Top shape: 50 4096 (204800)
I0407 15:39:28.601691 10031 net.cpp:139] Memory required for data: 340550000
I0407 15:39:28.601696 10031 layer_factory.hpp:77] Creating layer fc7
I0407 15:39:28.601708 10031 net.cpp:86] Creating Layer fc7
I0407 15:39:28.601714 10031 net.cpp:408] fc7 <- fc6
I0407 15:39:28.601723 10031 net.cpp:382] fc7 -> fc7
I0407 15:39:28.861269 10031 net.cpp:124] Setting up fc7
I0407 15:39:28.861317 10031 net.cpp:131] Top shape: 50 4096 (204800)
I0407 15:39:28.861323 10031 net.cpp:139] Memory required for data: 341369200
I0407 15:39:28.861338 10031 layer_factory.hpp:77] Creating layer relu7
I0407 15:39:28.861353 10031 net.cpp:86] Creating Layer relu7
I0407 15:39:28.861361 10031 net.cpp:408] relu7 <- fc7
I0407 15:39:28.861372 10031 net.cpp:369] relu7 -> fc7 (in-place)
I0407 15:39:28.861659 10031 net.cpp:124] Setting up relu7
I0407 15:39:28.861672 10031 net.cpp:131] Top shape: 50 4096 (204800)
I0407 15:39:28.861678 10031 net.cpp:139] Memory required for data: 342188400
I0407 15:39:28.861685 10031 layer_factory.hpp:77] Creating layer drop7
I0407 15:39:28.861695 10031 net.cpp:86] Creating Layer drop7
I0407 15:39:28.861701 10031 net.cpp:408] drop7 <- fc7
I0407 15:39:28.861708 10031 net.cpp:369] drop7 -> fc7 (in-place)
I0407 15:39:28.861750 10031 net.cpp:124] Setting up drop7
I0407 15:39:28.861762 10031 net.cpp:131] Top shape: 50 4096 (204800)
I0407 15:39:28.861766 10031 net.cpp:139] Memory required for data: 343007600
I0407 15:39:28.861771 10031 layer_factory.hpp:77] Creating layer fc8
I0407 15:39:28.861783 10031 net.cpp:86] Creating Layer fc8
I0407 15:39:28.861789 10031 net.cpp:408] fc8 <- fc7
I0407 15:39:28.861799 10031 net.cpp:382] fc8 -> fc8
I0407 15:39:29.001538 10031 net.cpp:124] Setting up fc8
I0407 15:39:29.001602 10031 net.cpp:131] Top shape: 50 1000 (50000)
I0407 15:39:29.001610 10031 net.cpp:139] Memory required for data: 343207600
I0407 15:39:29.001629 10031 layer_factory.hpp:77] Creating layer fc8_fc8_0_split
I0407 15:39:29.001646 10031 net.cpp:86] Creating Layer fc8_fc8_0_split
I0407 15:39:29.001655 10031 net.cpp:408] fc8_fc8_0_split <- fc8
I0407 15:39:29.001669 10031 net.cpp:382] fc8_fc8_0_split -> fc8_fc8_0_split_0
I0407 15:39:29.001688 10031 net.cpp:382] fc8_fc8_0_split -> fc8_fc8_0_split_1
I0407 15:39:29.001756 10031 net.cpp:124] Setting up fc8_fc8_0_split
I0407 15:39:29.001770 10031 net.cpp:131] Top shape: 50 1000 (50000)
I0407 15:39:29.001777 10031 net.cpp:131] Top shape: 50 1000 (50000)
I0407 15:39:29.001783 10031 net.cpp:139] Memory required for data: 343607600
I0407 15:39:29.001791 10031 layer_factory.hpp:77] Creating layer accuracy
I0407 15:39:29.001802 10031 net.cpp:86] Creating Layer accuracy
I0407 15:39:29.001827 10031 net.cpp:408] accuracy <- fc8_fc8_0_split_0
I0407 15:39:29.001852 10031 net.cpp:408] accuracy <- label_data_1_split_0
I0407 15:39:29.001863 10031 net.cpp:382] accuracy -> accuracy
…
