…
I0405 10:38:36.034121 27955 net.cpp:296] The NetState phase (0) differed from the phase (1) specified by a rule in layer accuracy
I0405 10:38:36.034353 27955 net.cpp:53] Initializing net from parameters: 
name: "CaffeNet"
state {
  phase: TRAIN
  level: 0
  stage: ""
}
layer {
  name: "data"
  type: "Data"
  top: "data"
  top: "label"
  include {
    phase: TRAIN
  }
  transform_param {
    mirror: true
    crop_size: 227
    mean_file: "data/ilsvrc12/imagenet_mean.binaryproto"
  }
  data_param {
    source: "examples/imagenet/ilsvrc12_train_lmdb"
    batch_size: 256
    backend: LMDB
  }
}
layer {
  name: "conv1"
  type: "Convolution"
  bottom: "data"
  top: "conv1"
  param {
    lr_mult: 1
    decay_mult: 1
  }
  param {
    lr_mult: 2
    decay_mult: 0
  }
  convolution_param {
    num_output: 96
    kernel_size: 11
    stride: 4
    weight_filler {
      type: "gaussian"
      std: 0.01
    }
    bias_filler {
      type: "constant"
      value: 0
    }
  }
}
layer {
  name: "relu1"
  type: "ReLU"
  bottom: "conv1"
  top: "conv1"
}
layer {
  name: "pool1"
  type: "Pooling"
  bottom: "conv1"
  top: "pool1"
  pooling_param {
    pool: MAX
    kernel_size: 3
    stride: 2
  }
}
layer {
  name: "norm1"
  type: "LRN"
  bottom: "pool1"
  top: "norm1"
  lrn_param {
    local_size: 5
    alpha: 0.0001
    beta: 0.75
  }
}
layer {
  name: "conv2"
  type: "Convolution"
  bottom: "norm1"
  top: "conv2"
  param {
    lr_mult: 1
    decay_mult: 1
  }
  param {
    lr_mult: 2
    decay_mult: 0
  }
  convolution_param {
    num_output: 256
    pad: 2
    kernel_size: 5
    group: 2
    weight_filler {
      type: "gaussian"
      std: 0.01
    }
    bias_filler {
      type: "constant"
      value: 1
    }
  }
}
layer {
  name: "relu2"
  type: "ReLU"
  bottom: "conv2"
  top: "conv2"
}
layer {
  name: "pool2"
  type: "Pooling"
  bottom: "conv2"
  top: "pool2"
  pooling_param {
    pool: MAX
    kernel_size: 3
    stride: 2
  }
}
layer {
  name: "norm2"
  type: "LRN"
  bottom: "pool2"
  top: "norm2"
  lrn_param {
    local_size: 5
    alpha: 0.0001
    beta: 0.75
  }
}
layer {
  name: "conv3"
  type: "Convolution"
  bottom: "norm2"
  top: "conv3"
  param {
    lr_mult: 1
    decay_mult: 1
  }
  param {
    lr_mult: 2
    decay_mult: 0
  }
  convolution_param {
    num_output: 384
    pad: 1
    kernel_size: 3
    weight_filler {
      type: "gaussian"
      std: 0.01
    }
    bias_filler {
      type: "constant"
      value: 0
    }
  }
}
layer {
  name: "relu3"
  type: "ReLU"
  bottom: "conv3"
  top: "conv3"
}
layer {
  name: "conv4"
  type: "Convolution"
  bottom: "conv3"
  top: "conv4"
  param {
    lr_mult: 1
    decay_mult: 1
  }
  param {
    lr_mult: 2
    decay_mult: 0
  }
  convolution_param {
    num_output: 384
    pad: 1
    kernel_size: 3
    group: 2
    weight_filler {
      type: "gaussian"
      std: 0.01
    }
    bias_filler {
      type: "constant"
      value: 1
    }
  }
}
layer {
  name: "relu4"
  type: "ReLU"
  bottom: "conv4"
  top: "conv4"
}
layer {
  name: "conv5"
  type: "Convolution"
  bottom: "conv4"
  top: "conv5"
  param {
    lr_mult: 1
    decay_mult: 1
  }
  param {
    lr_mult: 2
    decay_mult: 0
  }
  convolution_param {
    num_output: 256
    pad: 1
    kernel_size: 3
    group: 2
    weight_filler {
      type: "gaussian"
      std: 0.01
    }
    bias_filler {
      type: "constant"
      value: 1
    }
  }
}
layer {
  name: "relu5"
  type: "ReLU"
  bottom: "conv5"
  top: "conv5"
}
layer {
  name: "pool5"
  type: "Pooling"
  bottom: "conv5"
  top: "pool5"
  pooling_param {
    pool: MAX
    kernel_size: 3
    stride: 2
  }
}
layer {
  name: "fc6"
  type: "InnerProduct"
  bottom: "pool5"
  top: "fc6"
  param {
    lr_mult: 1
    decay_mult: 1
  }
  param {
    lr_mult: 2
    decay_mult: 0
  }
  inner_product_param {
    num_output: 4096
    weight_filler {
      type: "gaussian"
      std: 0.005
    }
    bias_filler {
      type: "constant"
      value: 1
    }
  }
}
layer {
  name: "relu6"
  type: "ReLU"
  bottom: "fc6"
  top: "fc6"
}
layer {
  name: "drop6"
  type: "Dropout"
  bottom: "fc6"
  top: "fc6"
  dropout_param {
    dropout_ratio: 0.5
  }
}
layer {
  name: "fc7"
  type: "InnerProduct"
  bottom: "fc6"
  top: "fc7"
  param {
    lr_mult: 1
    decay_mult: 1
  }
  param {
    lr_mult: 2
    decay_mult: 0
  }
  inner_product_param {
    num_output: 4096
    weight_filler {
      type: "gaussian"
      std: 0.005
    }
    bias_filler {
      type: "constant"
      value: 1
    }
  }
}
layer {
  name: "relu7"
  type: "ReLU"
  bottom: "fc7"
  top: "fc7"
}
layer {
  name: "drop7"
  type: "Dropout"
  bottom: "fc7"
  top: "fc7"
  dropout_param {
    dropout_ratio: 0.5
  }
}
layer {
  name: "fc8"
  type: "InnerProduct"
  bottom: "fc7"
  top: "fc8"
  param {
    lr_mult: 1
    decay_mult: 1
  }
  param {
    lr_mult: 2
    decay_mult: 0
  }
  inner_product_param {
    num_output: 1000
    weight_filler {
      type: "gaussian"
      std: 0.01
    }
    bias_filler {
      type: "constant"
      value: 0
    }
  }
}
layer {
  name: "loss"
  type: "SoftmaxWithLoss"
  bottom: "fc8"
  bottom: "label"
  top: "loss"
}
I0405 10:38:36.034495 27955 layer_factory.hpp:77] Creating layer data
I0405 10:38:36.034631 27955 db_lmdb.cpp:35] Opened lmdb examples/imagenet/ilsvrc12_train_lmdb
I0405 10:38:36.034673 27955 net.cpp:86] Creating Layer data
I0405 10:38:36.034688 27955 net.cpp:382] data -> data
I0405 10:38:36.034723 27955 net.cpp:382] data -> label
I0405 10:38:36.034741 27955 data_transformer.cpp:25] Loading mean file from: data/ilsvrc12/imagenet_mean.binaryproto
I0405 10:38:36.038105 27955 data_layer.cpp:45] output data size: 256,3,227,227
I0405 10:38:36.437615 27955 net.cpp:124] Setting up data
I0405 10:38:36.437669 27955 net.cpp:131] Top shape: 256 3 227 227 (39574272)
I0405 10:38:36.437677 27955 net.cpp:131] Top shape: 256 (256)
I0405 10:38:36.437682 27955 net.cpp:139] Memory required for data: 158298112
I0405 10:38:36.437697 27955 layer_factory.hpp:77] Creating layer conv1
I0405 10:38:36.437727 27955 net.cpp:86] Creating Layer conv1
I0405 10:38:36.437737 27955 net.cpp:408] conv1 <- data
I0405 10:38:36.437757 27955 net.cpp:382] conv1 -> conv1
I0405 10:38:37.078147 27955 net.cpp:124] Setting up conv1
I0405 10:38:37.078199 27955 net.cpp:131] Top shape: 256 96 55 55 (74342400)
I0405 10:38:37.078207 27955 net.cpp:139] Memory required for data: 455667712
I0405 10:38:37.078240 27955 layer_factory.hpp:77] Creating layer relu1
I0405 10:38:37.078258 27955 net.cpp:86] Creating Layer relu1
I0405 10:38:37.078266 27955 net.cpp:408] relu1 <- conv1
I0405 10:38:37.078277 27955 net.cpp:369] relu1 -> conv1 (in-place)
I0405 10:38:37.078722 27955 net.cpp:124] Setting up relu1
I0405 10:38:37.078739 27955 net.cpp:131] Top shape: 256 96 55 55 (74342400)
I0405 10:38:37.078745 27955 net.cpp:139] Memory required for data: 753037312
I0405 10:38:37.078752 27955 layer_factory.hpp:77] Creating layer pool1
I0405 10:38:37.078763 27955 net.cpp:86] Creating Layer pool1
I0405 10:38:37.078769 27955 net.cpp:408] pool1 <- conv1
I0405 10:38:37.078778 27955 net.cpp:382] pool1 -> pool1
I0405 10:38:37.078845 27955 net.cpp:124] Setting up pool1
I0405 10:38:37.078858 27955 net.cpp:131] Top shape: 256 96 27 27 (17915904)
I0405 10:38:37.078865 27955 net.cpp:139] Memory required for data: 824700928
I0405 10:38:37.078869 27955 layer_factory.hpp:77] Creating layer norm1
I0405 10:38:37.078886 27955 net.cpp:86] Creating Layer norm1
I0405 10:38:37.078904 27955 net.cpp:408] norm1 <- pool1
I0405 10:38:37.078928 27955 net.cpp:382] norm1 -> norm1
I0405 10:38:37.079175 27955 net.cpp:124] Setting up norm1
I0405 10:38:37.079190 27955 net.cpp:131] Top shape: 256 96 27 27 (17915904)
I0405 10:38:37.079196 27955 net.cpp:139] Memory required for data: 896364544
I0405 10:38:37.079202 27955 layer_factory.hpp:77] Creating layer conv2
I0405 10:38:37.079221 27955 net.cpp:86] Creating Layer conv2
I0405 10:38:37.079226 27955 net.cpp:408] conv2 <- norm1
I0405 10:38:37.079236 27955 net.cpp:382] conv2 -> conv2
I0405 10:38:37.087152 27955 net.cpp:124] Setting up conv2
I0405 10:38:37.087199 27955 net.cpp:131] Top shape: 256 256 27 27 (47775744)
I0405 10:38:37.087206 27955 net.cpp:139] Memory required for data: 1087467520
I0405 10:38:37.087229 27955 layer_factory.hpp:77] Creating layer relu2
I0405 10:38:37.087244 27955 net.cpp:86] Creating Layer relu2
I0405 10:38:37.087251 27955 net.cpp:408] relu2 <- conv2
I0405 10:38:37.087262 27955 net.cpp:369] relu2 -> conv2 (in-place)
I0405 10:38:37.087486 27955 net.cpp:124] Setting up relu2
I0405 10:38:37.087501 27955 net.cpp:131] Top shape: 256 256 27 27 (47775744)
I0405 10:38:37.087507 27955 net.cpp:139] Memory required for data: 1278570496
I0405 10:38:37.087512 27955 layer_factory.hpp:77] Creating layer pool2
I0405 10:38:37.087523 27955 net.cpp:86] Creating Layer pool2
I0405 10:38:37.087529 27955 net.cpp:408] pool2 <- conv2
I0405 10:38:37.087538 27955 net.cpp:382] pool2 -> pool2
I0405 10:38:37.087594 27955 net.cpp:124] Setting up pool2
I0405 10:38:37.087604 27955 net.cpp:131] Top shape: 256 256 13 13 (11075584)
I0405 10:38:37.087610 27955 net.cpp:139] Memory required for data: 1322872832
I0405 10:38:37.087615 27955 layer_factory.hpp:77] Creating layer norm2
I0405 10:38:37.087630 27955 net.cpp:86] Creating Layer norm2
I0405 10:38:37.087636 27955 net.cpp:408] norm2 <- pool2
I0405 10:38:37.087646 27955 net.cpp:382] norm2 -> norm2
I0405 10:38:37.088069 27955 net.cpp:124] Setting up norm2
I0405 10:38:37.088085 27955 net.cpp:131] Top shape: 256 256 13 13 (11075584)
I0405 10:38:37.088091 27955 net.cpp:139] Memory required for data: 1367175168
I0405 10:38:37.088098 27955 layer_factory.hpp:77] Creating layer conv3
I0405 10:38:37.088115 27955 net.cpp:86] Creating Layer conv3
I0405 10:38:37.088122 27955 net.cpp:408] conv3 <- norm2
I0405 10:38:37.088132 27955 net.cpp:382] conv3 -> conv3
I0405 10:38:37.103723 27955 net.cpp:124] Setting up conv3
I0405 10:38:37.103772 27955 net.cpp:131] Top shape: 256 384 13 13 (16613376)
I0405 10:38:37.103788 27955 net.cpp:139] Memory required for data: 1433628672
I0405 10:38:37.103809 27955 layer_factory.hpp:77] Creating layer relu3
I0405 10:38:37.103824 27955 net.cpp:86] Creating Layer relu3
I0405 10:38:37.103832 27955 net.cpp:408] relu3 <- conv3
I0405 10:38:37.103842 27955 net.cpp:369] relu3 -> conv3 (in-place)
I0405 10:38:37.104071 27955 net.cpp:124] Setting up relu3
I0405 10:38:37.104085 27955 net.cpp:131] Top shape: 256 384 13 13 (16613376)
I0405 10:38:37.104092 27955 net.cpp:139] Memory required for data: 1500082176
I0405 10:38:37.104099 27955 layer_factory.hpp:77] Creating layer conv4
I0405 10:38:37.104115 27955 net.cpp:86] Creating Layer conv4
I0405 10:38:37.104120 27955 net.cpp:408] conv4 <- conv3
I0405 10:38:37.104132 27955 net.cpp:382] conv4 -> conv4
I0405 10:38:37.117337 27955 net.cpp:124] Setting up conv4
I0405 10:38:37.117386 27955 net.cpp:131] Top shape: 256 384 13 13 (16613376)
I0405 10:38:37.117393 27955 net.cpp:139] Memory required for data: 1566535680
I0405 10:38:37.117408 27955 layer_factory.hpp:77] Creating layer relu4
I0405 10:38:37.117421 27955 net.cpp:86] Creating Layer relu4
I0405 10:38:37.117429 27955 net.cpp:408] relu4 <- conv4
I0405 10:38:37.117444 27955 net.cpp:369] relu4 -> conv4 (in-place)
I0405 10:38:37.117671 27955 net.cpp:124] Setting up relu4
I0405 10:38:37.117684 27955 net.cpp:131] Top shape: 256 384 13 13 (16613376)
I0405 10:38:37.117691 27955 net.cpp:139] Memory required for data: 1632989184
I0405 10:38:37.117697 27955 layer_factory.hpp:77] Creating layer conv5
I0405 10:38:37.117724 27955 net.cpp:86] Creating Layer conv5
I0405 10:38:37.117744 27955 net.cpp:408] conv5 <- conv4
I0405 10:38:37.117758 27955 net.cpp:382] conv5 -> conv5
I0405 10:38:37.127871 27955 net.cpp:124] Setting up conv5
I0405 10:38:37.127919 27955 net.cpp:131] Top shape: 256 256 13 13 (11075584)
I0405 10:38:37.127926 27955 net.cpp:139] Memory required for data: 1677291520
I0405 10:38:37.127948 27955 layer_factory.hpp:77] Creating layer relu5
I0405 10:38:37.127965 27955 net.cpp:86] Creating Layer relu5
I0405 10:38:37.127974 27955 net.cpp:408] relu5 <- conv5
I0405 10:38:37.127985 27955 net.cpp:369] relu5 -> conv5 (in-place)
I0405 10:38:37.128211 27955 net.cpp:124] Setting up relu5
I0405 10:38:37.128226 27955 net.cpp:131] Top shape: 256 256 13 13 (11075584)
I0405 10:38:37.128232 27955 net.cpp:139] Memory required for data: 1721593856
I0405 10:38:37.128237 27955 layer_factory.hpp:77] Creating layer pool5
I0405 10:38:37.128250 27955 net.cpp:86] Creating Layer pool5
I0405 10:38:37.128257 27955 net.cpp:408] pool5 <- conv5
I0405 10:38:37.128270 27955 net.cpp:382] pool5 -> pool5
I0405 10:38:37.128332 27955 net.cpp:124] Setting up pool5
I0405 10:38:37.128345 27955 net.cpp:131] Top shape: 256 256 6 6 (2359296)
I0405 10:38:37.128350 27955 net.cpp:139] Memory required for data: 1731031040
I0405 10:38:37.128356 27955 layer_factory.hpp:77] Creating layer fc6
I0405 10:38:37.128373 27955 net.cpp:86] Creating Layer fc6
I0405 10:38:37.128381 27955 net.cpp:408] fc6 <- pool5
I0405 10:38:37.128391 27955 net.cpp:382] fc6 -> fc6
I0405 10:38:37.716625 27955 net.cpp:124] Setting up fc6
I0405 10:38:37.716680 27955 net.cpp:131] Top shape: 256 4096 (1048576)
I0405 10:38:37.716686 27955 net.cpp:139] Memory required for data: 1735225344
I0405 10:38:37.716701 27955 layer_factory.hpp:77] Creating layer relu6
I0405 10:38:37.716717 27955 net.cpp:86] Creating Layer relu6
I0405 10:38:37.716723 27955 net.cpp:408] relu6 <- fc6
I0405 10:38:37.716735 27955 net.cpp:369] relu6 -> fc6 (in-place)
I0405 10:38:37.717288 27955 net.cpp:124] Setting up relu6
I0405 10:38:37.717304 27955 net.cpp:131] Top shape: 256 4096 (1048576)
I0405 10:38:37.717310 27955 net.cpp:139] Memory required for data: 1739419648
I0405 10:38:37.717316 27955 layer_factory.hpp:77] Creating layer drop6
I0405 10:38:37.717329 27955 net.cpp:86] Creating Layer drop6
I0405 10:38:37.717336 27955 net.cpp:408] drop6 <- fc6
I0405 10:38:37.717344 27955 net.cpp:369] drop6 -> fc6 (in-place)
I0405 10:38:37.717386 27955 net.cpp:124] Setting up drop6
I0405 10:38:37.717396 27955 net.cpp:131] Top shape: 256 4096 (1048576)
I0405 10:38:37.717401 27955 net.cpp:139] Memory required for data: 1743613952
I0405 10:38:37.717407 27955 layer_factory.hpp:77] Creating layer fc7
I0405 10:38:37.717418 27955 net.cpp:86] Creating Layer fc7
I0405 10:38:37.717424 27955 net.cpp:408] fc7 <- fc6
I0405 10:38:37.717435 27955 net.cpp:382] fc7 -> fc7
I0405 10:38:37.978461 27955 net.cpp:124] Setting up fc7
I0405 10:38:37.978512 27955 net.cpp:131] Top shape: 256 4096 (1048576)
I0405 10:38:37.978518 27955 net.cpp:139] Memory required for data: 1747808256
I0405 10:38:37.978533 27955 layer_factory.hpp:77] Creating layer relu7
I0405 10:38:37.978548 27955 net.cpp:86] Creating Layer relu7
I0405 10:38:37.978554 27955 net.cpp:408] relu7 <- fc7
I0405 10:38:37.978567 27955 net.cpp:369] relu7 -> fc7 (in-place)
I0405 10:38:37.978860 27955 net.cpp:124] Setting up relu7
I0405 10:38:37.978875 27955 net.cpp:131] Top shape: 256 4096 (1048576)
I0405 10:38:37.978880 27955 net.cpp:139] Memory required for data: 1752002560
I0405 10:38:37.978886 27955 layer_factory.hpp:77] Creating layer drop7
I0405 10:38:37.978898 27955 net.cpp:86] Creating Layer drop7
I0405 10:38:37.978904 27955 net.cpp:408] drop7 <- fc7
I0405 10:38:37.978914 27955 net.cpp:369] drop7 -> fc7 (in-place)
I0405 10:38:37.978945 27955 net.cpp:124] Setting up drop7
I0405 10:38:37.978955 27955 net.cpp:131] Top shape: 256 4096 (1048576)
I0405 10:38:37.978961 27955 net.cpp:139] Memory required for data: 1756196864
I0405 10:38:37.978966 27955 layer_factory.hpp:77] Creating layer fc8
I0405 10:38:37.978982 27955 net.cpp:86] Creating Layer fc8
I0405 10:38:37.979001 27955 net.cpp:408] fc8 <- fc7
I0405 10:38:37.979023 27955 net.cpp:382] fc8 -> fc8
I0405 10:38:38.182472 27955 net.cpp:124] Setting up fc8
I0405 10:38:38.182538 27955 net.cpp:131] Top shape: 256 1000 (256000)
I0405 10:38:38.182544 27955 net.cpp:139] Memory required for data: 1757220864
I0405 10:38:38.182561 27955 layer_factory.hpp:77] Creating layer loss
I0405 10:38:38.182576 27955 net.cpp:86] Creating Layer loss
I0405 10:38:38.182585 27955 net.cpp:408] loss <- fc8
I0405 10:38:38.182595 27955 net.cpp:408] loss <- label
I0405 10:38:38.182608 27955 net.cpp:382] loss -> loss
I0405 10:38:38.182632 27955 layer_factory.hpp:77] Creating layer loss
…
I0405 10:38:38.184622 27955 net.cpp:296] The NetState phase (1) differed from the phase (0) specified by a rule in layer data
I0405 10:38:38.184864 27955 net.cpp:53] Initializing net from parameters: 
name: "CaffeNet"
state {
  phase: TEST
}
layer {
  name: "data"
  type: "Data"
  top: "data"
  top: "label"
  include {
    phase: TEST
  }
  transform_param {
    mirror: false
    crop_size: 227
    mean_file: "data/ilsvrc12/imagenet_mean.binaryproto"
  }
  data_param {
    source: "examples/imagenet/ilsvrc12_val_lmdb"
    batch_size: 50
    backend: LMDB
  }
}
layer {
  name: "conv1"
  type: "Convolution"
  bottom: "data"
  top: "conv1"
  param {
    lr_mult: 1
    decay_mult: 1
  }
  param {
    lr_mult: 2
    decay_mult: 0
  }
  convolution_param {
    num_output: 96
    kernel_size: 11
    stride: 4
    weight_filler {
      type: "gaussian"
      std: 0.01
    }
    bias_filler {
      type: "constant"
      value: 0
    }
  }
}
layer {
  name: "relu1"
  type: "ReLU"
  bottom: "conv1"
  top: "conv1"
}
layer {
  name: "pool1"
  type: "Pooling"
  bottom: "conv1"
  top: "pool1"
  pooling_param {
    pool: MAX
    kernel_size: 3
    stride: 2
  }
}
layer {
  name: "norm1"
  type: "LRN"
  bottom: "pool1"
  top: "norm1"
  lrn_param {
    local_size: 5
    alpha: 0.0001
    beta: 0.75
  }
}
layer {
  name: "conv2"
  type: "Convolution"
  bottom: "norm1"
  top: "conv2"
  param {
    lr_mult: 1
    decay_mult: 1
  }
  param {
    lr_mult: 2
    decay_mult: 0
  }
  convolution_param {
    num_output: 256
    pad: 2
    kernel_size: 5
    group: 2
    weight_filler {
      type: "gaussian"
      std: 0.01
    }
    bias_filler {
      type: "constant"
      value: 1
    }
  }
}
layer {
  name: "relu2"
  type: "ReLU"
  bottom: "conv2"
  top: "conv2"
}
layer {
  name: "pool2"
  type: "Pooling"
  bottom: "conv2"
  top: "pool2"
  pooling_param {
    pool: MAX
    kernel_size: 3
    stride: 2
  }
}
layer {
  name: "norm2"
  type: "LRN"
  bottom: "pool2"
  top: "norm2"
  lrn_param {
    local_size: 5
    alpha: 0.0001
    beta: 0.75
  }
}
layer {
  name: "conv3"
  type: "Convolution"
  bottom: "norm2"
  top: "conv3"
  param {
    lr_mult: 1
    decay_mult: 1
  }
  param {
    lr_mult: 2
    decay_mult: 0
  }
  convolution_param {
    num_output: 384
    pad: 1
    kernel_size: 3
    weight_filler {
      type: "gaussian"
      std: 0.01
    }
    bias_filler {
      type: "constant"
      value: 0
    }
  }
}
layer {
  name: "relu3"
  type: "ReLU"
  bottom: "conv3"
  top: "conv3"
}
layer {
  name: "conv4"
  type: "Convolution"
  bottom: "conv3"
  top: "conv4"
  param {
    lr_mult: 1
    decay_mult: 1
  }
  param {
    lr_mult: 2
    decay_mult: 0
  }
  convolution_param {
    num_output: 384
    pad: 1
    kernel_size: 3
    group: 2
    weight_filler {
      type: "gaussian"
      std: 0.01
    }
    bias_filler {
      type: "constant"
      value: 1
    }
  }
}
layer {
  name: "relu4"
  type: "ReLU"
  bottom: "conv4"
  top: "conv4"
}
layer {
  name: "conv5"
  type: "Convolution"
  bottom: "conv4"
  top: "conv5"
  param {
    lr_mult: 1
    decay_mult: 1
  }
  param {
    lr_mult: 2
    decay_mult: 0
  }
  convolution_param {
    num_output: 256
    pad: 1
    kernel_size: 3
    group: 2
    weight_filler {
      type: "gaussian"
      std: 0.01
    }
    bias_filler {
      type: "constant"
      value: 1
    }
  }
}
layer {
  name: "relu5"
  type: "ReLU"
  bottom: "conv5"
  top: "conv5"
}
layer {
  name: "pool5"
  type: "Pooling"
  bottom: "conv5"
  top: "pool5"
  pooling_param {
    pool: MAX
    kernel_size: 3
    stride: 2
  }
}
layer {
  name: "fc6"
  type: "InnerProduct"
  bottom: "pool5"
  top: "fc6"
  param {
    lr_mult: 1
    decay_mult: 1
  }
  param {
    lr_mult: 2
    decay_mult: 0
  }
  inner_product_param {
    num_output: 4096
    weight_filler {
      type: "gaussian"
      std: 0.005
    }
    bias_filler {
      type: "constant"
      value: 1
    }
  }
}
layer {
  name: "relu6"
  type: "ReLU"
  bottom: "fc6"
  top: "fc6"
}
layer {
  name: "drop6"
  type: "Dropout"
  bottom: "fc6"
  top: "fc6"
  dropout_param {
    dropout_ratio: 0.5
  }
}
layer {
  name: "fc7"
  type: "InnerProduct"
  bottom: "fc6"
  top: "fc7"
  param {
    lr_mult: 1
    decay_mult: 1
  }
  param {
    lr_mult: 2
    decay_mult: 0
  }
  inner_product_param {
    num_output: 4096
    weight_filler {
      type: "gaussian"
      std: 0.005
    }
    bias_filler {
      type: "constant"
      value: 1
    }
  }
}
layer {
  name: "relu7"
  type: "ReLU"
  bottom: "fc7"
  top: "fc7"
}
layer {
  name: "drop7"
  type: "Dropout"
  bottom: "fc7"
  top: "fc7"
  dropout_param {
    dropout_ratio: 0.5
  }
}
layer {
  name: "fc8"
  type: "InnerProduct"
  bottom: "fc7"
  top: "fc8"
  param {
    lr_mult: 1
    decay_mult: 1
  }
  param {
    lr_mult: 2
    decay_mult: 0
  }
  inner_product_param {
    num_output: 1000
    weight_filler {
      type: "gaussian"
      std: 0.01
    }
    bias_filler {
      type: "constant"
      value: 0
    }
  }
}
layer {
  name: "accuracy"
  type: "Accuracy"
  bottom: "fc8"
  bottom: "label"
  top: "accuracy"
  include {
    phase: TEST
  }
}
layer {
  name: "loss"
  type: "SoftmaxWithLoss"
  bottom: "fc8"
  bottom: "label"
  top: "loss"
}
I0405 10:38:38.185024 27955 layer_factory.hpp:77] Creating layer data
I0405 10:38:38.185106 27955 db_lmdb.cpp:35] Opened lmdb examples/imagenet/ilsvrc12_val_lmdb
I0405 10:38:38.185135 27955 net.cpp:86] Creating Layer data
I0405 10:38:38.185145 27955 net.cpp:382] data -> data
I0405 10:38:38.185163 27955 net.cpp:382] data -> label
I0405 10:38:38.185175 27955 data_transformer.cpp:25] Loading mean file from: data/ilsvrc12/imagenet_mean.binaryproto
I0405 10:38:38.187556 27955 data_layer.cpp:45] output data size: 50,3,227,227
I0405 10:38:38.266199 27955 net.cpp:124] Setting up data
I0405 10:38:38.266253 27955 net.cpp:131] Top shape: 50 3 227 227 (7729350)
I0405 10:38:38.266263 27955 net.cpp:131] Top shape: 50 (50)
I0405 10:38:38.266268 27955 net.cpp:139] Memory required for data: 30917600
I0405 10:38:38.266278 27955 layer_factory.hpp:77] Creating layer label_data_1_split
I0405 10:38:38.266295 27955 net.cpp:86] Creating Layer label_data_1_split
I0405 10:38:38.266304 27955 net.cpp:408] label_data_1_split <- label
I0405 10:38:38.266314 27955 net.cpp:382] label_data_1_split -> label_data_1_split_0
I0405 10:38:38.266331 27955 net.cpp:382] label_data_1_split -> label_data_1_split_1
I0405 10:38:38.266489 27955 net.cpp:124] Setting up label_data_1_split
I0405 10:38:38.266513 27955 net.cpp:131] Top shape: 50 (50)
I0405 10:38:38.266520 27955 net.cpp:131] Top shape: 50 (50)
I0405 10:38:38.266525 27955 net.cpp:139] Memory required for data: 30918000
I0405 10:38:38.266532 27955 layer_factory.hpp:77] Creating layer conv1
I0405 10:38:38.266552 27955 net.cpp:86] Creating Layer conv1
I0405 10:38:38.266559 27955 net.cpp:408] conv1 <- data
I0405 10:38:38.266569 27955 net.cpp:382] conv1 -> conv1
I0405 10:38:38.273738 27955 net.cpp:124] Setting up conv1
I0405 10:38:38.273766 27955 net.cpp:131] Top shape: 50 96 55 55 (14520000)
I0405 10:38:38.273773 27955 net.cpp:139] Memory required for data: 88998000
I0405 10:38:38.273790 27955 layer_factory.hpp:77] Creating layer relu1
I0405 10:38:38.273802 27955 net.cpp:86] Creating Layer relu1
I0405 10:38:38.273808 27955 net.cpp:408] relu1 <- conv1
I0405 10:38:38.273818 27955 net.cpp:369] relu1 -> conv1 (in-place)
I0405 10:38:38.274021 27955 net.cpp:124] Setting up relu1
I0405 10:38:38.274035 27955 net.cpp:131] Top shape: 50 96 55 55 (14520000)
I0405 10:38:38.274041 27955 net.cpp:139] Memory required for data: 147078000
I0405 10:38:38.274047 27955 layer_factory.hpp:77] Creating layer pool1
I0405 10:38:38.274060 27955 net.cpp:86] Creating Layer pool1
I0405 10:38:38.274066 27955 net.cpp:408] pool1 <- conv1
I0405 10:38:38.274075 27955 net.cpp:382] pool1 -> pool1
I0405 10:38:38.274132 27955 net.cpp:124] Setting up pool1
I0405 10:38:38.274143 27955 net.cpp:131] Top shape: 50 96 27 27 (3499200)
I0405 10:38:38.274149 27955 net.cpp:139] Memory required for data: 161074800
I0405 10:38:38.274155 27955 layer_factory.hpp:77] Creating layer norm1
I0405 10:38:38.274166 27955 net.cpp:86] Creating Layer norm1
I0405 10:38:38.274173 27955 net.cpp:408] norm1 <- pool1
I0405 10:38:38.274180 27955 net.cpp:382] norm1 -> norm1
I0405 10:38:38.274633 27955 net.cpp:124] Setting up norm1
I0405 10:38:38.274652 27955 net.cpp:131] Top shape: 50 96 27 27 (3499200)
I0405 10:38:38.274657 27955 net.cpp:139] Memory required for data: 175071600
I0405 10:38:38.274662 27955 layer_factory.hpp:77] Creating layer conv2
I0405 10:38:38.274678 27955 net.cpp:86] Creating Layer conv2
I0405 10:38:38.274685 27955 net.cpp:408] conv2 <- norm1
I0405 10:38:38.274695 27955 net.cpp:382] conv2 -> conv2
I0405 10:38:38.282106 27955 net.cpp:124] Setting up conv2
I0405 10:38:38.282156 27955 net.cpp:131] Top shape: 50 256 27 27 (9331200)
I0405 10:38:38.282162 27955 net.cpp:139] Memory required for data: 212396400
I0405 10:38:38.282183 27955 layer_factory.hpp:77] Creating layer relu2
I0405 10:38:38.282198 27955 net.cpp:86] Creating Layer relu2
I0405 10:38:38.282207 27955 net.cpp:408] relu2 <- conv2
I0405 10:38:38.282217 27955 net.cpp:369] relu2 -> conv2 (in-place)
I0405 10:38:38.282449 27955 net.cpp:124] Setting up relu2
I0405 10:38:38.282477 27955 net.cpp:131] Top shape: 50 256 27 27 (9331200)
I0405 10:38:38.282496 27955 net.cpp:139] Memory required for data: 249721200
I0405 10:38:38.282502 27955 layer_factory.hpp:77] Creating layer pool2
I0405 10:38:38.282516 27955 net.cpp:86] Creating Layer pool2
I0405 10:38:38.282522 27955 net.cpp:408] pool2 <- conv2
I0405 10:38:38.282531 27955 net.cpp:382] pool2 -> pool2
I0405 10:38:38.282593 27955 net.cpp:124] Setting up pool2
I0405 10:38:38.282605 27955 net.cpp:131] Top shape: 50 256 13 13 (2163200)
I0405 10:38:38.282611 27955 net.cpp:139] Memory required for data: 258374000
I0405 10:38:38.282616 27955 layer_factory.hpp:77] Creating layer norm2
I0405 10:38:38.282627 27955 net.cpp:86] Creating Layer norm2
I0405 10:38:38.282634 27955 net.cpp:408] norm2 <- pool2
I0405 10:38:38.282642 27955 net.cpp:382] norm2 -> norm2
I0405 10:38:38.283087 27955 net.cpp:124] Setting up norm2
I0405 10:38:38.283103 27955 net.cpp:131] Top shape: 50 256 13 13 (2163200)
I0405 10:38:38.283109 27955 net.cpp:139] Memory required for data: 267026800
I0405 10:38:38.283115 27955 layer_factory.hpp:77] Creating layer conv3
I0405 10:38:38.283131 27955 net.cpp:86] Creating Layer conv3
I0405 10:38:38.283138 27955 net.cpp:408] conv3 <- norm2
I0405 10:38:38.283149 27955 net.cpp:382] conv3 -> conv3
I0405 10:38:38.298354 27955 net.cpp:124] Setting up conv3
I0405 10:38:38.298413 27955 net.cpp:131] Top shape: 50 384 13 13 (3244800)
I0405 10:38:38.298419 27955 net.cpp:139] Memory required for data: 280006000
I0405 10:38:38.298440 27955 layer_factory.hpp:77] Creating layer relu3
I0405 10:38:38.298455 27955 net.cpp:86] Creating Layer relu3
I0405 10:38:38.298463 27955 net.cpp:408] relu3 <- conv3
I0405 10:38:38.298475 27955 net.cpp:369] relu3 -> conv3 (in-place)
I0405 10:38:38.298869 27955 net.cpp:124] Setting up relu3
I0405 10:38:38.298885 27955 net.cpp:131] Top shape: 50 384 13 13 (3244800)
I0405 10:38:38.298892 27955 net.cpp:139] Memory required for data: 292985200
I0405 10:38:38.298897 27955 layer_factory.hpp:77] Creating layer conv4
I0405 10:38:38.298913 27955 net.cpp:86] Creating Layer conv4
I0405 10:38:38.298920 27955 net.cpp:408] conv4 <- conv3
I0405 10:38:38.298930 27955 net.cpp:382] conv4 -> conv4
I0405 10:38:38.321743 27955 net.cpp:124] Setting up conv4
I0405 10:38:38.321799 27955 net.cpp:131] Top shape: 50 384 13 13 (3244800)
I0405 10:38:38.321805 27955 net.cpp:139] Memory required for data: 305964400
I0405 10:38:38.321820 27955 layer_factory.hpp:77] Creating layer relu4
I0405 10:38:38.321835 27955 net.cpp:86] Creating Layer relu4
I0405 10:38:38.321842 27955 net.cpp:408] relu4 <- conv4
I0405 10:38:38.321854 27955 net.cpp:369] relu4 -> conv4 (in-place)
I0405 10:38:38.322089 27955 net.cpp:124] Setting up relu4
I0405 10:38:38.322103 27955 net.cpp:131] Top shape: 50 384 13 13 (3244800)
I0405 10:38:38.322109 27955 net.cpp:139] Memory required for data: 318943600
I0405 10:38:38.322115 27955 layer_factory.hpp:77] Creating layer conv5
I0405 10:38:38.322134 27955 net.cpp:86] Creating Layer conv5
I0405 10:38:38.322139 27955 net.cpp:408] conv5 <- conv4
I0405 10:38:38.322149 27955 net.cpp:382] conv5 -> conv5
I0405 10:38:38.331759 27955 net.cpp:124] Setting up conv5
I0405 10:38:38.331810 27955 net.cpp:131] Top shape: 50 256 13 13 (2163200)
I0405 10:38:38.331817 27955 net.cpp:139] Memory required for data: 327596400
I0405 10:38:38.331840 27955 layer_factory.hpp:77] Creating layer relu5
I0405 10:38:38.331854 27955 net.cpp:86] Creating Layer relu5
I0405 10:38:38.331862 27955 net.cpp:408] relu5 <- conv5
I0405 10:38:38.331873 27955 net.cpp:369] relu5 -> conv5 (in-place)
I0405 10:38:38.332089 27955 net.cpp:124] Setting up relu5
I0405 10:38:38.332103 27955 net.cpp:131] Top shape: 50 256 13 13 (2163200)
I0405 10:38:38.332109 27955 net.cpp:139] Memory required for data: 336249200
I0405 10:38:38.332115 27955 layer_factory.hpp:77] Creating layer pool5
I0405 10:38:38.332129 27955 net.cpp:86] Creating Layer pool5
I0405 10:38:38.332136 27955 net.cpp:408] pool5 <- conv5
I0405 10:38:38.332145 27955 net.cpp:382] pool5 -> pool5
I0405 10:38:38.332223 27955 net.cpp:124] Setting up pool5
I0405 10:38:38.332248 27955 net.cpp:131] Top shape: 50 256 6 6 (460800)
I0405 10:38:38.332254 27955 net.cpp:139] Memory required for data: 338092400
I0405 10:38:38.332259 27955 layer_factory.hpp:77] Creating layer fc6
I0405 10:38:38.332271 27955 net.cpp:86] Creating Layer fc6
I0405 10:38:38.332278 27955 net.cpp:408] fc6 <- pool5
I0405 10:38:38.332286 27955 net.cpp:382] fc6 -> fc6
I0405 10:38:38.918848 27955 net.cpp:124] Setting up fc6
I0405 10:38:38.918900 27955 net.cpp:131] Top shape: 50 4096 (204800)
I0405 10:38:38.918906 27955 net.cpp:139] Memory required for data: 338911600
I0405 10:38:38.918922 27955 layer_factory.hpp:77] Creating layer relu6
I0405 10:38:38.918936 27955 net.cpp:86] Creating Layer relu6
I0405 10:38:38.918944 27955 net.cpp:408] relu6 <- fc6
I0405 10:38:38.918956 27955 net.cpp:369] relu6 -> fc6 (in-place)
I0405 10:38:38.919519 27955 net.cpp:124] Setting up relu6
I0405 10:38:38.919535 27955 net.cpp:131] Top shape: 50 4096 (204800)
I0405 10:38:38.919541 27955 net.cpp:139] Memory required for data: 339730800
I0405 10:38:38.919548 27955 layer_factory.hpp:77] Creating layer drop6
I0405 10:38:38.919559 27955 net.cpp:86] Creating Layer drop6
I0405 10:38:38.919564 27955 net.cpp:408] drop6 <- fc6
I0405 10:38:38.919572 27955 net.cpp:369] drop6 -> fc6 (in-place)
I0405 10:38:38.919615 27955 net.cpp:124] Setting up drop6
I0405 10:38:38.919625 27955 net.cpp:131] Top shape: 50 4096 (204800)
I0405 10:38:38.919631 27955 net.cpp:139] Memory required for data: 340550000
I0405 10:38:38.919636 27955 layer_factory.hpp:77] Creating layer fc7
I0405 10:38:38.919648 27955 net.cpp:86] Creating Layer fc7
I0405 10:38:38.919654 27955 net.cpp:408] fc7 <- fc6
I0405 10:38:38.919663 27955 net.cpp:382] fc7 -> fc7
I0405 10:38:39.179836 27955 net.cpp:124] Setting up fc7
I0405 10:38:39.179889 27955 net.cpp:131] Top shape: 50 4096 (204800)
I0405 10:38:39.179896 27955 net.cpp:139] Memory required for data: 341369200
I0405 10:38:39.179913 27955 layer_factory.hpp:77] Creating layer relu7
I0405 10:38:39.179926 27955 net.cpp:86] Creating Layer relu7
I0405 10:38:39.179934 27955 net.cpp:408] relu7 <- fc7
I0405 10:38:39.179945 27955 net.cpp:369] relu7 -> fc7 (in-place)
I0405 10:38:39.180236 27955 net.cpp:124] Setting up relu7
I0405 10:38:39.180250 27955 net.cpp:131] Top shape: 50 4096 (204800)
I0405 10:38:39.180256 27955 net.cpp:139] Memory required for data: 342188400
I0405 10:38:39.180263 27955 layer_factory.hpp:77] Creating layer drop7
I0405 10:38:39.180274 27955 net.cpp:86] Creating Layer drop7
I0405 10:38:39.180279 27955 net.cpp:408] drop7 <- fc7
I0405 10:38:39.180289 27955 net.cpp:369] drop7 -> fc7 (in-place)
I0405 10:38:39.180330 27955 net.cpp:124] Setting up drop7
I0405 10:38:39.180341 27955 net.cpp:131] Top shape: 50 4096 (204800)
I0405 10:38:39.180346 27955 net.cpp:139] Memory required for data: 343007600
I0405 10:38:39.180352 27955 layer_factory.hpp:77] Creating layer fc8
I0405 10:38:39.180363 27955 net.cpp:86] Creating Layer fc8
I0405 10:38:39.180369 27955 net.cpp:408] fc8 <- fc7
I0405 10:38:39.180378 27955 net.cpp:382] fc8 -> fc8
I0405 10:38:39.405783 27955 net.cpp:124] Setting up fc8
I0405 10:38:39.405843 27955 net.cpp:131] Top shape: 50 1000 (50000)
I0405 10:38:39.405849 27955 net.cpp:139] Memory required for data: 343207600
I0405 10:38:39.405865 27955 layer_factory.hpp:77] Creating layer fc8_fc8_0_split
I0405 10:38:39.405880 27955 net.cpp:86] Creating Layer fc8_fc8_0_split
I0405 10:38:39.405889 27955 net.cpp:408] fc8_fc8_0_split <- fc8
I0405 10:38:39.405901 27955 net.cpp:382] fc8_fc8_0_split -> fc8_fc8_0_split_0
I0405 10:38:39.405917 27955 net.cpp:382] fc8_fc8_0_split -> fc8_fc8_0_split_1
I0405 10:38:39.405975 27955 net.cpp:124] Setting up fc8_fc8_0_split
I0405 10:38:39.405987 27955 net.cpp:131] Top shape: 50 1000 (50000)
I0405 10:38:39.405993 27955 net.cpp:131] Top shape: 50 1000 (50000)
I0405 10:38:39.405998 27955 net.cpp:139] Memory required for data: 343607600
I0405 10:38:39.406004 27955 layer_factory.hpp:77] Creating layer accuracy
I0405 10:38:39.406015 27955 net.cpp:86] Creating Layer accuracy
I0405 10:38:39.406038 27955 net.cpp:408] accuracy <- fc8_fc8_0_split_0
I0405 10:38:39.406059 27955 net.cpp:408] accuracy <- label_data_1_split_0
I0405 10:38:39.406069 27955 net.cpp:382] accuracy -> accuracy
…
