…
I0214 13:36:59.939786 13711 net.cpp:296] The NetState phase (0) differed from the phase (1) specified by a rule in layer accuracy
I0214 13:36:59.940018 13711 net.cpp:53] Initializing net from parameters: 
name: "CaffeNet"
state {
  phase: TRAIN
  level: 0
  stage: ""
}
layer {
  name: "data"
  type: "Data"
  top: "data"
  top: "label"
  include {
    phase: TRAIN
  }
  transform_param {
    mirror: true
    crop_size: 227
    mean_file: "data/ilsvrc12/imagenet_mean.binaryproto"
  }
  data_param {
    source: "examples/imagenet/ilsvrc12_train_lmdb"
    batch_size: 256
    backend: LMDB
  }
}
layer {
  name: "conv1"
  type: "Convolution"
  bottom: "data"
  top: "conv1"
  param {
    lr_mult: 1
    decay_mult: 1
  }
  param {
    lr_mult: 2
    decay_mult: 0
  }
  convolution_param {
    num_output: 96
    kernel_size: 11
    stride: 4
    weight_filler {
      type: "gaussian"
      std: 0.01
    }
    bias_filler {
      type: "constant"
      value: 0
    }
  }
}
layer {
  name: "relu1"
  type: "ReLU"
  bottom: "conv1"
  top: "conv1"
}
layer {
  name: "pool1"
  type: "Pooling"
  bottom: "conv1"
  top: "pool1"
  pooling_param {
    pool: MAX
    kernel_size: 3
    stride: 2
  }
}
layer {
  name: "norm1"
  type: "LRN"
  bottom: "pool1"
  top: "norm1"
  lrn_param {
    local_size: 5
    alpha: 0.0001
    beta: 0.75
  }
}
layer {
  name: "conv2"
  type: "Convolution"
  bottom: "norm1"
  top: "conv2"
  param {
    lr_mult: 1
    decay_mult: 1
  }
  param {
    lr_mult: 2
    decay_mult: 0
  }
  convolution_param {
    num_output: 256
    pad: 2
    kernel_size: 5
    group: 2
    weight_filler {
      type: "gaussian"
      std: 0.01
    }
    bias_filler {
      type: "constant"
      value: 1
    }
  }
}
layer {
  name: "relu2"
  type: "ReLU"
  bottom: "conv2"
  top: "conv2"
}
layer {
  name: "pool2"
  type: "Pooling"
  bottom: "conv2"
  top: "pool2"
  pooling_param {
    pool: MAX
    kernel_size: 3
    stride: 2
  }
}
layer {
  name: "norm2"
  type: "LRN"
  bottom: "pool2"
  top: "norm2"
  lrn_param {
    local_size: 5
    alpha: 0.0001
    beta: 0.75
  }
}
layer {
  name: "conv3"
  type: "Convolution"
  bottom: "norm2"
  top: "conv3"
  param {
    lr_mult: 1
    decay_mult: 1
  }
  param {
    lr_mult: 2
    decay_mult: 0
  }
  convolution_param {
    num_output: 384
    pad: 1
    kernel_size: 3
    weight_filler {
      type: "gaussian"
      std: 0.01
    }
    bias_filler {
      type: "constant"
      value: 0
    }
  }
}
layer {
  name: "relu3"
  type: "ReLU"
  bottom: "conv3"
  top: "conv3"
}
layer {
  name: "conv4"
  type: "Convolution"
  bottom: "conv3"
  top: "conv4"
  param {
    lr_mult: 1
    decay_mult: 1
  }
  param {
    lr_mult: 2
    decay_mult: 0
  }
  convolution_param {
    num_output: 384
    pad: 1
    kernel_size: 3
    group: 2
    weight_filler {
      type: "gaussian"
      std: 0.01
    }
    bias_filler {
      type: "constant"
      value: 1
    }
  }
}
layer {
  name: "relu4"
  type: "ReLU"
  bottom: "conv4"
  top: "conv4"
}
layer {
  name: "conv5"
  type: "Convolution"
  bottom: "conv4"
  top: "conv5"
  param {
    lr_mult: 1
    decay_mult: 1
  }
  param {
    lr_mult: 2
    decay_mult: 0
  }
  convolution_param {
    num_output: 256
    pad: 1
    kernel_size: 3
    group: 2
    weight_filler {
      type: "gaussian"
      std: 0.01
    }
    bias_filler {
      type: "constant"
      value: 1
    }
  }
}
layer {
  name: "relu5"
  type: "ReLU"
  bottom: "conv5"
  top: "conv5"
}
layer {
  name: "pool5"
  type: "Pooling"
  bottom: "conv5"
  top: "pool5"
  pooling_param {
    pool: MAX
    kernel_size: 3
    stride: 2
  }
}
layer {
  name: "fc6"
  type: "InnerProduct"
  bottom: "pool5"
  top: "fc6"
  param {
    lr_mult: 1
    decay_mult: 1
  }
  param {
    lr_mult: 2
    decay_mult: 0
  }
  inner_product_param {
    num_output: 4096
    weight_filler {
      type: "gaussian"
      std: 0.005
    }
    bias_filler {
      type: "constant"
      value: 1
    }
  }
}
layer {
  name: "relu6"
  type: "ReLU"
  bottom: "fc6"
  top: "fc6"
}
layer {
  name: "drop6"
  type: "Dropout"
  bottom: "fc6"
  top: "fc6"
  dropout_param {
    dropout_ratio: 0.5
  }
}
layer {
  name: "fc7"
  type: "InnerProduct"
  bottom: "fc6"
  top: "fc7"
  param {
    lr_mult: 1
    decay_mult: 1
  }
  param {
    lr_mult: 2
    decay_mult: 0
  }
  inner_product_param {
    num_output: 4096
    weight_filler {
      type: "gaussian"
      std: 0.005
    }
    bias_filler {
      type: "constant"
      value: 1
    }
  }
}
layer {
  name: "relu7"
  type: "ReLU"
  bottom: "fc7"
  top: "fc7"
}
layer {
  name: "drop7"
  type: "Dropout"
  bottom: "fc7"
  top: "fc7"
  dropout_param {
    dropout_ratio: 0.5
  }
}
layer {
  name: "fc8"
  type: "InnerProduct"
  bottom: "fc7"
  top: "fc8"
  param {
    lr_mult: 1
    decay_mult: 1
  }
  param {
    lr_mult: 2
    decay_mult: 0
  }
  inner_product_param {
    num_output: 1000
    weight_filler {
      type: "gaussian"
      std: 0.01
    }
    bias_filler {
      type: "constant"
      value: 0
    }
  }
}
layer {
  name: "loss"
  type: "SoftmaxWithLoss"
  bottom: "fc8"
  bottom: "label"
  top: "loss"
}
I0214 13:36:59.940145 13711 layer_factory.hpp:77] Creating layer data
I0214 13:36:59.940269 13711 db_lmdb.cpp:35] Opened lmdb examples/imagenet/ilsvrc12_train_lmdb
I0214 13:37:00.032846 13711 net.cpp:86] Creating Layer data
I0214 13:37:00.032902 13711 net.cpp:382] data -> data
I0214 13:37:00.032963 13711 net.cpp:382] data -> label
I0214 13:37:00.033001 13711 data_transformer.cpp:25] Loading mean file from: data/ilsvrc12/imagenet_mean.binaryproto
I0214 13:37:00.038089 13711 data_layer.cpp:45] output data size: 256,3,227,227
I0214 13:37:00.601864 13711 net.cpp:124] Setting up data
I0214 13:37:00.601917 13711 net.cpp:131] Top shape: 256 3 227 227 (39574272)
I0214 13:37:00.601925 13711 net.cpp:131] Top shape: 256 (256)
I0214 13:37:00.601930 13711 net.cpp:139] Memory required for data: 158298112
I0214 13:37:00.601944 13711 layer_factory.hpp:77] Creating layer conv1
I0214 13:37:00.601976 13711 net.cpp:86] Creating Layer conv1
I0214 13:37:00.601986 13711 net.cpp:408] conv1 <- data
I0214 13:37:00.602005 13711 net.cpp:382] conv1 -> conv1
I0214 13:37:02.232759 13711 net.cpp:124] Setting up conv1
I0214 13:37:02.232815 13711 net.cpp:131] Top shape: 256 96 55 55 (74342400)
I0214 13:37:02.232825 13711 net.cpp:139] Memory required for data: 455667712
I0214 13:37:02.232859 13711 layer_factory.hpp:77] Creating layer relu1
I0214 13:37:02.232879 13711 net.cpp:86] Creating Layer relu1
I0214 13:37:02.232888 13711 net.cpp:408] relu1 <- conv1
I0214 13:37:02.232899 13711 net.cpp:369] relu1 -> conv1 (in-place)
I0214 13:37:02.233335 13711 net.cpp:124] Setting up relu1
I0214 13:37:02.233353 13711 net.cpp:131] Top shape: 256 96 55 55 (74342400)
I0214 13:37:02.233361 13711 net.cpp:139] Memory required for data: 753037312
I0214 13:37:02.233367 13711 layer_factory.hpp:77] Creating layer pool1
I0214 13:37:02.233382 13711 net.cpp:86] Creating Layer pool1
I0214 13:37:02.233389 13711 net.cpp:408] pool1 <- conv1
I0214 13:37:02.233400 13711 net.cpp:382] pool1 -> pool1
I0214 13:37:02.233425 13711 net.cpp:124] Setting up pool1
I0214 13:37:02.233436 13711 net.cpp:131] Top shape: 256 96 27 27 (17915904)
I0214 13:37:02.233443 13711 net.cpp:139] Memory required for data: 824700928
I0214 13:37:02.233448 13711 layer_factory.hpp:77] Creating layer norm1
I0214 13:37:02.233467 13711 net.cpp:86] Creating Layer norm1
I0214 13:37:02.233474 13711 net.cpp:408] norm1 <- pool1
I0214 13:37:02.233486 13711 net.cpp:382] norm1 -> norm1
I0214 13:37:02.233760 13711 net.cpp:124] Setting up norm1
I0214 13:37:02.233790 13711 net.cpp:131] Top shape: 256 96 27 27 (17915904)
I0214 13:37:02.233801 13711 net.cpp:139] Memory required for data: 896364544
I0214 13:37:02.233808 13711 layer_factory.hpp:77] Creating layer conv2
I0214 13:37:02.233827 13711 net.cpp:86] Creating Layer conv2
I0214 13:37:02.233835 13711 net.cpp:408] conv2 <- norm1
I0214 13:37:02.233849 13711 net.cpp:382] conv2 -> conv2
I0214 13:37:02.241164 13711 net.cpp:124] Setting up conv2
I0214 13:37:02.241195 13711 net.cpp:131] Top shape: 256 256 27 27 (47775744)
I0214 13:37:02.241204 13711 net.cpp:139] Memory required for data: 1087467520
I0214 13:37:02.241220 13711 layer_factory.hpp:77] Creating layer relu2
I0214 13:37:02.241232 13711 net.cpp:86] Creating Layer relu2
I0214 13:37:02.241240 13711 net.cpp:408] relu2 <- conv2
I0214 13:37:02.241250 13711 net.cpp:369] relu2 -> conv2 (in-place)
I0214 13:37:02.241482 13711 net.cpp:124] Setting up relu2
I0214 13:37:02.241497 13711 net.cpp:131] Top shape: 256 256 27 27 (47775744)
I0214 13:37:02.241503 13711 net.cpp:139] Memory required for data: 1278570496
I0214 13:37:02.241510 13711 layer_factory.hpp:77] Creating layer pool2
I0214 13:37:02.241520 13711 net.cpp:86] Creating Layer pool2
I0214 13:37:02.241526 13711 net.cpp:408] pool2 <- conv2
I0214 13:37:02.241539 13711 net.cpp:382] pool2 -> pool2
I0214 13:37:02.241554 13711 net.cpp:124] Setting up pool2
I0214 13:37:02.241562 13711 net.cpp:131] Top shape: 256 256 13 13 (11075584)
I0214 13:37:02.241567 13711 net.cpp:139] Memory required for data: 1322872832
I0214 13:37:02.241574 13711 layer_factory.hpp:77] Creating layer norm2
I0214 13:37:02.241587 13711 net.cpp:86] Creating Layer norm2
I0214 13:37:02.241595 13711 net.cpp:408] norm2 <- pool2
I0214 13:37:02.241603 13711 net.cpp:382] norm2 -> norm2
I0214 13:37:02.242033 13711 net.cpp:124] Setting up norm2
I0214 13:37:02.242050 13711 net.cpp:131] Top shape: 256 256 13 13 (11075584)
I0214 13:37:02.242058 13711 net.cpp:139] Memory required for data: 1367175168
I0214 13:37:02.242063 13711 layer_factory.hpp:77] Creating layer conv3
I0214 13:37:02.242079 13711 net.cpp:86] Creating Layer conv3
I0214 13:37:02.242087 13711 net.cpp:408] conv3 <- norm2
I0214 13:37:02.242100 13711 net.cpp:382] conv3 -> conv3
I0214 13:37:02.266515 13711 net.cpp:124] Setting up conv3
I0214 13:37:02.266563 13711 net.cpp:131] Top shape: 256 384 13 13 (16613376)
I0214 13:37:02.266571 13711 net.cpp:139] Memory required for data: 1433628672
I0214 13:37:02.266592 13711 layer_factory.hpp:77] Creating layer relu3
I0214 13:37:02.266604 13711 net.cpp:86] Creating Layer relu3
I0214 13:37:02.266613 13711 net.cpp:408] relu3 <- conv3
I0214 13:37:02.266623 13711 net.cpp:369] relu3 -> conv3 (in-place)
I0214 13:37:02.266840 13711 net.cpp:124] Setting up relu3
I0214 13:37:02.266855 13711 net.cpp:131] Top shape: 256 384 13 13 (16613376)
I0214 13:37:02.266860 13711 net.cpp:139] Memory required for data: 1500082176
I0214 13:37:02.266866 13711 layer_factory.hpp:77] Creating layer conv4
I0214 13:37:02.266883 13711 net.cpp:86] Creating Layer conv4
I0214 13:37:02.266891 13711 net.cpp:408] conv4 <- conv3
I0214 13:37:02.266901 13711 net.cpp:382] conv4 -> conv4
I0214 13:37:02.279172 13711 net.cpp:124] Setting up conv4
I0214 13:37:02.279213 13711 net.cpp:131] Top shape: 256 384 13 13 (16613376)
I0214 13:37:02.279219 13711 net.cpp:139] Memory required for data: 1566535680
I0214 13:37:02.279233 13711 layer_factory.hpp:77] Creating layer relu4
I0214 13:37:02.279247 13711 net.cpp:86] Creating Layer relu4
I0214 13:37:02.279271 13711 net.cpp:408] relu4 <- conv4
I0214 13:37:02.279284 13711 net.cpp:369] relu4 -> conv4 (in-place)
I0214 13:37:02.279497 13711 net.cpp:124] Setting up relu4
I0214 13:37:02.279511 13711 net.cpp:131] Top shape: 256 384 13 13 (16613376)
I0214 13:37:02.279517 13711 net.cpp:139] Memory required for data: 1632989184
I0214 13:37:02.279523 13711 layer_factory.hpp:77] Creating layer conv5
I0214 13:37:02.279543 13711 net.cpp:86] Creating Layer conv5
I0214 13:37:02.279551 13711 net.cpp:408] conv5 <- conv4
I0214 13:37:02.279572 13711 net.cpp:382] conv5 -> conv5
I0214 13:37:02.288736 13711 net.cpp:124] Setting up conv5
I0214 13:37:02.288771 13711 net.cpp:131] Top shape: 256 256 13 13 (11075584)
I0214 13:37:02.288779 13711 net.cpp:139] Memory required for data: 1677291520
I0214 13:37:02.288797 13711 layer_factory.hpp:77] Creating layer relu5
I0214 13:37:02.288810 13711 net.cpp:86] Creating Layer relu5
I0214 13:37:02.288817 13711 net.cpp:408] relu5 <- conv5
I0214 13:37:02.288830 13711 net.cpp:369] relu5 -> conv5 (in-place)
I0214 13:37:02.289042 13711 net.cpp:124] Setting up relu5
I0214 13:37:02.289057 13711 net.cpp:131] Top shape: 256 256 13 13 (11075584)
I0214 13:37:02.289062 13711 net.cpp:139] Memory required for data: 1721593856
I0214 13:37:02.289068 13711 layer_factory.hpp:77] Creating layer pool5
I0214 13:37:02.289082 13711 net.cpp:86] Creating Layer pool5
I0214 13:37:02.289088 13711 net.cpp:408] pool5 <- conv5
I0214 13:37:02.289096 13711 net.cpp:382] pool5 -> pool5
I0214 13:37:02.289113 13711 net.cpp:124] Setting up pool5
I0214 13:37:02.289120 13711 net.cpp:131] Top shape: 256 256 6 6 (2359296)
I0214 13:37:02.289125 13711 net.cpp:139] Memory required for data: 1731031040
I0214 13:37:02.289131 13711 layer_factory.hpp:77] Creating layer fc6
I0214 13:37:02.289149 13711 net.cpp:86] Creating Layer fc6
I0214 13:37:02.289155 13711 net.cpp:408] fc6 <- pool5
I0214 13:37:02.289165 13711 net.cpp:382] fc6 -> fc6
I0214 13:37:03.184247 13711 net.cpp:124] Setting up fc6
I0214 13:37:03.184300 13711 net.cpp:131] Top shape: 256 4096 (1048576)
I0214 13:37:03.184306 13711 net.cpp:139] Memory required for data: 1735225344
I0214 13:37:03.184324 13711 layer_factory.hpp:77] Creating layer relu6
I0214 13:37:03.184339 13711 net.cpp:86] Creating Layer relu6
I0214 13:37:03.184345 13711 net.cpp:408] relu6 <- fc6
I0214 13:37:03.184360 13711 net.cpp:369] relu6 -> fc6 (in-place)
I0214 13:37:03.184945 13711 net.cpp:124] Setting up relu6
I0214 13:37:03.184962 13711 net.cpp:131] Top shape: 256 4096 (1048576)
I0214 13:37:03.184967 13711 net.cpp:139] Memory required for data: 1739419648
I0214 13:37:03.184973 13711 layer_factory.hpp:77] Creating layer drop6
I0214 13:37:03.184984 13711 net.cpp:86] Creating Layer drop6
I0214 13:37:03.184990 13711 net.cpp:408] drop6 <- fc6
I0214 13:37:03.185000 13711 net.cpp:369] drop6 -> fc6 (in-place)
I0214 13:37:03.185019 13711 net.cpp:124] Setting up drop6
I0214 13:37:03.185027 13711 net.cpp:131] Top shape: 256 4096 (1048576)
I0214 13:37:03.185032 13711 net.cpp:139] Memory required for data: 1743613952
I0214 13:37:03.185039 13711 layer_factory.hpp:77] Creating layer fc7
I0214 13:37:03.185050 13711 net.cpp:86] Creating Layer fc7
I0214 13:37:03.185055 13711 net.cpp:408] fc7 <- fc6
I0214 13:37:03.185065 13711 net.cpp:382] fc7 -> fc7
I0214 13:37:03.560009 13711 net.cpp:124] Setting up fc7
I0214 13:37:03.560060 13711 net.cpp:131] Top shape: 256 4096 (1048576)
I0214 13:37:03.560067 13711 net.cpp:139] Memory required for data: 1747808256
I0214 13:37:03.560083 13711 layer_factory.hpp:77] Creating layer relu7
I0214 13:37:03.560098 13711 net.cpp:86] Creating Layer relu7
I0214 13:37:03.560106 13711 net.cpp:408] relu7 <- fc7
I0214 13:37:03.560118 13711 net.cpp:369] relu7 -> fc7 (in-place)
I0214 13:37:03.560441 13711 net.cpp:124] Setting up relu7
I0214 13:37:03.560454 13711 net.cpp:131] Top shape: 256 4096 (1048576)
I0214 13:37:03.560461 13711 net.cpp:139] Memory required for data: 1752002560
I0214 13:37:03.560467 13711 layer_factory.hpp:77] Creating layer drop7
I0214 13:37:03.560478 13711 net.cpp:86] Creating Layer drop7
I0214 13:37:03.560484 13711 net.cpp:408] drop7 <- fc7
I0214 13:37:03.560495 13711 net.cpp:369] drop7 -> fc7 (in-place)
I0214 13:37:03.560508 13711 net.cpp:124] Setting up drop7
I0214 13:37:03.560515 13711 net.cpp:131] Top shape: 256 4096 (1048576)
I0214 13:37:03.560520 13711 net.cpp:139] Memory required for data: 1756196864
I0214 13:37:03.560525 13711 layer_factory.hpp:77] Creating layer fc8
I0214 13:37:03.560537 13711 net.cpp:86] Creating Layer fc8
I0214 13:37:03.560542 13711 net.cpp:408] fc8 <- fc7
I0214 13:37:03.560564 13711 net.cpp:382] fc8 -> fc8
I0214 13:37:03.647955 13711 net.cpp:124] Setting up fc8
I0214 13:37:03.648005 13711 net.cpp:131] Top shape: 256 1000 (256000)
I0214 13:37:03.648010 13711 net.cpp:139] Memory required for data: 1757220864
I0214 13:37:03.648025 13711 layer_factory.hpp:77] Creating layer loss
I0214 13:37:03.648041 13711 net.cpp:86] Creating Layer loss
I0214 13:37:03.648047 13711 net.cpp:408] loss <- fc8
I0214 13:37:03.648057 13711 net.cpp:408] loss <- label
I0214 13:37:03.648082 13711 net.cpp:382] loss -> loss
I0214 13:37:03.648104 13711 layer_factory.hpp:77] Creating layer loss
…
I0214 13:37:03.649737 13711 net.cpp:296] The NetState phase (1) differed from the phase (0) specified by a rule in layer data
I0214 13:37:03.649977 13711 net.cpp:53] Initializing net from parameters: 
name: "CaffeNet"
state {
  phase: TEST
}
layer {
  name: "data"
  type: "Data"
  top: "data"
  top: "label"
  include {
    phase: TEST
  }
  transform_param {
    mirror: false
    crop_size: 227
    mean_file: "data/ilsvrc12/imagenet_mean.binaryproto"
  }
  data_param {
    source: "examples/imagenet/ilsvrc12_val_lmdb"
    batch_size: 50
    backend: LMDB
  }
}
layer {
  name: "conv1"
  type: "Convolution"
  bottom: "data"
  top: "conv1"
  param {
    lr_mult: 1
    decay_mult: 1
  }
  param {
    lr_mult: 2
    decay_mult: 0
  }
  convolution_param {
    num_output: 96
    kernel_size: 11
    stride: 4
    weight_filler {
      type: "gaussian"
      std: 0.01
    }
    bias_filler {
      type: "constant"
      value: 0
    }
  }
}
layer {
  name: "relu1"
  type: "ReLU"
  bottom: "conv1"
  top: "conv1"
}
layer {
  name: "pool1"
  type: "Pooling"
  bottom: "conv1"
  top: "pool1"
  pooling_param {
    pool: MAX
    kernel_size: 3
    stride: 2
  }
}
layer {
  name: "norm1"
  type: "LRN"
  bottom: "pool1"
  top: "norm1"
  lrn_param {
    local_size: 5
    alpha: 0.0001
    beta: 0.75
  }
}
layer {
  name: "conv2"
  type: "Convolution"
  bottom: "norm1"
  top: "conv2"
  param {
    lr_mult: 1
    decay_mult: 1
  }
  param {
    lr_mult: 2
    decay_mult: 0
  }
  convolution_param {
    num_output: 256
    pad: 2
    kernel_size: 5
    group: 2
    weight_filler {
      type: "gaussian"
      std: 0.01
    }
    bias_filler {
      type: "constant"
      value: 1
    }
  }
}
layer {
  name: "relu2"
  type: "ReLU"
  bottom: "conv2"
  top: "conv2"
}
layer {
  name: "pool2"
  type: "Pooling"
  bottom: "conv2"
  top: "pool2"
  pooling_param {
    pool: MAX
    kernel_size: 3
    stride: 2
  }
}
layer {
  name: "norm2"
  type: "LRN"
  bottom: "pool2"
  top: "norm2"
  lrn_param {
    local_size: 5
    alpha: 0.0001
    beta: 0.75
  }
}
layer {
  name: "conv3"
  type: "Convolution"
  bottom: "norm2"
  top: "conv3"
  param {
    lr_mult: 1
    decay_mult: 1
  }
  param {
    lr_mult: 2
    decay_mult: 0
  }
  convolution_param {
    num_output: 384
    pad: 1
    kernel_size: 3
    weight_filler {
      type: "gaussian"
      std: 0.01
    }
    bias_filler {
      type: "constant"
      value: 0
    }
  }
}
layer {
  name: "relu3"
  type: "ReLU"
  bottom: "conv3"
  top: "conv3"
}
layer {
  name: "conv4"
  type: "Convolution"
  bottom: "conv3"
  top: "conv4"
  param {
    lr_mult: 1
    decay_mult: 1
  }
  param {
    lr_mult: 2
    decay_mult: 0
  }
  convolution_param {
    num_output: 384
    pad: 1
    kernel_size: 3
    group: 2
    weight_filler {
      type: "gaussian"
      std: 0.01
    }
    bias_filler {
      type: "constant"
      value: 1
    }
  }
}
layer {
  name: "relu4"
  type: "ReLU"
  bottom: "conv4"
  top: "conv4"
}
layer {
  name: "conv5"
  type: "Convolution"
  bottom: "conv4"
  top: "conv5"
  param {
    lr_mult: 1
    decay_mult: 1
  }
  param {
    lr_mult: 2
    decay_mult: 0
  }
  convolution_param {
    num_output: 256
    pad: 1
    kernel_size: 3
    group: 2
    weight_filler {
      type: "gaussian"
      std: 0.01
    }
    bias_filler {
      type: "constant"
      value: 1
    }
  }
}
layer {
  name: "relu5"
  type: "ReLU"
  bottom: "conv5"
  top: "conv5"
}
layer {
  name: "pool5"
  type: "Pooling"
  bottom: "conv5"
  top: "pool5"
  pooling_param {
    pool: MAX
    kernel_size: 3
    stride: 2
  }
}
layer {
  name: "fc6"
  type: "InnerProduct"
  bottom: "pool5"
  top: "fc6"
  param {
    lr_mult: 1
    decay_mult: 1
  }
  param {
    lr_mult: 2
    decay_mult: 0
  }
  inner_product_param {
    num_output: 4096
    weight_filler {
      type: "gaussian"
      std: 0.005
    }
    bias_filler {
      type: "constant"
      value: 1
    }
  }
}
layer {
  name: "relu6"
  type: "ReLU"
  bottom: "fc6"
  top: "fc6"
}
layer {
  name: "drop6"
  type: "Dropout"
  bottom: "fc6"
  top: "fc6"
  dropout_param {
    dropout_ratio: 0.5
  }
}
layer {
  name: "fc7"
  type: "InnerProduct"
  bottom: "fc6"
  top: "fc7"
  param {
    lr_mult: 1
    decay_mult: 1
  }
  param {
    lr_mult: 2
    decay_mult: 0
  }
  inner_product_param {
    num_output: 4096
    weight_filler {
      type: "gaussian"
      std: 0.005
    }
    bias_filler {
      type: "constant"
      value: 1
    }
  }
}
layer {
  name: "relu7"
  type: "ReLU"
  bottom: "fc7"
  top: "fc7"
}
layer {
  name: "drop7"
  type: "Dropout"
  bottom: "fc7"
  top: "fc7"
  dropout_param {
    dropout_ratio: 0.5
  }
}
layer {
  name: "fc8"
  type: "InnerProduct"
  bottom: "fc7"
  top: "fc8"
  param {
    lr_mult: 1
    decay_mult: 1
  }
  param {
    lr_mult: 2
    decay_mult: 0
  }
  inner_product_param {
    num_output: 1000
    weight_filler {
      type: "gaussian"
      std: 0.01
    }
    bias_filler {
      type: "constant"
      value: 0
    }
  }
}
layer {
  name: "accuracy"
  type: "Accuracy"
  bottom: "fc8"
  bottom: "label"
  top: "accuracy"
  include {
    phase: TEST
  }
}
layer {
  name: "loss"
  type: "SoftmaxWithLoss"
  bottom: "fc8"
  bottom: "label"
  top: "loss"
}
I0214 13:37:03.650131 13711 layer_factory.hpp:77] Creating layer data
I0214 13:37:03.650220 13711 db_lmdb.cpp:35] Opened lmdb examples/imagenet/ilsvrc12_val_lmdb
I0214 13:37:03.650256 13711 net.cpp:86] Creating Layer data
I0214 13:37:03.650267 13711 net.cpp:382] data -> data
I0214 13:37:03.650280 13711 net.cpp:382] data -> label
I0214 13:37:03.650295 13711 data_transformer.cpp:25] Loading mean file from: data/ilsvrc12/imagenet_mean.binaryproto
I0214 13:37:03.652087 13711 data_layer.cpp:45] output data size: 50,3,227,227
I0214 13:37:03.904201 13711 net.cpp:124] Setting up data
I0214 13:37:03.904251 13711 net.cpp:131] Top shape: 50 3 227 227 (7729350)
I0214 13:37:03.904260 13711 net.cpp:131] Top shape: 50 (50)
I0214 13:37:03.904265 13711 net.cpp:139] Memory required for data: 30917600
I0214 13:37:03.904276 13711 layer_factory.hpp:77] Creating layer label_data_1_split
I0214 13:37:03.904294 13711 net.cpp:86] Creating Layer label_data_1_split
I0214 13:37:03.904301 13711 net.cpp:408] label_data_1_split <- label
I0214 13:37:03.904314 13711 net.cpp:382] label_data_1_split -> label_data_1_split_0
I0214 13:37:03.904330 13711 net.cpp:382] label_data_1_split -> label_data_1_split_1
I0214 13:37:03.904345 13711 net.cpp:124] Setting up label_data_1_split
I0214 13:37:03.904352 13711 net.cpp:131] Top shape: 50 (50)
I0214 13:37:03.904359 13711 net.cpp:131] Top shape: 50 (50)
I0214 13:37:03.904364 13711 net.cpp:139] Memory required for data: 30918000
I0214 13:37:03.904369 13711 layer_factory.hpp:77] Creating layer conv1
I0214 13:37:03.904386 13711 net.cpp:86] Creating Layer conv1
I0214 13:37:03.904393 13711 net.cpp:408] conv1 <- data
I0214 13:37:03.904402 13711 net.cpp:382] conv1 -> conv1
I0214 13:37:03.906013 13711 net.cpp:124] Setting up conv1
I0214 13:37:03.906031 13711 net.cpp:131] Top shape: 50 96 55 55 (14520000)
I0214 13:37:03.906038 13711 net.cpp:139] Memory required for data: 88998000
I0214 13:37:03.906054 13711 layer_factory.hpp:77] Creating layer relu1
I0214 13:37:03.906064 13711 net.cpp:86] Creating Layer relu1
I0214 13:37:03.906070 13711 net.cpp:408] relu1 <- conv1
I0214 13:37:03.906080 13711 net.cpp:369] relu1 -> conv1 (in-place)
I0214 13:37:03.906277 13711 net.cpp:124] Setting up relu1
I0214 13:37:03.906291 13711 net.cpp:131] Top shape: 50 96 55 55 (14520000)
I0214 13:37:03.906297 13711 net.cpp:139] Memory required for data: 147078000
I0214 13:37:03.906303 13711 layer_factory.hpp:77] Creating layer pool1
I0214 13:37:03.906316 13711 net.cpp:86] Creating Layer pool1
I0214 13:37:03.906322 13711 net.cpp:408] pool1 <- conv1
I0214 13:37:03.906330 13711 net.cpp:382] pool1 -> pool1
I0214 13:37:03.906345 13711 net.cpp:124] Setting up pool1
I0214 13:37:03.906353 13711 net.cpp:131] Top shape: 50 96 27 27 (3499200)
I0214 13:37:03.906359 13711 net.cpp:139] Memory required for data: 161074800
I0214 13:37:03.906364 13711 layer_factory.hpp:77] Creating layer norm1
I0214 13:37:03.906374 13711 net.cpp:86] Creating Layer norm1
I0214 13:37:03.906380 13711 net.cpp:408] norm1 <- pool1
I0214 13:37:03.906388 13711 net.cpp:382] norm1 -> norm1
I0214 13:37:03.906761 13711 net.cpp:124] Setting up norm1
I0214 13:37:03.906779 13711 net.cpp:131] Top shape: 50 96 27 27 (3499200)
I0214 13:37:03.906785 13711 net.cpp:139] Memory required for data: 175071600
I0214 13:37:03.906790 13711 layer_factory.hpp:77] Creating layer conv2
I0214 13:37:03.906802 13711 net.cpp:86] Creating Layer conv2
I0214 13:37:03.906810 13711 net.cpp:408] conv2 <- norm1
I0214 13:37:03.906819 13711 net.cpp:382] conv2 -> conv2
I0214 13:37:03.913398 13711 net.cpp:124] Setting up conv2
I0214 13:37:03.913445 13711 net.cpp:131] Top shape: 50 256 27 27 (9331200)
I0214 13:37:03.913451 13711 net.cpp:139] Memory required for data: 212396400
I0214 13:37:03.913471 13711 layer_factory.hpp:77] Creating layer relu2
I0214 13:37:03.913486 13711 net.cpp:86] Creating Layer relu2
I0214 13:37:03.913493 13711 net.cpp:408] relu2 <- conv2
I0214 13:37:03.913506 13711 net.cpp:369] relu2 -> conv2 (in-place)
I0214 13:37:03.913892 13711 net.cpp:124] Setting up relu2
I0214 13:37:03.913908 13711 net.cpp:131] Top shape: 50 256 27 27 (9331200)
I0214 13:37:03.913924 13711 net.cpp:139] Memory required for data: 249721200
I0214 13:37:03.913944 13711 layer_factory.hpp:77] Creating layer pool2
I0214 13:37:03.913959 13711 net.cpp:86] Creating Layer pool2
I0214 13:37:03.913966 13711 net.cpp:408] pool2 <- conv2
I0214 13:37:03.913975 13711 net.cpp:382] pool2 -> pool2
I0214 13:37:03.913995 13711 net.cpp:124] Setting up pool2
I0214 13:37:03.914005 13711 net.cpp:131] Top shape: 50 256 13 13 (2163200)
I0214 13:37:03.914011 13711 net.cpp:139] Memory required for data: 258374000
I0214 13:37:03.914016 13711 layer_factory.hpp:77] Creating layer norm2
I0214 13:37:03.914026 13711 net.cpp:86] Creating Layer norm2
I0214 13:37:03.914031 13711 net.cpp:408] norm2 <- pool2
I0214 13:37:03.914041 13711 net.cpp:382] norm2 -> norm2
I0214 13:37:03.914252 13711 net.cpp:124] Setting up norm2
I0214 13:37:03.914268 13711 net.cpp:131] Top shape: 50 256 13 13 (2163200)
I0214 13:37:03.914273 13711 net.cpp:139] Memory required for data: 267026800
I0214 13:37:03.914279 13711 layer_factory.hpp:77] Creating layer conv3
I0214 13:37:03.914297 13711 net.cpp:86] Creating Layer conv3
I0214 13:37:03.914304 13711 net.cpp:408] conv3 <- norm2
I0214 13:37:03.914314 13711 net.cpp:382] conv3 -> conv3
I0214 13:37:03.933148 13711 net.cpp:124] Setting up conv3
I0214 13:37:03.933195 13711 net.cpp:131] Top shape: 50 384 13 13 (3244800)
I0214 13:37:03.933202 13711 net.cpp:139] Memory required for data: 280006000
I0214 13:37:03.933221 13711 layer_factory.hpp:77] Creating layer relu3
I0214 13:37:03.933236 13711 net.cpp:86] Creating Layer relu3
I0214 13:37:03.933243 13711 net.cpp:408] relu3 <- conv3
I0214 13:37:03.933256 13711 net.cpp:369] relu3 -> conv3 (in-place)
I0214 13:37:03.933631 13711 net.cpp:124] Setting up relu3
I0214 13:37:03.933647 13711 net.cpp:131] Top shape: 50 384 13 13 (3244800)
I0214 13:37:03.933652 13711 net.cpp:139] Memory required for data: 292985200
I0214 13:37:03.933658 13711 layer_factory.hpp:77] Creating layer conv4
I0214 13:37:03.933676 13711 net.cpp:86] Creating Layer conv4
I0214 13:37:03.933683 13711 net.cpp:408] conv4 <- conv3
I0214 13:37:03.933694 13711 net.cpp:382] conv4 -> conv4
I0214 13:37:03.946048 13711 net.cpp:124] Setting up conv4
I0214 13:37:03.946095 13711 net.cpp:131] Top shape: 50 384 13 13 (3244800)
I0214 13:37:03.946101 13711 net.cpp:139] Memory required for data: 305964400
I0214 13:37:03.946116 13711 layer_factory.hpp:77] Creating layer relu4
I0214 13:37:03.946135 13711 net.cpp:86] Creating Layer relu4
I0214 13:37:03.946142 13711 net.cpp:408] relu4 <- conv4
I0214 13:37:03.946153 13711 net.cpp:369] relu4 -> conv4 (in-place)
I0214 13:37:03.946555 13711 net.cpp:124] Setting up relu4
I0214 13:37:03.946573 13711 net.cpp:131] Top shape: 50 384 13 13 (3244800)
I0214 13:37:03.946578 13711 net.cpp:139] Memory required for data: 318943600
I0214 13:37:03.946584 13711 layer_factory.hpp:77] Creating layer conv5
I0214 13:37:03.946607 13711 net.cpp:86] Creating Layer conv5
I0214 13:37:03.946619 13711 net.cpp:408] conv5 <- conv4
I0214 13:37:03.946630 13711 net.cpp:382] conv5 -> conv5
I0214 13:37:03.955734 13711 net.cpp:124] Setting up conv5
I0214 13:37:03.955780 13711 net.cpp:131] Top shape: 50 256 13 13 (2163200)
I0214 13:37:03.955786 13711 net.cpp:139] Memory required for data: 327596400
I0214 13:37:03.955807 13711 layer_factory.hpp:77] Creating layer relu5
I0214 13:37:03.955822 13711 net.cpp:86] Creating Layer relu5
I0214 13:37:03.955831 13711 net.cpp:408] relu5 <- conv5
I0214 13:37:03.955843 13711 net.cpp:369] relu5 -> conv5 (in-place)
I0214 13:37:03.956069 13711 net.cpp:124] Setting up relu5
I0214 13:37:03.956084 13711 net.cpp:131] Top shape: 50 256 13 13 (2163200)
I0214 13:37:03.956089 13711 net.cpp:139] Memory required for data: 336249200
I0214 13:37:03.956094 13711 layer_factory.hpp:77] Creating layer pool5
I0214 13:37:03.956113 13711 net.cpp:86] Creating Layer pool5
I0214 13:37:03.956120 13711 net.cpp:408] pool5 <- conv5
I0214 13:37:03.956130 13711 net.cpp:382] pool5 -> pool5
I0214 13:37:03.956146 13711 net.cpp:124] Setting up pool5
I0214 13:37:03.956154 13711 net.cpp:131] Top shape: 50 256 6 6 (460800)
I0214 13:37:03.956182 13711 net.cpp:139] Memory required for data: 338092400
I0214 13:37:03.956187 13711 layer_factory.hpp:77] Creating layer fc6
I0214 13:37:03.956200 13711 net.cpp:86] Creating Layer fc6
I0214 13:37:03.956207 13711 net.cpp:408] fc6 <- pool5
I0214 13:37:03.956217 13711 net.cpp:382] fc6 -> fc6
I0214 13:37:04.792722 13711 net.cpp:124] Setting up fc6
I0214 13:37:04.792781 13711 net.cpp:131] Top shape: 50 4096 (204800)
I0214 13:37:04.792788 13711 net.cpp:139] Memory required for data: 338911600
I0214 13:37:04.792804 13711 layer_factory.hpp:77] Creating layer relu6
I0214 13:37:04.792824 13711 net.cpp:86] Creating Layer relu6
I0214 13:37:04.792831 13711 net.cpp:408] relu6 <- fc6
I0214 13:37:04.792842 13711 net.cpp:369] relu6 -> fc6 (in-place)
I0214 13:37:04.793465 13711 net.cpp:124] Setting up relu6
I0214 13:37:04.793481 13711 net.cpp:131] Top shape: 50 4096 (204800)
I0214 13:37:04.793488 13711 net.cpp:139] Memory required for data: 339730800
I0214 13:37:04.793493 13711 layer_factory.hpp:77] Creating layer drop6
I0214 13:37:04.793506 13711 net.cpp:86] Creating Layer drop6
I0214 13:37:04.793514 13711 net.cpp:408] drop6 <- fc6
I0214 13:37:04.793521 13711 net.cpp:369] drop6 -> fc6 (in-place)
I0214 13:37:04.793535 13711 net.cpp:124] Setting up drop6
I0214 13:37:04.793543 13711 net.cpp:131] Top shape: 50 4096 (204800)
I0214 13:37:04.793548 13711 net.cpp:139] Memory required for data: 340550000
I0214 13:37:04.793553 13711 layer_factory.hpp:77] Creating layer fc7
I0214 13:37:04.793565 13711 net.cpp:86] Creating Layer fc7
I0214 13:37:04.793570 13711 net.cpp:408] fc7 <- fc6
I0214 13:37:04.793581 13711 net.cpp:382] fc7 -> fc7
I0214 13:37:05.159917 13711 net.cpp:124] Setting up fc7
I0214 13:37:05.159968 13711 net.cpp:131] Top shape: 50 4096 (204800)
I0214 13:37:05.159975 13711 net.cpp:139] Memory required for data: 341369200
I0214 13:37:05.159991 13711 layer_factory.hpp:77] Creating layer relu7
I0214 13:37:05.160006 13711 net.cpp:86] Creating Layer relu7
I0214 13:37:05.160014 13711 net.cpp:408] relu7 <- fc7
I0214 13:37:05.160025 13711 net.cpp:369] relu7 -> fc7 (in-place)
I0214 13:37:05.160369 13711 net.cpp:124] Setting up relu7
I0214 13:37:05.160387 13711 net.cpp:131] Top shape: 50 4096 (204800)
I0214 13:37:05.160392 13711 net.cpp:139] Memory required for data: 342188400
I0214 13:37:05.160399 13711 layer_factory.hpp:77] Creating layer drop7
I0214 13:37:05.160410 13711 net.cpp:86] Creating Layer drop7
I0214 13:37:05.160416 13711 net.cpp:408] drop7 <- fc7
I0214 13:37:05.160424 13711 net.cpp:369] drop7 -> fc7 (in-place)
I0214 13:37:05.160436 13711 net.cpp:124] Setting up drop7
I0214 13:37:05.160444 13711 net.cpp:131] Top shape: 50 4096 (204800)
I0214 13:37:05.160449 13711 net.cpp:139] Memory required for data: 343007600
I0214 13:37:05.160454 13711 layer_factory.hpp:77] Creating layer fc8
I0214 13:37:05.160467 13711 net.cpp:86] Creating Layer fc8
I0214 13:37:05.160473 13711 net.cpp:408] fc8 <- fc7
I0214 13:37:05.160482 13711 net.cpp:382] fc8 -> fc8
I0214 13:37:05.249980 13711 net.cpp:124] Setting up fc8
I0214 13:37:05.250025 13711 net.cpp:131] Top shape: 50 1000 (50000)
I0214 13:37:05.250031 13711 net.cpp:139] Memory required for data: 343207600
I0214 13:37:05.250047 13711 layer_factory.hpp:77] Creating layer fc8_fc8_0_split
I0214 13:37:05.250063 13711 net.cpp:86] Creating Layer fc8_fc8_0_split
I0214 13:37:05.250072 13711 net.cpp:408] fc8_fc8_0_split <- fc8
I0214 13:37:05.250083 13711 net.cpp:382] fc8_fc8_0_split -> fc8_fc8_0_split_0
I0214 13:37:05.250100 13711 net.cpp:382] fc8_fc8_0_split -> fc8_fc8_0_split_1
I0214 13:37:05.250113 13711 net.cpp:124] Setting up fc8_fc8_0_split
I0214 13:37:05.250120 13711 net.cpp:131] Top shape: 50 1000 (50000)
I0214 13:37:05.250126 13711 net.cpp:131] Top shape: 50 1000 (50000)
I0214 13:37:05.250131 13711 net.cpp:139] Memory required for data: 343607600
I0214 13:37:05.250138 13711 layer_factory.hpp:77] Creating layer accuracy
I0214 13:37:05.250147 13711 net.cpp:86] Creating Layer accuracy
I0214 13:37:05.250154 13711 net.cpp:408] accuracy <- fc8_fc8_0_split_0
I0214 13:37:05.250171 13711 net.cpp:408] accuracy <- label_data_1_split_0
I0214 13:37:05.250200 13711 net.cpp:382] accuracy -> accuracy
…
