…
I0220 20:31:07.329793 12286 net.cpp:296] The NetState phase (0) differed from the phase (1) specified by a rule in layer accuracy
I0220 20:31:07.330029 12286 net.cpp:53] Initializing net from parameters: 
name: "CaffeNet"
state {
  phase: TRAIN
  level: 0
  stage: ""
}
layer {
  name: "data"
  type: "Data"
  top: "data"
  top: "label"
  include {
    phase: TRAIN
  }
  transform_param {
    mirror: true
    crop_size: 227
    mean_file: "data/ilsvrc12/imagenet_mean.binaryproto"
  }
  data_param {
    source: "examples/imagenet/ilsvrc12_train_lmdb"
    batch_size: 256
    backend: LMDB
  }
}
layer {
  name: "conv1"
  type: "Convolution"
  bottom: "data"
  top: "conv1"
  param {
    lr_mult: 1
    decay_mult: 1
  }
  param {
    lr_mult: 2
    decay_mult: 0
  }
  convolution_param {
    num_output: 96
    kernel_size: 11
    stride: 4
    weight_filler {
      type: "gaussian"
      std: 0.01
    }
    bias_filler {
      type: "constant"
      value: 0
    }
  }
}
layer {
  name: "relu1"
  type: "ReLU"
  bottom: "conv1"
  top: "conv1"
}
layer {
  name: "pool1"
  type: "Pooling"
  bottom: "conv1"
  top: "pool1"
  pooling_param {
    pool: MAX
    kernel_size: 3
    stride: 2
  }
}
layer {
  name: "norm1"
  type: "LRN"
  bottom: "pool1"
  top: "norm1"
  lrn_param {
    local_size: 5
    alpha: 0.0001
    beta: 0.75
  }
}
layer {
  name: "conv2"
  type: "Convolution"
  bottom: "norm1"
  top: "conv2"
  param {
    lr_mult: 1
    decay_mult: 1
  }
  param {
    lr_mult: 2
    decay_mult: 0
  }
  convolution_param {
    num_output: 256
    pad: 2
    kernel_size: 5
    group: 2
    weight_filler {
      type: "gaussian"
      std: 0.01
    }
    bias_filler {
      type: "constant"
      value: 1
    }
  }
}
layer {
  name: "relu2"
  type: "ReLU"
  bottom: "conv2"
  top: "conv2"
}
layer {
  name: "pool2"
  type: "Pooling"
  bottom: "conv2"
  top: "pool2"
  pooling_param {
    pool: MAX
    kernel_size: 3
    stride: 2
  }
}
layer {
  name: "norm2"
  type: "LRN"
  bottom: "pool2"
  top: "norm2"
  lrn_param {
    local_size: 5
    alpha: 0.0001
    beta: 0.75
  }
}
layer {
  name: "conv3"
  type: "Convolution"
  bottom: "norm2"
  top: "conv3"
  param {
    lr_mult: 1
    decay_mult: 1
  }
  param {
    lr_mult: 2
    decay_mult: 0
  }
  convolution_param {
    num_output: 384
    pad: 1
    kernel_size: 3
    weight_filler {
      type: "gaussian"
      std: 0.01
    }
    bias_filler {
      type: "constant"
      value: 0
    }
  }
}
layer {
  name: "relu3"
  type: "ReLU"
  bottom: "conv3"
  top: "conv3"
}
layer {
  name: "conv4"
  type: "Convolution"
  bottom: "conv3"
  top: "conv4"
  param {
    lr_mult: 1
    decay_mult: 1
  }
  param {
    lr_mult: 2
    decay_mult: 0
  }
  convolution_param {
    num_output: 384
    pad: 1
    kernel_size: 3
    group: 2
    weight_filler {
      type: "gaussian"
      std: 0.01
    }
    bias_filler {
      type: "constant"
      value: 1
    }
  }
}
layer {
  name: "relu4"
  type: "ReLU"
  bottom: "conv4"
  top: "conv4"
}
layer {
  name: "conv5"
  type: "Convolution"
  bottom: "conv4"
  top: "conv5"
  param {
    lr_mult: 1
    decay_mult: 1
  }
  param {
    lr_mult: 2
    decay_mult: 0
  }
  convolution_param {
    num_output: 256
    pad: 1
    kernel_size: 3
    group: 2
    weight_filler {
      type: "gaussian"
      std: 0.01
    }
    bias_filler {
      type: "constant"
      value: 1
    }
  }
}
layer {
  name: "relu5"
  type: "ReLU"
  bottom: "conv5"
  top: "conv5"
}
layer {
  name: "pool5"
  type: "Pooling"
  bottom: "conv5"
  top: "pool5"
  pooling_param {
    pool: MAX
    kernel_size: 3
    stride: 2
  }
}
layer {
  name: "fc6"
  type: "InnerProduct"
  bottom: "pool5"
  top: "fc6"
  param {
    lr_mult: 1
    decay_mult: 1
  }
  param {
    lr_mult: 2
    decay_mult: 0
  }
  inner_product_param {
    num_output: 4096
    weight_filler {
      type: "gaussian"
      std: 0.005
    }
    bias_filler {
      type: "constant"
      value: 1
    }
  }
}
layer {
  name: "relu6"
  type: "ReLU"
  bottom: "fc6"
  top: "fc6"
}
layer {
  name: "drop6"
  type: "Dropout"
  bottom: "fc6"
  top: "fc6"
  dropout_param {
    dropout_ratio: 0.5
  }
}
layer {
  name: "fc7"
  type: "InnerProduct"
  bottom: "fc6"
  top: "fc7"
  param {
    lr_mult: 1
    decay_mult: 1
  }
  param {
    lr_mult: 2
    decay_mult: 0
  }
  inner_product_param {
    num_output: 4096
    weight_filler {
      type: "gaussian"
      std: 0.005
    }
    bias_filler {
      type: "constant"
      value: 1
    }
  }
}
layer {
  name: "relu7"
  type: "ReLU"
  bottom: "fc7"
  top: "fc7"
}
layer {
  name: "drop7"
  type: "Dropout"
  bottom: "fc7"
  top: "fc7"
  dropout_param {
    dropout_ratio: 0.5
  }
}
layer {
  name: "fc8"
  type: "InnerProduct"
  bottom: "fc7"
  top: "fc8"
  param {
    lr_mult: 1
    decay_mult: 1
  }
  param {
    lr_mult: 2
    decay_mult: 0
  }
  inner_product_param {
    num_output: 1000
    weight_filler {
      type: "gaussian"
      std: 0.01
    }
    bias_filler {
      type: "constant"
      value: 0
    }
  }
}
layer {
  name: "loss"
  type: "SoftmaxWithLoss"
  bottom: "fc8"
  bottom: "label"
  top: "loss"
}
I0220 20:31:07.330163 12286 layer_factory.hpp:77] Creating layer data
I0220 20:31:07.330289 12286 db_lmdb.cpp:35] Opened lmdb examples/imagenet/ilsvrc12_train_lmdb
I0220 20:31:07.372123 12286 net.cpp:86] Creating Layer data
I0220 20:31:07.372154 12286 net.cpp:382] data -> data
I0220 20:31:07.372192 12286 net.cpp:382] data -> label
I0220 20:31:07.372218 12286 data_transformer.cpp:25] Loading mean file from: data/ilsvrc12/imagenet_mean.binaryproto
I0220 20:31:07.375903 12286 data_layer.cpp:45] output data size: 256,3,227,227
I0220 20:31:07.949133 12286 net.cpp:124] Setting up data
I0220 20:31:07.949188 12286 net.cpp:131] Top shape: 256 3 227 227 (39574272)
I0220 20:31:07.949196 12286 net.cpp:131] Top shape: 256 (256)
I0220 20:31:07.949203 12286 net.cpp:139] Memory required for data: 158298112
I0220 20:31:07.949218 12286 layer_factory.hpp:77] Creating layer conv1
I0220 20:31:07.949249 12286 net.cpp:86] Creating Layer conv1
I0220 20:31:07.949259 12286 net.cpp:408] conv1 <- data
I0220 20:31:07.949277 12286 net.cpp:382] conv1 -> conv1
I0220 20:31:09.505208 12286 net.cpp:124] Setting up conv1
I0220 20:31:09.505267 12286 net.cpp:131] Top shape: 256 96 55 55 (74342400)
I0220 20:31:09.505277 12286 net.cpp:139] Memory required for data: 455667712
I0220 20:31:09.505317 12286 layer_factory.hpp:77] Creating layer relu1
I0220 20:31:09.505339 12286 net.cpp:86] Creating Layer relu1
I0220 20:31:09.505349 12286 net.cpp:408] relu1 <- conv1
I0220 20:31:09.505362 12286 net.cpp:369] relu1 -> conv1 (in-place)
I0220 20:31:09.505830 12286 net.cpp:124] Setting up relu1
I0220 20:31:09.505851 12286 net.cpp:131] Top shape: 256 96 55 55 (74342400)
I0220 20:31:09.505859 12286 net.cpp:139] Memory required for data: 753037312
I0220 20:31:09.505867 12286 layer_factory.hpp:77] Creating layer pool1
I0220 20:31:09.505882 12286 net.cpp:86] Creating Layer pool1
I0220 20:31:09.505889 12286 net.cpp:408] pool1 <- conv1
I0220 20:31:09.505901 12286 net.cpp:382] pool1 -> pool1
I0220 20:31:09.505930 12286 net.cpp:124] Setting up pool1
I0220 20:31:09.505944 12286 net.cpp:131] Top shape: 256 96 27 27 (17915904)
I0220 20:31:09.505950 12286 net.cpp:139] Memory required for data: 824700928
I0220 20:31:09.505957 12286 layer_factory.hpp:77] Creating layer norm1
I0220 20:31:09.505976 12286 net.cpp:86] Creating Layer norm1
I0220 20:31:09.505985 12286 net.cpp:408] norm1 <- pool1
I0220 20:31:09.505996 12286 net.cpp:382] norm1 -> norm1
I0220 20:31:09.506279 12286 net.cpp:124] Setting up norm1
I0220 20:31:09.506335 12286 net.cpp:131] Top shape: 256 96 27 27 (17915904)
I0220 20:31:09.506343 12286 net.cpp:139] Memory required for data: 896364544
I0220 20:31:09.506351 12286 layer_factory.hpp:77] Creating layer conv2
I0220 20:31:09.506373 12286 net.cpp:86] Creating Layer conv2
I0220 20:31:09.506383 12286 net.cpp:408] conv2 <- norm1
I0220 20:31:09.506395 12286 net.cpp:382] conv2 -> conv2
I0220 20:31:09.514868 12286 net.cpp:124] Setting up conv2
I0220 20:31:09.514901 12286 net.cpp:131] Top shape: 256 256 27 27 (47775744)
I0220 20:31:09.514909 12286 net.cpp:139] Memory required for data: 1087467520
I0220 20:31:09.514931 12286 layer_factory.hpp:77] Creating layer relu2
I0220 20:31:09.514946 12286 net.cpp:86] Creating Layer relu2
I0220 20:31:09.514955 12286 net.cpp:408] relu2 <- conv2
I0220 20:31:09.514966 12286 net.cpp:369] relu2 -> conv2 (in-place)
I0220 20:31:09.515235 12286 net.cpp:124] Setting up relu2
I0220 20:31:09.515254 12286 net.cpp:131] Top shape: 256 256 27 27 (47775744)
I0220 20:31:09.515261 12286 net.cpp:139] Memory required for data: 1278570496
I0220 20:31:09.515269 12286 layer_factory.hpp:77] Creating layer pool2
I0220 20:31:09.515280 12286 net.cpp:86] Creating Layer pool2
I0220 20:31:09.515311 12286 net.cpp:408] pool2 <- conv2
I0220 20:31:09.515322 12286 net.cpp:382] pool2 -> pool2
I0220 20:31:09.515344 12286 net.cpp:124] Setting up pool2
I0220 20:31:09.515355 12286 net.cpp:131] Top shape: 256 256 13 13 (11075584)
I0220 20:31:09.515362 12286 net.cpp:139] Memory required for data: 1322872832
I0220 20:31:09.515369 12286 layer_factory.hpp:77] Creating layer norm2
I0220 20:31:09.515388 12286 net.cpp:86] Creating Layer norm2
I0220 20:31:09.515396 12286 net.cpp:408] norm2 <- pool2
I0220 20:31:09.515406 12286 net.cpp:382] norm2 -> norm2
I0220 20:31:09.515868 12286 net.cpp:124] Setting up norm2
I0220 20:31:09.515890 12286 net.cpp:131] Top shape: 256 256 13 13 (11075584)
I0220 20:31:09.515898 12286 net.cpp:139] Memory required for data: 1367175168
I0220 20:31:09.515907 12286 layer_factory.hpp:77] Creating layer conv3
I0220 20:31:09.515926 12286 net.cpp:86] Creating Layer conv3
I0220 20:31:09.515935 12286 net.cpp:408] conv3 <- norm2
I0220 20:31:09.515949 12286 net.cpp:382] conv3 -> conv3
I0220 20:31:09.538456 12286 net.cpp:124] Setting up conv3
I0220 20:31:09.538506 12286 net.cpp:131] Top shape: 256 384 13 13 (16613376)
I0220 20:31:09.538513 12286 net.cpp:139] Memory required for data: 1433628672
I0220 20:31:09.538537 12286 layer_factory.hpp:77] Creating layer relu3
I0220 20:31:09.538553 12286 net.cpp:86] Creating Layer relu3
I0220 20:31:09.538563 12286 net.cpp:408] relu3 <- conv3
I0220 20:31:09.538574 12286 net.cpp:369] relu3 -> conv3 (in-place)
I0220 20:31:09.538810 12286 net.cpp:124] Setting up relu3
I0220 20:31:09.538828 12286 net.cpp:131] Top shape: 256 384 13 13 (16613376)
I0220 20:31:09.538835 12286 net.cpp:139] Memory required for data: 1500082176
I0220 20:31:09.538841 12286 layer_factory.hpp:77] Creating layer conv4
I0220 20:31:09.538861 12286 net.cpp:86] Creating Layer conv4
I0220 20:31:09.538868 12286 net.cpp:408] conv4 <- conv3
I0220 20:31:09.538879 12286 net.cpp:382] conv4 -> conv4
I0220 20:31:09.552404 12286 net.cpp:124] Setting up conv4
I0220 20:31:09.552445 12286 net.cpp:131] Top shape: 256 384 13 13 (16613376)
I0220 20:31:09.552453 12286 net.cpp:139] Memory required for data: 1566535680
I0220 20:31:09.552469 12286 layer_factory.hpp:77] Creating layer relu4
I0220 20:31:09.552482 12286 net.cpp:86] Creating Layer relu4
I0220 20:31:09.552490 12286 net.cpp:408] relu4 <- conv4
I0220 20:31:09.552503 12286 net.cpp:369] relu4 -> conv4 (in-place)
I0220 20:31:09.552729 12286 net.cpp:124] Setting up relu4
I0220 20:31:09.552745 12286 net.cpp:131] Top shape: 256 384 13 13 (16613376)
I0220 20:31:09.552752 12286 net.cpp:139] Memory required for data: 1632989184
I0220 20:31:09.552758 12286 layer_factory.hpp:77] Creating layer conv5
I0220 20:31:09.552776 12286 net.cpp:86] Creating Layer conv5
I0220 20:31:09.552783 12286 net.cpp:408] conv5 <- conv4
I0220 20:31:09.552805 12286 net.cpp:382] conv5 -> conv5
I0220 20:31:09.562472 12286 net.cpp:124] Setting up conv5
I0220 20:31:09.562506 12286 net.cpp:131] Top shape: 256 256 13 13 (11075584)
I0220 20:31:09.562513 12286 net.cpp:139] Memory required for data: 1677291520
I0220 20:31:09.562536 12286 layer_factory.hpp:77] Creating layer relu5
I0220 20:31:09.562548 12286 net.cpp:86] Creating Layer relu5
I0220 20:31:09.562556 12286 net.cpp:408] relu5 <- conv5
I0220 20:31:09.562580 12286 net.cpp:369] relu5 -> conv5 (in-place)
I0220 20:31:09.562804 12286 net.cpp:124] Setting up relu5
I0220 20:31:09.562819 12286 net.cpp:131] Top shape: 256 256 13 13 (11075584)
I0220 20:31:09.562825 12286 net.cpp:139] Memory required for data: 1721593856
I0220 20:31:09.562831 12286 layer_factory.hpp:77] Creating layer pool5
I0220 20:31:09.562842 12286 net.cpp:86] Creating Layer pool5
I0220 20:31:09.562849 12286 net.cpp:408] pool5 <- conv5
I0220 20:31:09.562861 12286 net.cpp:382] pool5 -> pool5
I0220 20:31:09.562878 12286 net.cpp:124] Setting up pool5
I0220 20:31:09.562887 12286 net.cpp:131] Top shape: 256 256 6 6 (2359296)
I0220 20:31:09.562892 12286 net.cpp:139] Memory required for data: 1731031040
I0220 20:31:09.562898 12286 layer_factory.hpp:77] Creating layer fc6
I0220 20:31:09.562916 12286 net.cpp:86] Creating Layer fc6
I0220 20:31:09.562922 12286 net.cpp:408] fc6 <- pool5
I0220 20:31:09.562933 12286 net.cpp:382] fc6 -> fc6
I0220 20:31:10.423609 12286 net.cpp:124] Setting up fc6
I0220 20:31:10.423662 12286 net.cpp:131] Top shape: 256 4096 (1048576)
I0220 20:31:10.423668 12286 net.cpp:139] Memory required for data: 1735225344
I0220 20:31:10.423684 12286 layer_factory.hpp:77] Creating layer relu6
I0220 20:31:10.423702 12286 net.cpp:86] Creating Layer relu6
I0220 20:31:10.423709 12286 net.cpp:408] relu6 <- fc6
I0220 20:31:10.423720 12286 net.cpp:369] relu6 -> fc6 (in-place)
I0220 20:31:10.424288 12286 net.cpp:124] Setting up relu6
I0220 20:31:10.424306 12286 net.cpp:131] Top shape: 256 4096 (1048576)
I0220 20:31:10.424312 12286 net.cpp:139] Memory required for data: 1739419648
I0220 20:31:10.424319 12286 layer_factory.hpp:77] Creating layer drop6
I0220 20:31:10.424329 12286 net.cpp:86] Creating Layer drop6
I0220 20:31:10.424335 12286 net.cpp:408] drop6 <- fc6
I0220 20:31:10.424345 12286 net.cpp:369] drop6 -> fc6 (in-place)
I0220 20:31:10.424371 12286 net.cpp:124] Setting up drop6
I0220 20:31:10.424379 12286 net.cpp:131] Top shape: 256 4096 (1048576)
I0220 20:31:10.424384 12286 net.cpp:139] Memory required for data: 1743613952
I0220 20:31:10.424391 12286 layer_factory.hpp:77] Creating layer fc7
I0220 20:31:10.424403 12286 net.cpp:86] Creating Layer fc7
I0220 20:31:10.424410 12286 net.cpp:408] fc7 <- fc6
I0220 20:31:10.424420 12286 net.cpp:382] fc7 -> fc7
I0220 20:31:10.796123 12286 net.cpp:124] Setting up fc7
I0220 20:31:10.796171 12286 net.cpp:131] Top shape: 256 4096 (1048576)
I0220 20:31:10.796177 12286 net.cpp:139] Memory required for data: 1747808256
I0220 20:31:10.796193 12286 layer_factory.hpp:77] Creating layer relu7
I0220 20:31:10.796210 12286 net.cpp:86] Creating Layer relu7
I0220 20:31:10.796217 12286 net.cpp:408] relu7 <- fc7
I0220 20:31:10.796228 12286 net.cpp:369] relu7 -> fc7 (in-place)
I0220 20:31:10.796547 12286 net.cpp:124] Setting up relu7
I0220 20:31:10.796561 12286 net.cpp:131] Top shape: 256 4096 (1048576)
I0220 20:31:10.796566 12286 net.cpp:139] Memory required for data: 1752002560
I0220 20:31:10.796572 12286 layer_factory.hpp:77] Creating layer drop7
I0220 20:31:10.796583 12286 net.cpp:86] Creating Layer drop7
I0220 20:31:10.796589 12286 net.cpp:408] drop7 <- fc7
I0220 20:31:10.796599 12286 net.cpp:369] drop7 -> fc7 (in-place)
I0220 20:31:10.796612 12286 net.cpp:124] Setting up drop7
I0220 20:31:10.796619 12286 net.cpp:131] Top shape: 256 4096 (1048576)
I0220 20:31:10.796624 12286 net.cpp:139] Memory required for data: 1756196864
I0220 20:31:10.796630 12286 layer_factory.hpp:77] Creating layer fc8
I0220 20:31:10.796640 12286 net.cpp:86] Creating Layer fc8
I0220 20:31:10.796646 12286 net.cpp:408] fc8 <- fc7
I0220 20:31:10.796669 12286 net.cpp:382] fc8 -> fc8
I0220 20:31:10.886152 12286 net.cpp:124] Setting up fc8
I0220 20:31:10.886199 12286 net.cpp:131] Top shape: 256 1000 (256000)
I0220 20:31:10.886205 12286 net.cpp:139] Memory required for data: 1757220864
I0220 20:31:10.886221 12286 layer_factory.hpp:77] Creating layer loss
I0220 20:31:10.886234 12286 net.cpp:86] Creating Layer loss
I0220 20:31:10.886242 12286 net.cpp:408] loss <- fc8
I0220 20:31:10.886251 12286 net.cpp:408] loss <- label
I0220 20:31:10.886266 12286 net.cpp:382] loss -> loss
I0220 20:31:10.886291 12286 layer_factory.hpp:77] Creating layer loss
…
I0220 20:31:10.887936 12286 net.cpp:296] The NetState phase (1) differed from the phase (0) specified by a rule in layer data
I0220 20:31:10.888180 12286 net.cpp:53] Initializing net from parameters: 
name: "CaffeNet"
state {
  phase: TEST
}
layer {
  name: "data"
  type: "Data"
  top: "data"
  top: "label"
  include {
    phase: TEST
  }
  transform_param {
    mirror: false
    crop_size: 227
    mean_file: "data/ilsvrc12/imagenet_mean.binaryproto"
  }
  data_param {
    source: "examples/imagenet/ilsvrc12_val_lmdb"
    batch_size: 50
    backend: LMDB
  }
}
layer {
  name: "conv1"
  type: "Convolution"
  bottom: "data"
  top: "conv1"
  param {
    lr_mult: 1
    decay_mult: 1
  }
  param {
    lr_mult: 2
    decay_mult: 0
  }
  convolution_param {
    num_output: 96
    kernel_size: 11
    stride: 4
    weight_filler {
      type: "gaussian"
      std: 0.01
    }
    bias_filler {
      type: "constant"
      value: 0
    }
  }
}
layer {
  name: "relu1"
  type: "ReLU"
  bottom: "conv1"
  top: "conv1"
}
layer {
  name: "pool1"
  type: "Pooling"
  bottom: "conv1"
  top: "pool1"
  pooling_param {
    pool: MAX
    kernel_size: 3
    stride: 2
  }
}
layer {
  name: "norm1"
  type: "LRN"
  bottom: "pool1"
  top: "norm1"
  lrn_param {
    local_size: 5
    alpha: 0.0001
    beta: 0.75
  }
}
layer {
  name: "conv2"
  type: "Convolution"
  bottom: "norm1"
  top: "conv2"
  param {
    lr_mult: 1
    decay_mult: 1
  }
  param {
    lr_mult: 2
    decay_mult: 0
  }
  convolution_param {
    num_output: 256
    pad: 2
    kernel_size: 5
    group: 2
    weight_filler {
      type: "gaussian"
      std: 0.01
    }
    bias_filler {
      type: "constant"
      value: 1
    }
  }
}
layer {
  name: "relu2"
  type: "ReLU"
  bottom: "conv2"
  top: "conv2"
}
layer {
  name: "pool2"
  type: "Pooling"
  bottom: "conv2"
  top: "pool2"
  pooling_param {
    pool: MAX
    kernel_size: 3
    stride: 2
  }
}
layer {
  name: "norm2"
  type: "LRN"
  bottom: "pool2"
  top: "norm2"
  lrn_param {
    local_size: 5
    alpha: 0.0001
    beta: 0.75
  }
}
layer {
  name: "conv3"
  type: "Convolution"
  bottom: "norm2"
  top: "conv3"
  param {
    lr_mult: 1
    decay_mult: 1
  }
  param {
    lr_mult: 2
    decay_mult: 0
  }
  convolution_param {
    num_output: 384
    pad: 1
    kernel_size: 3
    weight_filler {
      type: "gaussian"
      std: 0.01
    }
    bias_filler {
      type: "constant"
      value: 0
    }
  }
}
layer {
  name: "relu3"
  type: "ReLU"
  bottom: "conv3"
  top: "conv3"
}
layer {
  name: "conv4"
  type: "Convolution"
  bottom: "conv3"
  top: "conv4"
  param {
    lr_mult: 1
    decay_mult: 1
  }
  param {
    lr_mult: 2
    decay_mult: 0
  }
  convolution_param {
    num_output: 384
    pad: 1
    kernel_size: 3
    group: 2
    weight_filler {
      type: "gaussian"
      std: 0.01
    }
    bias_filler {
      type: "constant"
      value: 1
    }
  }
}
layer {
  name: "relu4"
  type: "ReLU"
  bottom: "conv4"
  top: "conv4"
}
layer {
  name: "conv5"
  type: "Convolution"
  bottom: "conv4"
  top: "conv5"
  param {
    lr_mult: 1
    decay_mult: 1
  }
  param {
    lr_mult: 2
    decay_mult: 0
  }
  convolution_param {
    num_output: 256
    pad: 1
    kernel_size: 3
    group: 2
    weight_filler {
      type: "gaussian"
      std: 0.01
    }
    bias_filler {
      type: "constant"
      value: 1
    }
  }
}
layer {
  name: "relu5"
  type: "ReLU"
  bottom: "conv5"
  top: "conv5"
}
layer {
  name: "pool5"
  type: "Pooling"
  bottom: "conv5"
  top: "pool5"
  pooling_param {
    pool: MAX
    kernel_size: 3
    stride: 2
  }
}
layer {
  name: "fc6"
  type: "InnerProduct"
  bottom: "pool5"
  top: "fc6"
  param {
    lr_mult: 1
    decay_mult: 1
  }
  param {
    lr_mult: 2
    decay_mult: 0
  }
  inner_product_param {
    num_output: 4096
    weight_filler {
      type: "gaussian"
      std: 0.005
    }
    bias_filler {
      type: "constant"
      value: 1
    }
  }
}
layer {
  name: "relu6"
  type: "ReLU"
  bottom: "fc6"
  top: "fc6"
}
layer {
  name: "drop6"
  type: "Dropout"
  bottom: "fc6"
  top: "fc6"
  dropout_param {
    dropout_ratio: 0.5
  }
}
layer {
  name: "fc7"
  type: "InnerProduct"
  bottom: "fc6"
  top: "fc7"
  param {
    lr_mult: 1
    decay_mult: 1
  }
  param {
    lr_mult: 2
    decay_mult: 0
  }
  inner_product_param {
    num_output: 4096
    weight_filler {
      type: "gaussian"
      std: 0.005
    }
    bias_filler {
      type: "constant"
      value: 1
    }
  }
}
layer {
  name: "relu7"
  type: "ReLU"
  bottom: "fc7"
  top: "fc7"
}
layer {
  name: "drop7"
  type: "Dropout"
  bottom: "fc7"
  top: "fc7"
  dropout_param {
    dropout_ratio: 0.5
  }
}
layer {
  name: "fc8"
  type: "InnerProduct"
  bottom: "fc7"
  top: "fc8"
  param {
    lr_mult: 1
    decay_mult: 1
  }
  param {
    lr_mult: 2
    decay_mult: 0
  }
  inner_product_param {
    num_output: 1000
    weight_filler {
      type: "gaussian"
      std: 0.01
    }
    bias_filler {
      type: "constant"
      value: 0
    }
  }
}
layer {
  name: "accuracy"
  type: "Accuracy"
  bottom: "fc8"
  bottom: "label"
  top: "accuracy"
  include {
    phase: TEST
  }
}
layer {
  name: "loss"
  type: "SoftmaxWithLoss"
  bottom: "fc8"
  bottom: "label"
  top: "loss"
}
I0220 20:31:10.888330 12286 layer_factory.hpp:77] Creating layer data
I0220 20:31:10.888420 12286 db_lmdb.cpp:35] Opened lmdb examples/imagenet/ilsvrc12_val_lmdb
I0220 20:31:10.888454 12286 net.cpp:86] Creating Layer data
I0220 20:31:10.888466 12286 net.cpp:382] data -> data
I0220 20:31:10.888480 12286 net.cpp:382] data -> label
I0220 20:31:10.888492 12286 data_transformer.cpp:25] Loading mean file from: data/ilsvrc12/imagenet_mean.binaryproto
I0220 20:31:10.890272 12286 data_layer.cpp:45] output data size: 50,3,227,227
I0220 20:31:11.140388 12286 net.cpp:124] Setting up data
I0220 20:31:11.140437 12286 net.cpp:131] Top shape: 50 3 227 227 (7729350)
I0220 20:31:11.140445 12286 net.cpp:131] Top shape: 50 (50)
I0220 20:31:11.140451 12286 net.cpp:139] Memory required for data: 30917600
I0220 20:31:11.140460 12286 layer_factory.hpp:77] Creating layer label_data_1_split
I0220 20:31:11.140478 12286 net.cpp:86] Creating Layer label_data_1_split
I0220 20:31:11.140486 12286 net.cpp:408] label_data_1_split <- label
I0220 20:31:11.140497 12286 net.cpp:382] label_data_1_split -> label_data_1_split_0
I0220 20:31:11.140513 12286 net.cpp:382] label_data_1_split -> label_data_1_split_1
I0220 20:31:11.140528 12286 net.cpp:124] Setting up label_data_1_split
I0220 20:31:11.140537 12286 net.cpp:131] Top shape: 50 (50)
I0220 20:31:11.140542 12286 net.cpp:131] Top shape: 50 (50)
I0220 20:31:11.140547 12286 net.cpp:139] Memory required for data: 30918000
I0220 20:31:11.140552 12286 layer_factory.hpp:77] Creating layer conv1
I0220 20:31:11.140570 12286 net.cpp:86] Creating Layer conv1
I0220 20:31:11.140576 12286 net.cpp:408] conv1 <- data
I0220 20:31:11.140586 12286 net.cpp:382] conv1 -> conv1
I0220 20:31:11.142194 12286 net.cpp:124] Setting up conv1
I0220 20:31:11.142212 12286 net.cpp:131] Top shape: 50 96 55 55 (14520000)
I0220 20:31:11.142218 12286 net.cpp:139] Memory required for data: 88998000
I0220 20:31:11.142235 12286 layer_factory.hpp:77] Creating layer relu1
I0220 20:31:11.142244 12286 net.cpp:86] Creating Layer relu1
I0220 20:31:11.142251 12286 net.cpp:408] relu1 <- conv1
I0220 20:31:11.142259 12286 net.cpp:369] relu1 -> conv1 (in-place)
I0220 20:31:11.142468 12286 net.cpp:124] Setting up relu1
I0220 20:31:11.142484 12286 net.cpp:131] Top shape: 50 96 55 55 (14520000)
I0220 20:31:11.142489 12286 net.cpp:139] Memory required for data: 147078000
I0220 20:31:11.142495 12286 layer_factory.hpp:77] Creating layer pool1
I0220 20:31:11.142508 12286 net.cpp:86] Creating Layer pool1
I0220 20:31:11.142514 12286 net.cpp:408] pool1 <- conv1
I0220 20:31:11.142523 12286 net.cpp:382] pool1 -> pool1
I0220 20:31:11.142537 12286 net.cpp:124] Setting up pool1
I0220 20:31:11.142545 12286 net.cpp:131] Top shape: 50 96 27 27 (3499200)
I0220 20:31:11.142550 12286 net.cpp:139] Memory required for data: 161074800
I0220 20:31:11.142556 12286 layer_factory.hpp:77] Creating layer norm1
I0220 20:31:11.142566 12286 net.cpp:86] Creating Layer norm1
I0220 20:31:11.142572 12286 net.cpp:408] norm1 <- pool1
I0220 20:31:11.142580 12286 net.cpp:382] norm1 -> norm1
I0220 20:31:11.142930 12286 net.cpp:124] Setting up norm1
I0220 20:31:11.142946 12286 net.cpp:131] Top shape: 50 96 27 27 (3499200)
I0220 20:31:11.142951 12286 net.cpp:139] Memory required for data: 175071600
I0220 20:31:11.142956 12286 layer_factory.hpp:77] Creating layer conv2
I0220 20:31:11.142969 12286 net.cpp:86] Creating Layer conv2
I0220 20:31:11.142976 12286 net.cpp:408] conv2 <- norm1
I0220 20:31:11.142987 12286 net.cpp:382] conv2 -> conv2
I0220 20:31:11.149770 12286 net.cpp:124] Setting up conv2
I0220 20:31:11.149818 12286 net.cpp:131] Top shape: 50 256 27 27 (9331200)
I0220 20:31:11.149826 12286 net.cpp:139] Memory required for data: 212396400
I0220 20:31:11.149847 12286 layer_factory.hpp:77] Creating layer relu2
I0220 20:31:11.149862 12286 net.cpp:86] Creating Layer relu2
I0220 20:31:11.149869 12286 net.cpp:408] relu2 <- conv2
I0220 20:31:11.149879 12286 net.cpp:369] relu2 -> conv2 (in-place)
I0220 20:31:11.150267 12286 net.cpp:124] Setting up relu2
I0220 20:31:11.150283 12286 net.cpp:131] Top shape: 50 256 27 27 (9331200)
I0220 20:31:11.150300 12286 net.cpp:139] Memory required for data: 249721200
I0220 20:31:11.150318 12286 layer_factory.hpp:77] Creating layer pool2
I0220 20:31:11.150336 12286 net.cpp:86] Creating Layer pool2
I0220 20:31:11.150341 12286 net.cpp:408] pool2 <- conv2
I0220 20:31:11.150351 12286 net.cpp:382] pool2 -> pool2
I0220 20:31:11.150368 12286 net.cpp:124] Setting up pool2
I0220 20:31:11.150378 12286 net.cpp:131] Top shape: 50 256 13 13 (2163200)
I0220 20:31:11.150383 12286 net.cpp:139] Memory required for data: 258374000
I0220 20:31:11.150388 12286 layer_factory.hpp:77] Creating layer norm2
I0220 20:31:11.150416 12286 net.cpp:86] Creating Layer norm2
I0220 20:31:11.150425 12286 net.cpp:408] norm2 <- pool2
I0220 20:31:11.150436 12286 net.cpp:382] norm2 -> norm2
I0220 20:31:11.150841 12286 net.cpp:124] Setting up norm2
I0220 20:31:11.150856 12286 net.cpp:131] Top shape: 50 256 13 13 (2163200)
I0220 20:31:11.150861 12286 net.cpp:139] Memory required for data: 267026800
I0220 20:31:11.150866 12286 layer_factory.hpp:77] Creating layer conv3
I0220 20:31:11.150884 12286 net.cpp:86] Creating Layer conv3
I0220 20:31:11.150892 12286 net.cpp:408] conv3 <- norm2
I0220 20:31:11.150902 12286 net.cpp:382] conv3 -> conv3
I0220 20:31:11.169677 12286 net.cpp:124] Setting up conv3
I0220 20:31:11.169728 12286 net.cpp:131] Top shape: 50 384 13 13 (3244800)
I0220 20:31:11.169734 12286 net.cpp:139] Memory required for data: 280006000
I0220 20:31:11.169754 12286 layer_factory.hpp:77] Creating layer relu3
I0220 20:31:11.169769 12286 net.cpp:86] Creating Layer relu3
I0220 20:31:11.169776 12286 net.cpp:408] relu3 <- conv3
I0220 20:31:11.169787 12286 net.cpp:369] relu3 -> conv3 (in-place)
I0220 20:31:11.170158 12286 net.cpp:124] Setting up relu3
I0220 20:31:11.170173 12286 net.cpp:131] Top shape: 50 384 13 13 (3244800)
I0220 20:31:11.170179 12286 net.cpp:139] Memory required for data: 292985200
I0220 20:31:11.170186 12286 layer_factory.hpp:77] Creating layer conv4
I0220 20:31:11.170204 12286 net.cpp:86] Creating Layer conv4
I0220 20:31:11.170212 12286 net.cpp:408] conv4 <- conv3
I0220 20:31:11.170222 12286 net.cpp:382] conv4 -> conv4
I0220 20:31:11.186640 12286 net.cpp:124] Setting up conv4
I0220 20:31:11.186691 12286 net.cpp:131] Top shape: 50 384 13 13 (3244800)
I0220 20:31:11.186697 12286 net.cpp:139] Memory required for data: 305964400
I0220 20:31:11.186712 12286 layer_factory.hpp:77] Creating layer relu4
I0220 20:31:11.186727 12286 net.cpp:86] Creating Layer relu4
I0220 20:31:11.186734 12286 net.cpp:408] relu4 <- conv4
I0220 20:31:11.186748 12286 net.cpp:369] relu4 -> conv4 (in-place)
I0220 20:31:11.187131 12286 net.cpp:124] Setting up relu4
I0220 20:31:11.187146 12286 net.cpp:131] Top shape: 50 384 13 13 (3244800)
I0220 20:31:11.187152 12286 net.cpp:139] Memory required for data: 318943600
I0220 20:31:11.187158 12286 layer_factory.hpp:77] Creating layer conv5
I0220 20:31:11.187181 12286 net.cpp:86] Creating Layer conv5
I0220 20:31:11.187189 12286 net.cpp:408] conv5 <- conv4
I0220 20:31:11.187202 12286 net.cpp:382] conv5 -> conv5
I0220 20:31:11.196475 12286 net.cpp:124] Setting up conv5
I0220 20:31:11.196527 12286 net.cpp:131] Top shape: 50 256 13 13 (2163200)
I0220 20:31:11.196532 12286 net.cpp:139] Memory required for data: 327596400
I0220 20:31:11.196554 12286 layer_factory.hpp:77] Creating layer relu5
I0220 20:31:11.196570 12286 net.cpp:86] Creating Layer relu5
I0220 20:31:11.196578 12286 net.cpp:408] relu5 <- conv5
I0220 20:31:11.196593 12286 net.cpp:369] relu5 -> conv5 (in-place)
I0220 20:31:11.196825 12286 net.cpp:124] Setting up relu5
I0220 20:31:11.196838 12286 net.cpp:131] Top shape: 50 256 13 13 (2163200)
I0220 20:31:11.196844 12286 net.cpp:139] Memory required for data: 336249200
I0220 20:31:11.196851 12286 layer_factory.hpp:77] Creating layer pool5
I0220 20:31:11.196866 12286 net.cpp:86] Creating Layer pool5
I0220 20:31:11.196873 12286 net.cpp:408] pool5 <- conv5
I0220 20:31:11.196882 12286 net.cpp:382] pool5 -> pool5
I0220 20:31:11.196898 12286 net.cpp:124] Setting up pool5
I0220 20:31:11.196909 12286 net.cpp:131] Top shape: 50 256 6 6 (460800)
I0220 20:31:11.196938 12286 net.cpp:139] Memory required for data: 338092400
I0220 20:31:11.196943 12286 layer_factory.hpp:77] Creating layer fc6
I0220 20:31:11.196955 12286 net.cpp:86] Creating Layer fc6
I0220 20:31:11.196961 12286 net.cpp:408] fc6 <- pool5
I0220 20:31:11.196972 12286 net.cpp:382] fc6 -> fc6
I0220 20:31:12.029942 12286 net.cpp:124] Setting up fc6
I0220 20:31:12.029994 12286 net.cpp:131] Top shape: 50 4096 (204800)
I0220 20:31:12.030001 12286 net.cpp:139] Memory required for data: 338911600
I0220 20:31:12.030016 12286 layer_factory.hpp:77] Creating layer relu6
I0220 20:31:12.030032 12286 net.cpp:86] Creating Layer relu6
I0220 20:31:12.030040 12286 net.cpp:408] relu6 <- fc6
I0220 20:31:12.030051 12286 net.cpp:369] relu6 -> fc6 (in-place)
I0220 20:31:12.030653 12286 net.cpp:124] Setting up relu6
I0220 20:31:12.030670 12286 net.cpp:131] Top shape: 50 4096 (204800)
I0220 20:31:12.030676 12286 net.cpp:139] Memory required for data: 339730800
I0220 20:31:12.030683 12286 layer_factory.hpp:77] Creating layer drop6
I0220 20:31:12.030695 12286 net.cpp:86] Creating Layer drop6
I0220 20:31:12.030702 12286 net.cpp:408] drop6 <- fc6
I0220 20:31:12.030710 12286 net.cpp:369] drop6 -> fc6 (in-place)
I0220 20:31:12.030724 12286 net.cpp:124] Setting up drop6
I0220 20:31:12.030730 12286 net.cpp:131] Top shape: 50 4096 (204800)
I0220 20:31:12.030735 12286 net.cpp:139] Memory required for data: 340550000
I0220 20:31:12.030741 12286 layer_factory.hpp:77] Creating layer fc7
I0220 20:31:12.030755 12286 net.cpp:86] Creating Layer fc7
I0220 20:31:12.030761 12286 net.cpp:408] fc7 <- fc6
I0220 20:31:12.030769 12286 net.cpp:382] fc7 -> fc7
I0220 20:31:12.394168 12286 net.cpp:124] Setting up fc7
I0220 20:31:12.394223 12286 net.cpp:131] Top shape: 50 4096 (204800)
I0220 20:31:12.394229 12286 net.cpp:139] Memory required for data: 341369200
I0220 20:31:12.394245 12286 layer_factory.hpp:77] Creating layer relu7
I0220 20:31:12.394259 12286 net.cpp:86] Creating Layer relu7
I0220 20:31:12.394268 12286 net.cpp:408] relu7 <- fc7
I0220 20:31:12.394280 12286 net.cpp:369] relu7 -> fc7 (in-place)
I0220 20:31:12.394636 12286 net.cpp:124] Setting up relu7
I0220 20:31:12.394651 12286 net.cpp:131] Top shape: 50 4096 (204800)
I0220 20:31:12.394657 12286 net.cpp:139] Memory required for data: 342188400
I0220 20:31:12.394664 12286 layer_factory.hpp:77] Creating layer drop7
I0220 20:31:12.394675 12286 net.cpp:86] Creating Layer drop7
I0220 20:31:12.394680 12286 net.cpp:408] drop7 <- fc7
I0220 20:31:12.394690 12286 net.cpp:369] drop7 -> fc7 (in-place)
I0220 20:31:12.394703 12286 net.cpp:124] Setting up drop7
I0220 20:31:12.394711 12286 net.cpp:131] Top shape: 50 4096 (204800)
I0220 20:31:12.394716 12286 net.cpp:139] Memory required for data: 343007600
I0220 20:31:12.394721 12286 layer_factory.hpp:77] Creating layer fc8
I0220 20:31:12.394732 12286 net.cpp:86] Creating Layer fc8
I0220 20:31:12.394738 12286 net.cpp:408] fc8 <- fc7
I0220 20:31:12.394748 12286 net.cpp:382] fc8 -> fc8
I0220 20:31:12.478587 12286 net.cpp:124] Setting up fc8
I0220 20:31:12.478636 12286 net.cpp:131] Top shape: 50 1000 (50000)
I0220 20:31:12.478641 12286 net.cpp:139] Memory required for data: 343207600
I0220 20:31:12.478657 12286 layer_factory.hpp:77] Creating layer fc8_fc8_0_split
I0220 20:31:12.478669 12286 net.cpp:86] Creating Layer fc8_fc8_0_split
I0220 20:31:12.478677 12286 net.cpp:408] fc8_fc8_0_split <- fc8
I0220 20:31:12.478691 12286 net.cpp:382] fc8_fc8_0_split -> fc8_fc8_0_split_0
I0220 20:31:12.478708 12286 net.cpp:382] fc8_fc8_0_split -> fc8_fc8_0_split_1
I0220 20:31:12.478719 12286 net.cpp:124] Setting up fc8_fc8_0_split
I0220 20:31:12.478729 12286 net.cpp:131] Top shape: 50 1000 (50000)
I0220 20:31:12.478734 12286 net.cpp:131] Top shape: 50 1000 (50000)
I0220 20:31:12.478739 12286 net.cpp:139] Memory required for data: 343607600
I0220 20:31:12.478745 12286 layer_factory.hpp:77] Creating layer accuracy
I0220 20:31:12.478755 12286 net.cpp:86] Creating Layer accuracy
I0220 20:31:12.478761 12286 net.cpp:408] accuracy <- fc8_fc8_0_split_0
I0220 20:31:12.478781 12286 net.cpp:408] accuracy <- label_data_1_split_0
I0220 20:31:12.478807 12286 net.cpp:382] accuracy -> accuracy
…
