…
I0228 22:18:16.923624  1645 net.cpp:296] The NetState phase (0) differed from the phase (1) specified by a rule in layer accuracy
I0228 22:18:16.923856  1645 net.cpp:53] Initializing net from parameters: 
name: "CaffeNet"
state {
  phase: TRAIN
  level: 0
  stage: ""
}
layer {
  name: "data"
  type: "Data"
  top: "data"
  top: "label"
  include {
    phase: TRAIN
  }
  transform_param {
    mirror: true
    crop_size: 227
    mean_file: "data/ilsvrc12/imagenet_mean.binaryproto"
  }
  data_param {
    source: "examples/imagenet/ilsvrc12_train_lmdb"
    batch_size: 256
    backend: LMDB
  }
}
layer {
  name: "conv1"
  type: "Convolution"
  bottom: "data"
  top: "conv1"
  param {
    lr_mult: 1
    decay_mult: 1
  }
  param {
    lr_mult: 2
    decay_mult: 0
  }
  convolution_param {
    num_output: 96
    kernel_size: 11
    stride: 4
    weight_filler {
      type: "gaussian"
      std: 0.01
    }
    bias_filler {
      type: "constant"
      value: 0
    }
  }
}
layer {
  name: "relu1"
  type: "ReLU"
  bottom: "conv1"
  top: "conv1"
}
layer {
  name: "pool1"
  type: "Pooling"
  bottom: "conv1"
  top: "pool1"
  pooling_param {
    pool: MAX
    kernel_size: 3
    stride: 2
  }
}
layer {
  name: "norm1"
  type: "LRN"
  bottom: "pool1"
  top: "norm1"
  lrn_param {
    local_size: 5
    alpha: 0.0001
    beta: 0.75
  }
}
layer {
  name: "conv2"
  type: "Convolution"
  bottom: "norm1"
  top: "conv2"
  param {
    lr_mult: 1
    decay_mult: 1
  }
  param {
    lr_mult: 2
    decay_mult: 0
  }
  convolution_param {
    num_output: 256
    pad: 2
    kernel_size: 5
    group: 2
    weight_filler {
      type: "gaussian"
      std: 0.01
    }
    bias_filler {
      type: "constant"
      value: 1
    }
  }
}
layer {
  name: "relu2"
  type: "ReLU"
  bottom: "conv2"
  top: "conv2"
}
layer {
  name: "pool2"
  type: "Pooling"
  bottom: "conv2"
  top: "pool2"
  pooling_param {
    pool: MAX
    kernel_size: 3
    stride: 2
  }
}
layer {
  name: "norm2"
  type: "LRN"
  bottom: "pool2"
  top: "norm2"
  lrn_param {
    local_size: 5
    alpha: 0.0001
    beta: 0.75
  }
}
layer {
  name: "conv3"
  type: "Convolution"
  bottom: "norm2"
  top: "conv3"
  param {
    lr_mult: 1
    decay_mult: 1
  }
  param {
    lr_mult: 2
    decay_mult: 0
  }
  convolution_param {
    num_output: 384
    pad: 1
    kernel_size: 3
    weight_filler {
      type: "gaussian"
      std: 0.01
    }
    bias_filler {
      type: "constant"
      value: 0
    }
  }
}
layer {
  name: "relu3"
  type: "ReLU"
  bottom: "conv3"
  top: "conv3"
}
layer {
  name: "conv4"
  type: "Convolution"
  bottom: "conv3"
  top: "conv4"
  param {
    lr_mult: 1
    decay_mult: 1
  }
  param {
    lr_mult: 2
    decay_mult: 0
  }
  convolution_param {
    num_output: 384
    pad: 1
    kernel_size: 3
    group: 2
    weight_filler {
      type: "gaussian"
      std: 0.01
    }
    bias_filler {
      type: "constant"
      value: 1
    }
  }
}
layer {
  name: "relu4"
  type: "ReLU"
  bottom: "conv4"
  top: "conv4"
}
layer {
  name: "conv5"
  type: "Convolution"
  bottom: "conv4"
  top: "conv5"
  param {
    lr_mult: 1
    decay_mult: 1
  }
  param {
    lr_mult: 2
    decay_mult: 0
  }
  convolution_param {
    num_output: 256
    pad: 1
    kernel_size: 3
    group: 2
    weight_filler {
      type: "gaussian"
      std: 0.01
    }
    bias_filler {
      type: "constant"
      value: 1
    }
  }
}
layer {
  name: "relu5"
  type: "ReLU"
  bottom: "conv5"
  top: "conv5"
}
layer {
  name: "pool5"
  type: "Pooling"
  bottom: "conv5"
  top: "pool5"
  pooling_param {
    pool: MAX
    kernel_size: 3
    stride: 2
  }
}
layer {
  name: "fc6"
  type: "InnerProduct"
  bottom: "pool5"
  top: "fc6"
  param {
    lr_mult: 1
    decay_mult: 1
  }
  param {
    lr_mult: 2
    decay_mult: 0
  }
  inner_product_param {
    num_output: 4096
    weight_filler {
      type: "gaussian"
      std: 0.005
    }
    bias_filler {
      type: "constant"
      value: 1
    }
  }
}
layer {
  name: "relu6"
  type: "ReLU"
  bottom: "fc6"
  top: "fc6"
}
layer {
  name: "drop6"
  type: "Dropout"
  bottom: "fc6"
  top: "fc6"
  dropout_param {
    dropout_ratio: 0.5
  }
}
layer {
  name: "fc7"
  type: "InnerProduct"
  bottom: "fc6"
  top: "fc7"
  param {
    lr_mult: 1
    decay_mult: 1
  }
  param {
    lr_mult: 2
    decay_mult: 0
  }
  inner_product_param {
    num_output: 4096
    weight_filler {
      type: "gaussian"
      std: 0.005
    }
    bias_filler {
      type: "constant"
      value: 1
    }
  }
}
layer {
  name: "relu7"
  type: "ReLU"
  bottom: "fc7"
  top: "fc7"
}
layer {
  name: "drop7"
  type: "Dropout"
  bottom: "fc7"
  top: "fc7"
  dropout_param {
    dropout_ratio: 0.5
  }
}
layer {
  name: "fc8"
  type: "InnerProduct"
  bottom: "fc7"
  top: "fc8"
  param {
    lr_mult: 1
    decay_mult: 1
  }
  param {
    lr_mult: 2
    decay_mult: 0
  }
  inner_product_param {
    num_output: 1000
    weight_filler {
      type: "gaussian"
      std: 0.01
    }
    bias_filler {
      type: "constant"
      value: 0
    }
  }
}
layer {
  name: "loss"
  type: "SoftmaxWithLoss"
  bottom: "fc8"
  bottom: "label"
  top: "loss"
}
I0228 22:18:16.923990  1645 layer_factory.hpp:77] Creating layer data
I0228 22:18:16.924121  1645 db_lmdb.cpp:35] Opened lmdb examples/imagenet/ilsvrc12_train_lmdb
I0228 22:18:16.981297  1645 net.cpp:86] Creating Layer data
I0228 22:18:16.981351  1645 net.cpp:382] data -> data
I0228 22:18:16.981420  1645 net.cpp:382] data -> label
I0228 22:18:16.981461  1645 data_transformer.cpp:25] Loading mean file from: data/ilsvrc12/imagenet_mean.binaryproto
I0228 22:18:16.986543  1645 data_layer.cpp:45] output data size: 256,3,227,227
I0228 22:18:17.533998  1645 net.cpp:124] Setting up data
I0228 22:18:17.534050  1645 net.cpp:131] Top shape: 256 3 227 227 (39574272)
I0228 22:18:17.534060  1645 net.cpp:131] Top shape: 256 (256)
I0228 22:18:17.534065  1645 net.cpp:139] Memory required for data: 158298112
I0228 22:18:17.534080  1645 layer_factory.hpp:77] Creating layer conv1
I0228 22:18:17.534112  1645 net.cpp:86] Creating Layer conv1
I0228 22:18:17.534123  1645 net.cpp:408] conv1 <- data
I0228 22:18:17.534143  1645 net.cpp:382] conv1 -> conv1
I0228 22:18:19.110004  1645 net.cpp:124] Setting up conv1
I0228 22:18:19.110074  1645 net.cpp:131] Top shape: 256 96 55 55 (74342400)
I0228 22:18:19.110086  1645 net.cpp:139] Memory required for data: 455667712
I0228 22:18:19.110133  1645 layer_factory.hpp:77] Creating layer relu1
I0228 22:18:19.110159  1645 net.cpp:86] Creating Layer relu1
I0228 22:18:19.110172  1645 net.cpp:408] relu1 <- conv1
I0228 22:18:19.110188  1645 net.cpp:369] relu1 -> conv1 (in-place)
I0228 22:18:19.110756  1645 net.cpp:124] Setting up relu1
I0228 22:18:19.110785  1645 net.cpp:131] Top shape: 256 96 55 55 (74342400)
I0228 22:18:19.110795  1645 net.cpp:139] Memory required for data: 753037312
I0228 22:18:19.110805  1645 layer_factory.hpp:77] Creating layer pool1
I0228 22:18:19.110822  1645 net.cpp:86] Creating Layer pool1
I0228 22:18:19.110832  1645 net.cpp:408] pool1 <- conv1
I0228 22:18:19.110847  1645 net.cpp:382] pool1 -> pool1
I0228 22:18:19.110882  1645 net.cpp:124] Setting up pool1
I0228 22:18:19.110898  1645 net.cpp:131] Top shape: 256 96 27 27 (17915904)
I0228 22:18:19.110906  1645 net.cpp:139] Memory required for data: 824700928
I0228 22:18:19.110916  1645 layer_factory.hpp:77] Creating layer norm1
I0228 22:18:19.110939  1645 net.cpp:86] Creating Layer norm1
I0228 22:18:19.110949  1645 net.cpp:408] norm1 <- pool1
I0228 22:18:19.110962  1645 net.cpp:382] norm1 -> norm1
I0228 22:18:19.111279  1645 net.cpp:124] Setting up norm1
I0228 22:18:19.111321  1645 net.cpp:131] Top shape: 256 96 27 27 (17915904)
I0228 22:18:19.111331  1645 net.cpp:139] Memory required for data: 896364544
I0228 22:18:19.111340  1645 layer_factory.hpp:77] Creating layer conv2
I0228 22:18:19.111366  1645 net.cpp:86] Creating Layer conv2
I0228 22:18:19.111377  1645 net.cpp:408] conv2 <- norm1
I0228 22:18:19.111392  1645 net.cpp:382] conv2 -> conv2
I0228 22:18:19.121460  1645 net.cpp:124] Setting up conv2
I0228 22:18:19.121500  1645 net.cpp:131] Top shape: 256 256 27 27 (47775744)
I0228 22:18:19.121510  1645 net.cpp:139] Memory required for data: 1087467520
I0228 22:18:19.121554  1645 layer_factory.hpp:77] Creating layer relu2
I0228 22:18:19.121572  1645 net.cpp:86] Creating Layer relu2
I0228 22:18:19.121594  1645 net.cpp:408] relu2 <- conv2
I0228 22:18:19.121611  1645 net.cpp:369] relu2 -> conv2 (in-place)
I0228 22:18:19.121911  1645 net.cpp:124] Setting up relu2
I0228 22:18:19.121932  1645 net.cpp:131] Top shape: 256 256 27 27 (47775744)
I0228 22:18:19.121939  1645 net.cpp:139] Memory required for data: 1278570496
I0228 22:18:19.121948  1645 layer_factory.hpp:77] Creating layer pool2
I0228 22:18:19.121964  1645 net.cpp:86] Creating Layer pool2
I0228 22:18:19.121973  1645 net.cpp:408] pool2 <- conv2
I0228 22:18:19.121989  1645 net.cpp:382] pool2 -> pool2
I0228 22:18:19.122012  1645 net.cpp:124] Setting up pool2
I0228 22:18:19.122025  1645 net.cpp:131] Top shape: 256 256 13 13 (11075584)
I0228 22:18:19.122032  1645 net.cpp:139] Memory required for data: 1322872832
I0228 22:18:19.122040  1645 layer_factory.hpp:77] Creating layer norm2
I0228 22:18:19.122058  1645 net.cpp:86] Creating Layer norm2
I0228 22:18:19.122067  1645 net.cpp:408] norm2 <- pool2
I0228 22:18:19.122092  1645 net.cpp:382] norm2 -> norm2
I0228 22:18:19.122607  1645 net.cpp:124] Setting up norm2
I0228 22:18:19.122637  1645 net.cpp:131] Top shape: 256 256 13 13 (11075584)
I0228 22:18:19.122647  1645 net.cpp:139] Memory required for data: 1367175168
I0228 22:18:19.122655  1645 layer_factory.hpp:77] Creating layer conv3
I0228 22:18:19.122678  1645 net.cpp:86] Creating Layer conv3
I0228 22:18:19.122689  1645 net.cpp:408] conv3 <- norm2
I0228 22:18:19.122704  1645 net.cpp:382] conv3 -> conv3
I0228 22:18:19.149511  1645 net.cpp:124] Setting up conv3
I0228 22:18:19.149564  1645 net.cpp:131] Top shape: 256 384 13 13 (16613376)
I0228 22:18:19.149572  1645 net.cpp:139] Memory required for data: 1433628672
I0228 22:18:19.149597  1645 layer_factory.hpp:77] Creating layer relu3
I0228 22:18:19.149617  1645 net.cpp:86] Creating Layer relu3
I0228 22:18:19.149627  1645 net.cpp:408] relu3 <- conv3
I0228 22:18:19.149641  1645 net.cpp:369] relu3 -> conv3 (in-place)
I0228 22:18:19.149912  1645 net.cpp:124] Setting up relu3
I0228 22:18:19.149930  1645 net.cpp:131] Top shape: 256 384 13 13 (16613376)
I0228 22:18:19.149938  1645 net.cpp:139] Memory required for data: 1500082176
I0228 22:18:19.149946  1645 layer_factory.hpp:77] Creating layer conv4
I0228 22:18:19.149969  1645 net.cpp:86] Creating Layer conv4
I0228 22:18:19.149978  1645 net.cpp:408] conv4 <- conv3
I0228 22:18:19.149992  1645 net.cpp:382] conv4 -> conv4
I0228 22:18:19.165822  1645 net.cpp:124] Setting up conv4
I0228 22:18:19.165879  1645 net.cpp:131] Top shape: 256 384 13 13 (16613376)
I0228 22:18:19.165886  1645 net.cpp:139] Memory required for data: 1566535680
I0228 22:18:19.165904  1645 layer_factory.hpp:77] Creating layer relu4
I0228 22:18:19.165920  1645 net.cpp:86] Creating Layer relu4
I0228 22:18:19.165930  1645 net.cpp:408] relu4 <- conv4
I0228 22:18:19.165942  1645 net.cpp:369] relu4 -> conv4 (in-place)
I0228 22:18:19.166213  1645 net.cpp:124] Setting up relu4
I0228 22:18:19.166231  1645 net.cpp:131] Top shape: 256 384 13 13 (16613376)
I0228 22:18:19.166239  1645 net.cpp:139] Memory required for data: 1632989184
I0228 22:18:19.166246  1645 layer_factory.hpp:77] Creating layer conv5
I0228 22:18:19.166267  1645 net.cpp:86] Creating Layer conv5
I0228 22:18:19.166276  1645 net.cpp:408] conv5 <- conv4
I0228 22:18:19.166302  1645 net.cpp:382] conv5 -> conv5
I0228 22:18:19.177376  1645 net.cpp:124] Setting up conv5
I0228 22:18:19.177423  1645 net.cpp:131] Top shape: 256 256 13 13 (11075584)
I0228 22:18:19.177431  1645 net.cpp:139] Memory required for data: 1677291520
I0228 22:18:19.177459  1645 layer_factory.hpp:77] Creating layer relu5
I0228 22:18:19.177475  1645 net.cpp:86] Creating Layer relu5
I0228 22:18:19.177484  1645 net.cpp:408] relu5 <- conv5
I0228 22:18:19.177496  1645 net.cpp:369] relu5 -> conv5 (in-place)
I0228 22:18:19.177747  1645 net.cpp:124] Setting up relu5
I0228 22:18:19.177764  1645 net.cpp:131] Top shape: 256 256 13 13 (11075584)
I0228 22:18:19.177772  1645 net.cpp:139] Memory required for data: 1721593856
I0228 22:18:19.177778  1645 layer_factory.hpp:77] Creating layer pool5
I0228 22:18:19.177789  1645 net.cpp:86] Creating Layer pool5
I0228 22:18:19.177798  1645 net.cpp:408] pool5 <- conv5
I0228 22:18:19.177808  1645 net.cpp:382] pool5 -> pool5
I0228 22:18:19.177829  1645 net.cpp:124] Setting up pool5
I0228 22:18:19.177839  1645 net.cpp:131] Top shape: 256 256 6 6 (2359296)
I0228 22:18:19.177845  1645 net.cpp:139] Memory required for data: 1731031040
I0228 22:18:19.177851  1645 layer_factory.hpp:77] Creating layer fc6
I0228 22:18:19.177871  1645 net.cpp:86] Creating Layer fc6
I0228 22:18:19.177880  1645 net.cpp:408] fc6 <- pool5
I0228 22:18:19.177891  1645 net.cpp:382] fc6 -> fc6
I0228 22:18:20.057827  1645 net.cpp:124] Setting up fc6
I0228 22:18:20.057884  1645 net.cpp:131] Top shape: 256 4096 (1048576)
I0228 22:18:20.057891  1645 net.cpp:139] Memory required for data: 1735225344
I0228 22:18:20.057909  1645 layer_factory.hpp:77] Creating layer relu6
I0228 22:18:20.057924  1645 net.cpp:86] Creating Layer relu6
I0228 22:18:20.057930  1645 net.cpp:408] relu6 <- fc6
I0228 22:18:20.057942  1645 net.cpp:369] relu6 -> fc6 (in-place)
I0228 22:18:20.058532  1645 net.cpp:124] Setting up relu6
I0228 22:18:20.058549  1645 net.cpp:131] Top shape: 256 4096 (1048576)
I0228 22:18:20.058554  1645 net.cpp:139] Memory required for data: 1739419648
I0228 22:18:20.058560  1645 layer_factory.hpp:77] Creating layer drop6
I0228 22:18:20.058574  1645 net.cpp:86] Creating Layer drop6
I0228 22:18:20.058580  1645 net.cpp:408] drop6 <- fc6
I0228 22:18:20.058589  1645 net.cpp:369] drop6 -> fc6 (in-place)
I0228 22:18:20.058616  1645 net.cpp:124] Setting up drop6
I0228 22:18:20.058626  1645 net.cpp:131] Top shape: 256 4096 (1048576)
I0228 22:18:20.058632  1645 net.cpp:139] Memory required for data: 1743613952
I0228 22:18:20.058637  1645 layer_factory.hpp:77] Creating layer fc7
I0228 22:18:20.058650  1645 net.cpp:86] Creating Layer fc7
I0228 22:18:20.058655  1645 net.cpp:408] fc7 <- fc6
I0228 22:18:20.058665  1645 net.cpp:382] fc7 -> fc7
I0228 22:18:20.438180  1645 net.cpp:124] Setting up fc7
I0228 22:18:20.438227  1645 net.cpp:131] Top shape: 256 4096 (1048576)
I0228 22:18:20.438235  1645 net.cpp:139] Memory required for data: 1747808256
I0228 22:18:20.438249  1645 layer_factory.hpp:77] Creating layer relu7
I0228 22:18:20.438263  1645 net.cpp:86] Creating Layer relu7
I0228 22:18:20.438271  1645 net.cpp:408] relu7 <- fc7
I0228 22:18:20.438282  1645 net.cpp:369] relu7 -> fc7 (in-place)
I0228 22:18:20.438602  1645 net.cpp:124] Setting up relu7
I0228 22:18:20.438621  1645 net.cpp:131] Top shape: 256 4096 (1048576)
I0228 22:18:20.438626  1645 net.cpp:139] Memory required for data: 1752002560
I0228 22:18:20.438632  1645 layer_factory.hpp:77] Creating layer drop7
I0228 22:18:20.438642  1645 net.cpp:86] Creating Layer drop7
I0228 22:18:20.438648  1645 net.cpp:408] drop7 <- fc7
I0228 22:18:20.438657  1645 net.cpp:369] drop7 -> fc7 (in-place)
I0228 22:18:20.438668  1645 net.cpp:124] Setting up drop7
I0228 22:18:20.438676  1645 net.cpp:131] Top shape: 256 4096 (1048576)
I0228 22:18:20.438681  1645 net.cpp:139] Memory required for data: 1756196864
I0228 22:18:20.438686  1645 layer_factory.hpp:77] Creating layer fc8
I0228 22:18:20.438699  1645 net.cpp:86] Creating Layer fc8
I0228 22:18:20.438705  1645 net.cpp:408] fc8 <- fc7
I0228 22:18:20.438730  1645 net.cpp:382] fc8 -> fc8
I0228 22:18:20.529623  1645 net.cpp:124] Setting up fc8
I0228 22:18:20.529666  1645 net.cpp:131] Top shape: 256 1000 (256000)
I0228 22:18:20.529672  1645 net.cpp:139] Memory required for data: 1757220864
I0228 22:18:20.529687  1645 layer_factory.hpp:77] Creating layer loss
I0228 22:18:20.529706  1645 net.cpp:86] Creating Layer loss
I0228 22:18:20.529713  1645 net.cpp:408] loss <- fc8
I0228 22:18:20.529722  1645 net.cpp:408] loss <- label
I0228 22:18:20.529736  1645 net.cpp:382] loss -> loss
I0228 22:18:20.529759  1645 layer_factory.hpp:77] Creating layer loss
…
I0228 22:18:20.531399  1645 net.cpp:296] The NetState phase (1) differed from the phase (0) specified by a rule in layer data
I0228 22:18:20.531641  1645 net.cpp:53] Initializing net from parameters: 
name: "CaffeNet"
state {
  phase: TEST
}
layer {
  name: "data"
  type: "Data"
  top: "data"
  top: "label"
  include {
    phase: TEST
  }
  transform_param {
    mirror: false
    crop_size: 227
    mean_file: "data/ilsvrc12/imagenet_mean.binaryproto"
  }
  data_param {
    source: "examples/imagenet/ilsvrc12_val_lmdb"
    batch_size: 50
    backend: LMDB
  }
}
layer {
  name: "conv1"
  type: "Convolution"
  bottom: "data"
  top: "conv1"
  param {
    lr_mult: 1
    decay_mult: 1
  }
  param {
    lr_mult: 2
    decay_mult: 0
  }
  convolution_param {
    num_output: 96
    kernel_size: 11
    stride: 4
    weight_filler {
      type: "gaussian"
      std: 0.01
    }
    bias_filler {
      type: "constant"
      value: 0
    }
  }
}
layer {
  name: "relu1"
  type: "ReLU"
  bottom: "conv1"
  top: "conv1"
}
layer {
  name: "pool1"
  type: "Pooling"
  bottom: "conv1"
  top: "pool1"
  pooling_param {
    pool: MAX
    kernel_size: 3
    stride: 2
  }
}
layer {
  name: "norm1"
  type: "LRN"
  bottom: "pool1"
  top: "norm1"
  lrn_param {
    local_size: 5
    alpha: 0.0001
    beta: 0.75
  }
}
layer {
  name: "conv2"
  type: "Convolution"
  bottom: "norm1"
  top: "conv2"
  param {
    lr_mult: 1
    decay_mult: 1
  }
  param {
    lr_mult: 2
    decay_mult: 0
  }
  convolution_param {
    num_output: 256
    pad: 2
    kernel_size: 5
    group: 2
    weight_filler {
      type: "gaussian"
      std: 0.01
    }
    bias_filler {
      type: "constant"
      value: 1
    }
  }
}
layer {
  name: "relu2"
  type: "ReLU"
  bottom: "conv2"
  top: "conv2"
}
layer {
  name: "pool2"
  type: "Pooling"
  bottom: "conv2"
  top: "pool2"
  pooling_param {
    pool: MAX
    kernel_size: 3
    stride: 2
  }
}
layer {
  name: "norm2"
  type: "LRN"
  bottom: "pool2"
  top: "norm2"
  lrn_param {
    local_size: 5
    alpha: 0.0001
    beta: 0.75
  }
}
layer {
  name: "conv3"
  type: "Convolution"
  bottom: "norm2"
  top: "conv3"
  param {
    lr_mult: 1
    decay_mult: 1
  }
  param {
    lr_mult: 2
    decay_mult: 0
  }
  convolution_param {
    num_output: 384
    pad: 1
    kernel_size: 3
    weight_filler {
      type: "gaussian"
      std: 0.01
    }
    bias_filler {
      type: "constant"
      value: 0
    }
  }
}
layer {
  name: "relu3"
  type: "ReLU"
  bottom: "conv3"
  top: "conv3"
}
layer {
  name: "conv4"
  type: "Convolution"
  bottom: "conv3"
  top: "conv4"
  param {
    lr_mult: 1
    decay_mult: 1
  }
  param {
    lr_mult: 2
    decay_mult: 0
  }
  convolution_param {
    num_output: 384
    pad: 1
    kernel_size: 3
    group: 2
    weight_filler {
      type: "gaussian"
      std: 0.01
    }
    bias_filler {
      type: "constant"
      value: 1
    }
  }
}
layer {
  name: "relu4"
  type: "ReLU"
  bottom: "conv4"
  top: "conv4"
}
layer {
  name: "conv5"
  type: "Convolution"
  bottom: "conv4"
  top: "conv5"
  param {
    lr_mult: 1
    decay_mult: 1
  }
  param {
    lr_mult: 2
    decay_mult: 0
  }
  convolution_param {
    num_output: 256
    pad: 1
    kernel_size: 3
    group: 2
    weight_filler {
      type: "gaussian"
      std: 0.01
    }
    bias_filler {
      type: "constant"
      value: 1
    }
  }
}
layer {
  name: "relu5"
  type: "ReLU"
  bottom: "conv5"
  top: "conv5"
}
layer {
  name: "pool5"
  type: "Pooling"
  bottom: "conv5"
  top: "pool5"
  pooling_param {
    pool: MAX
    kernel_size: 3
    stride: 2
  }
}
layer {
  name: "fc6"
  type: "InnerProduct"
  bottom: "pool5"
  top: "fc6"
  param {
    lr_mult: 1
    decay_mult: 1
  }
  param {
    lr_mult: 2
    decay_mult: 0
  }
  inner_product_param {
    num_output: 4096
    weight_filler {
      type: "gaussian"
      std: 0.005
    }
    bias_filler {
      type: "constant"
      value: 1
    }
  }
}
layer {
  name: "relu6"
  type: "ReLU"
  bottom: "fc6"
  top: "fc6"
}
layer {
  name: "drop6"
  type: "Dropout"
  bottom: "fc6"
  top: "fc6"
  dropout_param {
    dropout_ratio: 0.5
  }
}
layer {
  name: "fc7"
  type: "InnerProduct"
  bottom: "fc6"
  top: "fc7"
  param {
    lr_mult: 1
    decay_mult: 1
  }
  param {
    lr_mult: 2
    decay_mult: 0
  }
  inner_product_param {
    num_output: 4096
    weight_filler {
      type: "gaussian"
      std: 0.005
    }
    bias_filler {
      type: "constant"
      value: 1
    }
  }
}
layer {
  name: "relu7"
  type: "ReLU"
  bottom: "fc7"
  top: "fc7"
}
layer {
  name: "drop7"
  type: "Dropout"
  bottom: "fc7"
  top: "fc7"
  dropout_param {
    dropout_ratio: 0.5
  }
}
layer {
  name: "fc8"
  type: "InnerProduct"
  bottom: "fc7"
  top: "fc8"
  param {
    lr_mult: 1
    decay_mult: 1
  }
  param {
    lr_mult: 2
    decay_mult: 0
  }
  inner_product_param {
    num_output: 1000
    weight_filler {
      type: "gaussian"
      std: 0.01
    }
    bias_filler {
      type: "constant"
      value: 0
    }
  }
}
layer {
  name: "accuracy"
  type: "Accuracy"
  bottom: "fc8"
  bottom: "label"
  top: "accuracy"
  include {
    phase: TEST
  }
}
layer {
  name: "loss"
  type: "SoftmaxWithLoss"
  bottom: "fc8"
  bottom: "label"
  top: "loss"
}
I0228 22:18:20.531796  1645 layer_factory.hpp:77] Creating layer data
I0228 22:18:20.531890  1645 db_lmdb.cpp:35] Opened lmdb examples/imagenet/ilsvrc12_val_lmdb
I0228 22:18:20.531924  1645 net.cpp:86] Creating Layer data
I0228 22:18:20.531937  1645 net.cpp:382] data -> data
I0228 22:18:20.531951  1645 net.cpp:382] data -> label
I0228 22:18:20.531965  1645 data_transformer.cpp:25] Loading mean file from: data/ilsvrc12/imagenet_mean.binaryproto
I0228 22:18:20.533669  1645 data_layer.cpp:45] output data size: 50,3,227,227
I0228 22:18:20.772642  1645 net.cpp:124] Setting up data
I0228 22:18:20.772691  1645 net.cpp:131] Top shape: 50 3 227 227 (7729350)
I0228 22:18:20.772698  1645 net.cpp:131] Top shape: 50 (50)
I0228 22:18:20.772704  1645 net.cpp:139] Memory required for data: 30917600
I0228 22:18:20.772714  1645 layer_factory.hpp:77] Creating layer label_data_1_split
I0228 22:18:20.772732  1645 net.cpp:86] Creating Layer label_data_1_split
I0228 22:18:20.772739  1645 net.cpp:408] label_data_1_split <- label
I0228 22:18:20.772752  1645 net.cpp:382] label_data_1_split -> label_data_1_split_0
I0228 22:18:20.772768  1645 net.cpp:382] label_data_1_split -> label_data_1_split_1
I0228 22:18:20.772781  1645 net.cpp:124] Setting up label_data_1_split
I0228 22:18:20.772789  1645 net.cpp:131] Top shape: 50 (50)
I0228 22:18:20.772795  1645 net.cpp:131] Top shape: 50 (50)
I0228 22:18:20.772800  1645 net.cpp:139] Memory required for data: 30918000
I0228 22:18:20.772806  1645 layer_factory.hpp:77] Creating layer conv1
I0228 22:18:20.772824  1645 net.cpp:86] Creating Layer conv1
I0228 22:18:20.772830  1645 net.cpp:408] conv1 <- data
I0228 22:18:20.772840  1645 net.cpp:382] conv1 -> conv1
I0228 22:18:20.774462  1645 net.cpp:124] Setting up conv1
I0228 22:18:20.774482  1645 net.cpp:131] Top shape: 50 96 55 55 (14520000)
I0228 22:18:20.774487  1645 net.cpp:139] Memory required for data: 88998000
I0228 22:18:20.774504  1645 layer_factory.hpp:77] Creating layer relu1
I0228 22:18:20.774514  1645 net.cpp:86] Creating Layer relu1
I0228 22:18:20.774520  1645 net.cpp:408] relu1 <- conv1
I0228 22:18:20.774528  1645 net.cpp:369] relu1 -> conv1 (in-place)
I0228 22:18:20.774724  1645 net.cpp:124] Setting up relu1
I0228 22:18:20.774737  1645 net.cpp:131] Top shape: 50 96 55 55 (14520000)
I0228 22:18:20.774742  1645 net.cpp:139] Memory required for data: 147078000
I0228 22:18:20.774749  1645 layer_factory.hpp:77] Creating layer pool1
I0228 22:18:20.774760  1645 net.cpp:86] Creating Layer pool1
I0228 22:18:20.774766  1645 net.cpp:408] pool1 <- conv1
I0228 22:18:20.774775  1645 net.cpp:382] pool1 -> pool1
I0228 22:18:20.774790  1645 net.cpp:124] Setting up pool1
I0228 22:18:20.774798  1645 net.cpp:131] Top shape: 50 96 27 27 (3499200)
I0228 22:18:20.774803  1645 net.cpp:139] Memory required for data: 161074800
I0228 22:18:20.774808  1645 layer_factory.hpp:77] Creating layer norm1
I0228 22:18:20.774819  1645 net.cpp:86] Creating Layer norm1
I0228 22:18:20.774824  1645 net.cpp:408] norm1 <- pool1
I0228 22:18:20.774832  1645 net.cpp:382] norm1 -> norm1
I0228 22:18:20.775179  1645 net.cpp:124] Setting up norm1
I0228 22:18:20.775195  1645 net.cpp:131] Top shape: 50 96 27 27 (3499200)
I0228 22:18:20.775202  1645 net.cpp:139] Memory required for data: 175071600
I0228 22:18:20.775207  1645 layer_factory.hpp:77] Creating layer conv2
I0228 22:18:20.775220  1645 net.cpp:86] Creating Layer conv2
I0228 22:18:20.775226  1645 net.cpp:408] conv2 <- norm1
I0228 22:18:20.775238  1645 net.cpp:382] conv2 -> conv2
I0228 22:18:20.781787  1645 net.cpp:124] Setting up conv2
I0228 22:18:20.781836  1645 net.cpp:131] Top shape: 50 256 27 27 (9331200)
I0228 22:18:20.781841  1645 net.cpp:139] Memory required for data: 212396400
I0228 22:18:20.781862  1645 layer_factory.hpp:77] Creating layer relu2
I0228 22:18:20.781877  1645 net.cpp:86] Creating Layer relu2
I0228 22:18:20.781885  1645 net.cpp:408] relu2 <- conv2
I0228 22:18:20.781896  1645 net.cpp:369] relu2 -> conv2 (in-place)
I0228 22:18:20.782284  1645 net.cpp:124] Setting up relu2
I0228 22:18:20.782299  1645 net.cpp:131] Top shape: 50 256 27 27 (9331200)
I0228 22:18:20.782316  1645 net.cpp:139] Memory required for data: 249721200
I0228 22:18:20.782335  1645 layer_factory.hpp:77] Creating layer pool2
I0228 22:18:20.782348  1645 net.cpp:86] Creating Layer pool2
I0228 22:18:20.782356  1645 net.cpp:408] pool2 <- conv2
I0228 22:18:20.782366  1645 net.cpp:382] pool2 -> pool2
I0228 22:18:20.782384  1645 net.cpp:124] Setting up pool2
I0228 22:18:20.782394  1645 net.cpp:131] Top shape: 50 256 13 13 (2163200)
I0228 22:18:20.782413  1645 net.cpp:139] Memory required for data: 258374000
I0228 22:18:20.782419  1645 layer_factory.hpp:77] Creating layer norm2
I0228 22:18:20.782433  1645 net.cpp:86] Creating Layer norm2
I0228 22:18:20.782439  1645 net.cpp:408] norm2 <- pool2
I0228 22:18:20.782447  1645 net.cpp:382] norm2 -> norm2
I0228 22:18:20.782661  1645 net.cpp:124] Setting up norm2
I0228 22:18:20.782675  1645 net.cpp:131] Top shape: 50 256 13 13 (2163200)
I0228 22:18:20.782680  1645 net.cpp:139] Memory required for data: 267026800
I0228 22:18:20.782686  1645 layer_factory.hpp:77] Creating layer conv3
I0228 22:18:20.782706  1645 net.cpp:86] Creating Layer conv3
I0228 22:18:20.782711  1645 net.cpp:408] conv3 <- norm2
I0228 22:18:20.782723  1645 net.cpp:382] conv3 -> conv3
I0228 22:18:20.801257  1645 net.cpp:124] Setting up conv3
I0228 22:18:20.801306  1645 net.cpp:131] Top shape: 50 384 13 13 (3244800)
I0228 22:18:20.801311  1645 net.cpp:139] Memory required for data: 280006000
I0228 22:18:20.801333  1645 layer_factory.hpp:77] Creating layer relu3
I0228 22:18:20.801348  1645 net.cpp:86] Creating Layer relu3
I0228 22:18:20.801357  1645 net.cpp:408] relu3 <- conv3
I0228 22:18:20.801368  1645 net.cpp:369] relu3 -> conv3 (in-place)
I0228 22:18:20.801745  1645 net.cpp:124] Setting up relu3
I0228 22:18:20.801762  1645 net.cpp:131] Top shape: 50 384 13 13 (3244800)
I0228 22:18:20.801769  1645 net.cpp:139] Memory required for data: 292985200
I0228 22:18:20.801775  1645 layer_factory.hpp:77] Creating layer conv4
I0228 22:18:20.801792  1645 net.cpp:86] Creating Layer conv4
I0228 22:18:20.801800  1645 net.cpp:408] conv4 <- conv3
I0228 22:18:20.801810  1645 net.cpp:382] conv4 -> conv4
I0228 22:18:20.817910  1645 net.cpp:124] Setting up conv4
I0228 22:18:20.817958  1645 net.cpp:131] Top shape: 50 384 13 13 (3244800)
I0228 22:18:20.817965  1645 net.cpp:139] Memory required for data: 305964400
I0228 22:18:20.817980  1645 layer_factory.hpp:77] Creating layer relu4
I0228 22:18:20.817994  1645 net.cpp:86] Creating Layer relu4
I0228 22:18:20.818001  1645 net.cpp:408] relu4 <- conv4
I0228 22:18:20.818012  1645 net.cpp:369] relu4 -> conv4 (in-place)
I0228 22:18:20.818392  1645 net.cpp:124] Setting up relu4
I0228 22:18:20.818418  1645 net.cpp:131] Top shape: 50 384 13 13 (3244800)
I0228 22:18:20.818424  1645 net.cpp:139] Memory required for data: 318943600
I0228 22:18:20.818430  1645 layer_factory.hpp:77] Creating layer conv5
I0228 22:18:20.818455  1645 net.cpp:86] Creating Layer conv5
I0228 22:18:20.818464  1645 net.cpp:408] conv5 <- conv4
I0228 22:18:20.818475  1645 net.cpp:382] conv5 -> conv5
I0228 22:18:20.827473  1645 net.cpp:124] Setting up conv5
I0228 22:18:20.827522  1645 net.cpp:131] Top shape: 50 256 13 13 (2163200)
I0228 22:18:20.827528  1645 net.cpp:139] Memory required for data: 327596400
I0228 22:18:20.827553  1645 layer_factory.hpp:77] Creating layer relu5
I0228 22:18:20.827569  1645 net.cpp:86] Creating Layer relu5
I0228 22:18:20.827576  1645 net.cpp:408] relu5 <- conv5
I0228 22:18:20.827589  1645 net.cpp:369] relu5 -> conv5 (in-place)
I0228 22:18:20.827810  1645 net.cpp:124] Setting up relu5
I0228 22:18:20.827823  1645 net.cpp:131] Top shape: 50 256 13 13 (2163200)
I0228 22:18:20.827828  1645 net.cpp:139] Memory required for data: 336249200
I0228 22:18:20.827834  1645 layer_factory.hpp:77] Creating layer pool5
I0228 22:18:20.827850  1645 net.cpp:86] Creating Layer pool5
I0228 22:18:20.827857  1645 net.cpp:408] pool5 <- conv5
I0228 22:18:20.827867  1645 net.cpp:382] pool5 -> pool5
I0228 22:18:20.827883  1645 net.cpp:124] Setting up pool5
I0228 22:18:20.827890  1645 net.cpp:131] Top shape: 50 256 6 6 (460800)
I0228 22:18:20.827917  1645 net.cpp:139] Memory required for data: 338092400
I0228 22:18:20.827924  1645 layer_factory.hpp:77] Creating layer fc6
I0228 22:18:20.827939  1645 net.cpp:86] Creating Layer fc6
I0228 22:18:20.827945  1645 net.cpp:408] fc6 <- pool5
I0228 22:18:20.827955  1645 net.cpp:382] fc6 -> fc6
I0228 22:18:21.684054  1645 net.cpp:124] Setting up fc6
I0228 22:18:21.684105  1645 net.cpp:131] Top shape: 50 4096 (204800)
I0228 22:18:21.684111  1645 net.cpp:139] Memory required for data: 338911600
I0228 22:18:21.684134  1645 layer_factory.hpp:77] Creating layer relu6
I0228 22:18:21.684147  1645 net.cpp:86] Creating Layer relu6
I0228 22:18:21.684155  1645 net.cpp:408] relu6 <- fc6
I0228 22:18:21.684170  1645 net.cpp:369] relu6 -> fc6 (in-place)
I0228 22:18:21.684756  1645 net.cpp:124] Setting up relu6
I0228 22:18:21.684772  1645 net.cpp:131] Top shape: 50 4096 (204800)
I0228 22:18:21.684777  1645 net.cpp:139] Memory required for data: 339730800
I0228 22:18:21.684782  1645 layer_factory.hpp:77] Creating layer drop6
I0228 22:18:21.684795  1645 net.cpp:86] Creating Layer drop6
I0228 22:18:21.684803  1645 net.cpp:408] drop6 <- fc6
I0228 22:18:21.684810  1645 net.cpp:369] drop6 -> fc6 (in-place)
I0228 22:18:21.684823  1645 net.cpp:124] Setting up drop6
I0228 22:18:21.684830  1645 net.cpp:131] Top shape: 50 4096 (204800)
I0228 22:18:21.684835  1645 net.cpp:139] Memory required for data: 340550000
I0228 22:18:21.684840  1645 layer_factory.hpp:77] Creating layer fc7
I0228 22:18:21.684851  1645 net.cpp:86] Creating Layer fc7
I0228 22:18:21.684857  1645 net.cpp:408] fc7 <- fc6
I0228 22:18:21.684869  1645 net.cpp:382] fc7 -> fc7
I0228 22:18:22.064034  1645 net.cpp:124] Setting up fc7
I0228 22:18:22.064085  1645 net.cpp:131] Top shape: 50 4096 (204800)
I0228 22:18:22.064090  1645 net.cpp:139] Memory required for data: 341369200
I0228 22:18:22.064105  1645 layer_factory.hpp:77] Creating layer relu7
I0228 22:18:22.064119  1645 net.cpp:86] Creating Layer relu7
I0228 22:18:22.064127  1645 net.cpp:408] relu7 <- fc7
I0228 22:18:22.064138  1645 net.cpp:369] relu7 -> fc7 (in-place)
I0228 22:18:22.064481  1645 net.cpp:124] Setting up relu7
I0228 22:18:22.064496  1645 net.cpp:131] Top shape: 50 4096 (204800)
I0228 22:18:22.064501  1645 net.cpp:139] Memory required for data: 342188400
I0228 22:18:22.064507  1645 layer_factory.hpp:77] Creating layer drop7
I0228 22:18:22.064517  1645 net.cpp:86] Creating Layer drop7
I0228 22:18:22.064524  1645 net.cpp:408] drop7 <- fc7
I0228 22:18:22.064534  1645 net.cpp:369] drop7 -> fc7 (in-place)
I0228 22:18:22.064546  1645 net.cpp:124] Setting up drop7
I0228 22:18:22.064554  1645 net.cpp:131] Top shape: 50 4096 (204800)
I0228 22:18:22.064559  1645 net.cpp:139] Memory required for data: 343007600
I0228 22:18:22.064564  1645 layer_factory.hpp:77] Creating layer fc8
I0228 22:18:22.064575  1645 net.cpp:86] Creating Layer fc8
I0228 22:18:22.064581  1645 net.cpp:408] fc8 <- fc7
I0228 22:18:22.064592  1645 net.cpp:382] fc8 -> fc8
I0228 22:18:22.154999  1645 net.cpp:124] Setting up fc8
I0228 22:18:22.155035  1645 net.cpp:131] Top shape: 50 1000 (50000)
I0228 22:18:22.155040  1645 net.cpp:139] Memory required for data: 343207600
I0228 22:18:22.155056  1645 layer_factory.hpp:77] Creating layer fc8_fc8_0_split
I0228 22:18:22.155071  1645 net.cpp:86] Creating Layer fc8_fc8_0_split
I0228 22:18:22.155077  1645 net.cpp:408] fc8_fc8_0_split <- fc8
I0228 22:18:22.155091  1645 net.cpp:382] fc8_fc8_0_split -> fc8_fc8_0_split_0
I0228 22:18:22.155107  1645 net.cpp:382] fc8_fc8_0_split -> fc8_fc8_0_split_1
I0228 22:18:22.155118  1645 net.cpp:124] Setting up fc8_fc8_0_split
I0228 22:18:22.155125  1645 net.cpp:131] Top shape: 50 1000 (50000)
I0228 22:18:22.155133  1645 net.cpp:131] Top shape: 50 1000 (50000)
I0228 22:18:22.155138  1645 net.cpp:139] Memory required for data: 343607600
I0228 22:18:22.155143  1645 layer_factory.hpp:77] Creating layer accuracy
I0228 22:18:22.155155  1645 net.cpp:86] Creating Layer accuracy
I0228 22:18:22.155161  1645 net.cpp:408] accuracy <- fc8_fc8_0_split_0
I0228 22:18:22.155179  1645 net.cpp:408] accuracy <- label_data_1_split_0
I0228 22:18:22.155203  1645 net.cpp:382] accuracy -> accuracy
…
